Oversteek Simulator/Learning/results/Oversteek-K-02/BadCar.onnx (onnx, 90288 bytes, 6 tensors)

action_model._discrete_distribution.branches.0.bias f4 [3]
0	0xbdb23156	-0.08700816
1	0xbe075742	-0.1321688
2	0x3e115fd9	0.14196719

action_model._discrete_distribution.branches.0.weight f4 [3, 128]
0	0x3cdf4e1a	0.027258921
1	0x3c42b14f	0.011883094
2	0xbcc51f55	-0.024062792
3	0x3ca3fdef	0.020018546
4	0x3a44474e	0.0007487432
5	0x3d16aa54	0.03678353
6	0x3d16c86d	0.036812235
7	0x387a53d0	5.96827e-05
8	0x3c836b94	0.016042508
9	0xbc0c44c8	-0.008561321
10	0xbc00eaed	-0.007868511
11	0x3c78a0b0	0.01517503
12	0x3b1a03ae	0.0023500728
13	0xbd3002d5	-0.04297145
14	0x3c6202c9	0.013794609
15	0x3c07b98e	0.008283986
16	0xbc593dd6	-0.013259372
17	0x3d3207d2	0.04346449
18	0x3d81b5d6	0.063335106
19	0x3d293d0e	0.041317992
20	0x3c865a34	0.016400434
21	0x3d1c6d2d	0.038190056
22	0xbcaefb8e	-0.021360185
23	0xb998ba20	-0.00029130373
24	0x3c6485c3	0.013947907
25	0x3c93c62e	0.018038835
26	0x3d2d5656	0.042318664
27	0x3d10b5b1	0.035329524
28	0x3d200dfe	0.039075844
29	0x3cec4adc	0.02884429
30	0xbd567fa2	-0.052367814
31	0x3cf87dfc	0.030333512
32	0x3d9d117f	0.07669353
33	0x3d0d7596	0.034535967
34	0x3d29e0e7	0.04147425
35	0x3d0373bb	0.03209279
36	0x3cc8192b	0.024426064
37	0x3c4c48f3	0.012468564
38	0xbd8051b7	-0.06265586
39	0x3d254e0c	0.040357634
40	0x3c9a6495	0.01884679
41	0x3cb10a0d	0.021611238
42	0x3caf0dc8	0.021368876
43	0x3c6d7448	0.014493056
44	0x3cb1ff21	0.0217281
45	0x3cf51863	0.029918855
46	0x3c01955c	0.007909145
47	0xbd287d49	-0.041135106
48	0xbb2f8d09	-0.0026786944
49	0x3ce5b063	0.02803821
50	0x3a966955	0.0011475483
51	0x3c9135fd	0.017725939
52	0x3c4a53b2	0.012349056
53	0x3ba8fdb6	0.005157198
54	0xbd55d2bb	-0.05220292
55	0x3cff0c43	0.031133777
56	0xbbfe5072	-0.0077610547
57	0x3cd4e01b	0.025985768
58	0x3c8375bf	0.016047357
59	0x3ccafb5a	0.024778057
60	0x3d3624e2	0.044468768
61	0x3d30edac	0.04319541
62	0x3d73d863	0.059532534
63	0xbd200819	-0.039070223
64	0x3d1b149a	0.037861444
65	0x3d02acd4	0.031903103
66	0x3cdd72d7	0.027032299
67	0x3cf060c6	0.02934302
68	0x3cd50fec	0.026008569
69	0x3b5c7142	0.0033636843
70	0x3ca7e8b2	0.0204967
71	0xbd3f56d0	-0.04671365
72	0x3c8b808f	0.017029075
73	0xbdd307b0	-0.10304201
74	0x3caa23e3	0.020769065
75	0x3b93d9b5	0.0045120367
76	0x3d43949c	0.047749147
77	0x3cf10f05	0.029426107
78	0x3cea4d34	0.028601266
79	0x3b00669e	0.0019592415
80	0xbd181205	-0.03712656
81	0xbccc477e	-0.024936434
82	0x3d01e99e	0.031716935
83	0x3d5852b8	0.05281326
84	0xbd5ae122	-0.05343736
85	0x3d5bcbaa	0.053661026
86	0xbd20afee	-0.03923028
87	0x3c31b6b6	0.010846784
88	0xbd2f5dfb	-0.042814236
89	0x3b9f7efc	0.0048674326
90	0x3d1dfdcc	0.038572118
91	0x3c27f293	0.010250705
92	0x3d40d3d0	0.047077
93	0x3da6a0b7	0.08136123
94	0x3d0251b2	0.031816192
95	0xbda302e3	-0.07959535
96	0xbd5b4f90	-0.053542674
97	0x3d536c85	0.051617164
98	0x3d0054c6	0.031330846
99	0x3ce760bd	0.02824437
100	0x3d46f82e	0.048576526
101	0x3bfc7cc6	0.007705304
102	0x3c79f588	0.015256293
103	0x3d275eae	0.040861778
104	0xbd72845c	-0.05920826
105	0x3cae8004	0.021301277
106	0x3c997a0b	0.018734952
107	0x3cee27c5	0.029071698
108	0x3cb52c72	0.02211592
109	0x3cc51847	0.024059428
110	0xbd28d08f	-0.041214522
111	0x3d187e36	0.03722974
112	0xbd43f440	-0.047840357
113	0x3c4bd1c4	0.012440149
114	0xbd0ae639	-0.033910964
115	0x3d4bbfd2	0.04974348
116	0x3d71d9ea	0.05904571
117	0xba848c96	-0.0010112699
118	0x3cccb8d0	0.02499047
119	0x38ab5adc	8.170839e-05
120	0x3c2369fe	0.009974001
121	0x3d000237	0.031252112
122	0x3c9ac143	0.018890982
123	0x3d011656	0.03151544
124	0x3d2f57fb	0.042808514
125	0xbd7b4b77	-0.061351266
126	0x3d21464b	0.039373677
127	0x3d684134	0.056702808
128	0xbd4da6b9	-0.050207827
129	0xbdd1a699	-0.10236854
130	0xbc773819	-0.015089058
131	0x3d660e06	0.056165718
132	0x3d05edd1	0.032697503
133	0xbdb12ebf	-0.08651494
134	0xbe43d290	-0.19123292
135	0x3d3fceec	0.046828195
136	0xbdc8b90f	-0.09800922
137	0x3d5bc897	0.053658094
138	0xbc1f9b45	-0.009741609
139	0xbd2cf9ce	-0.04223042
140	0xbdd7d1ef	-0.105380885
141	0x3cf019fa	0.029309262
142	0xbc82b691	-0.015956195
143	0x3ca76be2	0.020437185
144	0x3cfb1cc4	0.030653365
145	0xbde32464	-0.11090925
146	0xbe46e057	-0.19421516
147	0xbdaa2c42	-0.08309223
148	0x3d4a67f6	0.04941555
149	0xbcd8bd66	-0.0264575
150	0x3d057f8f	0.032592352
151	0x3d030a0c	0.031992003
152	0xbda32735	-0.079664625
153	0xbdc2c389	-0.095099516
154	0xbe048abc	-0.12943548
155	0xbc95437d	-0.018220657
156	0xbdaca608	-0.084301054
157	0x3d26a9dc	0.040689334
158	0x3b63c7f1	0.0034756626
159	0xbdc0e8d4	-0.094194084
160	0xbda49ec3	-0.08038094
161	0xbcbf86d5	-0.023379723
162	0xbdd50800	-0.104019165
163	0xbdc04aad	-0.09389243
164	0xbd27f715	-0.04100712
165	0xbdbbdb05	-0.09172634
166	0xbca61f69	-0.02027865
167	0xbd8b33cc	-0.06796989
168	0x3d3829ed	0.04496186
169	0xbad5b689	-0.001630501
170	0xbdc9e60d	-0.09858332
171	0xbc1f64b0	-0.009728596
172	0x3a14ffb7	0.00056838564
173	0xbd875454	-0.06607881
174	0xbda1cdcb	-0.0790058
175	0xbc067095	-0.008205553
176	0x3d370a54	0.044687584
177	0x3c7cdc68	0.015433408
178	0x3d184527	0.037175324
179	0xbd7d8003	-0.06188966
180	0xbcd05d6f	-0.025435178
181	0x3bfd15eb	0.00772356
182	0x3b91ca7b	0.0044491864
183	0xbb91ad3e	-0.004445701
184	0x3d4019c9	0.04689959
185	0xbd86fa4c	-0.06590709
186	0xbd8d8da4	-0.069117814
187	0xbdc620fb	-0.09674259
188	0xbd8e9976	-0.06962864
189	0xbe27758d	-0.16353436
190	0xbcfdf960	-0.0310027
191	0x3b7fb443	0.0039017356
192	0xbcde921a	-0.027169276
193	0xbd189f70	-0.037261426
194	0xbd05ca87	-0.03266385
195	0xbcd39746	-0.025828969
196	0xbde7089e	-0.112809405
197	0x3d27dc77	0.040981736
198	0x3ab3d3d4	0.0013719746
199	0x3bef7cf3	0.0073085963
200	0xbd328877	-0.043587174
201	0x3bdf825a	0.006820959
202	0xbd7601c3	-0.060060274
203	0xbc9f6aff	-0.0194602
204	0xbe083776	-0.13302407
205	0xbdd0d191	-0.101962216
206	0xbd3e3375	-0.046435792
207	0x3ca99bc2	0.020704154
208	0x3b8d9da2	0.00432177
209	0x3cf33e46	0.02969278
210	0xbd619fa9	-0.055083904
211	0xbe082b60	-0.13297796
212	0x3d5e2d0f	0.05424219
213	0xbda10bc0	-0.07863569
214	0xbca6563b	-0.02030479
215	0x3cb9f95e	0.022701915
216	0x3ca1c300	0.019746304
217	0x3d2c8056	0.04211458
218	0xbd9f4e49	-0.077786036
219	0xbde1e108	-0.110292494
220	0xbd36f5dd	-0.044668067
221	0xbde15bef	-0.11003863
222	0xbd53c138	-0.05169794
223	0x3c172dd7	0.009227238
224	0x3d487121	0.048936013
225	0xbcfcd5ab	-0.030863604
226	0xbd943c23	-0.07238033
227	0x3ccdda1f	0.025128422
228	0xbe164a5e	-0.14676806
229	0xbcb40292	-0.021973882
230	0x3b8ac42d	0.0042348118
231	0xbd87bbca	-0.06627615
232	0x3bab95fd	0.005236386
233	0xbd89ef42	-0.06735088
234	0xbcc4ea36	-0.024037462
235	0xbddb5ff8	-0.10711664
236	0x3bf660df	0.007518872
237	0xbe2bcec2	-0.1677809
238	0x3cd7bfab	0.026336512
239	0xbd15e1e1	-0.036592368
240	0x3c036ffc	0.008022305
241	0xbd467695	-0.048452932
242	0x3d510329	0.051028404
243	0xbdf34b66	-0.118796155
244	0xbcb775d6	-0.022395056
245	0xbb9baa7e	-0.004750549
246	0xbdd585e9	-0.10425932
247	0x3d1e5e75	0.0386643
248	0xbd330dbf	-0.04371428
249	0xbc5dd2cb	-0.0135390265
250	0xbdc55e5c	-0.09637138
251	0xbcd5a6fa	-0.026080597
252	0xbdf48bc1	-0.119407184
253	0x3c53c7e6	0.0129260775
254	0xbd991bdc	-0.07476017
255	0xbe2dd66d	-0.16976328

network_body.linear_encoder.seq_layers.0.bias f4 [128]
0	0xbda0e949	-0.078569956
1	0x3d24fd80	0.04028082
2	0xbc963130	-0.018334001
3	0xbbf369bb	-0.0074283755
4	0xbe051c86	-0.12999162
5	0xbde1bb4a	-0.11022051
6	0xbda88aed	-0.08229623
7	0xbdfc055c	-0.1230571
8	0xbdae3e74	-0.08508006
9	0xbe140bb5	-0.14457591
10	0xbda073b1	-0.078345664
11	0xbe7691bb	-0.2407903
12	0xbdfe3102	-0.12411691
13	0xbe1458c7	-0.14486991
14	0xbd21a828	-0.039467007
15	0xbdcf6161	-0.101259954
16	0xbd94f51a	-0.07273312
17	0x3c4af2b7	0.012386969
18	0xbdbb4886	-0.09144692
19	0xbd41f2ff	-0.04735088
20	0xbdd2de63	-0.10296323
21	0xbd3f7f91	-0.046752516
22	0x3c81cd0b	0.015844842
23	0xbcd99435	-0.026559928
24	0xbc8769ad	-0.016529882
25	0xbd853799	-0.06504745
26	0x3cd773e9	0.026300387
27	0xbd5665d7	-0.052343216
28	0xbe17a36c	-0.14808434
29	0xbd5fdac7	-0.054652
30	0x3d0c89c7	0.034311082
31	0xbd83939d	-0.064246394
32	0xbe326e3e	-0.17424867
33	0xbd8ac6a4	-0.06776169
34	0x3c03feab	0.008056323
35	0xbdd282a4	-0.10278824
36	0xbd9d1589	-0.07670123
37	0xbdc17185	-0.0944548
38	0xbdfc64c4	-0.12323907
39	0xbdbf1db9	-0.09331841
40	0xbd9dc762	-0.07704045
41	0xbcd7ae25	-0.026328156
42	0xbdd016bd	-0.10160587
43	0xbc305c25	-0.0107641565
44	0xbe448053	-0.19189577
45	0xbd118776	-0.035529576
46	0xbe0ff74e	-0.14059183
47	0xbd3e6037	-0.046478476
48	0x3d0f2156	0.0349439
49	0xbba4f0b5	-0.0050335773
50	0xbceade8e	-0.028670575
51	0xbda578b1	-0.08079661
52	0xbdec5af7	-0.11540788
53	0xbbe195da	-0.006884319
54	0xbdead07b	-0.11465546
55	0xbb59e021	-0.0033245164
56	0xbe01637d	-0.12635608
57	0xbdb0b3f5	-0.08628074
58	0xbdb3071c	-0.087415904
59	0xbe46134a	-0.19343296
60	0xbc193e3d	-0.009353218
61	0xbe326bba	-0.17423907
62	0xbdc700ef	-0.09716975
63	0xbe072f91	-0.13201739
64	0xbe069ac9	-0.13144983
65	0xbe41defa	-0.18932715
66	0xbdeaabfc	-0.11458585
67	0xbe0331af	-0.12811922
68	0xbd825187	-0.06363206
69	0xbda91d6b	-0.08257564
70	0xbda1fd1d	-0.07909606
71	0xbdb1982c	-0.086716026
72	0xbe08a114	-0.13342696
73	0xbcd70a22	-0.026249949
74	0xbc843b0b	-0.016141435
75	0xbcb47600	-0.022028923
76	0xbd86b7d0	-0.06578028
77	0xbce46c16	-0.02788357
78	0xbd048684	-0.032354847
79	0xbe0fe148	-0.14050782
80	0x3cfc02c4	0.030763038
81	0xbc85c445	-0.01632894
82	0xbe121eed	-0.1426961
83	0xbe0d2b2f	-0.13786004
84	0xbddd9c1c	-0.10820791
85	0xbde9796e	-0.11400114
86	0xbebf9ea6	-0.37425727
87	0xbc8441b0	-0.016144603
88	0x3d21cf07	0.039504077
89	0xbd3742e4	-0.044741526
90	0xbd581c94	-0.05276163
91	0xbdba8c67	-0.09108811
92	0xbd4f9fed	-0.050689626
93	0xbc8777fb	-0.016536703
94	0xbdfaa7ff	-0.12239074
95	0xbdb11d77	-0.08648198
96	0xbd87b45a	-0.06626196
97	0xbdeda5ba	-0.116038755
98	0xbce1fa95	-0.027585307
99	0xbd791a77	-0.060816254
100	0xbe5f9840	-0.21835423
101	0xbe12b539	-0.14326943
102	0xbcf8532c	-0.030313097
103	0xbdc04b2c	-0.09389338
104	0xbd440e06	-0.047864936
105	0xbd0f734d	-0.03502207
106	0xbe5a3911	-0.21310832
107	0xbe00b27b	-0.12568085
108	0xbe920780	-0.28521347
109	0xbddfedc5	-0.10934023
110	0xbe41d168	-0.18927538
111	0xbd989b0e	-0.07451449
112	0xbdc29237	-0.095005445
113	0xbea62165	-0.32447353
114	0xbd4f275e	-0.050574653
115	0xba1c9e14	-0.0005974483
116	0xbe00705f	-0.12542866
117	0xbcf3649a	-0.029711057
118	0x3d0b5fdc	0.034026965
119	0xbe70afab	-0.23504512
120	0xbe562223	-0.2091146
121	0xbe1fe41c	-0.1561436
122	0xbdbf8c4b	-0.09352931
123	0x3b97370f	0.004614718
124	0xbdabe1c8	-0.08392674
125	0xbd2440ba	-0.04010079
126	0xbc1e2255	-0.00965174
127	0xbe05edcb	-0.13078992

network_body.linear_encoder.seq_layers.0.weight f4 [128, 39]
0	0xbeebf62e	-0.46086258
1	0x3eb77378	0.35830283
2	0xbe1a0824	-0.15042168
3	0x3daa4313	0.08313575
4	0xbe2957fc	-0.1653747
5	0xbd90805e	-0.07055734
6	0x3ad6f868	0.0016400935
7	0x3e22b71a	0.1589016
8	0x3cd62e99	0.026145266
9	0xbeb42e4f	-0.3519158
10	0xbd896540	-0.06708765
11	0xbdfde968	-0.12398034
12	0xbe133428	-0.14375365
13	0xbd56cffb	-0.05244444
14	0xbe918b45	-0.28426567
15	0x3e16db57	0.14732109
16	0xbed94555	-0.4243571
17	0x3b13b4de	0.0022538225
18	0x3e6f0ffc	0.23345941
19	0xbed54a62	-0.41658312
20	0x3d0229b9	0.03177807
21	0xbe8c314a	-0.27381355
22	0xbea6fadd	-0.32613268
23	0x3bd693a6	0.006548363
24	0xbdbdccad	-0.092675544
25	0x3d401dbb	0.046903353
26	0x3da13da5	0.07873086
27	0xbd78834b	-0.060672086
28	0x3d80405b	0.06262275
29	0xbe46330f	-0.19355415
30	0x3e374e74	0.17901021
31	0x3cb6b283	0.022301918
32	0x3e6a2b5f	0.22868107
33	0x3ea97910	0.33100176
34	0x3e174341	0.14771749
35	0xbe2ab9df	-0.16672467
36	0xbe834e4b	-0.2564567
37	0xbd08ca00	-0.033395767
38	0x3df41733	0.119184874
39	0xbe20f997	-0.15720211
40	0x3e7c3919	0.24631156
41	0x3c2590ee	0.010105355
42	0xbd3bf557	-0.04588827
43	0x3df8aa69	0.12141878
44	0x3d4397de	0.047752254
45	0x3daa0f86	0.08303742
46	0x3d1588dd	0.036507476
47	0xbe84e3eb	-0.25955138
48	0xbe489b02	-0.19590381
49	0x3e016b22	0.12638524
50	0x3c85af48	0.016318932
51	0xbe4cbd26	-0.1999403
52	0xbd025a3a	-0.031824328
53	0xbe4aa6e8	-0.19790232
54	0x3e07b4bf	0.13252543
55	0xbdaeea3f	-0.08540773
56	0xbe2f1fdc	-0.17101997
57	0x3dfe9ad3	0.12431874
58	0xbd6c4f19	-0.05769262
59	0x3e2b0fd1	0.16705252
60	0x3e6d373b	0.231656
61	0xbe5c25c8	-0.21498787
62	0xbbd5ae29	-0.0065210056
63	0x3d17b4bc	0.037037596
64	0x3e7a88bd	0.24466224
65	0x3e9154b2	0.2838493
66	0x3e3f8f1a	0.18706933
67	0x3e459bd4	0.19297725
68	0x3d57da2b	0.052698296
69	0x3e8583dd	0.26077166
70	0xbd7b8eb1	-0.061415378
71	0xbd47a6b6	-0.048742972
72	0xbeb0190a	-0.34394103
73	0x3d953df0	0.07287204
74	0xbe8280f0	-0.25488997
75	0x3e90b716	0.28264683
76	0xbd98eb39	-0.0746674
77	0x3e573956	0.21017966
78	0x3bb873dc	0.005629046
79	0x3e145ed6	0.14489302
80	0xbe8e4df0	-0.27793837
81	0xbe2e7f69	-0.1704079
82	0x3d8c70a3	0.06857421
83	0x3cae8cec	0.021307431
84	0x3e7431e4	0.23847157
85	0xbcc8d886	-0.024517309
86	0x3b70696e	0.0036683935
87	0xbcc83672	-0.024440024
88	0xbd9e239e	-0.07721637
89	0x3e129287	0.14313708
90	0xbe5ea810	-0.21743798
91	0xbe383f09	-0.17992796
92	0x3e030c9c	0.12797779
93	0x3c8e8f2e	0.017402258
94	0xbeb7a064	-0.35864556
95	0xbcf79923	-0.030224388
96	0xbd474746	-0.048651956
97	0xbdb24bc7	-0.0870586
98	0xbd99b9e9	-0.07506163
99	0xbd8f313f	-0.06991815
100	0xbe2dd79a	-0.16976777
101	0xbe6576c1	-0.22408582
102	0xbe43d1ad	-0.19122954
103	0xbcf247be	-0.029575225
104	0xbc22e97b	-0.009943361
105	0xbcc96b37	-0.024587257
106	0x3e553d41	0.20824148
107	0x3e93ccfc	0.28867328
108	0x3e188240	0.14893436
109	0xbd802332	-0.06256713
110	0x3ec72b6f	0.38900325
111	0x3cfa1302	0.030526642
112	0x3df00c17	0.11721056
113	0xbe578dac	-0.21050137
114	0xbe660056	-0.22461066
115	0x3d8e2c90	0.06942093
116	0x3d8defee	0.069305286
117	0xbe7b2d06	-0.24528894
118	0x3de50b17	0.11183756
119	0x3e5d3904	0.21603781
120	0x3d99dba8	0.07512599
121	0xbd613d83	-0.054990303
122	0xbde92493	-0.11383929
123	0x3dc4fa41	0.09618045
124	0xbd66b7e6	-0.056327723
125	0xbcfe9fac	-0.031081997
126	0xbda4e111	-0.080507405
127	0x3e5a8cb6	0.2134274
128	0x3e3e8c07	0.18608104
129	0x3dd91d3f	0.106012814
130	0x3d5b4451	0.05353195
131	0x3e4aae51	0.19793059
132	0x3c87035c	0.016481094
133	0x3d6bd262	0.057573684
134	0xbe39c77f	-0.18142508
135	0xbdd6212a	-0.10455544
136	0xbdd9c850	-0.1063391
137	0xbd2ad1bc	-0.041703925
138	0x3f14c2a1	0.5810948
139	0xbe26b8e7	-0.16281472
140	0xbe16145b	-0.14656202
141	0x3dc56129	0.096376725
142	0x3e0ffbe1	0.14060928
143	0xbd66c632	-0.056341358
144	0x3e4ca65f	0.1998534
145	0x3ced6e7e	0.02898335
146	0x3d78d241	0.06074739
147	0x3e9b699b	0.30354008
148	0x3edee43d	0.43533507
149	0xbc04d051	-0.008106307
150	0xbe5a55b2	-0.21321753
151	0xbd28bc00	-0.041194916
152	0x3e624298	0.22095716
153	0xbe81b68c	-0.25334585
154	0x3e04511f	0.1292157
155	0xbe43f071	-0.1913469
156	0xbc726bdb	-0.014796223
157	0xbecbd2b4	-0.3980919
158	0xbe1ff8a3	-0.15622191
159	0xbdd6073e	-0.104506
160	0x3dafdad5	0.08586661
161	0x3e5022ad	0.20325728
162	0xbd30afd5	-0.043136436
163	0x3d9d8a9a	0.07692452
164	0xbe77e8ee	-0.2420995
165	0x3d110bd4	0.03541167
166	0x3cd92139	0.0265051
167	0x3e28a839	0.16470422
168	0x3df96961	0.121783026
169	0xbd791c4f	-0.060818013
170	0xbe495255	-0.19660313
171	0x3e62e4c6	0.22157583
172	0xbd5bb6fe	-0.05364131
173	0x3b240ede	0.0025033276
174	0x3bb87c0e	0.005630023
175	0xbe69f64b	-0.2284786
176	0x3e041f28	0.1290251
177	0x3d428a64	0.04749526
178	0xbeb80e1f	-0.35948274
179	0x3d683391	0.056689803
180	0xbe646063	-0.22302394
181	0x3e444575	0.19167121
182	0x3e32cd21	0.17461063
183	0x3d5dcd8a	0.054151095
184	0x3e40a899	0.18814315
185	0xbe27d07e	-0.16388127
186	0x3dd4d2bb	0.10391756
187	0xbd1c01b1	-0.03808755
188	0x3be2abfd	0.0069174753
189	0x3dbd8239	0.092533536
190	0xbeb1da67	-0.3473694
191	0xbe1eef83	-0.15521054
192	0xbc986c25	-0.018606255
193	0x3d29207d	0.04129075
194	0xbd1bfd7a	-0.03808353
195	0xbea319d8	-0.31855655
196	0x3d762d72	0.060101934
197	0x3ecf54e0	0.40494442
198	0x3b1a9b93	0.0023591265
199	0xbeb0fb0f	-0.34566543
200	0x3de437dd	0.111434676
201	0xbbca9c1e	-0.0061831614
202	0xbe250ef6	-0.16118988
203	0x3e52cac3	0.2058516
204	0xbdfc3e8c	-0.12316617
205	0x3d2d100c	0.04225163
206	0xbdc2fa6b	-0.0952042
207	0x3e2da315	0.16956742
208	0x3d803de9	0.062618084
209	0x3e4cb5a9	0.19991173
210	0xbe51ce06	-0.20488748
211	0xbeb4cc17	-0.35311958
212	0xbe5ba74c	-0.21450537
213	0x3dcd429e	0.10022472
214	0xbed42c99	-0.41440275
215	0xbe1e33d2	-0.15449455
216	0xbdd462f0	-0.10370433
217	0xbe205404	-0.1565705
218	0xbdacebab	-0.084433876
219	0xbe975e22	-0.29564005
220	0x3ce014d5	0.027353683
221	0x3e4b2b11	0.19840647
222	0x3e5289cc	0.20560378
223	0xbe4ea482	-0.20179942
224	0xbe81fd8d	-0.25388756
225	0xbe1af423	-0.15132193
226	0xbd869c7e	-0.06572817
227	0xbc816d62	-0.015799228
228	0xbe26ade9	-0.16277279
229	0x3acd42aa	0.0015660126
230	0xbe431391	-0.19050433
231	0xbe6c8d64	-0.23100811
232	0xbdb82931	-0.08992232
233	0x3e9ae602	0.30253607
234	0x3eafee62	0.3436156
235	0x3e3c5af0	0.18394065
236	0xbe030d0a	-0.12797943
237	0xbc8550cd	-0.01627388
238	0x3d56587d	0.052330483
239	0x3d7f5469	0.06233636
240	0xbdedf466	-0.11618881
241	0xbdf3688a	-0.118851736
242	0xbdc05d6d	-0.093928196
243	0x3e71b822	0.23605397
244	0x3d1f24a6	0.03885331
245	0xbd94d97f	-0.072680466
246	0xbea6a004	-0.32543957
247	0xbeed9a81	-0.4640694
248	0xbee3eb69	-0.4451554
249	0xbe29889d	-0.1655602
250	0x3e1bdfca	0.15222088
251	0xbcb3ef77	-0.021964772
252	0x3e4dda0b	0.20102708
253	0xbe72a5ca	-0.23696056
254	0xbd017e3e	-0.031614535
255	0x3e0aff19	0.13573875

network_body.linear_encoder.seq_layers.2.bias f4 [128]
0	0xbdb2eaa3	-0.0873616
1	0xbd2a9446	-0.04164531
2	0x3c86e503	0.016466623
3	0xbd2eef19	-0.04270849
4	0xbd7731fa	-0.060350396
5	0xbd269634	-0.04067059
6	0x3b0342a2	0.002002873
7	0xbca633cc	-0.02028837
8	0xbd5cdc68	-0.053921133
9	0xbcc38dcd	-0.023871327
10	0xbc9a58af	-0.018841116
11	0xbd4341f2	-0.047670312
12	0xbcadd336	-0.021218877
13	0xbd1bdebe	-0.03805422
14	0xbd830926	-0.06398229
15	0xbd650bfa	-0.055919625
16	0xb9073cad	-0.00012897207
17	0xbd4d1118	-0.05006513
18	0xbd4e5923	-0.050377976
19	0xbcec0cce	-0.0288147
20	0xbd4f06a3	-0.05054344
21	0x3bcde081	0.0062828665
22	0x3beb619e	0.0071832677
23	0xbd816919	-0.06318874
24	0xbcdab3c3	-0.026697045
25	0xbd1cccb3	-0.038281154
26	0xbd1ceca9	-0.038311634
27	0xbdb3c9d5	-0.08778731
28	0xbd02d424	-0.031940594
29	0xbced25a0	-0.028948605
30	0xbce98d6c	-0.028509818
31	0xbce714d5	-0.028208176
32	0x3b0f7a38	0.0021892916
33	0xbdb53095	-0.08847157
34	0xbcbd4e45	-0.02310861
35	0xbd0866a0	-0.033300996
36	0xb9e80ce4	-0.00044260093
37	0xbd29a3b6	-0.041415893
38	0xbc97f782	-0.018550638
39	0xbdbf5e47	-0.09344154
40	0xbcc785dc	-0.024355821
41	0xbdde9c80	-0.10869694
42	0xbd617e03	-0.055051815
43	0xbdd8d10a	-0.10586746
44	0xbcf5b8db	-0.029995373
45	0xbd5ccafd	-0.053904522
46	0xbdac7105	-0.08419994
47	0xbd099c45	-0.033596296
48	0xbd5cbd71	-0.053891603
49	0xbc590acb	-0.013247202
50	0xbd861376	-0.06546681
51	0xbd5c0307	-0.053713825
52	0xbd1bf0b3	-0.038071346
53	0xbdfdd44c	-0.12394008
54	0xbd29ac66	-0.041424178
55	0xbd9336ad	-0.07188163
56	0xbd77ea2a	-0.06052605
57	0xbd788e55	-0.060682613
58	0xbe028af5	-0.1274832
59	0xbcbd64e6	-0.023119401
60	0xbc8e04a6	-0.0173362
61	0xbdb962f3	-0.09052076
62	0xbad1bce0	-0.0016001724
63	0xbd7e0c69	-0.062023554
64	0xbbcac9ca	-0.006188606
65	0xbc8439a9	-0.016140776
66	0xbd897aad	-0.06712852
67	0xbd267050	-0.040634453
68	0xbd854c17	-0.065086536
69	0xbbb53f8a	-0.005531256
70	0xbd64ba28	-0.055841595
71	0xbceda3f6	-0.029008847
72	0xbd2ba75c	-0.041907653
73	0x3d014893	0.031563353
74	0xbd2ffafc	-0.042963967
75	0xbac15d2f	-0.0014752502
76	0xbce25ffc	-0.02763366
77	0xbd3c50e6	-0.04597559
78	0xbce51c19	-0.0279675
79	0xbcffe01f	-0.031234799
80	0xbd3c8fc8	-0.046035558
81	0xbd04c812	-0.032417364
82	0xbdca1869	-0.09867937
83	0xbd16b28c	-0.03679137
84	0xbd216435	-0.039402205
85	0xbb839033	-0.0040149926
86	0xbc547b7c	-0.012968894
87	0xbcca7b43	-0.024716979
88	0xbd517dac	-0.05114524
89	0xbd57249e	-0.052525155
90	0xbd745dbc	-0.059659705
91	0xbd4b05e5	-0.04956617
92	0xbd599f55	-0.053130466
93	0xbc8bea65	-0.017079541
94	0x3b7f00a3	0.0038910292
95	0x3cd8bab5	0.026456216
96	0xbc325ed2	-0.010886865
97	0x3ba59c34	0.0050540213
98	0xbdd17c24	-0.10228756
99	0xbc5458b2	-0.0129606
100	0xbd23a099	-0.03994808
101	0xbd8712df	-0.06595396
102	0xbd9d23ad	-0.0767282
103	0xbd3a24f9	-0.045445416
104	0xbd07b70f	-0.033133563
105	0xbd0fb01c	-0.03508006
106	0xbc95dca3	-0.018293684
107	0x3b890c67	0.0041823867
108	0xbd85a432	-0.065254584
109	0x3ca5f750	0.02025953
110	0xbcfd90c5	-0.03095282
111	0xbca302c4	-0.01989878
112	0xbd5499a3	-0.051904332
113	0xbdb9f0b9	-0.09079117
114	0xbd1718a1	-0.036888722
115	0xbd6a5279	-0.05720756
116	0xbc77cea6	-0.015124952
117	0xbcd29203	-0.02570439
118	0xbdaaa869	-0.08332903
119	0xbd7d6ee5	-0.061873335
120	0xbd5100e1	-0.05102623
121	0xbd8fb757	-0.07017391
122	0xbd99d465	-0.07511214
123	0xbda46867	-0.08027726
124	0xbd64c3a2	-0.055850632
125	0x3ca30cae	0.019903507
126	0x3cdaa125	0.026688168
127	0x3c59825d	0.01327571

network_body.linear_encoder.seq_layers.2.weight f4 [128, 128]
0	0xbdae1aaf	-0.08501183
1	0xbd9f7ec9	-0.07787854
2	0x3d006f87	0.03135636
3	0xbd3c91eb	-0.046037596
4	0xbe66a9e5	-0.22525747
5	0x3d5d329c	0.054003343
6	0xbc26917c	-0.010166522
7	0x3d23f08b	0.04002432
8	0xbc92690c	-0.017872356
9	0xbe262134	-0.16223603
10	0x3c114e6a	0.008868793
11	0xbd107794	-0.03527029
12	0xbe0061a6	-0.1253725
13	0xbe4c5b14	-0.19956619
14	0xbdfbd162	-0.12295796
15	0xbe2a1e00	-0.16613007
16	0x3de244dd	0.11048291
17	0x3d024f01	0.031813625
18	0x3e028551	0.12746169
19	0xbde903f4	-0.11377707
20	0xbdd0b21b	-0.10190221
21	0xbd374ec3	-0.044752847
22	0xbc29189b	-0.010320808
23	0xbe1ef021	-0.1552129
24	0x3c2c5fc8	0.010520883
25	0xbe32340e	-0.1740267
26	0x3de7785e	0.11302255
27	0xbd2f5693	-0.042807173
28	0xbe1d7c42	-0.15379432
29	0xbd69f24e	-0.057115845
30	0xbe5b7389	-0.21430792
31	0xbe2f2321	-0.17103244
32	0xbce3a27b	-0.027787438
33	0xbcc2ac2b	-0.023763737
34	0xbd85fd7c	-0.06542489
35	0xbccee213	-0.025254285
36	0xbe88951a	-0.26676255
37	0xbd5a2b01	-0.053263668
38	0x3df35d4c	0.11883029
39	0x3bd1fe9d	0.006408526
40	0x3c50b34b	0.012738059
41	0x3cca97e6	0.024730634
42	0x3e1f9413	0.1558383
43	0x3d1527d3	0.036414932
44	0xbd800028	-0.0625003
45	0xbc4e91ab	-0.012607972
46	0xbe2982f0	-0.16553855
47	0xbe16e922	-0.1473737
48	0x3d964fd3	0.07339444
49	0xbe2f2f27	-0.17107831
50	0xbd0d0f0d	-0.03443818
51	0x3d73e1b0	0.059541404
52	0x3dcf25c7	0.10114627
53	0xbd02ccb8	-0.031933516
54	0xbdbd0260	-0.092289686
55	0xbc869506	-0.016428482
56	0x3df3e684	0.11909202
57	0xbd375dd1	-0.044767205
58	0x3c639c4f	0.013892247
59	0x3d1eb5fb	0.03874777
60	0xbe256792	-0.1615279
61	0xbe251be4	-0.1612392
62	0x3d308835	0.043098647
63	0xbe62faea	-0.22166029
64	0xbd025ffe	-0.031829827
65	0xbe2a7eb0	-0.1664989
66	0xbd9d714b	-0.076876245
67	0xbde4f809	-0.111801215
68	0xbdacfa9a	-0.08446236
69	0xbd1f14cc	-0.038838193
70	0xba4a6f5e	-0.00077222835
71	0xbd04f00a	-0.03245548
72	0xbe4efc7f	-0.20213507
73	0xbd767ade	-0.06017577
74	0xbd55adb9	-0.052167628
75	0x3e059cd9	0.13048114
76	0xbdca580d	-0.098800756
77	0xbd85fd0f	-0.06542408
78	0xbd9aad6e	-0.0755261
79	0xbd9dd32b	-0.07706293
80	0xbdc82958	-0.09773511
81	0xbd26ec28	-0.04075256
82	0xbcfd35ed	-0.030909503
83	0xbd0cd37d	-0.03438138
84	0x3d881748	0.066450655
85	0xbdc606d9	-0.09669275
86	0xbd1238c9	-0.035698686
87	0x3ced48a3	0.0289653
88	0x3e7d03fb	0.2470855
89	0xbe24c8a2	-0.1609216
90	0x3e0f8bca	0.14018169
91	0xbe412f10	-0.18865609
92	0x3db5300e	0.08847056
93	0x3b9184eb	0.004440894
94	0x3da217be	0.07914685
95	0xbd85b22e	-0.06528126
96	0xbe814644	-0.2524892
97	0xbcfda239	-0.030961143
98	0xbd9fda74	-0.078053385
99	0x3e0f35d3	0.13985376
100	0xbd4421bb	-0.04788373
101	0xbe1bd092	-0.15216282
102	0xbe4c40a5	-0.19946535
103	0x3d218756	0.039435707
104	0x3c855b6b	0.016278943
105	0x3db16f63	0.086638235
106	0xbd0b1224	-0.033952847
107	0xbd949eea	-0.07256873
108	0xbcebcd74	-0.028784491
109	0xbe155f36	-0.14587101
110	0xbe6651e0	-0.2249217
111	0xbdac680c	-0.08418283
112	0xbce5a488	-0.028032556
113	0xbd8aefc4	-0.06784013
114	0xbd2792f5	-0.040911634
115	0xbdf870e8	-0.1213091
116	0xbbe7886d	-0.007065824
117	0xbd700514	-0.058598593
118	0xbe39f12a	-0.18158403
119	0xbd93fcc7	-0.07225948
120	0xbe16bb22	-0.14719823
121	0xbd9bfe8b	-0.076169096
122	0x3db491ee	0.088168964
123	0xbe042db6	-0.12908062
124	0xbe59efa1	-0.21282817
125	0xbe06e2eb	-0.131725
126	0x3e1e5b5d	0.1546454
127	0xbe2f7f3a	-0.17138377
128	0x3d5768b2	0.05259008
129	0xbcb574c9	-0.022150414
130	0x3d9b2c54	0.07576814
131	0xbc189151	-0.00931199
132	0xbb0d306d	-0.0021543757
133	0xbcb39ee9	-0.02192636
134	0xbe1753fc	-0.14778131
135	0xbea4aead	-0.32164517
136	0xbe6e9f73	-0.23303013
137	0xbd2bdeee	-0.04196065
138	0xbe59d030	-0.21270823
139	0x3ceb6487	0.028734459
140	0xbdf3ecb8	-0.11910385
141	0xbdda42ee	-0.10657297
142	0xbe654cd3	-0.22392587
143	0xbe69d73f	-0.22836016
144	0x3d03af0a	0.032149352
145	0xbb9aae29	-0.0047204685
146	0xbe41f225	-0.18940027
147	0xbe298d82	-0.16557887
148	0x3e102cbc	0.14079565
149	0xbea601fa	-0.32423383
150	0xbd9bd652	-0.07609238
151	0xbd563270	-0.052294195
152	0xbd8dc64c	-0.06922588
153	0xbd6c52dd	-0.057696212
154	0xbc9733cd	-0.018457318
155	0xbdab1d17	-0.08355158
156	0xbd9de7a8	-0.077102005
157	0x3ca6f44a	0.020380158
158	0xbdd4b16e	-0.103854045
159	0xbd8f4025	-0.069946565
160	0xbe058233	-0.13037948
161	0x3d16274f	0.03665858
162	0xbd9ff5ce	-0.078105554
163	0x3d16c030	0.036804378
164	0xba297f08	-0.00064657675
165	0x3dc67069	0.09689409
166	0xbdba51ac	-0.09097609
167	0xbe3ad624	-0.1824575
168	0x3dfffe5e	0.124996886
169	0xbe43a8e9	-0.19107403
170	0xbdbdd12e	-0.092684135
171	0xbd163560	-0.036671996
172	0x3dd3b138	0.10336536
173	0xbc397afd	-0.011320827
174	0xbd3a3c40	-0.045467615
175	0x3d401fca	0.046905316
176	0xbdd62785	-0.104567565
177	0xbd559bd3	-0.05215056
178	0x3d409e60	0.04702604
179	0x3a7a5a24	0.0009550175
180	0xbda1340b	-0.078712545
181	0xbda33e08	-0.07970816
182	0xbe07a950	-0.13248181
183	0xbd8b7e00	-0.06811142
184	0xba9a0a8a	-0.0011752408
185	0x3dd34009	0.10314948
186	0x3cb9b65f	0.02266997
187	0xbc73d358	-0.014881931
188	0x3c9a74ab	0.01885446
189	0x3dafab36	0.08577578
190	0xbd812818	-0.063064754
191	0xbdf429fd	-0.11922071
192	0xbe476989	-0.19473852
193	0xbca8cc4a	-0.020605225
194	0x3da9fdbb	0.08300348
195	0x3d0456b8	0.032309264
196	0xbde9c6f8	-0.114149034
197	0x3cf6bd2e	0.030119505
198	0xbab473dc	-0.0013767439
199	0x3dd40a9e	0.103535876
200	0xbd97ef14	-0.074186474
201	0xbe3a5d8e	-0.18199751
202	0xbb951175	-0.0045492
203	0xbe092a88	-0.1339513
204	0xbd2f8eaa	-0.042860664
205	0xbc780f18	-0.015140317
206	0xbdba4778	-0.09095663
207	0xbdaa6df9	-0.08321757
208	0xbdbd22f8	-0.092351854
209	0xbe2ab397	-0.1667007
210	0x3d3ec776	0.04657694
211	0xbc2fd83c	-0.010732707
212	0x3d1c73af	0.038196262
213	0xbd491a57	-0.049097385
214	0xbd9921d0	-0.07477152
215	0xbd218a26	-0.03943839
216	0xbe0cfec6	-0.13769063
217	0xbd6105a1	-0.05493701
218	0xbdddc6d7	-0.10828941
219	0xbe1e9df1	-0.15489937
220	0x3d888cea	0.06667502
221	0xbe0e6455	-0.13905461
222	0x3c7994f7	0.01523327
223	0x3e103ac5	0.14084919
224	0xbc5c109c	-0.013431694
225	0xbc94c71b	-0.018161347
226	0xbc31f35b	-0.010861243
227	0xbd2c7549	-0.04210404
228	0xbd06b296	-0.032885157
229	0x3d84eab1	0.06490076
230	0xbe254485	-0.1613942
231	0x3c315fc0	0.010826051
232	0x3df5147d	0.119667985
233	0xbe131912	-0.14365032
234	0x3d721232	0.059099384
235	0xbe1c2ddd	-0.1525187
236	0x3d916234	0.07098809
237	0xbd2c502b	-0.04206864
238	0xbd83e1e3	-0.06439569
239	0xbe068636	-0.13137135
240	0xbdea1305	-0.11429409
241	0xbe15f27f	-0.14643286
242	0x3d7f9b25	0.062403817
243	0x3e212891	0.15738131
244	0xbdde71ff	-0.10861587
245	0x3c2a129e	0.010380415
246	0x3c2e103d	0.010623989
247	0x3e27ff2e	0.16405937
248	0xbda0c7fa	-0.078506425
249	0xbc6114a2	-0.013737829
250	0xbe55d3d0	-0.20881581
251	0x3dfd20ee	0.123597965
252	0x3d5aa4b7	0.05337974
253	0xbe08181d	-0.13290448
254	0x3dd10617	0.1020624
255	0xbd938a91	-0.07204164
