Oversteek Simulator/Learning/results/Oversteek-K-02/GoodCar.onnx (onnx, 90288 bytes, 6 tensors)

action_model._discrete_distribution.branches.0.bias f4 [3]
000000 9a ca 45 be c4 df a5 3e 07 2f 28 be
       -0.19315568 0.32397282 -0.1642419

action_model._discrete_distribution.branches.0.weight f4 [3, 128]
000000 39 f9 9c bc 50 32 53 bb f8 ee 3e 3d 1e 6f 12 3d
       -0.019161807 -0.0032226034 0.046614617 0.0357505
000010 85 78 aa bc 0e 9b 46 3d 3c 9d f1 3d 79 43 b1 bc
       -0.020809421 0.048487715 0.11797568 -0.021638619
000020 61 51 6a 3d 27 08 10 3e a0 bd e5 3d 99 cc 16 3d
       0.057206515 0.1406561 0.11217809 0.036816213
000030 8e 4c 91 bd 7a a2 e8 3d 75 48 53 3c 51 bf 83 3d
       -0.0709468 0.11359115 0.012895693 0.06432975
000040 9b f6 06 3d 55 71 fa 3d 57 1d da 3d e5 5d e0 3b
       0.032950025 0.122286476 0.106501274 0.0068471306
000050 c2 c3 37 3d e7 9b 96 3d c9 d4 7f 3d 05 ef 08 3e
       0.044864424 0.07353955 0.062458787 0.13372429
000060 db 29 3b 3e dc 21 61 bd 4c 00 2e 3d eb 21 3f 3b
       0.18277685 -0.05496393 0.042480752 0.0029164504
000070 7b 31 95 3d b2 6a 9b bc 40 c7 7c bd da a4 87 bc
       0.07284828 -0.018971775 -0.061713457 -0.0165581
000080 af 2e 5a 3c dd fc 22 3d bc 39 31 3d 8b 40 2c 3d
       0.013316794 0.03979193 0.04326795 0.04205374
000090 de 52 8a bc f4 f4 34 3d 43 95 f0 3c d1 28 83 3c
       -0.016885217 0.044178918 0.029368049 0.016010674
0000a0 ac 7f 2c bd 3b 64 8e bc 27 31 83 3d 1d 36 23 bd
       -0.042113945 -0.017381778 0.064058594 -0.03984653
0000b0 c7 bc a0 bd b7 6c 8e be 65 53 0f bd 86 4a a7 bc
       -0.078485064 -0.27817318 -0.03499164 -0.020421278
0000c0 29 e1 e7 3d b0 cc 23 3c 0e bc 2a bd 4e 82 19 3d
       0.11322243 0.009997532 -0.04168325 0.037477784
0000d0 85 75 27 bd a6 01 30 bd 5c 79 1f bc c5 b2 55 3c
       -0.04088356 -0.042970322 -0.009733524 0.01304311
0000e0 e8 87 8b bc 37 83 9c 3c 26 3b 11 3d 03 ad 98 bc
       -0.017032579 0.019105537 0.0354568 -0.018637186
0000f0 1c 01 cc 3c 56 17 53 3d 72 a8 f7 3d 5b 0b 63 3d
       0.024902873 0.051535927 0.12092675 0.05543075
000100 95 7c 73 bc bc 95 27 3d 6a 32 60 3d b1 04 34 3e
       -0.014861246 0.040914282 0.05473558 0.17579915
000110 c3 79 97 3d 0d d6 14 3d 3d 07 81 bc a1 ec fa 3c
       0.07396271 0.036336947 -0.015750522 0.030630412
000120 fc 0f 8d bc 06 c2 29 3d e5 6e 16 3d 35 2b a1 3c
       -0.017219536 0.0414448 0.03672685 0.019673923
000130 6e 20 2d 3e fa 99 7f bb c7 46 ae ba 37 8c 92 bd
       0.16906902 -0.003900169 -0.001329624 -0.0715565
000140 b9 d2 93 bc 6c 6a 53 3d 87 1e 11 3d 30 8a ee ba
       -0.018044816 0.051615164 0.035429504 -0.0018199142
000150 05 e7 4d bd 18 d2 35 3d 14 0b 67 3b 6d fb 10 3d
       -0.050269146 0.044389814 0.0035254406 0.03539603
000160 32 02 31 3c af e4 a1 3d b2 0d 9a bc 2f 99 22 3d
       0.010803746 0.07904946 -0.018805359 0.03969687
000170 27 9f 8d bd e8 46 5c 3d 8c 81 d0 bd 2c 45 08 be
       -0.069151215 0.05377856 -0.10180959 -0.13307637
000180 22 4e e2 3c 70 10 bb 3d cc d5 33 bd d7 c2 75 3d
       0.027625147 0.091339946 -0.043905064 0.060000267
000190 78 2b 15 bd 69 ed bc 3a b3 19 6f 3d 1f e8 01 3d
       -0.03641841 0.0014414015 0.058374118 0.03171551
0001a0 1d ef 02 3d 73 10 d5 3b c5 25 53 3d 77 12 01 3e
       0.031966317 0.006502205 0.05154969 0.126047
0001b0 1f ab 18 bd 09 8a af 3d cd 1b 40 bc fd 09 f6 bc
       -0.03727257 0.0857125 -0.011725378 -0.03003406
0001c0 a2 7a b8 3d 85 47 34 3d 03 2d d3 ba ac b6 8a 3c
       0.09007765 0.04401352 -0.0016111437 0.016932808
0001d0 cb bb 46 3c be 51 88 3c 1e 30 a0 3c ba 5f 83 3b
       0.012129734 0.01664054 0.019554194 0.004009214
0001e0 09 c2 f0 bb 5f 29 69 3d 4b 87 20 be b5 f5 37 bd
       -0.0073473495 0.05692422 -0.1567661 -0.04491206
0001f0 b6 6d 26 3e d5 35 81 3d c0 b5 77 3d 99 79 86 bb
       0.16252789 0.06309096 0.060476065 -0.004103851
000200 74 54 b8 bc 72 1a e6 ba ed f2 f3 bd bf bc 76 3c
       -0.022501208 -0.0017555489 -0.11911569 0.015059649
000210 3e 8b 80 bd 8f b2 b6 3c b1 8d e1 bd b2 c4 8a 3c
       -0.06276558 0.02230194 -0.110133536 0.016939495
000220 b1 a9 0c be 75 ea a9 bd 40 55 9d 3d 36 ce b7 3c
       -0.13736607 -0.08296672 0.07682276 0.022437196
000230 44 e6 a1 bd 5e 72 31 bd 53 93 f8 3c ac d9 9f 3c
       -0.07905248 -0.04332196 0.030343687 0.019512974
000240 85 a8 5c bd f8 9e 19 3d eb 68 3e bb 99 f7 15 3d
       -0.05387165 0.03750512 -0.0029054235 0.03661308
000250 43 8d 06 3d 38 36 49 3d 95 4f 62 bd 09 f0 c7 bd
       0.03284956 0.049123973 -0.055251677 -0.0976258
000260 09 69 fa bd 5e 4a 73 bc b7 ea 94 bd df ed ca bc
       -0.12227065 -0.0148492735 -0.07271331 -0.024771629
000270 01 5d d1 bd 99 e2 00 bd 2b cc 23 be 75 4d 1c 3d
       -0.10222817 -0.0314661 -0.15995853 0.038159806
000280 11 05 d5 bb 3e 0b 09 3d b3 80 2a 3d 32 45 f8 bd
       -0.006500848 0.033457987 0.041626643 -0.12122573
000290 b3 62 e1 bc 19 e4 99 bc 08 25 b6 bd c4 02 2d 3d
       -0.027512884 -0.018785523 -0.08893782 0.042238966
0002a0 04 b3 27 3b 41 90 32 bc 14 e2 49 bd ec 06 41 bd
       0.002558888 -0.010898651 -0.04928787 -0.04712574
0002b0 ee 0d 4c bd 14 61 c5 bb c5 76 fd 3c 22 75 35 bc
       -0.049817972 -0.0060235355 0.030940423 -0.01107529
0002c0 e1 ec c0 3d 1f 7a 2a bb 64 d1 2d 3c 2d d2 12 be
       0.09420181 -0.0026012731 0.010609005 -0.14337988
0002d0 c9 16 cb bd 93 cc ce 3c dc 3e 60 bc cc 4a b0 bd
       -0.09916455 0.025244033 -0.013686862 -0.08608016
0002e0 77 03 8d bd 27 64 16 bb 09 bb 8e bd b6 ed c1 3a
       -0.068854265 -0.002294788 -0.06969268 0.0014795575
0002f0 5c bd fd bc 88 0f 9b bd 34 76 4e bd d7 f6 b6 bd
       -0.030974083 -0.07571322 -0.050405696 -0.089338
000300 32 71 3c 3d 29 0f 23 be 81 19 a1 bc 6c 82 de 3c
       0.04600639 -0.15923752 -0.019665482 0.0271618
000310 64 3b 38 be d3 82 eb bd 52 95 3a bd b2 14 42 3d
       -0.17991406 -0.11499562 -0.04555256 0.047383018
000320 0d be 10 3d 50 63 67 3b 75 8d 25 3d bd 7d ea 3c
       0.035337497 0.0035306998 0.040418107 0.02862441
000330 3d 7e 53 3d 1c eb 31 bd 80 33 01 3d 2e e6 25 be
       0.051634062 -0.04343711 0.031543255 -0.16201088
000340 bf 83 0d 3c 2b e8 0f be 98 2a 27 3c 89 37 11 3d
       0.008637368 -0.14053409 0.010203026 0.035453353
000350 09 4f 16 be e0 3f 1e bd c4 31 c4 3c c7 57 5a bd
       -0.14678587 -0.038635135 0.023949511 -0.053306367
000360 39 93 c2 3c 83 51 8c 3c c3 23 9e 3d d1 72 88 bd
       0.023751842 0.017128712 0.07721665 -0.066625245
000370 4a 21 af 3c 95 50 1d 3c ef 22 f2 bd 94 c1 6b 3c
       0.021378178 0.009601732 -0.11823069 0.014389414
000380 89 1b 98 3c a4 91 3a be 1d 00 e8 bd df 43 c8 bc
       0.018567817 -0.1821962 -0.113281466 -0.024446426
000390 88 0e 34 3d 43 de 88 bc 60 8c c0 3c b6 0c 80 bc
       0.04395917 -0.016707545 0.023504436 -0.015631061
0003a0 2a 61 12 bc c8 44 93 3c 8f d6 95 bd 54 aa df bd
       -0.0089342985 0.017977133 -0.073163144 -0.109211594
0003b0 93 e9 d8 3c b4 7a a7 3c 47 ba 8d 3d b4 1e b2 3d
       0.026478564 0.020444252 0.06920295 0.086972624
0003c0 d6 ce 83 3d 8f 3e 61 bd 3f bd 4b 3b 32 b2 d1 3d
       0.06435935 -0.0549913 0.0031088141 0.10239066
0003d0 3b 8a 2d bd 13 32 8d bb 67 b5 fd 3b b1 46 d7 bb
       -0.042368155 -0.004308948 0.007742572 -0.0065697064
0003e0 2c a8 ed bc c8 cf d3 bc cd 4c e5 bd 44 9e 39 bc
       -0.029010855 -0.025855914 -0.11196289 -0.011329237
0003f0 be ca df bc 98 12 b7 bd 48 cb c5 bc 0c f0 80 3c
       -0.027318355 -0.08939093 -0.024144784 0.015739463

network_body.linear_encoder.seq_layers.0.bias f4 [128]
000000 83 80 43 bd 5d 96 8e bd 69 21 00 3d 0c 4d c3 3d
       -0.04772998 -0.06962273 0.031281862 0.0953618
000010 1e fd 88 bd d6 2b 29 be 27 e6 39 be 3f fb 73 be
       -0.06688903 -0.16520628 -0.18154202 -0.23826312
000020 d5 be 0d be 67 e2 2b be ec c5 01 be 04 84 62 be
       -0.13842328 -0.16785584 -0.12673157 -0.22120672
000030 5a f1 22 be a7 c1 f0 bd 90 dd 78 be d0 97 fa bc
       -0.15912381 -0.11755686 -0.2430327 -0.030589968
000040 55 ba 0b be 79 e5 f5 bd 0b 71 42 be cd 58 86 3d
       -0.13645299 -0.12006659 -0.18988435 0.06559906
000050 c7 2c 34 3b 88 26 55 be 63 d4 03 be be 03 c2 bd
       0.002749251 -0.2081548 -0.12873988 -0.0947337
000060 c1 c2 7b be 78 25 82 bd f5 f1 d4 bd aa 39 a4 be
       -0.24586011 -0.06354803 -0.10397712 -0.32075244
000070 59 1a 85 be 81 fb ae be 71 79 28 be 55 6b 86 be
       -0.25996664 -0.34176257 -0.16452576 -0.26253763
000080 33 8b 5f be f7 0f 80 be 56 ca 83 be 37 61 24 be
       -0.21830444 -0.2501218 -0.25740308 -0.1605271
000090 2d d7 e4 3b 9a e8 cb bd da bf 2f bd 52 1c b0 bd
       0.0069836588 -0.099564746 -0.042907573 -0.08599152
0000a0 d3 db ec bd 5e ef c4 bd 4f c7 6c be 0a 58 ab bd
       -0.11565366 -0.09615968 -0.23122905 -0.083664015
0000b0 d6 20 ce bd ee 42 c3 bd 62 9b 6f be e7 88 49 be
       -0.10064857 -0.0953425 -0.23399118 -0.1968113
0000c0 8a b8 95 be d9 b4 69 be ea db df bd 91 ec 1d be
       -0.29242355 -0.22822894 -0.10930617 -0.15422274
0000d0 8b 72 54 be 65 a2 ed bd 26 64 ae be 30 3b a1 bd
       -0.2074682 -0.1160324 -0.34060782 -0.07872617
0000e0 cd 64 5c 3d c5 d6 c5 bd 0f e7 57 be fe 26 82 bd
       0.05380707 -0.09660105 -0.21084236 -0.063550934
0000f0 84 40 8c be 27 3e a0 be 88 85 e5 bd 3f cf 18 be
       -0.27392972 -0.31297418 -0.1120711 -0.14922808
000100 dc 0a 9c be a6 e0 31 be e6 39 3f be ba 1f 8d be
       -0.30477035 -0.17370853 -0.1867443 -0.27563268
000110 7e 65 81 be fb c2 21 bd a5 40 d1 3c 99 cb 5b be
       -0.25272745 -0.03949259 0.02554352 -0.21464385
000120 55 d1 48 be 83 08 18 3d f6 6f 44 be 22 4f 2c bd
       -0.19611104 0.037117492 -0.19183335 -0.042067654
000130 2e b7 48 be 57 74 af 3c 20 ad 54 be eb 4a 51 be
       -0.19601128 0.02141778 -0.20769167 -0.20438735
000140 a5 04 55 be 27 49 b2 bd 32 d2 01 3c 5d 1d ea bd
       -0.20802553 -0.08705359 0.00792365 -0.11431382
000150 e2 09 9a 3d d1 97 1e 3d 8c 4b 52 be 8a 0b 08 be
       0.07521416 0.038719002 -0.20536631 -0.13285652
000160 6c 71 b2 be 7f 80 4a 3d b1 5c bc bd 27 ff 50 be
       -0.3485216 0.04943895 -0.09197367 -0.20409833
000170 64 0d 72 be 15 ef 68 be 02 85 72 be f0 0d 0e be
       -0.2363792 -0.22747453 -0.23683551 -0.13872504
000180 03 a5 5c be f3 50 34 be 2b 48 1b be 70 51 49 be
       -0.21547322 -0.17609005 -0.15164249 -0.19659972
000190 06 36 88 be c9 97 34 be 4d dc 4b be 4c 07 d7 bb
       -0.26603717 -0.17636026 -0.19908257 -0.006562149
0001a0 2c 22 17 be 2a bb 4e be 14 76 b5 bd c2 89 9a be
       -0.1475913 -0.20188585 -0.08860412 -0.30183226
0001b0 2b 4a 72 be b6 49 f9 bc 17 2c 24 be 32 76 da bd
       -0.23661105 -0.030430656 -0.16032444 -0.10667075
0001c0 1f 8d 19 be 02 20 39 be 43 06 5d be 82 ec 6c be
       -0.1499524 -0.18078616 -0.2158442 -0.23137096
0001d0 ed 04 ce bd 8d ee 27 be d3 13 6e be 9e 6f bf bc
       -0.10059533 -0.16399594 -0.2324975 -0.023368653
0001e0 02 fc 80 be 39 19 88 bd e9 d2 f7 bd 15 46 d2 bd
       -0.25192267 -0.06645436 -0.12100775 -0.10267273
0001f0 5c 7e 4b be b7 d3 29 be 02 88 51 be df 3a 6b be
       -0.19872421 -0.16584669 -0.20462039 -0.22971676

network_body.linear_encoder.seq_layers.0.weight f4 [128, 39]
000000 fe 94 b5 bc 62 e5 1a bd cb 53 78 3d 2a 30 e6 bd
       -0.022165772 -0.037816413 0.060626786 -0.11239655
000010 3e f0 cc 3e b7 69 c6 bd 1e 23 e9 bd 80 f1 f2 bc
       0.4002704 -0.09688132 -0.11383651 -0.029656172
000020 6d 3d 14 3d ff e8 c0 3e 37 59 0c 3e 83 82 a0 be
       0.036191393 0.37677762 0.13705908 -0.31349573
000030 bf 2f 02 bd 02 09 b2 be 4f 0a 95 bc e3 3b bd bd
       -0.031783815 -0.34772497 -0.018193392 -0.09239938
000040 d6 11 17 3e d0 e6 2f 3d a9 a1 fd bd 4e 07 08 3b
       0.14752898 0.04294473 -0.1238435 0.0020756307
000050 61 b9 13 3b 0c b9 b0 be 4e e7 b7 bc aa 8d 33 3e
       0.0022540914 -0.3451618 -0.022449162 0.1753451
000060 8d 78 82 3e 8b 52 10 be f5 8f 83 3e 15 49 a2 bd
       0.25482598 -0.14093988 0.25695768 -0.079240955
000070 6e a8 15 be f7 5e 39 be 0d e5 82 bb 9e 87 1c bf
       -0.14615032 -0.18102632 -0.00399459 -0.61144435
000080 32 ed 1b 3d 0f 1e 18 3e 22 b3 9c bd d9 c5 e2 bd
       0.038068004 0.14855216 -0.07651354 -0.11072893
000090 d3 ee 9f bd bc 1f 6e be 5c f9 d9 3d 6a f3 27 bb
       -0.07809224 -0.23254293 0.10643265 -0.0025627264
0000a0 9e 74 02 3e ab 41 3a 3e d1 8a 3f 3e 69 6f 4c be
       0.12739798 0.18189113 0.18705298 -0.19964375
0000b0 6a 41 ba bb 01 a7 fb bd b1 e5 13 3d ea d1 b5 be
       -0.0056840675 -0.12287713 0.036107723 -0.35511714
0000c0 b8 33 84 3c 5b 0d 9d 3e f0 60 45 be 32 47 87 bd
       0.016137943 0.30674252 -0.1927526 -0.06605376
0000d0 b5 6d 2e be 09 fa 9d 3e b1 fc 13 be 90 9e 54 3e
       -0.17034037 0.30854824 -0.14451863 0.20763612
0000e0 c1 8d f1 3d d0 65 ae 3c 5c f2 29 3e 9f bf d6 bd
       0.117946155 0.021288782 0.16596359 -0.104857676
0000f0 38 da 25 bf 46 cf ac 3c 33 8f 44 bc 7f 86 88 3d
       -0.647861 0.02109493 -0.011997032 0.06666278
000100 ed ba d3 3d 86 80 4f 3e 7b 0a bb 3c 38 ca 51 3e
       0.10338388 0.20263872 0.022832146 0.20487297
000110 e6 78 ab be 75 26 bb 3d b6 36 2a bf 3f 44 66 3e
       -0.33490676 0.091381945 -0.6648973 0.22486971
000120 a4 ab c2 bd 43 2e 69 be ec ee 07 bc 7f 88 8e 3e
       -0.09505394 -0.22771554 -0.0082967095 0.27838513
000130 8c c6 81 3e 11 f2 be 3d 1b b7 a5 be 4e c6 84 be
       0.25346792 0.09323514 -0.3236626 -0.25932544
000140 b9 d2 41 3e f5 1a 01 bd ab d0 a4 3e 8e 41 30 be
       0.1892804 -0.03151985 0.3219045 -0.17212507
000150 0c 94 c4 be 19 99 f0 bc d6 5a ec bd cb 8f c7 3d
       -0.383942 -0.029369878 -0.11540763 0.09744223
000160 c3 ef 4a be 6e 5f cf be 04 41 97 bd bd 45 49 bd
       -0.19818024 -0.40502495 -0.073854476 -0.049138773
000170 f6 f2 79 3e 09 71 37 bd eb 9f b1 be 16 24 b9 3d
       0.24409088 -0.044785533 -0.3469232 0.09040086
000180 ae 46 68 bd 96 0d 8f 3e ab 83 13 3d 24 b5 94 bd
       -0.05670803 0.27940053 0.03601424 -0.07261112
000190 f7 e9 51 3e 72 bc 02 3d f0 ba 89 3e 60 4a 56 3d
       0.20499407 0.031917997 0.26900434 0.052317023
0001a0 64 39 04 be 00 65 3f 3e 79 ed 2d 3d 6c 2d b2 3d
       -0.12912518 0.18690872 0.0424628 0.0870007
0001b0 54 a5 46 3e f5 77 d5 3d 2b f7 3f be e6 ef 03 3e
       0.19399005 0.104232706 -0.18746631 0.12884483
0001c0 db ce 3a 3e a5 6a f8 3c cd 83 ad 3e 15 07 76 3d
       0.18242972 0.03032429 0.3388962 0.060065348
0001d0 90 37 51 bd 0a 89 19 be 15 af 99 be 6a 59 a1 3e
       -0.05107838 -0.14993683 -0.3001639 0.3151353
0001e0 4d c9 8b 3d d9 46 58 3e 5b 04 38 3e 76 20 76 bc
       0.068255045 0.21120776 0.17970411 -0.015022388
0001f0 31 35 41 bd 9f 1b b0 3e 33 b9 61 3e a2 ec 83 bd
       -0.047169868 0.34396073 0.22043304 -0.064416185
000200 95 00 20 be 11 0c 30 3e 8f d4 90 3d f2 f2 bb 3e
       -0.15625222 0.17192103 0.07071792 0.3670879
000210 7f ab bb 3c 9c e2 3e 3e dc 6f 01 3c 2a 5d 0b be
       0.022908924 0.18641132 0.0079002045 -0.13609758
000220 62 3d e2 3d 3c ee 6c 3e 1c f6 f8 bd a9 36 60 3e
       0.11046864 0.23137754 -0.12156317 0.21895851
000230 94 db 73 3e 2e fb 57 3d 61 5d 6c be 37 8b 32 be
       0.23814231 0.052729778 -0.23082496 -0.17435919
000240 20 5e 5f bc cf c2 50 3d 54 d9 a0 3e a8 c0 fe bd
       -0.013633281 0.050967034 0.31415808 -0.1243909
000250 6f 72 18 bf 3d dd 86 bc cd de 16 bc 9a 47 16 3e
       -0.5954961 -0.016462917 -0.009208393 0.14675751
000260 ed 56 b8 bd 12 40 f3 3e f8 93 f1 3d 58 f0 51 3e
       -0.09000955 0.4750982 0.11795801 0.2050184
000270 f3 53 64 be c9 eb ef 3d f5 02 ca 3d 36 c6 4b 3d
       -0.22297649 0.11714894 0.09863845 0.049749576
000280 2e 02 84 3e 1f be 31 be ec f0 c6 3e 48 b0 3b 3e
       0.25782913 -0.17357682 0.38855684 0.18328965
000290 aa 2b 1a bc b2 79 1c 3e 63 d6 a6 3e 7c c6 d4 bd
       -0.009409824 0.15280798 0.3258544 -0.103894204
0002a0 01 ec b8 bd 6e b8 cc be c8 db c3 bc 60 8d b7 3d
       -0.09029389 -0.3998446 -0.02390851 0.08962512
0002b0 63 7c 02 bc d4 59 1e 3e f6 28 4c 3c 7f 39 95 3d
       -0.007964226 0.15463954 0.012460938 0.07286357
0002c0 78 e6 bc bb 82 d3 29 3e a5 a7 12 3d 6e 06 89 bc
       -0.0057647787 0.1658459 0.03580441 -0.016726699
0002d0 ef 67 ae 3d 1e 67 e1 bd 6a 41 99 3e 6d fd 23 bd
       0.085159175 -0.11005996 0.2993272 -0.040036608
0002e0 11 3c 4f bc 90 c2 27 3e 60 97 40 bd 31 1e f1 bd
       -0.012648598 0.16382813 -0.047019362 -0.11773337
0002f0 c1 8a 42 be 5e b7 13 3e b2 c3 46 3b 87 9e 2e be
       -0.18998243 0.14425418 0.0030329046 -0.17052661
000300 48 ea 27 3d b3 5a f2 bd 03 f7 42 3e 7f 9e 38 3e
       0.040994912 -0.11833706 0.1903954 0.18029211
000310 de 2e b6 3d 16 c2 e8 3c 43 bc 0d 3e 47 6b 6a be
       0.08895658 0.02841286 0.13841347 -0.22892486
000320 de 23 04 3d 47 7e ac 3e 37 2f 5c 3d 88 ab d2 3d
       0.032260768 0.33690092 0.053755965 0.10286623
000330 28 5f 6e be 6e df 57 3e f3 01 9e 3d 03 b5 3f bd
       -0.23278487 0.21081325 0.077152155 -0.046803486
000340 41 cf 49 3e 20 e5 31 be 87 1f 2c be 30 de 34 3e
       0.19707967 -0.1737256 -0.16808902 0.17662883
000350 a4 57 02 3e 92 e8 9b be ed 02 5d be 81 81 41 be
       0.12728745 -0.30450875 -0.21583147 -0.18897058
000360 31 e2 0b be 8d d4 bc 3a 0e b1 49 3e ee 9b b2 be
       -0.13660504 0.0014406607 0.19696447 -0.3488459
000370 e0 d7 d8 3c 88 45 74 3d 0c f7 13 3e 3c d7 d4 be
       0.026470125 0.059636623 0.1444971 -0.4157046
000380 68 d5 fb bd 4d c5 b1 3e 7f 31 0a 39 69 df 2b be
       -0.122965634 0.3472084 0.00013179144 -0.16784443
000390 43 a1 92 3d 2c b3 20 be 42 47 84 bd 9d e6 96 be
       0.071596645 -0.15693349 -0.06458904 -0.2947282
0003a0 44 7f 2a 3d ca d9 f3 bc 11 6d 15 be ce 0e 41 be
       0.041625276 -0.029766936 -0.14592387 -0.18853304
0003b0 25 35 ad be ba e7 16 3c ca d3 83 3d 80 80 7b 3d
       -0.3382961 0.009210521 0.0643688 0.061401844
0003c0 db 53 e1 bd 57 d7 33 3d c7 09 27 3e f9 23 d8 be
       -0.11002322 0.043906536 0.16312324 -0.42214945
0003d0 ac 2a 00 be ae e2 2e be 77 27 c9 3e a4 2d 17 bc
       -0.12516278 -0.17078659 0.39287922 -0.00922719
0003e0 6f 4d 2b be d5 5d ac 3d be 44 e5 be 91 30 62 be
       -0.16728757 0.084163345 -0.4477901 -0.22088839
0003f0 fc 6f 0a 3e 47 ae 32 be 0d 21 28 be da 32 84 3e
       0.13519281 -0.17449294 -0.16418858 0.25820047

network_body.linear_encoder.seq_layers.2.bias f4 [128]
000000 55 78 47 bd 8e 73 95 bd 06 e4 ac bd f1 58 c0 bd
       -0.048698742 -0.07297431 -0.084419295 -0.09391964
000010 8c fa 1f be a1 f1 f2 bd fc 3c f2 bc 38 ae 09 be
       -0.1562292 -0.11862493 -0.029570095 -0.13445365
000020 a1 73 21 bc 64 9e 98 3d 85 d3 be bc b7 4d fd bd
       -0.009854228 0.074520856 -0.02329422 -0.123683386
000030 83 5c bb bd 33 5c 62 3a 79 a6 a0 bd cd 0e d5 bd
       -0.091485046 0.00086349546 -0.07844252 -0.10403214
000040 91 c4 bf bd 2a 2a 78 bd f6 56 99 ba 3b d3 d0 bd
       -0.09363664 -0.060587086 -0.001169889 -0.10196539
000050 3a 66 4a be c0 67 99 bd 0a 70 1a bd f8 ea 38 3d
       -0.19765559 -0.07490492 -0.037704505 0.04514596
000060 84 2e 65 bd 10 6f 94 bd 97 d9 48 3d 1c ad 7c bd
       -0.055952564 -0.07247746 0.049035635 -0.061688527
000070 8f 9d 91 bc ac 7e eb bd e1 a4 bb bd 63 0a c0 bd
       -0.017775325 -0.1149877 -0.091623075 -0.09376981
000080 ad b0 f0 bd ec 03 c3 bd 3a 81 05 be 1b a7 11 bd
       -0.11752448 -0.095222324 -0.13037577 -0.035559755
000090 07 ca b5 bd 31 fa ed bc 50 0a f2 bd 67 71 ea bd
       -0.08876424 -0.029049965 -0.11818373 -0.11447411
0000a0 be e6 e7 bd 7d 7c 62 bd e5 f9 59 bd 68 b2 95 bc
       -0.113233075 -0.055294503 -0.053216834 -0.018273547
0000b0 b1 14 da bd 4f d3 38 bd 02 62 e6 bd de 60 42 be
       -0.10648478 -0.045123395 -0.11249162 -0.18982264
0000c0 6f d1 14 bd d2 f9 c6 bd 28 68 ec bd ed a8 cb bd
       -0.036332544 -0.09715618 -0.11543304 -0.099443294
0000d0 59 0f ec bd dc 39 d0 bd c8 30 a4 bd 31 bd ef bd
       -0.11526365 -0.10167286 -0.08017117 -0.11706007
0000e0 0b 37 c8 bc 19 35 f7 bd 08 18 2a bc 64 c6 14 be
       -0.024440309 -0.120706744 -0.010381706 -0.14528805
0000f0 93 94 0c be 0f 5e 75 bd 6b 1c 00 bd ac 88 21 bd
       -0.13728552 -0.059904154 -0.0312771 -0.03943698
000100 5d ee 59 be e4 69 1a bd 1b 51 99 bd 33 f6 8e bc
       -0.21282335 -0.03769864 -0.07486173 -0.017451381
000110 4b 9b 88 bc ad 1f b5 bd 9c cf 91 bd ce b6 53 bc
       -0.016675612 -0.08843932 -0.071196765 -0.012922002
000120 a1 13 f1 bd 40 e7 67 bd 68 a6 b5 bd 3c 7a 03 be
       -0.11771322 -0.05661702 -0.0886963 -0.12839597
000130 4b 38 8b bd 55 32 e3 bd b7 65 ba bd 0c 75 6a bd
       -0.067978464 -0.110935844 -0.09101432 -0.05724053
000140 37 e0 af bd ad fc 15 be c6 bb 51 be c0 10 38 be
       -0.085876875 -0.1464717 -0.20481786 -0.1797514
000150 13 48 74 bd c0 fa 50 bd 2f df af bd 00 82 04 be
       -0.059639048 -0.051020384 -0.08587491 -0.12940216
000160 13 4e f8 bd 31 ea 1f be ab 76 f1 3d 4b d0 a9 bc
       -0.121242665 -0.1561668 0.11790212 -0.020729205
000170 be e3 e9 bb 22 e0 42 bd 87 a7 a3 3d fc f8 04 be
       -0.0071377447 -0.04757703 0.07990938 -0.12985605
000180 21 3c d0 bd eb 11 0a bd 13 bc 0e be 05 c0 88 3c
       -0.10167719 -0.033708494 -0.13938932 0.016693125
000190 b8 25 61 be cb 20 66 bd d9 95 bc bd bc de 6c bd
       -0.21987045 -0.056183618 -0.09208269 -0.057829604
0001a0 48 10 14 be 8d c8 bb bd 6f 8f 45 bd da a9 2d 3c
       -0.14459336 -0.091691114 -0.048232492 0.010599578
0001b0 cd 5b 0d be eb dc 2c bd 0f d6 2e 3e df 2f 1c 3e
       -0.1380455 -0.04220287 0.17073844 0.15252636
0001c0 d2 06 b7 bc 8b 8c 11 bd d5 40 bb bd ac 5c 70 3d
       -0.02234212 -0.035534423 -0.09143225 0.05868213
0001d0 0d da 35 bd 15 06 0a be 40 1d 9d bd 65 8c bc bd
       -0.044397403 -0.13478883 -0.076715946 -0.09206466
0001e0 2d e8 fe bd 3c e7 00 be 11 8a f3 bd 20 18 8b bd
       -0.12446628 -0.12588209 -0.118915685 -0.06791711
0001f0 21 b1 f3 bd 73 22 5c bd a3 ee 03 bd 3c 9e 34 be
       -0.11899019 -0.05374379 -0.032210004 -0.17638487

network_body.linear_encoder.seq_layers.2.weight f4 [128, 128]
000000 8d bc 28 3d d1 e5 2a be 1d 00 d4 bc 52 77 85 3c
       0.04119544 -0.1668923 -0.02587896 0.016292248
000010 8f 48 18 bd 45 0f ef 3d 76 79 88 be af fc ae bd
       -0.037178572 0.11672834 -0.26655167 -0.08544289
000020 cc eb 38 3e 87 d7 50 bd 1e c2 97 bd d4 5e 27 be
       0.180587 -0.050986793 -0.07410072 -0.16344768
000030 76 53 ab 3d 3f ea 89 be ad 95 20 be 79 92 49 be
       0.08365528 -0.26936528 -0.15682097 -0.19684781
000040 93 f4 a3 3d 35 05 13 3e 45 a8 3a be 74 d2 b8 3c
       0.08005633 0.14357455 -0.18228252 0.02256129
000050 60 72 ef 3c 1a 9e 11 bd 53 9b d0 bd ac 76 1d be
       0.029229343 -0.035551168 -0.10185876 -0.15377301
000060 3c 8c d3 bd 42 81 c6 bd ed 9a 52 bc e5 ca 3d 3d
       -0.10329482 -0.09692623 -0.01285432 0.046336073
000070 1b 82 30 bd 6d 11 0b 3e d2 1d 0d bd 88 be 0a be
       -0.04309283 0.13580866 -0.034452267 -0.13549244
000080 63 40 67 bd 15 67 52 bd 1e be 81 bd bd a5 b8 3d
       -0.05645789 -0.051367838 -0.0633509 0.09015987
000090 46 bb 69 be f2 6f c7 3d 19 bd 97 3d 12 e5 f0 bd
       -0.22825345 0.09738149 0.074091144 -0.11762442
0000a0 58 d2 80 be 08 ac fb bc f9 cf 4a 3b 92 3d 0c 3d
       -0.2516048 -0.03072168 0.0030946715 0.034238406
0000b0 6b 8d a8 bd 17 29 bd bd df 7d e3 bc 95 93 fe bd
       -0.08230098 -0.09236353 -0.027769981 -0.12430493
0000c0 55 82 8e bd b2 ba a0 3d b1 f4 fc 3c d6 29 22 be
       -0.069584526 0.07848109 0.030878397 -0.15836272
0000d0 f2 65 2b 3c 53 2c 3d be 18 29 f4 bc 30 bb 33 bd
       0.010461317 -0.1847394 -0.029804751 -0.043879688
0000e0 1c 16 66 3d 1d 3c 7b bc f3 09 45 bd 3f f7 a1 bc
       0.05617343 -0.015334156 -0.04810519 -0.019771216
0000f0 ed d9 ba bd 74 4e 24 3d 4d 68 6f 3d c9 00 5a 3d
       -0.09123597 0.04011388 0.05844908 0.053223405
000100 94 57 8d 3d 2a be cd 3c ca bb 63 bd d1 8d dd bc
       0.0690147 0.025115091 -0.05559901 -0.027045162
000110 be dc 9a 3e d3 04 b2 be 1c 30 1b 3e 7d 9c d6 be
       0.30246538 -0.34769306 0.15155071 -0.41916266
000120 92 ef 18 be 60 78 a9 bc 09 3a 10 bd 53 c9 97 bd
       -0.14935139 -0.020687282 -0.035211597 -0.074114464
000130 ab 35 0d 3e af e9 ff bd 37 66 88 3c d3 7d 83 bc
       0.13790004 -0.124957435 0.016650302 -0.016051209
000140 08 9d 00 be 7a 20 34 bd 9c 46 b6 3c 6e 0b bc 3d
       -0.12559903 -0.043976285 0.022250466 0.091818675
000150 3e 6a 60 bd eb a3 c4 bd a1 23 e5 bc cf da 45 be
       -0.05478882 -0.09601577 -0.02797109 -0.1932175
000160 d3 b6 0e be 94 77 12 be df 58 9f 3a 7a 26 30 3d
       -0.1393693 -0.14303428 0.0012157223 0.043005444
000170 aa f5 22 3d 09 c5 fb 3d e2 dc a6 bc 3e 97 12 bc
       0.039785065 0.12293441 -0.020368997 -0.008947192
000180 fc 0f c8 bd 5f e3 b0 bd 00 e1 f4 3d 72 52 d9 3d
       -0.09768674 -0.086371176 0.11956978 0.10611428
000190 75 d7 ea 3c da 4a 82 be 7b c3 79 3e 8f 07 88 bd
       0.028667191 -0.25447732 0.24390976 -0.06642067
0001a0 8c 49 44 bd f2 ca 7e bc b6 32 4b bd d1 37 95 bd
       -0.047921702 -0.015551316 -0.04960891 -0.07286037
0001b0 32 18 8f bc 56 14 02 be 06 52 81 3d 0e aa 2e be
       -0.017467592 -0.1270307 0.06314473 -0.17057058
0001c0 1d 65 0c 3c 10 16 47 bd 36 87 4c bd e2 21 86 3d
       0.008569029 -0.048605025 -0.049933635 0.065494314
0001d0 67 40 b5 bc a4 bb d4 3d 47 20 0e be ab 8d 07 be
       -0.022125436 0.10387352 -0.138795 -0.13237636
0001e0 97 0c 04 3d cf 55 a3 3d c9 2c 41 be cc 96 28 be
       0.03223857 0.07975351 -0.1886474 -0.16463774
0001f0 ce 8a ca 3b 91 11 03 be 8e 34 53 3e cb 68 c3 bd
       0.0061810976 -0.1279967 0.20625517 -0.09541472
000200 05 a5 12 be c8 61 96 bd 04 9a d6 3d b9 39 34 be
       -0.14320762 -0.07342869 0.10478595 -0.17600144
000210 94 c3 3d bd c1 f1 ba 3d 7a 0a 79 bd 29 f4 8c bd
       -0.046329096 0.09128142 -0.060801007 -0.06882507
000220 91 e4 35 be df 74 67 bc 9d 06 45 bd 25 5e 15 3e
       -0.17762972 -0.014126985 -0.04810201 0.14586695
000230 58 9d a4 3b b4 ad 54 be 69 ec 31 3e 60 93 52 bc
       0.0050236396 -0.20769387 0.1737534 -0.01285252
000240 79 93 a9 bd e2 fa fd bd 15 08 e2 bd f2 de 84 ba
       -0.08280081 -0.12401368 -0.11036698 -0.0010137244
000250 3e dc 7e 3d 57 b1 fd bd 75 12 bd 3a 66 ac 30 be
       0.062221758 -0.123873405 0.0014425056 -0.17253265
000260 f4 dd ad ba d1 b2 be bb f8 c5 de bc b9 ed cf 3d
       -0.0013265 -0.0058196564 -0.027194008 0.10152764
000270 62 87 e5 bd c5 8d 1d 3d 4f 0c ab 3d e1 54 e6 3d
       -0.11207463 0.03846528 0.08351957 0.11246658
000280 10 67 c6 3d 1f 64 7a 3d 13 3c 80 3e 08 0b 40 bd
       0.09687626 0.06113064 0.25045833 -0.04688552
000290 ea 23 20 be 68 35 41 bd 29 6e 21 3d 56 70 8a 3e
       -0.156387 -0.047170073 0.039411698 0.2703883
0002a0 9e b9 0a 3e 99 dc 56 bd 35 8e af 3c 28 cd d0 3d
       0.1354737 -0.052456472 0.021430114 0.101953804
0002b0 89 e8 5c 3e 2e 1d 24 be bf 5f 94 bb de d3 00 be
       0.2157308 -0.16026756 -0.0045280154 -0.12580821
0002c0 bd 32 64 bd 74 03 b4 3d 5e 41 b5 bd 98 93 ba bd
       -0.05571245 0.08789721 -0.088503584 -0.091101825
0002d0 31 f0 2a 3c 14 51 23 3d cd 7c 29 bd 2e 4e 88 bd
       0.010433243 0.039872244 -0.041378785 -0.066555366
0002e0 6f f6 3d be 8d 59 30 3d 95 57 9c bd 2a 5c f5 bc
       -0.18551038 0.043054152 -0.076338924 -0.029951174
0002f0 6d 93 fb 3b 36 37 a8 bd 13 d6 cb bc d2 75 e2 3a
       0.0076774866 -0.08213656 -0.024882352 0.0017277545
000300 8f 10 b9 3d e7 10 52 3c 18 f0 1e 3e c9 4b e2 3d
       0.090363614 0.012821413 0.15521276 0.11049611
000310 01 9b 95 bd bf 73 c9 3d 87 78 b2 bc 16 36 9b 3d
       -0.07304955 0.0983653 -0.021785988 0.075786754
000320 3b 20 8c 3d 5c f2 d3 be 85 92 ed bd 32 81 e2 bb
       0.06842085 -0.41395843 -0.11600212 -0.006912374
000330 f1 22 82 be 5c 2a bb bd d6 90 84 3d 03 bb 3e be
       -0.25417283 -0.09138939 0.06472938 -0.18626027
000340 d6 1e 31 3e aa fe f1 3d ac c8 1b be cd 71 54 be
       0.17296919 0.118161514 -0.15213269 -0.20746537
000350 dc 00 c1 bd 0c 01 28 bd 03 d1 1d bc b5 d5 6a bc
       -0.09423992 -0.041016623 -0.009632352 -0.014333178
000360 55 f1 f7 bd 57 0a 50 be 4e bf df bd c7 7c db bb
       -0.12106577 -0.20316444 -0.1092516 -0.006698224
000370 43 a8 20 be 8a dc 3e 3e c3 31 4f be f7 f4 08 be
       -0.15689187 0.18638816 -0.20233826 -0.13374697
000380 92 b2 06 be 57 1d e5 bc 40 ac 9b bd 85 7e 39 bd
       -0.13154057 -0.027968092 -0.076012135 -0.045286674
000390 18 a8 82 bd 46 bf 04 3e d1 ff ab 3d 51 de 5a 3d
       -0.063797176 0.1296359 0.083984025 0.053434674
0003a0 19 a8 18 3d 02 23 a9 3d 8f ba a3 3c 61 ae 41 3d
       0.037269685 0.0825863 0.019986419 0.04728544
0003b0 ed 13 3b be 42 e4 aa 3c cd ce fe bd 95 f0 f8 3d
       -0.1826932 0.020860795 -0.12441788 0.121552624
0003c0 57 4e 2a bd a2 50 1e be c9 9d 9f bd 9f b2 9a 3d
       -0.041578617 -0.15460446 -0.07793767 0.075536005
0003d0 38 90 82 bd 56 4f 91 bc 57 93 b3 3d a1 bf 2f be
       -0.06375164 -0.017738026 0.08768337 -0.17162944
0003e0 b9 46 90 3d 18 31 9f 3d 19 f5 64 bd 55 da 12 3b
       0.07044739 0.07773036 -0.055897806 0.0022407968
0003f0 aa 79 5d 3d ec 7c 3a bd 94 89 7c bc 46 34 02 be
       0.054071106 -0.04552929 -0.015413661 -0.12715253
