Oversteek Simulator/Learning/results/Oversteek-K-02/Player/Player-2449940.onnx (onnx, 151540 bytes, 8 tensors)

action_model._discrete_distribution.branches.0.bias f4 [2]
-0.051522687 0.05152274
00000000: 7409 53bd 8209 533d

action_model._discrete_distribution.branches.0.weight f4 [2, 128]
0.018335974 0.013429683 -0.047519233 -0.0037669865 0.018517982 0.01620385 -0.016806813 -0.055903073
0.062150925 -0.035918213 -0.13262281 -0.010797924 -0.1455167 -0.040845875 0.025914103 0.063890435
0.004576215 -0.013403142 -0.019537495 -0.04530331 0.012534998 0.0007326673 -0.065456465 -0.20060427
-0.007488134 0.048938584 0.045157105 -0.011949319 0.07793851 -0.015162804 -0.05052226 -0.010791732
0.010328906 -0.022173382 0.010878127 0.07294696 0.06017583 0.027543448 -0.03596942 -0.017418893
-0.032010417 -0.06422738 0.040108435 -0.032599762 -0.025126891 0.015021066 -0.050014 0.0013679755
-0.008807027 -0.019394754 -0.011352394 -0.015398757 -0.00923167 -0.09079395 -0.006427452 -0.011841667
-0.09425853 -0.022211669 -0.10260534 0.039636865 -0.05478423 0.04105298 0.056700062 0.012088098
-0.028711654 -0.087701075 0.024443941 0.0361772 -0.019213837 0.002166292 -0.027651658 0.026334075
-0.010743283 -0.007679977 0.013945649 0.0013122187 -0.06965436 0.05615359 0.086620286 0.0014334739
0.011138145 -0.0061352993 -0.009918817 0.03145702 0.059196144 -0.11124712 0.04489974 0.067142434
-0.09956491 -0.07076048 -0.07258187 -0.05490752 -0.024493005 -0.0018775383 -0.0030854116 -0.013678018
0.048677716 -0.007639295 -0.05220701 -0.029552273 0.020484602 -0.06456252 0.028394328 0.04241816
-0.0017714323 0.01912674 -0.030468015 0.034524042 0.044921447 0.032113995 -0.042531352 0.041903045
-0.01774922 0.06801087 -0.020733193 -0.014784234 0.07894639 -0.0024740207 0.0110768685 -0.023301313
-0.011680185 0.02337377 0.00907011 -0.011765502 -0.029726705 0.0061594057 -0.070336945 -0.04984804
-0.025076013 0.002230438 0.034361884 -0.003563372 -0.011491683 -0.0135303615 0.021600487 0.049985357
-0.09743146 0.033836372 0.11662476 -0.0037510064 0.14870563 0.03930294 -0.014697174 -0.07896045
-0.019112803 0.0034920697 0.01951442 0.053278778 -0.009639673 0.0053708334 0.07215492 0.1952939
0.008483244 -0.041228052 -0.009974941 0.018803583 -0.053625993 0.019279517 0.044273414 0.033473104
-0.014869311 0.004155322 0.00025503052 -0.058245253 -0.06768438 -0.0025917864 0.03064053 0.008088557
0.01815822 0.033486698 -0.038622037 0.010234078 0.035879437 -0.012215168 0.03815895 -0.0030380015
0.0063579576 0.006049165 0.018011453 0.009926588 -0.012549261 0.09902187 0.0017855439 0.014498203
0.10510004 0.019749485 0.083279856 -0.059516042 0.057035297 -0.0362618 -0.07152756 0.02048666
0.02310663 0.06262161 -0.020983264 -0.040238146 0.016086977 0.000269517 0.015911035 -0.034767035
0.0069704596 0.01622405 -0.029821469 -0.022938702 0.07131673 -0.06275206 -0.06872604 0.019712852
-0.025919354 -0.0043802797 0.019826153 -0.027258316 -0.043743838 0.120492235 -0.02078475 -0.06725345
0.09744882 0.07919364 0.069368124 0.06910539 0.023150392 -0.0012808975 -0.0029983583 0.0075251525
-0.061010033 0.012797459 0.05981057 0.04216001 -0.038687456 0.050507918 -0.032191582 -0.046367813
-0.015400884 -0.017732399 0.009019696 -0.03207798 -0.045433518 -0.017662728 0.025476007 -0.06251813
0.011686208 -0.070294455 0.004719939 0.011618268 -0.061860755 0.0012725001 0.005170546 0.032665912
0.009015442 -0.026547864 -0.01660516 0.014999118 0.021975273 -0.000635825 0.0590547 0.05734015
00000000: 5335 963c 2c08 5c3c 87a3 42bd 8cdf 76bb
00000010: 06b3 973c f0bd 843c 71ae 89bc 9ffa 64bd
00000020: f891 7e3d fa1e 13bd 46ce 07be c7e9 30bc
00000030: 5402 15be 014e 27bd d049 d43c fdd8 823d
00000040: 13f4 953b da98 5bbc 190d a0bc f78f 39bd
00000050: 985f 4d3c 7810 403a 0a0e 86bd 356b 4dbe
00000060: 055f f5bb d373 483d a8f6 383d 14c7 43bc
00000070: 3a9e 9f3d 696d 78bc 6ef0 4ebd cecf 30bc
00000080: 923a 293c f4a4 b5bc 2c3a 323c 3765 953d
00000090: ee7a 763d cca2 e13c ac54 13bd 11b2 8ebc
000000a0: 5b1d 03bd a589 83bd be48 243d 5487 05bd
000000b0: e9d6 cdbc eb1a 763c 7bdb 4cbd a44d b33a
000000c0: 594b 10bc bfe1 9ebc 64ff 39bc 114b 7cbc
000000d0: 6e40 17bc 2ef2 b9bd 609d d2bb 8d03 42bc
000000e0: 9e0a c1bd 3ff5 b5bc c022 d2bd 445a 223d
000000f0: 6e65 60bd 2b27 283d 533e 683d 280d 463c
00000100: b434 ebbc 9f9c b3bd a93e c83c 8b2e 143d
00000110: 5666 9dbc 59f8 0d3b bb85 e2bc 8fba d73c
00000120: 9804 30bc 51a8 fbbb 4b7c 643c c1fe ab3a
00000130: f2a6 8ebd 4f01 663d fa65 b13d 67e3 bb3a
00000140: c47c 363c 9f0a c9bb 8982 22bc 14d9 003d
00000150: a877 723d 88d5 e3bd cae8 373d f981 893d
00000160: b0e8 cbbd dfea 90bd cea5 94bd b5e6 60bd
00000170: 8ea5 c8bc bb17 f6ba 9e34 4abb c419 60bc
00000180: 4962 473d 0d53 fabb 05d7 55bd 9c17 f2bc
00000190: 53cf a73c 5b39 84bd 399b e83c aabe 2d3d
000001a0: 682f e8ba aeaf 9c3c 0f98 f9bc 1569 0d3d
000001b0: 8dff 373d f789 033d 5b35 2ebd 87a2 2b3d
000001c0: d066 91bc 4849 8b3d a8d8 a9bc 9239 72bc
000001d0: a5ae a13d 2e23 22bb c17b 353c 65e2 bebc
000001e0: 3f5e 3fbc 597a bf3c cc9a 143c 18c4 40bc
000001f0: 6b85 f3bc d7d4 c93b d10c 90bd 752d 4cbd
00000200: 366c cdbc 8a2c 123b 0cbf 0c3d 7687 69bb
00000210: 9d47 3cbc 73ae 5dbc 81f3 b03c 72bd 4c3d
00000220: 258a c7bd 0298 0a3d f6d8 ee3d 72d3 75bb
00000230: 4a46 183e 1ffc 203d 6acc 70bc 04b6 a1bd
00000240: 7492 9cbc 35db 643b b4dc 9f3c d93a 5a3d
00000250: b8ef 1dbc d1fd af3b f5c5 933d 20fb 473e
00000260: 4efd 0a3c bfde 28bd ef6d 23bc f909 9a3c
00000270: eea6 5bbd 14f0 9d3c 0a58 353d 181b 093d
00000280: 699e 73bc 5e29 883b 9eb5 8539 9392 6ebd
00000290: 1c9e 8abd f6da 29bb d901 fb3c de85 043c
000002a0: 8cc0 943c 5929 093d 2432 1ebd d6ac 273c
000002b0: 51f6 123d 2122 48bc 8f4c 1c3d 3519 47bb
000002c0: 6a56 d03b 1338 c63b c18c 933c 21a3 223c
000002d0: 6a9b 4dbc facb ca3d e908 ea3a df89 6d3c
000002e0: b13e d73d acc9 a13c a18e aa3d 18c7 73bd
000002f0: d89d 693d 4187 14bd 0b7d 92bd a4d3 a73c
00000300: 1e4a bd3c c23f 803d 18e5 abbc c1d0 24bd
00000310: d6c8 833c f64d 8d39 dc57 823c e167 0ebd
00000320: 7468 e43b 4de8 843c 274c f4bc f2e9 bbbc
00000330: 810e 923d 2784 80bd 3dc0 8cbd d97c a13c
00000340: d354 d4bc 7388 8fbb 756a a23c d54c dfbc
00000350: bd2c 33bd a2c4 f63d c844 aabc 2dbc 89bd
00000360: 3f93 c73d 4630 a23d e010 8e3d 2087 8d3d
00000370: e4a5 bd3c cae3 a7ba 1b80 44bb 8e95 f63b
00000380: a8e5 79bd 6fac 513c eefb 743d faaf 2c3d
00000390: bd76 1ebd 64e1 4e3d 52db 03bd 2dec 3dbd
000003a0: fd53 7cbc 8943 91bc 59c7 133c 3364 03bd
000003b0: 7f18 3abd 6db1 90bc 0fb3 d03c 8109 80bd
000003c0: 8277 3f3c 8af6 8fbd b8a9 9a3b 8c5a 3e3c
000003d0: b461 7dbd 05ca a63a af6d a93b b1cc 053d
000003e0: 81b5 133c e87a d9bc 8b07 88bc dcbe 753c
000003f0: 7d05 b43c 7ead 26ba 57e3 713d 81dd 6a3d

action_model._discrete_distribution.branches.1.bias f4 [2]
-0.14634697 0.14634699
00000000: fbdb 15be fcdb 153e

action_model._discrete_distribution.branches.1.weight f4 [2, 128]
0.05977662 0.014799053 0.009936982 0.0056960215 0.13035269 0.0340232 0.024322582 0.047170255
0.075676575 0.036738917 0.06971039 0.09034552 -0.02682961 0.015258649 0.1052058 -0.009878418
0.02605329 -0.007792271 0.031771127 0.0020429147 -0.04115318 -0.012623574 -0.035876364 0.028332282
0.025185209 0.007873798 -0.0741689 0.024043208 -0.06372468 0.10673779 0.028850203 0.070278704
0.065709785 0.011390276 0.09173138 0.00881028 -0.047695164 0.10020801 0.10318944 0.024296507
0.049804877 -0.031939633 0.044291303 0.08630925 0.017663257 0.046782482 -0.03293665 0.0020981578
0.10018576 -0.055263937 0.13106887 -0.0076075373 0.009377638 -0.01877473 0.00028702844 0.02056243
0.04406498 0.06693634 0.03881152 0.0072907577 0.07121363 0.052072298 -0.05030094 0.0034106562
0.07937814 0.11308265 0.04551494 0.005948419 -0.08283134 0.12033036 -0.09362775 0.015542735
0.029848916 0.012095697 0.015489732 0.0018386742 0.072233364 -0.016386405 -0.033433974 -0.01908976
0.009316727 0.0058195987 0.11405074 0.003852073 0.010973971 -0.022735098 -0.02031151 -0.004024493
-0.0023924625 -0.0923428 -0.035185017 0.009834299 0.090678535 0.011109567 0.0003481725 0.0058205076
-0.06408155 0.06138155 0.10432546 0.023147047 -0.02169809 -0.04902799 0.1254791 0.09515585
0.11008092 0.040705606 -0.018103248 0.03326124 0.07176436 0.019214353 0.022243688 0.014462405
0.06301448 0.050266318 0.037540898 0.016856829 -0.025565363 0.008107087 0.008359437 0.03004765
0.060018238 0.12148202 0.101337455 0.050368506 0.010181339 0.08024349 0.06943995 -0.012945338
-0.07584927 -0.013461329 0.011268296 0.0077564833 -0.11278789 -0.021285893 -0.028326765 -0.037408095
-0.08006222 -0.016867721 -0.06670353 -0.08439616 0.034487158 -0.020375447 -0.09004517 0.01893134
-0.033978406 -0.0031969761 -0.017707327 -0.013271252 0.033975117 -0.00078605604 0.029981619 -0.0013920281
-0.03679457 0.007435454 0.06502119 -0.012581384 0.073350474 -0.10112637 -0.029371997 -0.077544235
-0.07982057 -0.018387163 -0.08687663 0.00410922 0.05479409 -0.10408781 -0.12448832 -0.022501888
-0.045048088 0.042757068 -0.04308124 -0.09293841 -0.02677686 -0.05416719 0.031934544 -0.0036252933
-0.08023545 0.046105023 -0.124426164 0.008065411 -0.005351776 0.011141103 0.002161891 -0.026549816
-0.04734771 -0.05149786 -0.04223973 0.005111834 -0.07310784 -0.049146313 0.06889177 -0.015990831
-0.09587575 -0.12589039 -0.045229763 -0.015081974 0.07756411 -0.12861533 0.10488348 -0.028377365
-0.05668466 -0.014121055 -0.0039633038 -0.013163192 -0.07527252 0.029847976 0.038186383 -0.010304966
-0.035932913 -0.0106055895 -0.105789356 0.016622433 -0.006146776 0.025707489 0.012704943 -0.02063539
0.04321855 0.08485563 0.025089314 -0.0005792664 -0.07522439 -0.0022262724 -0.0042598224 -0.014951652
0.054976806 -0.089953244 -0.10519435 -0.053294163 0.0017932092 0.023028547 -0.11929706 -0.0913226
-0.10989609 -0.043952897 0.019981476 -0.046486504 -0.08159106 0.012395838 -0.039168183 -0.019773625
-0.067878395 -0.061744634 -0.024272272 -0.013990342 0.023112059 0.01215694 -0.0028214573 -0.033837676
-0.06266655 -0.121685445 -0.09316811 -0.060484532 -0.012959304 -0.07046171 -0.07273711 0.011936363
00000000: 54d8 743d ba77 723c b9ce 223c b1a5 ba3b
00000010: 2d7b 053e e95b 0b3d 2740 c73c 9935 413d
00000020: 52fc 9a3d 8c7b 163d 52c4 8e3d 1207 b93d
00000030: c5c9 dbbc 6aff 793c 2376 d73d 17d9 21bc
00000040: b66d d53c 4f56 ffbb 7122 023d 6ce2 053b
00000050: 3d90 28bd 1bd3 4ebc 18f3 12bd 1a19 e83c
00000060: 3651 ce3c 1a01 013c dde5 97bd 43f6 c43c
00000070: 1682 82bd 5899 da3d 4357 ec3c 48ee 8f3d
00000080: da92 863d 489e 3a3c a9dd bb3d fe58 103c
00000090: 015c 43bd db39 cd3d fc54 d33d 7809 c73c
000000a0: 3300 4c3d 22d3 02bd cc6a 353d e7c2 b03d
000000b0: 89b2 903c fd9e 3f3d 95e8 06bd 3f81 093b
000000c0: 312e cd3d 705c 62bd eb36 063e a648 f9bb
000000d0: aaa4 193c 76cd 99bc 4e7c 9639 8b72 a83c
000000e0: 7b7d 343d eb15 893d d4f8 1e3d 4fe7 ee3b
000000f0: 74d8 913d c349 553d 5c08 4ebd 5185 5f3b
00000100: 0291 a23d e097 e73d e06d 3a3d f5ea c23b
00000110: 7aa3 a9bd c46f f63d e8bf bfbd f5a6 7e3c
00000120: b785 f43c 082d 463c a5c8 7d3c abff f03a
00000130: 16ef 933d c83c 86bc 10f2 08bd 2162 9cbc
00000140: 2fa5 183c 55b2 be3b 6f93 e93d 1073 7c3b
00000150: 2ccc 333c f53e babc 5364 a6bc e5df 83bb
00000160: dcca 1cbb 391e bdbd 2a1e 10bd 0a20 213c
00000170: abb5 b93d e704 363c ec8a b639 f5b9 be3b
00000180: 303d 83bd 386b 7b3d 96a8 d53d e09e bd3c
00000190: 31c0 b1bc 93d1 48bd 987d 003e 12e1 c23d
000001a0: 1b72 e13d ecba 263d 434d 94bc f03c 083d
000001b0: 31f9 923d 6b67 9d3c 6538 b63c b9f3 6c3c
000001c0: bc0d 813d 0ee4 4d3d 7cc4 193d 5517 8a3c
000001d0: 746e d1bc 96d3 043c 05f6 083c 7d26 f63c
000001e0: afd5 753d 91cb f83d 038a cf3d 354f 4e3d
000001f0: a2cf 263c b356 a43d 8836 8e3d af18 54bc
00000200: dd56 9bbd e88c 5cbc a99e 383c 192a fe3b
00000210: 56fd e6bd c15f aebc 880d e8bc 3b39 19bd
00000220: a9f7 a3bd 2d2e 8abc dc9b 88bd e5d7 acbd
00000230: 6842 0d3d 69ea a6bc 9a69 b8bd e615 9b3c
00000240: f12c 0bbd 5c84 51bb f50e 91bc aa6f 59bc
00000250: 7e29 0b3d 540f 4eba 039c f53c b674 b6ba
00000260: e7b5 16bd 1ca5 f33b d429 853d 2622 4ebc
00000270: c638 963d 581b cfbd 8b9d f0bc 83cf 9ebd
00000280: f878 a3bd ada0 96bc 60ec b1bd a3a6 863b
00000290: c56f 603d fd2b d5bd bbf3 febd e155 b8bc
000002a0: 5884 38bd 0922 2f3d f475 30bd 7e56 bebd
000002b0: 255b dbbc 6ade 5dbd cccd 023d 5496 6dbb
000002c0: 7c52 a4bd 9fd8 3c3d 25d3 febd c924 043c
000002d0: f35d afbb 2c89 363c 83ae 0d3b 007f d9bc
000002e0: acef 41bd 6cef 52bd 9103 2dbd 2c81 a73b
000002f0: 90b9 95bd a54d 49bd 2117 8d3d 34ff 82bc
00000300: 815a c4bd 69e9 00be d842 39bd 621a 77bc
00000310: efd9 9e3d bdb3 03be 26cd d63d a677 e8bc
00000320: 2d2e 68bd ff5b 67bc 9ade 81bb 6eaa 57bc
00000330: 7b28 9abd be83 f43c 5369 1c3d 29d6 28bc
00000340: 642e 13bd 11c3 2dbc 17a8 d8bd c52b 883c
00000350: e56a c9bb 8398 d23c 6528 503c 8d0b a9bc
00000360: ef05 313d cac8 ad3d 1b88 cd3c e9d9 17ba
00000370: 3f0f 9abd a7e6 11bb fb95 8bbb c6f7 74bc
00000380: 5c2f 613d 6839 b8bd 2370 d7bd fb4a 5abd
00000390: 1e0a eb3a 5da6 bc3c 0452 f4bd 5807 bbbd
000003a0: 3411 e1bd f407 34bd 31b0 a33c a268 3ebd
000003b0: 3719 a7bd ea17 4b3c d16e 20bd 4cfc a1bc
000003c0: d403 8bbd f1e7 7cbd a5d6 c6bc bf37 65bc
000003d0: 8055 bd3c e72d 473c 33e8 38bb 6099 0abd
000003e0: 5257 80bd 3836 f9bd ecce bebd a1be 77bd
000003f0: 4353 54bc 3b4e 90bd 32f7 94bd bc90 433c

network_body.linear_encoder.seq_layers.0.bias f4 [128]
0.2290652 0.00469489 0.00040754912 -0.13091893 -0.20231012 0.21011257 0.026167227 -0.14267236
0.27487156 0.05195805 -0.12978558 0.11505488 0.077319 0.09188181 0.21037298 -0.21902579
-0.29333377 -0.0058146077 -0.16379797 0.034471575 0.019672083 0.14303587 -0.059444893 -0.23198375
-0.03382428 -0.14583018 0.0417392 -0.28163436 0.093107454 -0.13877395 -0.10994421 -0.14457105
0.09875644 0.15080515 -0.03669956 0.1136484 0.10650154 0.017327799 -0.024048442 -0.024704235
-0.13126503 -0.19881189 0.15194017 0.06663423 0.13667215 0.19656138 -0.008531069 0.08949914
-0.056446884 0.008502546 0.15869462 0.026109036 0.07970469 0.033463985 0.34371886 -0.26532793
-0.06383007 -0.25772443 -0.0014911033 0.014433992 -0.07526297 -0.084182985 -0.15160295 0.041245468
-0.13994616 -0.24486282 -0.014108476 -0.24247551 0.14107478 -0.16584891 -0.12144306 -0.011646684
-0.03349366 0.020242602 0.080392644 -0.26292202 -0.25430864 0.09909963 0.08890953 -0.15029256
0.05101974 -0.19439639 -0.14132993 0.18308417 -0.06788319 -0.032788087 0.17681168 -0.16404247
-0.10802289 -0.39327604 0.06705674 -0.13940239 -0.2358366 -0.05280851 -0.2708116 0.16129656
0.19936304 -0.21105999 0.17317177 0.19114539 -0.12099661 0.18768738 -0.3183192 0.11854769
0.10813679 -0.03379151 0.041272312 -0.15358707 -0.12793742 0.23632863 0.025497967 -0.19814132
-0.38804412 0.011174836 0.1360029 -0.24839143 -0.11146505 0.13996796 -0.12183976 -0.09409084
-0.2627926 0.16268528 0.03499159 -0.32251433 -0.028936243 -0.022902088 -0.11978215 -0.10712001
00000000: 1190 6a3e 98d7 993b 51ac d539 9d0f 06be
00000010: 622a 4fbe c027 573e a75c d63c b418 12be
00000020: f7bb 8c3e f7d1 543d 83e6 04be e5a1 eb3d
00000030: 6d59 9e3d 882c bc3d 046c 573e 4c48 60be
00000040: d82f 96be 7788 bebb a8ba 27be 1132 0d3d
00000050: 5927 a13c ff77 123e 7d7c 73bd 268d 6dbe
00000060: 548b 0abd 8254 15be b9f6 2a3d 6132 90be
00000070: 1faf be3d c21a 0ebe 6e2a e1bd 6f0a 14be
00000080: d140 ca3d aa6c 1a3e 4752 16bd 7ec0 e83d
00000090: 7b1d da3d 07f3 8d3c 3d01 c5bc 8960 cabc
000000a0: 576a 06be 5895 4bbe 3496 1b3e 8777 883d
000000b0: c9f3 0b3e 6347 493e e6c5 0bbc 534b b73d
000000c0: d934 67bd 434e 0b3c d880 223e 9ee2 d53c
000000d0: 363c a33d 8811 093d ebfb af3e 10d9 87be
000000e0: 57b9 82bd 75f4 83be 2071 c3ba 8d7c 6c3c
000000f0: 7923 9abd 2168 acbd ce3d 1bbe 02f1 283d
00000100: 0c4e 0fbe 52bd 7abe 3d27 67bc 804b 78be
00000110: e875 103e 4cd4 29be 24b7 f8bd bcd1 3ebc
00000120: a630 09bd d0d3 a53c e6a4 a43d b79d 86be
00000130: be34 82be bff4 ca3d 3316 b63d 4be6 19be
00000140: 13fa 503d d90f 47be cbb8 10be 6b7a 3b3e
00000150: 5806 8bbd cd4c 06bd 1f0e 353e c0fa 27be
00000160: 1b3b ddbd 7a5b c9be 0b55 893d 80bf 0ebe
00000170: 267f 71be bc4d 58bd d1a7 8abe ed2a 253e
00000180: d325 4c3e 1c20 58be f153 313e 9ebb 433e
00000190: 12cd f7bd 1f31 403e bcfa a2be 22c9 f23d
000001a0: d276 dd3d f768 0abd 280d 293d ee45 1dbe
000001b0: 0702 03be 2200 723e 1de1 d03c 8fe5 4abe
000001c0: b8ad c6be a916 373c 5844 0b3e 535a 7ebe
000001d0: ca47 e4bd c353 0f3e 2087 f9bd b3b2 c0bd
000001e0: c08c 86be f896 263e 5753 0f3d 9920 a5be
000001f0: b30b edbc 299d bbbc 5850 f5bd bc61 dbbd

network_body.linear_encoder.seq_layers.0.weight f4 [128, 156]
-0.02057466 0.23845041 -0.042533398 0.016284324 -0.13852854 -0.04831897 0.08217332 0.06485218
-0.27669722 0.13705781 -0.036346063 0.09737609 -0.18834533 0.16216224 0.05057571 0.07754767
0.10035567 0.16801599 0.044614874 -0.18047042 -0.21468887 0.30605176 0.091393426 -0.0069608325
0.040119343 0.14381923 -0.09348346 -0.14492485 -0.048696797 0.22971883 -0.014876373 0.06229928
0.24568702 0.0074503277 -0.036012612 -0.059522975 0.14293294 -0.048808776 -0.1969024 0.014989956
0.36147 -0.1899004 -0.24317382 -0.13382304 0.03038244 -0.015584055 0.0046362937 0.14980145
-0.043268446 -0.16744891 0.03913067 0.05498999 -0.0320213 -0.030078666 0.17591362 0.31359595
-0.1748656 0.0003644212 0.029895172 -0.06045982 -0.05312409 -0.015143248 0.17093642 0.038405396
-0.22008601 -0.17296705 0.121094145 0.14283223 0.025693852 0.06739743 0.030606765 -0.21007083
0.0098747695 -0.57386076 0.18435606 -0.03246041 0.013975183 -0.028256157 -0.10990725 -0.07544309
0.055402428 -0.43147868 0.18527324 0.06812964 -0.0010879316 -0.19395427 -0.080178395 -0.0741909
0.08944698 -0.08215211 0.036575872 0.16863048 0.14436162 0.0374038 0.092539966 -0.16347967
0.056311604 -0.32604018 -0.0593463 -0.03660575 -0.077686585 -0.01561241 -0.045257453 -0.2189958
-0.094659515 0.088121526 -0.036538187 0.15399246 0.019437939 -0.058722477 -0.06132908 -0.11546001
0.10643365 -0.097763844 0.018987397 -0.05994365 -0.06792539 -0.25609687 -0.05716835 -0.057512023
-0.0058339066 0.020799885 -0.12117981 -0.099395 0.042859342 0.1398081 0.11019736 -0.076419756
-0.17616507 -0.18025799 0.053910755 -0.05570604 -0.17044206 0.12352958 0.011616935 0.1020539
-0.07492849 -0.033073578 -0.2256833 0.041351397 -0.19442096 0.09483331 -0.032135803 -0.1115894
-0.12239334 -0.13201608 -0.11969205 -0.076095015 -0.07453466 0.02375002 -0.107880704 -0.10628726
0.24828798 0.14704213 -0.25127894 -0.0143228015 0.020312108 0.06598859 0.19629829 0.10748931
0.044080008 -0.068557516 0.019296426 -0.12932765 -0.08033705 0.08092521 -0.15861885 -0.07529438
-0.03457838 0.1430754 -0.008666548 0.1264925 0.23062351 -0.008427957 -0.19237342 0.073905036
-0.0023822815 -0.07067423 -0.051488213 -0.016242195 0.25100705 -0.1131484 -0.15990575 -0.1148736
0.18726468 0.10616186 -0.112580396 -0.031196883 0.041109852 0.09306904 -0.012163228 -0.041149892
0.03524787 0.20088847 -0.04925196 -0.043534767 0.043702506 -0.03741359 -0.089380495 0.0644655
-0.0151887 0.14308366 -0.21097477 -0.028074788 -0.09654248 0.049150407 -0.14608523 0.04055368
-0.13994102 0.011415158 -0.07932273 -0.09908606 -0.20345633 0.1747927 0.1584263 -0.13274391
-0.19284143 0.09474769 -0.01673383 0.088264346 -0.3359254 0.30404106 0.121067785 0.08742869
0.11018142 0.00019324385 0.0419297 -0.20462386 -0.095664725 -0.41297004 -0.08485492 -0.20889105
0.05386414 -0.036723476 -0.05873808 -0.03331775 -0.022460021 -0.058725577 -0.09034285 -0.15015611
-0.07377207 -0.095817104 0.051288392 -0.021208277 0.0040034177 0.07492215 -0.037500013 -0.11277514
0.10256339 -0.3049203 -0.06690629 -0.15753517 0.033826143 0.06510615 -0.113678426 -0.035542957
00000000: 308c a8bc 582c 743e 8037 2ebd b466 853c
00000010: 6dda 0dbe 1dea 45bd 7c4a a83d 38d1 843d
00000020: 42ab 8dbe e258 0c3e 9cdf 14bd 1e6d c73d
00000030: 99dd 40be dc0d 263e 7a28 4f3d 50d1 9e3d
00000040: 4687 cd3d 620c 2c3e 16be 363d 3dcd 38be
00000050: 66d7 5bbe d1b2 9c3e 7a2c bb3d b217 e4bb
00000060: 2e54 243d 5945 133e 4274 bfbd 2e67 14be
00000070: 4b76 47bd 6a3b 6b3e 08bc 73bc 882d 7f3d
00000080: 6195 7b3e e121 f43b f681 13bd 5dce 73bd
00000090: 035d 123e b6eb 47bd c8a0 49be 6f98 753c
000000a0: 9912 b93e 4075 42be 8f02 79be e808 09be
000000b0: 98e4 f83c 4454 7fbc 0dec 973b 8d65 193e
000000c0: 413a 31bd ba77 2bbe 7b47 203d 2f3d 613d
000000d0: c428 03bd 8967 f6bc b322 343e a68f a03e
000000e0: f80f 33be c90f bf39 b8e6 f43c b7a4 77bd
000000f0: a598 59bd 631b 78bc f509 2f3e fa4e 1d3d
00000100: 3a5e 61be 461e 31be 3500 f83d 9d42 123e
00000110: ea7b d23c aa07 8a3d 0abb fa3c cf1c 57be
00000120: c9c9 213c 8ae8 12bf d6c7 3c3e 35f5 04bd
00000130: 2af8 643c 7579 e7bc 0d17 e1bd e881 9abd
00000140: a8ed 623d c6ea dcbe 45b8 3d3e 8d87 8b3d
00000150: ed98 8eba f39b 46be 9234 a4bd 66f1 97bd
00000160: fa2f b73d 5e3f a8bd 95d0 153d 78ad 2c3e
00000170: 88d3 133e ba34 193d 9885 bd3d 3767 27be
00000180: ffa6 663d bdee a6be 1b15 73bd e9ef 15bd
00000190: 251a 9fbd 32cb 7fbc e15f 39bd 6f40 60be
000001a0: d9dc c1bd 0f79 b43d 11a9 15bd 33b0 1d3e
000001b0: 503c 9f3c fb86 70bd 3434 7bbd 4c76 ecbd
000001c0: e3f9 d93d 6938 c8bd 758b 9b3c 7987 75bd
000001d0: 781c 8bbd 211f 83be 5c29 6abd ba91 6bbd
000001e0: 5b2a bfbb 8564 aa3c 1f2d f8bd 9b8f cbbd
000001f0: 478d 2f3d db29 0f3e 27af e13d f681 9cbd
00000200: 9e64 34be 8d95 38be 86d1 5c3d 042c 64bd
00000210: 5d88 2ebe 14fd fc3d f554 3e3c a301 d13d
00000220: 1c74 99bd 2978 07bd 8619 67be 1560 293d
00000230: 4a16 47be f737 c23d d5a0 03bd fc88 e4bd
00000240: 5ca9 fabd 392f 07be 1b21 f5bd b4d7 9bbd
00000250: a1a5 98bd 678f c23c 8ff0 dcbd 23ad d9bd
00000260: 343f 7e3e 3692 163e a2a7 80be 2faa 6abc
00000270: 9465 a63c 0725 873d 6b02 493e 5b23 dc3d
00000280: 3d8d 343d e267 8cbd 8a13 9e3c 786e 04be
00000290: c087 a4bd 1ebc a53d fb6c 22be f133 9abd
000002a0: 0fa2 0dbd 5c82 123e 23fe 0dbc 4087 013e
000002b0: 9228 6c3e 6a15 0abc 8afd 44be 865b 973d
000002c0: 0d20 1cbb a7bd 90bd 4ee5 52bd 5a0e 85bc
000002d0: ff83 803e 59ba e7bd 55be 23be da42 ebbd
000002e0: 50c2 3f3e 646b d93d 8d90 e6bd 9b90 ffbc
000002f0: ce62 283d fb9a be3d 4748 47bc ca8c 28bd
00000300: 1260 103d b5b5 4d3e 6cbc 49bd 8351 32bd
00000310: 6601 333d fe3e 19bd 1f0d b7bd 7d06 843d
00000320: 06da 78bc 8684 123e c509 58be 19fd e5bc
00000330: 10b8 c5bd f051 493d 5e97 15be 9e1b 263d
00000340: b34c 0fbe a506 3b3c f573 a2bd a2ed cabd
00000350: db56 50be dcfc 323e 813a 223e 05ee 07be
00000360: 3978 45be 140b c23d 6315 89bc f0c3 b43d
00000370: 6afe abbe 45ab 9b3e 63f2 f73d d00d b33d
00000380: cca6 e13d 80a1 4a39 7abe 2b3d eb88 51be
00000390: deeb c3bd cf70 d3be 6bc8 adbd 89e7 55be
000003a0: a5a0 5c3d 5b6b 16bd 5797 70bd 3178 08bd
000003b0: 14fe b7bc 3b8a 70bd ac05 b9bd 86c2 19be
000003c0: d015 97bd c23b c4bd c713 523d fbbc adbc
000003d0: 1a2f 833b c970 993d 9d99 19bd a7f6 e6bd
000003e0: c10c d23d 831e 9cbe 2a06 89bd e650 21be
000003f0: 488d 0a3d 6056 853d 3cd0 e8bd 7e95 11bd

network_body.linear_encoder.seq_layers.2.bias f4 [128]
-0.39395136 -0.14184034 -0.06615271 -0.0021554895 -0.3274144 -0.13726026 -0.00063274766 -0.10198169
-0.10712568 -0.10283742 -0.009405985 -0.2438278 0.025820103 -0.1295385 -0.1955795 -0.013405718
-0.17355539 -0.020924611 -0.16652443 0.011575476 -0.0825536 -0.024323264 -0.08308439 -0.05667791
-0.05504096 0.01900137 -0.044532485 -0.052851193 -0.1641017 -0.29884955 -0.052503753 -0.1867045
-0.20323132 -0.18490751 -0.28262973 -0.16816463 -0.12987803 -0.24119708 -0.20304143 -0.041111194
-0.24501242 -0.053016685 -0.16877228 -0.3638632 -0.08070558 -0.21284491 0.041821823 -0.004644635
-0.2202667 -0.067407295 -0.2456708 -0.08316647 -0.19151482 0.10123179 -0.11169679 -0.23692892
-0.096420966 -0.19534887 -0.14523879 -0.023510497 -0.22432207 -0.27683723 -0.092548616 -0.060397245
-0.2255083 -0.19780819 -0.14875562 -0.13746971 -0.085231334 -0.21247308 0.017370554 -0.037037365
-0.25841895 -0.05528547 -0.15300907 -0.1959505 -0.15524867 -0.06527545 0.026342781 -0.116035484
-0.18788028 -0.037027743 -0.345847 -0.10386993 -0.16887273 -0.005133669 -0.119898714 -0.11163755
0.12414137 0.1113942 -0.15258026 -0.0032579182 -0.2621595 -0.06582141 -0.0943359 -0.00022698857
-0.011048918 -0.1971105 -0.18689807 -0.20393856 -0.052714936 0.09690609 -0.17001061 -0.26041412
-0.26290178 -0.031023549 -0.1583256 -0.27647585 -0.2704298 -0.051123317 -0.10383061 -0.13931718
-0.0627344 -0.23632467 -0.28658956 -0.042510994 -0.17808202 0.030522002 0.008530001 -0.40301985
-0.19145656 -0.2884261 -0.25741592 -0.28733414 0.04117619 -0.15999484 -0.027908701 -0.09779679
00000000: feb3 c9be 983e 11be 127b 87bd 1d43 0dbb
00000010: dca2 a7be f48d 0cbe fade 25ba c7db d0bd
00000020: b564 dbbd 6d9c d2bd 8f1b 1abc ffad 79be
00000030: ae84 d33c bea5 04be fe45 48be a8a3 5bbc
00000040: 81b8 31be 176a abbc 6185 2abe 11a7 3d3c
00000050: dd11 a9bd 9541 c7bc 2628 aabd 1927 68bd
00000060: a172 61bd c3a8 9b3c b267 36bd 7e7a 58bd
00000070: 470a 28be cf02 99be 2d0e 57bd 772f 3fbe
00000080: df1b 50be 6558 3dbe d8b4 90be 5933 2cbe
00000090: bffe 04be 5efc 76be 18ea 4fbe 3664 28bd
000000a0: 89e4 7abe 0628 59bd a4d2 2cbe 474c babe
000000b0: f848 a5bd 04f4 59be 5c4d 2b3d 0632 98bb
000000c0: 988d 61be d60c 8abd 2091 7bbe 2f53 aabd
000000d0: 761c 44be 9d52 cf3d 49c1 e4bd 7f9d 72be
000000e0: 5b78 c5bd 8909 48be 7ab9 14be 1699 c0bc
000000f0: afb4 65be 9cbd 8dbe 218a bdbd 1a63 77bd
00000100: a6eb 66be 3b8e 4abe 6553 18be dcc4 0cbe
00000110: c48d aebd 8b92 59be b14c 8e3c 7eb4 17bd
00000120: 7d4f 84be 0473 62bd 69ae 1cbe 3fa7 48be
00000130: 82f9 1ebe 23af 85bd d1cc d73c 03a4 edbd
00000140: b063 40be 67aa 17bd dc12 b1be c2b9 d4bd
00000150: f9ec 2cbe 5638 a8bb 758d f5bd 3aa2 e4bd
00000160: d53d fe3d a422 e43d 003e 1cbe cc82 55bb
00000170: c539 86be 60cd 86bd 2e33 c1bd c803 6eb9
00000180: 8506 35bc 56d7 49be 3562 3fbe 45d5 50be
00000190: 9eeb 57bd b376 c63d 4317 2ebe 0055 85be
000001a0: 109b 86be 1925 febc 1b20 22be 3e8e 8dbe
000001b0: c675 8abe af66 51bd 25a5 d4bd 2aa9 0ebe
000001c0: e57a 80bd 18ff 71be debb 92be 0220 2ebd
000001d0: 225b 36be 4709 fa3c 6bc1 0b3c 9e58 cebe
000001e0: 300d 44be 96ac 93be 05cc 83be 761d 93be
000001f0: 5da8 283d b0d5 23be caa0 e4bc af49 c8bd

network_body.linear_encoder.seq_layers.2.weight f4 [128, 128]
-0.12440972 -0.02676887 -0.10914649 0.10879682 0.22113083 -0.02562873 0.16715802 0.13530514
0.15013796 0.0009772207 0.16279224 0.011061611 -0.11925115 -0.027761072 -0.100264914 0.051336166
0.18562095 0.15807924 0.25266367 -0.14737026 0.054524608 -0.13228425 0.15100743 0.21206601
-0.041727252 0.00705613 -0.1300042 0.3842034 0.01689418 -0.067325555 -0.083465904 0.111625955
-0.0667549 -0.11495345 0.10333995 -0.173029 0.31939006 0.0009485292 0.050031684 -0.09648547
-0.10672617 0.1397125 -0.12298169 0.08533871 0.009753017 -0.25640774 0.1475743 -0.17886294
0.020542368 -0.07606608 0.040607672 0.06883135 -0.15442766 0.053140033 -0.010970115 0.12010469
0.010505989 0.2496872 -0.12677461 -0.004174432 -0.08730398 -0.23738584 0.19238304 0.123706974
0.1155334 0.11388004 0.049210157 0.23788068 -0.17327541 0.083303764 0.040654108 -0.39771953
0.008682304 0.0065500885 -0.23734258 0.28491127 0.41798112 0.0079821795 0.108745836 -0.029576998
0.0022959327 0.112927556 0.20608719 -0.10977132 0.028269103 -0.11958765 0.071560435 0.36721846
0.049529016 0.41098294 -0.017307745 0.24913214 -0.015238466 -0.08574815 0.055548776 0.046026256
0.066508375 0.30913186 -0.15582308 0.14443158 0.0463687 -0.040482398 0.18236467 0.086507455
-0.13555264 -0.054295205 0.15341069 0.3437786 0.19229588 -0.115092486 0.03768896 0.1702216
0.3407636 0.17999966 0.09532042 0.14686413 0.16489485 -0.17154594 0.21548504 0.07951767
0.27648446 0.11954982 -0.008609123 0.30905038 0.14397568 0.17030644 -0.06344639 0.38128462
0.16596265 0.03604002 -0.02935882 -0.14561471 0.0029121614 0.012026782 -0.11526499 0.21904716
-0.013269917 -0.11257201 0.15814932 0.18832089 -0.15790808 0.037247177 -0.12578 0.08550954
0.04096676 0.2844039 0.101212785 0.17751187 -0.020028323 0.04877147 0.10087796 0.26393253
-0.17297359 0.103119954 -0.05369558 0.16172653 -0.11094664 0.1242141 0.043288473 0.011287114
0.033232138 0.07065615 -0.08067083 -0.009311922 -0.104597874 -0.06113624 0.057561096 -0.27180555
0.03983878 0.054274645 -0.111556105 0.18116935 -0.058456052 0.067432374 0.0016613196 0.10365607
0.015485565 0.049775094 -0.06468061 -0.073242284 0.00023612876 -0.107084975 2.3196562e-05 -0.12433099
0.063511156 0.04944297 -0.033617843 0.051996283 0.084845796 0.03914247 -0.09000127 0.0037097656
-0.061618734 0.0636853 0.16904472 0.15959205 0.036804456 0.050869253 -0.04492237 -0.07429577
0.048148856 0.030321095 -0.096691124 0.001248182 0.33390445 -0.075866684 -0.009475433 0.1763244
0.013686014 0.07720786 0.22025439 -0.041921157 0.16058134 -0.037285086 -0.24256021 0.18831216
-0.14316317 0.15905996 -0.19457108 0.14301696 0.01686971 -0.06144748 0.20525855 0.13723376
-0.16873859 0.018936042 -0.025270322 0.05569158 -0.051803175 -0.06424858 -0.04326138 -0.19163139
-0.014756514 0.04667025 0.047041055 0.08083928 -0.0495641 -0.09662819 -0.0867249 0.26197535
0.037092097 0.07228551 0.030571781 0.021775883 0.11622638 0.02101728 0.08818139 -0.03796756
-0.0008441644 0.00016732239 0.16986094 0.07320832 -0.016931808 0.013843608 -0.0044835676 -0.11194142
00000000: 86ca febd 644a dbbc 3288 dfbd ded0 de3d
00000010: 1f70 623e 58f3 d1bc 792b 2b3e 6e8d 0a3e
00000020: c4bd 193e 1616 803a 02b3 263e c23b 353c
00000030: f239 f4bd 306b e3bc b157 cdbd df45 523d
00000040: 6b13 3e3e 86df 213e 225d 813e 3be8 16be
00000050: 3255 5f3d 8675 07be b1a1 1a3e d527 593e
00000060: 32ea 2abd 1c37 e73b d21f 05be 4fb6 c43e
00000070: aa65 8a3c fbe1 89bd 2cf0 aabd 269c e43d
00000080: cbb6 88bd b76c ebbd e5a3 d33d 842e 31be
00000090: 1887 a33e b8a6 783a 06ee 4c3d 2d9a c5bd
000000a0: 4093 dabd cb10 0f3e d3dd fbbd 10c6 ae3d
000000b0: 1ecb 1f3c e047 83be b81d 173e d927 37be
000000c0: 7848 a83c 88c8 9bbd 3b54 263d 73f7 8c3d
000000d0: 4922 1ebe 5da9 593d ffbb 33bc 73f9 f53d
000000e0: 5021 2c3c 00ae 7f3e 34d1 01be acc9 88bb
000000f0: 6ecc b2bd 4615 73be 0f00 453e 155a fd3d
00000100: c69c ec3d f039 e93d 9790 493d fe96 733e
00000110: 1c6f 31be 2a9b aa3d ec84 263d e5a1 cbbe
00000120: 3940 0e3c 20a2 d63b ef09 73be e4df 913e
00000130: 9f01 d63e b0c7 023c 23b6 de3d 764b f2bc
00000140: 5c77 163b 9046 e73d 8508 533e c9cf e0bd
00000150: 9b94 e73c 5fea f4bd 478e 923d 0f04 bc3e
00000160: f0de 4a3d 5b6c d23e f9c8 8dbc 7f1c 7f3e
00000170: c2aa 79bc ba9c afbd 1d87 633d 0786 3c3d
00000180: 8b35 883d 8846 9e3e 1690 1fbe dfe5 133e
00000190: 1bed 3d3d dfd0 25bd cebd 3a3e d22a b13d
000001a0: 50ce 0abe a664 5ebd b117 1d3e c003 b03e
000001b0: 36e9 443e 9cb5 ebbd bd5f 1a3d 924e 2e3e
000001c0: 9178 ae3e d551 383e 5a37 c33d 8d63 163e
000001d0: 32da 283e bda9 2fbe 1ca8 5c3e 29da a23d
000001e0: 5f8f 8d3e 89d6 f43d 470d 0dbc da3b 9e3e
000001f0: 5c6e 133e d064 2e3e 2ef0 81bd bd37 c33e
00000200: 1df2 293e b39e 133d e881 f0bc 061c 15be
00000210: f6d9 3e3b fb0b 453c 0d10 ecbd e64d 603e
00000220: 116a 59bc 278c e6bd e5f1 213e 31d7 403e
00000230: a8b2 21be 7f90 183d 79cc 00be a01f af3d
00000240: c3cc 273d 639d 913e a648 cf3d acc5 353e
00000250: 7012 a4bc 98c4 473d 1b99 ce3d 2a22 873e
00000260: fd1f 31be 8e30 d33d e6ef 5bbd a49b 253e
00000270: fe37 e3bd f663 fe3d 414f 313d 96ed 383c
00000280: 6c1e 083d 2cb4 903d c036 a5bd 0891 18bc
00000290: 6937 d6bd fe69 7abd 2fc5 6b3d 192a 8bbe
000002a0: fd2d 233d 174f 5e3d 8777 e4bd 7584 393e
000002b0: 9d6f 6fbd fc19 8a3d a3c0 d93a a249 d43d
000002c0: 2bb7 7d3c f8e0 4b3d 4577 84bd 0d00 96bd
000002d0: 5599 7739 5e4f dbbd 3d96 c237 3fa1 febd
000002e0: 2312 823d b684 4a3d ddb2 09bd 0efa 543d
000002f0: a2c3 ad3d db53 203d 9652 b8bd 8a1f 733b
00000300: ed63 7cbd 706d 823d 0f1a 2d3e 196c 233e
00000310: 45c0 163d 475c 503d 8500 38bd 6128 98bd
00000320: bc37 453d f263 f83c ff05 c6bd 0a9a a33a
00000330: 86f5 aa3e fe5f 9bbd d93e 1bbc 628e 343e
00000340: 4e3b 603c 281f 9e3d 5e8a 613e 85b5 2bbd
00000350: 6f6f 243e 3fb8 18bd b461 78be e7d4 403e
00000360: 5e99 12be 9de0 223e a43d 47be 0a73 123e
00000370: 5932 8a3c 5ab0 7bbd 4c2f 523e 0287 0c3e
00000380: cfc9 2cbe c21f 9b3c b503 cfbc db1c 643d
00000390: 912f 54bd c294 83bd d832 31bd 053b 44be
000003a0: 4ec5 71bc 4e29 3f3d 1fae 403d 108f a53d
000003b0: ba03 4bbd 00e5 c5bd d39c b1bd a221 863e
000003c0: e2ed 173d 6d0a 943d ac71 fa3c 5663 b23c
000003d0: 1908 ee3d 6e2c ac3c 7298 b43d df83 1bbd
000003e0: ea4a 5dba 4373 2f39 07f0 2d3e 3eee 953d
000003f0: 93b4 8abc 4dd0 623c e4ea 92bb 8b41 e5bd
