Oversteek Simulator/Learning/results/Oversteek-K-02/Player/Player-2399940.onnx (onnx, 151540 bytes, 8 tensors)

action_model._discrete_distribution.branches.0.bias f4 [2]
000000 93 af 82 bd 9b af 82 3d
       -0.063811444 0.0638115

action_model._discrete_distribution.branches.0.weight f4 [2, 128]
000000 ec 2c 20 3d cc b4 bf 3c ac 69 09 bd 90 09 0f 3b
       0.03910534 0.02340164 -0.033548042 0.0021825768
000010 5b e2 1f 3d 29 5b 2a 3d 34 6d 8f bc ec e3 27 bd
       0.03903423 0.041590843 -0.017508127 -0.040988848
000020 d2 8b 4a 3d a2 ba ae bc 3f 32 02 be 1b 06 38 3b
       0.04944975 -0.021329228 -0.1271448 0.002807981
000030 79 ec 0b be 29 56 d9 bc 91 82 22 3d cf 8d c9 3c
       -0.13664426 -0.026530342 0.0396753 0.024603752
000040 1b c2 4d 3b 12 68 8c 3a 61 15 aa bb ec 12 2c bd
       0.0031396213 0.0010712168 -0.005190537 -0.042010233
000050 5e 05 d3 3c 4a 6b 94 3b 9a 0b 71 bd 30 89 3b be
       0.025759395 0.0045293914 -0.058848955 -0.18314052
000060 90 12 80 3b df 31 d4 3c 13 b4 78 3d 68 42 40 3c
       0.003908463 0.025902687 0.060718607 0.0117345825
000070 14 65 b7 3d 4e 10 00 3b 9e 37 0b bd be 6b 5a 3c
       0.08954826 0.0019540968 -0.033988588 0.013331352
000080 5b ad 2b bc 73 d2 ed bb 23 7d 17 3d 6e 1e 85 3d
       -0.010478343 -0.0072577535 0.036984574 0.064999446
000090 20 c9 96 3d 03 3a 46 3d 95 a9 84 bc 5e 1d d9 bb
       0.0736258 0.048395168 -0.016194144 -0.0066258153
0000a0 c3 80 bf bc 8d 9b 4a bd a3 09 0a 3d d0 d6 32 bc
       -0.023376828 -0.04946475 0.033700597 -0.010915473
0000b0 46 d4 0e bc a9 23 e2 3c 5b 8c 15 bd a0 41 9a 3a
       -0.008717602 0.027604895 -0.036510807 0.0011768825
0000c0 53 68 fb b9 e2 c0 b3 bb e8 ce 9c 3c c0 00 82 bc
       -0.00047952178 -0.00548564 0.01914163 -0.015869498
0000d0 ff fa d7 b9 7d a3 ce bd 44 54 ec 3b 36 6d c3 3b
       -0.00041195002 -0.10089777 0.0072121937 0.0059639467
0000e0 78 61 9a bd 09 ee 07 bc 18 32 c1 bd 58 41 23 3d
       -0.07538122 -0.008296498 -0.09433383 0.03985724
0000f0 9f 34 ea bc ab d3 6d 3d f9 b0 82 3d 95 5e 25 3c
       -0.028589545 0.05806319 0.06381411 0.010093351
000100 bb bf 58 bb 38 d2 62 bd f2 f1 a4 3c 37 cd 8a 3c
       -0.0033073265 -0.05537626 0.0201349 0.016943557
000110 cb 53 6d bb ed bb 8d 3c 50 07 da bc bc fb 1c 3c
       -0.0036213275 0.017301524 -0.026614815 0.0095815025
000120 29 f7 cf 3b c1 df 25 3c 10 40 dc 3c bc 8c 0b 3c
       0.0063466025 0.010124148 0.026886016 0.00851744
000130 22 23 66 bd 82 6e 81 3c 71 a7 2e 3d d7 07 5f 3c
       -0.05618585 0.015799765 0.042640153 0.013612709
000140 0c cc a6 3c 29 73 01 bd 84 9a 9d 3c 77 38 31 3d
       0.020360969 -0.031603966 0.019238718 0.04326674
000150 69 43 3f 3d a1 86 d1 bd 61 4d ba 3c 42 92 12 3d
       0.046695147 -0.102307566 0.022741975 0.035784014
000160 40 42 de bd dc ba 89 bd 99 b3 76 bd a9 12 20 bd
       -0.1085248 -0.06725094 -0.06022987 -0.039080296
000170 75 78 62 bc 01 f7 84 3b d3 dc 68 bc 26 28 79 39
       -0.0138226645 0.0040577655 -0.014212805 0.00023761447
000180 f9 d5 88 3d fe 95 7b 3c 72 ef 00 bd 8f b6 36 bb
       0.06681437 0.015355585 -0.031478353 -0.002787981
000190 dc 64 b4 3c fc 91 94 bd 05 29 d4 3c cd 7a 81 3d
       0.02202075 -0.07254407 0.025898466 0.063222505
0001a0 4c 07 45 3c 8a aa 8f 3c 77 06 18 bc 4f 60 41 3d
       0.0120256655 0.017537374 -0.009278885 0.047210988
0001b0 a6 63 80 3d b9 cb d2 3c a5 13 d1 bc a0 d0 5c 3c
       0.062690064 0.025731908 -0.025522063 0.013477474
0001c0 c6 f5 c5 bc ee 3b b4 3d 1c 10 3a 39 06 19 96 bb
       -0.024165045 0.08800493 0.00017744343 -0.0045806197
0001d0 00 84 ba 3d 1d 92 ac 3b e9 4d d8 3b 29 73 0e 3b
       0.09107208 0.0052664415 0.0066010845 0.0021736121
0001e0 45 9e 05 3c f5 9c 3f 3d ba 23 9f 3c d7 ab 30 ba
       0.00815541 0.046780545 0.019426215 -0.00067394733
0001f0 98 a9 16 bd 7a a5 eb 3c 16 bc 4e bd 69 48 10 bd
       -0.03678283 0.028765429 -0.05047234 -0.035225306
000200 49 c8 3b bd a2 ac fd bb 68 0a a7 3c 2a dc 1b bc
       -0.045845304 -0.0077415267 0.020390704 -0.00951294
000210 ca 1a 03 bd be 67 1f bd 4e b2 b6 3c b5 a6 0f 3d
       -0.03200797 -0.038917296 0.02230182 0.035071094
000220 30 87 ad bd ac ac 9d 3c 92 a0 e3 3d 1f 30 8e bc
       -0.084730506 0.019247375 0.11114611 -0.01735693
000230 72 30 0f 3e 52 b2 cc 3c 6d 21 e9 bc 09 81 22 bd
       0.13983324 0.024987374 -0.028458321 -0.03967384
000240 a7 cd 90 bc f5 ee 33 bc b8 53 a9 3b cd bd 4c 3d
       -0.017676188 -0.010982265 0.0051674508 0.049985696
000250 6c 4d bb bc 43 52 ce 3a b8 3d 86 3d 1c 19 36 3e
       -0.022864066 0.0015741069 0.06554741 0.17783016
000260 d4 ed 3e bb a4 07 95 bc fb 31 d1 bc fc ea 9f bb
       -0.0029133456 -0.01819212 -0.025536528 -0.0048803072
000270 57 9a 85 bd b2 ba 0d 3b 92 3e e3 3c 83 30 19 3c
       -0.065235786 0.0021626172 0.027739797 0.009349945
000280 da 92 c2 3b 1e 4c 30 bc 39 c6 d3 bc e6 04 4e bd
       0.005937916 -0.010760335 -0.025851356 -0.05029764
000290 cb 29 a6 bd 88 0c c0 bc 70 04 32 3c b1 3e 31 bb
       -0.0811344 -0.023443475 0.010865316 -0.0027045424
0002a0 5e 0d 1c 3c 28 63 99 3c 01 f3 03 bd 7b 99 3b bc
       0.009524671 0.01872404 -0.03221417 -0.011450167
0002b0 0b 80 9f 3c 54 27 cb bc c8 fa c9 3c 19 93 3a bb
       0.019470235 -0.024799027 0.024655715 -0.0028469025
0002c0 88 13 01 bb f6 c6 00 bc 9f 83 4c bc 89 59 2a 3c
       -0.001969548 -0.007859936 -0.012482553 0.010397323
0002d0 07 0e af bc 40 7d df 3d e2 37 42 bc 4d c1 58 bb
       -0.021368993 0.109125614 -0.011854144 -0.00330742
0002e0 88 95 b0 3d b0 2d bf 3b f8 9d 99 3d 5c ae 74 bd
       0.08622271 0.005834304 0.07500833 -0.059736595
0002f0 6b a5 fc 3c bf 33 5a bd eb 0e a1 bd c0 2a b8 3c
       0.030840596 -0.053272005 -0.078641735 0.022481322
000300 fd 94 16 bb 2c 31 f8 3c 72 98 88 bc 8b 11 ac bc
       -0.0022976988 0.030296884 -0.016674254 -0.021004459
000310 e4 9f 01 3a 5b 8f 73 bc c8 b2 73 3c 08 93 93 bc
       0.0004944785 -0.014865722 0.014874168 -0.018014446
000320 ec cb 25 bc 99 1b cf ba 04 27 2f bd 67 f0 f6 bc
       -0.01011942 -0.0015801071 -0.042761818 -0.03014393
000330 41 f2 6c 3d 58 7c b7 bc f4 b7 ca bc 65 dc f6 3b
       0.05784822 -0.022398159 -0.024745919 0.0075335973
000340 5b f1 0f bd 7b c1 ac 3c a3 e2 18 bc d1 05 20 bd
       -0.035142284 0.021088352 -0.009331378 -0.039068047
000350 0c f1 ff bc ba 75 e4 3d c0 f5 b3 3a aa 06 13 bd
       -0.03124287 0.11155267 0.0013729855 -0.035895027
000360 d1 ec d9 3d 40 00 9b 3d c1 89 69 3d 09 3a 5a 3d
       0.10640872 0.07568407 0.057016138 0.053278003
000370 fe 78 4c 3c f5 75 ec bb aa 2f 05 3c 2f 67 d1 bb
       0.012480019 -0.00721621 0.00812904 -0.0063904743
000380 b8 17 a2 bd 29 13 27 bc 56 14 20 3d 32 3e 7c 3c
       -0.0791468 -0.010197439 0.039081894 0.015395688
000390 69 c1 24 bd be 92 6f 3d 84 44 f3 bc 8c 91 89 bd
       -0.040223513 0.058489554 -0.029695757 -0.06717214
0003a0 9b 30 ef bc 63 3e 84 bc 12 62 47 bc 6d 5b 37 bd
       -0.029197982 -0.01614303 -0.012169378 -0.044764925
0003b0 26 70 81 bd 17 d2 38 bc bf b7 0a 3c a4 a4 0b bd
       -0.06320219 -0.011280558 0.00846666 -0.03409256
0003c0 e6 4a 94 3c 31 e9 b8 bd 65 a2 84 bc 06 6b b9 3a
       0.01810212 -0.09028853 -0.016190717 0.0014146275
0003d0 2d 86 97 bd 23 f1 d3 bb cb 0b 1e 3c 4c a2 eb 3b
       -0.07398639 -0.0064679547 0.009646366 0.007190978
0003e0 19 47 31 bc 45 9d 4c bd 03 de dc bc 20 0b 80 3b
       -0.010820174 -0.04995467 -0.026961332 0.003907576
0003f0 50 d3 ed 3c b0 65 be bc db 85 20 3d 6d f8 2e 3d
       0.029031426 -0.023241848 0.039190155 0.042717386

action_model._discrete_distribution.branches.1.bias f4 [2]
000000 76 32 06 be 7b 32 06 3e
       -0.13105187 0.13105194

action_model._discrete_distribution.branches.1.weight f4 [2, 128]
000000 f9 3b 50 3d 10 89 67 3c 46 74 22 bc 23 9b 6d bc
       0.050838444 0.014131799 -0.009915417 -0.0145023195
000010 a3 38 f1 3d e9 a8 c7 3c ba 4e a5 3c d8 d4 ef 3c
       0.11778381 0.024372535 0.020179141 0.029276296
000020 69 17 b1 3d c8 9b 51 3c e0 f8 9e 3d 3b 35 a6 3d
       0.08647043 0.012793489 0.07762313 0.08115622
000030 a5 fc 1e bd 1a 68 dd b9 ec d0 c6 3d 94 9d 46 bb
       -0.03881516 -0.00042229966 0.097078174 -0.0030306326
000040 c7 1c ae 3c 8c 38 74 bb db d8 a4 3c d8 cf 9b bc
       0.021253956 -0.003726515 0.020122936 -0.019020006
000050 0e a5 b7 bd 85 b6 d9 bc 06 cb 41 bd ac 38 a8 3c
       -0.089670286 -0.02657629 -0.04731276 0.020534836
000060 e4 9d 53 bb 97 be 58 3b a0 48 a8 bd 53 18 8d 3c
       -0.0032290155 0.0033072585 -0.08216977 0.017223513
000070 4c be 84 bd 1a df d1 3d d1 82 d5 3c 56 87 5e 3d
       -0.06481609 0.10247631 0.026063355 0.054328285
000080 a8 a1 7b 3d 2c ba 65 bb 63 67 7f 3d a9 5f d0 38
       0.061433464 -0.0035053594 0.062354457 9.936031e-05
000090 7f f0 60 bd 6b 56 a6 3d a2 67 d9 3d c5 2a 73 3c
       -0.054916855 0.08121952 0.106154695 0.01484174
0000a0 51 1b 00 3d 97 ae 56 bd e5 0d 3d 3d 8f 6e a0 3d
       0.03127605 -0.052412596 0.04615583 0.078335874
0000b0 88 78 78 bc 1f a8 43 3d 04 9b 37 bd 3d 1c 11 ba
       -0.015165456 0.047767755 -0.04482557 -0.0005535519
0000c0 de e9 b7 3d 31 b0 8c bd f2 6f d6 3d ea 06 89 bc
       0.089801535 -0.06869543 0.104705706 -0.01672693
0000d0 32 cd 40 bc 7d 6c 10 bd 2f c2 18 bb 53 9e ae 3c
       -0.011767672 -0.035259712 -0.0023309102 0.02131573
0000e0 ff 4f 09 3d 8e 0c 46 3d ae 12 ed 3c cb f2 e2 b9
       0.033523556 0.048351817 0.028939571 -0.00043286974
0000f0 04 52 55 3d 57 8d 24 3d a8 6e 7c bd a2 45 70 bc
       0.05208017 0.040173855 -0.061628968 -0.014665039
000100 95 47 33 3d c1 cb a7 3d d5 f3 f5 3c 5c 50 cb 3a
       0.043769438 0.0819316 0.030023495 0.001551162
000110 f2 c2 fe bd 31 ac f2 3d d6 8d b3 bd d0 fd 65 3c
       -0.124395266 0.11849249 -0.087672874 0.014037564
000120 57 63 85 3c 82 4a 4b bb 4c a7 eb 3b 9c 5b 92 bc
       0.01628272 -0.0031019752 0.007191574 -0.017865948
000130 a2 9b 26 3d 32 3c 48 3b 8f 11 7d bb 38 77 48 bc
       0.040675767 0.0030553457 -0.0038615202 -0.012235455
000140 f4 78 3c 3b c0 5e 94 b9 b9 b9 ae 3d 29 29 f9 bc
       0.0028758617 -0.00028299354 0.085315175 -0.030415135
000150 89 c2 53 3c 45 f3 45 bd e3 14 a9 bc 85 d3 ac bc
       0.012924799 -0.048327703 -0.020639842 -0.021096954
000160 03 63 63 bc 0a 0a d5 bd bd c0 67 bd d1 07 62 bc
       -0.013878587 -0.104023054 -0.056580294 -0.013795809
000170 95 9c b9 3d 27 a3 b3 3b 4a 17 1a bc 2f 68 6f 3c
       0.09063069 0.0054820958 -0.009404967 0.014612242
000180 7c f4 b5 bd b9 e3 56 3d a8 03 b3 3d 42 3a e9 3b
       -0.08884522 0.052463267 0.08740932 0.0071175406
000190 cf 98 15 bd 84 3c 90 bd 03 1b 02 3e dc 8c a7 3d
       -0.036522683 -0.070427924 0.12705617 0.08181164
0001a0 e4 e5 df 3d e3 fe 16 3d 0a 23 40 bd eb 3d 00 3d
       0.1093252 0.036864173 -0.046908416 0.03130905
0001b0 d4 e6 46 3d 95 5c 73 3c 89 f2 98 3c 5a 44 0f 3c
       0.04855998 0.014853616 0.018670337 0.008744324
0001c0 81 74 90 3d 72 7a e6 3c b4 43 07 3d 4b e6 c1 3b
       0.07053471 0.028134558 0.03302355 0.0059173456
0001d0 81 c6 25 bd ba af d6 3b 48 e0 3d 3c fd b4 6a 3c
       -0.04047251 0.00655171 0.011589117 0.0143253775
0001e0 9e 93 7b 3d ad 85 c7 3d 4a 28 b7 3d 4e 44 39 3d
       0.061420076 0.097422935 0.089432314 0.045231156
0001f0 c5 ed 86 bc 69 29 92 3d 19 59 37 3d 8f 69 df bc
       -0.0164708 0.071368046 0.044762705 -0.027272014
000200 ab 08 89 bd 4d 9e 51 bc c2 f0 fe 3c 7c 01 e5 3c
       -0.066911064 -0.0127940895 0.031120662 0.02795481
000210 7a 3f cd bd 8d a1 3e bc 2d 1c c6 bc 26 dc 9f bc
       -0.10021873 -0.011635196 -0.024183357 -0.019514155
000220 c2 12 ba bd 54 eb e7 3b 6b d0 98 bd 11 06 9a bd
       -0.09085609 0.007077614 -0.074616276 -0.07520688
000230 4b 5a 3e 3d a2 d4 99 bb 64 c4 a7 bd 0c fa 45 3c
       0.04647283 -0.0046945373 -0.081917554 0.012083542
000240 9b 08 ef bc 38 fc ed bb db 8b c6 bb c9 50 ff 3b
       -0.029178908 -0.007262733 -0.0060591525 0.0077916128
000250 b0 f1 a8 3d 0c b9 57 3c d5 a5 29 3d fe e3 d1 3b
       0.08249223 0.013166677 0.041417915 0.0064053526
000260 e3 4d 09 bc f9 a3 44 3c 9b 8c 95 3d 85 cc bc bb
       -0.008380386 0.012001985 0.07302209 -0.0057616853
000270 fb 74 98 3d 1b 61 c6 bd 27 c9 d9 bc e4 49 7c bd
       0.07444187 -0.0968649 -0.026585175 -0.061593905
000280 02 b7 9a bd 01 d2 64 bb d8 84 6b bd a0 0b 52 3c
       -0.07554437 -0.003491521 -0.057499737 0.012820154
000290 1b 04 7e 3d 8c 48 ae bd 31 83 02 be 90 c3 55 bc
       0.062015634 -0.08509931 -0.12745358 -0.013047114
0002a0 ee 3e d9 bc c1 7e 81 3d 11 19 38 bd 22 02 ae bd
       -0.026519265 0.063230045 -0.04494578 -0.084965006
0002b0 a6 4e c6 3b 8a e7 61 bd 40 80 33 3d 9e 38 7f ba
       0.006051856 -0.055152453 0.04382348 -0.00097359146
0002c0 2c 0e 8f bd 9b dc 73 3d 42 d5 c8 bd 16 c7 8c 3c
       -0.06985125 0.059536558 -0.09806301 0.017184775
0002d0 6b 61 81 3c 11 50 e2 3c 07 a0 9c 3b c6 aa df bc
       0.015793523 0.02762607 0.004779819 -0.02730311
0002e0 31 c2 16 bd 44 d0 06 bd 0a 94 04 bd c6 4b 52 3c
       -0.03680629 -0.03291346 -0.032367744 0.012835449
0002f0 44 14 5d bd 3d 91 18 bd 40 4a a4 3d f5 a1 08 3b
       -0.053974405 -0.037247885 0.080219746 0.0020848487
000300 91 da 76 bd b0 06 c2 bd cd 9d f3 bc 02 0f 2f bc
       -0.060267035 -0.09473932 -0.029738331 -0.0106847305
000310 6a f9 f3 3d f4 d1 01 be 16 9b ca 3d e8 22 dc bc
       0.11912806 -0.12677747 0.098928615 -0.026872113
000320 31 9d 30 bd f6 1d 8d 3a 26 0b 8e 3b b2 59 d6 3b
       -0.04311866 0.0010766375 0.004334825 0.0065414542
000330 69 0e 33 bd cc 7e 2a 3c 7a 21 0d 3c a8 91 8c bc
       -0.043714914 0.010406207 0.0086139385 -0.017159298
000340 70 99 f1 bc b6 8d 93 bb 60 ce 9d bd c7 71 50 3d
       -0.02949211 -0.0045029772 -0.077053785 0.050889757
000350 0c ac 04 bc 0b 20 52 3d bf 89 55 3c 94 80 69 bb
       -0.00809766 0.05130009 0.0130333295 -0.0035629617
000360 0e 12 60 3d 99 b4 c5 3d 97 66 3e 3d 1a d5 bc 3c
       0.05470472 0.09653587 0.046484556 0.023050833
000370 2a f6 99 bd 87 e6 5e 3b 4a 01 b4 3b 82 81 c2 bc
       -0.07517655 0.0034011917 0.0054933177 -0.023743395
000380 e9 4e a3 3d 8b f5 a5 bd 35 cb b4 bd 98 a2 18 bd
       0.07974035 -0.08103474 -0.08827821 -0.037264436
000390 34 22 88 3c af fa 35 3d ee 8c f7 bd 22 b3 9f bd
       0.016617872 0.044428524 -0.12087427 -0.07797839
0003a0 01 85 df bd ed 4b 24 bd 7f d4 47 3d 9c 69 36 bd
       -0.1091404 -0.04011147 0.048786636 -0.04453431
0003b0 e2 26 6f bd 0c 45 89 3c e9 cb 11 bd 42 49 66 bc
       -0.05838669 0.016756557 -0.035594855 -0.014055552
0003c0 96 6a 9a bd 18 41 22 bd 26 d5 a1 bc 2c f1 47 bb
       -0.07539861 -0.03961286 -0.019754957 -0.003050874
0003d0 0d ba 1b 3d c7 a9 60 3c 9b 48 c6 bb d1 66 94 bc
       0.03801923 0.013712353 -0.0060511357 -0.018115433
0003e0 41 36 83 bd 58 f0 c7 bd 31 6d a6 bd b6 b3 62 bd
       -0.064068325 -0.09762639 -0.08126295 -0.055347167
0003f0 d8 57 60 3c d7 41 7c bd 77 da 44 bd 8c 25 d7 3c
       0.013692819 -0.061586227 -0.048059907 0.026263021

network_body.linear_encoder.seq_layers.0.bias f4 [128]
000000 e9 65 65 3e ad 5a d0 3c 14 98 d5 bc bb 70 f6 bd
       0.22402157 0.025433863 -0.026073493 -0.120332204
000010 d2 65 52 be 46 30 5d 3e 93 77 66 3b 51 7d 0f be
       -0.20546654 0.21600446 0.0035166487 -0.14012648
000020 0f 9f 7a 3e 25 55 25 3d 10 62 09 be 13 c2 ce 3d
       0.24474739 0.040364403 -0.13416314 0.100956105
000030 34 7a af 3d c6 5e bf 3d 8b 7a 3e 3e 47 b3 60 be
       0.0856823 0.093442485 0.18601434 -0.21943389
000040 62 ee a1 be d9 97 a9 bb 86 7c 27 be be 02 33 3d
       -0.31627184 -0.0051755724 -0.16356096 0.043703787
000050 e5 01 02 3d c0 f3 08 3e 7e 69 37 bd b9 7d 68 be
       0.031740088 0.13374233 -0.04477834 -0.2270421
000060 99 bf 08 bd b5 ac 03 be 0e ae 29 3d a5 fa 9d be
       -0.033385847 -0.12858851 0.041425757 -0.3085529
000070 2a 29 ce 3d 37 38 11 be 8b 59 f4 bd 7a 5b 26 be
       0.10066445 -0.141816 -0.119311415 -0.16245833
000080 07 5c 7e 3d 02 3d 01 3e 3e 05 26 bc 61 14 cb 3d
       0.062099483 0.12620929 -0.010133086 0.09915996
000090 f3 95 f1 3d b5 51 52 3c ca 5f d3 bc 6f 1c 04 bd
       0.11796179 0.012836863 -0.025802512 -0.03225368
0000a0 d3 1d 14 be cb 49 63 be 0a 2a 22 3e 23 42 a9 3d
       -0.14464502 -0.22196119 0.15836349 0.08264568
0000b0 7f dc 0a 3e 2b 9f 42 3e fd ab 10 3c 41 32 a9 3d
       0.13560675 0.1900603 0.008830068 0.08261538
0000c0 50 ba 3e bd 71 34 8c 3c 62 b6 20 3e 85 f6 cf bc
       -0.0465644 0.01711485 0.15694574 -0.025386104
0000d0 11 40 b8 3d 4b cd dd 3c 00 3a ac 3e 7f e9 89 be
       0.08996595 0.02707543 0.33638 -0.26935956
0000e0 1f 87 99 bd 1e 0c 8d be 13 f6 fc 3b eb 37 5c 3c
       -0.074964754 -0.27548307 0.007719764 0.013441066
0000f0 f6 32 a3 bd 71 53 a3 bd c2 11 15 be 79 0b 9a 3c
       -0.079687044 -0.079748996 -0.14557555 0.018804299
000100 aa 2c 15 be 30 98 65 be b0 10 98 bc 35 15 87 be
       -0.14567819 -0.22421336 -0.018562645 -0.26383367
000110 14 59 22 3e ae 2e 23 be 4d eb f8 bd b0 a6 4f bc
       0.15854293 -0.15935776 -0.12154255 -0.012674019
000120 34 c9 41 bd 54 77 88 3c c2 47 ba 3d 2b b2 7d be
       -0.047311023 0.016658463 0.09095718 -0.24774997
000130 8c e4 84 be cb e2 af 3d ea 6c dc 3d 23 f7 2b be
       -0.25955617 0.08588179 0.10762961 -0.16793494
000140 c2 3c 53 3d e6 e1 5d be c1 25 3d be 85 c1 01 3e
       0.051571615 -0.21668205 -0.18471433 0.12671478
000150 cb 5a 94 bd ea d6 2e bd cc 45 31 3e e5 ef 3b be
       -0.0724388 -0.042685427 0.17311782 -0.18353231
000160 1a 5e 00 be a1 33 d6 be 3e d3 3e 3d 0e 0f 05 be
       -0.12535897 -0.41836265 0.046588175 -0.12994024
000170 f6 bb 79 be 41 ba 8d bd 5a 5c 8d be 17 fb 0c 3e
       -0.24388108 -0.06920291 -0.2760952 0.13767658
000180 ad 41 2e 3e b0 6e 42 be e3 94 e7 3d 9c ea 29 3e
       0.17017241 -0.18987536 0.11307695 0.16593403
000190 dc ba da bd 9e ba 14 3e 4f 1b 9d be cd 90 0a 3e
       -0.10680172 0.14524314 -0.30684897 0.135318
0001a0 eb d8 d5 3d 3b 54 16 bd 81 b3 06 3d d3 19 27 be
       0.104417644 -0.036701422 0.032886032 -0.16318445
0001b0 2d 32 f8 bd d7 fc 6c 3e cd b2 21 3d 80 b3 81 be
       -0.12118945 0.23143326 0.03947716 -0.2533226
0001c0 f9 89 c5 be 52 fb a9 bc 01 c3 01 3e 73 a6 58 be
       -0.38581827 -0.020749722 0.12672044 -0.21157245
0001d0 41 ce e1 bd aa 0d 05 3e 35 36 21 be 73 fa 01 be
       -0.11025668 0.12993494 -0.15743335 -0.12693195
0001e0 30 e1 75 be 68 31 2a 3e 2c b5 71 3b 95 55 b8 be
       -0.24011683 0.1662041 0.0036881668 -0.36002794
0001f0 00 60 7a bd 13 8d 50 bd ce 30 e8 bd 66 ec 14 be
       -0.06112671 -0.05091579 -0.11337434 -0.14543304

network_body.linear_encoder.seq_layers.0.weight f4 [128, 156]
000000 fe 25 d4 bc 71 ee 81 3e 5d 60 28 bd 17 3e 99 3c
       -0.025897022 0.2537723 -0.041107524 0.018706365
000010 5b 65 1f be b3 ff 6b bd 0a 48 bc 3d 25 d6 86 3d
       -0.15566008 -0.0576169 0.09193428 0.065838136
000020 d6 8b 93 be 07 b7 07 3e 55 9b 1b bd 5e f6 c9 3d
       -0.28817624 0.13253413 -0.037989933 0.09861444
000030 43 95 4d be 35 ff 16 3e c7 3a 4a 3d fc 0e 9c 3d
       -0.2007647 0.14745791 0.04937246 0.076200455
000040 87 26 c9 3d 04 c6 32 3e b5 0d 34 3d 22 98 35 be
       0.09821802 0.1745835 0.043958385 -0.17733815
000050 ff ea 61 be 28 fa 9c 3e f8 85 b3 3d da ce cf bb
       -0.220623 0.30659604 0.08765787 -0.0063417973
000060 98 88 ea 3c bf e1 12 3e 28 95 b4 bd 89 cf 0f be
       0.028629586 0.14343928 -0.08817512 -0.14044012
000070 5a a3 62 bd 75 00 61 3e e5 d7 6a bc 95 0e 7e 3d
       -0.055331565 0.2197283 -0.0143337 0.062025625
000080 3b 1b 7a 3e c4 aa a4 bb c7 67 1e bd 6a 32 7d bd
       0.2442445 -0.0050252397 -0.03867319 -0.061815657
000090 44 dd 1a 3e f4 64 68 bd da d6 4b be 26 24 67 3c
       0.15123469 -0.0567369 -0.19906178 0.01410774
0000a0 f4 4a ba 3e 15 58 4b be e4 60 7c be 25 19 0a be
       0.3638531 -0.1985782 -0.24646336 -0.13486154
0000b0 6d a2 24 3d 9e ef e5 bc d2 0a 0a 3c ae cb 18 3e
       0.040193964 -0.02806836 0.008425431 0.14921448
0000c0 b3 cf 53 bd 9f 62 34 be 1c 5c 22 3d d7 56 61 3d
       -0.05171175 -0.17615746 0.039638624 0.055014458
0000d0 ae dc c0 bc b0 8e f8 bc 4b bb 33 3e 2f 4f a0 3e
       -0.023542728 -0.030341476 0.17551915 0.31310412
0000e0 1c 0b 30 be c0 35 f1 bc fb 30 d9 3c 45 18 80 bd
       -0.17191738 -0.029444575 0.026512614 -0.06254629
0000f0 f5 2f 1b bd a3 72 c1 bc 8c 39 31 3e 87 bc 1d 3d
       -0.037887532 -0.023614233 0.17307109 0.03850987
000100 2d 19 59 be 6f b9 31 be 01 f0 ef 3d 41 2f 12 3e
       -0.2120101 -0.17355894 0.11715699 0.14275838
000110 5b 13 3a 3c aa 07 8a 3d 0a bb fa 3c a6 0d 4a be
       0.011357154 0.06739743 0.030606765 -0.19731769
000120 c9 c9 21 3c 7e ad 09 bf d8 fd 35 3e db 6e 20 bc
       0.0098747695 -0.53780353 0.17772615 -0.009792055
000130 f2 df 3e 3b 75 79 e7 bc 0d 17 e1 bd 72 52 a2 bd
       0.002912518 -0.028256157 -0.10990725 -0.079258814
000140 a8 ed 62 3d a2 b7 cc be b8 21 42 3e 7b 18 c8 3d
       0.055402428 -0.3998385 0.18958175 0.09770294
000150 05 e8 09 bc f3 9b 46 be 92 34 a4 bd 86 96 13 bd
       -0.008417134 -0.19395427 -0.080178395 -0.036032222
000160 fa 2f b7 3d 92 97 b2 bd 5a 16 28 3d 9d 0b 3a 3e
       0.08944698 -0.08720316 0.04103694 0.18168493
000170 ca 0b 1b 3e ba 34 19 3d 98 85 bd 3d d0 89 38 be
       0.15141216 0.0374038 0.092539966 -0.18021321
000180 ff a6 66 3d be a8 a2 be 08 34 da bc 3b 96 33 bc
       0.056311604 -0.31769365 -0.026636139 -0.010961111
000190 7c 2f a7 bd 32 cb 7f bc e1 5f 39 bd fa 92 36 be
       -0.08163354 -0.01561241 -0.045257453 -0.17829505
0001a0 38 d6 cd bd 35 5a aa 3d 1c be d6 bc e2 56 2d 3e
       -0.100506246 0.08317987 -0.026213698 0.16927674
0001b0 0f 1a e7 3c fb 86 70 bd 34 34 7b bd d2 ea 0d be
       0.028210668 -0.058722477 -0.06132908 -0.13859108
0001c0 e3 f9 d9 3d 37 48 9a bd cb 66 c3 3c 71 c1 03 bd
       0.10643365 -0.07533305 0.023852726 -0.032166902
0001d0 42 54 b1 bd 21 1f 83 be 5c 29 6a bd 7b 60 91 bc
       -0.08658649 -0.25609687 -0.05716835 -0.0177462
0001e0 27 a2 3f bc 0a f7 9f 3c b3 77 89 bd 53 4f a1 bd
       -0.011696375 0.019526977 -0.06712284 -0.07876458
0001f0 a3 e0 ba 3d db 29 0f 3e 27 af e1 3d 92 0d f2 bd
       0.09124877 0.1398081 0.11019736 -0.118189946
000200 9e 64 34 be 82 5f 2a be ea 8d 83 3d 26 83 d6 bc
       -0.17616507 -0.16637996 0.06423552 -0.026185583
000210 72 24 3c be 14 fd fc 3d f5 54 3e 3c 6a 63 12 3e
       -0.18373278 0.12352958 0.011616935 0.14295736
000220 b8 76 a5 bd ac dd 15 bd 97 54 46 be 35 99 6b 3d
       -0.080792844 -0.036588356 -0.19368206 0.057519156
000230 17 46 29 be f7 37 c2 3d d5 a0 03 bd 7e ed 13 be
       -0.16530643 0.09483331 -0.032135803 -0.14446065
000240 ae 71 02 be b4 f3 ed bd a0 6a f1 bd db d1 48 bd
       -0.12738678 -0.11618748 -0.11787915 -0.04902826
000250 d5 14 a5 bd 67 8f c2 3c 8f f0 dc bd 73 b1 80 bd
       -0.08060614 0.02375002 -0.107880704 -0.06283846
000260 1a 42 78 3e d5 ca 14 3e 91 0b 75 be e3 0c 95 bb
       0.24243966 0.145305 -0.23930193 -0.0045486554
000270 65 2d f6 3c fd fe 9c 3d 7d d2 50 3e cf e6 de 3d
       0.030050943 0.07665823 0.20392795 0.10883867
000280 a1 da 1a 3d ef 2d a3 bd 9c 24 47 3d 6a 6c fe bd
       0.037806157 -0.079677455 0.048618898 -0.12423022
000290 04 b6 9d bd cf 1d 83 3d 40 bb 23 be be 73 a8 bd
       -0.07700732 0.0640217 -0.15989399 -0.08225201
0002a0 1f a8 21 bd b4 6e 00 3e 49 93 42 bb bf 24 02 3e
       -0.039466973 0.1254223 -0.002968984 0.1270933
0002b0 b4 00 73 3e f4 8f bc bb 80 74 5a be c7 52 63 3d
       0.23730737 -0.0057544652 -0.21333504 0.055498865
0002c0 85 12 31 3b 55 a7 be bd 98 49 3b bd bc 5a 60 bc
       0.0027019095 -0.0930926 -0.04572448 -0.013693508
0002d0 e9 70 88 3e 16 73 d6 bd 35 2a 40 be 6f d8 09 be
       0.26648644 -0.1047117 -0.187661 -0.13461469
0002e0 ea 80 48 3e 11 dd 88 3d 01 ff cf bd 18 89 e3 bc
       0.19580427 0.0668279 -0.1015606 -0.027775332
0002f0 e5 72 87 3d d5 3c aa 3d 0c 1d ff bc b8 a4 6a bd
       0.06613711 0.08312384 -0.03114178 -0.057285994
000300 54 5b 59 3d 9d 56 2d 3e a0 d5 3d bd ed da 24 bd
       0.053065613 0.16927572 -0.046346307 -0.040247846
000310 b4 24 7f 3d 9f 14 13 bd 59 2c d5 bd 8e c9 56 3d
       0.062290862 -0.035908338 -0.10408849 0.05243831
000320 86 4d c8 3a e9 24 f2 3d 40 3c 4c be 45 48 cc bc
       0.0015281893 0.11823446 -0.19944859 -0.024936805
000330 85 f5 b7 bd 98 6f 80 3d 91 d1 18 be 78 47 14 3d
       -0.08982376 0.06271285 -0.14923693 0.03620097
000340 3a 6c 13 be 8d 8c 13 3c 11 ba 92 bd aa 50 c4 bd
       -0.14396754 0.009005678 -0.071643956 -0.09585698
000350 b3 03 41 be a6 29 36 3e 77 4d 13 3e 66 a9 13 be
       -0.18849067 0.17789325 0.14385019 -0.14420089
000360 e2 66 41 be 21 07 db 3d 36 5f 12 bc d6 c4 b6 3d
       -0.18886903 0.10694719 -0.008933833 0.08924262
000370 fe d0 a7 be 01 49 ad 3e 5d e7 d7 3d 3a 51 a2 3d
       -0.32776636 0.3384476 0.10542176 0.07925649
000380 b0 c8 e8 3d 80 a1 4a 39 7a be 2b 3d 63 94 47 be
       0.11366403 0.00019324385 0.0419297 -0.19490199
000390 de eb c3 bd 71 5a db be 99 4a 87 bd 8c e7 47 be
       -0.095664725 -0.4284244 -0.06606025 -0.19521922
0003a0 2c cf 5a 3d 5b 6b 16 bd 57 97 70 bd b2 39 b3 bc
       0.05342023 -0.036723476 -0.05873808 -0.021878097
0003b0 14 fe b7 bc 5e 5d b2 bd b0 9f a3 bd 88 3c 13 be
       -0.022460021 -0.08709215 -0.07989442 -0.1437856
0003c0 0e c4 8d bd c2 3b c4 bd c7 13 52 3d 12 5f 8b 3b
       -0.0692216 -0.095817104 0.051288392 0.0042532766
0003d0 1a 2f 83 3b 3f f7 70 3d 56 0e bf bc 93 88 d2 bd
       0.0040034177 0.058829542 -0.023322266 -0.10279956
0003e0 64 c5 09 3e 83 1e 9c be 2a 06 89 bd 90 7c 32 be
       0.13454205 -0.3049203 -0.06690629 -0.1743033
0003f0 48 8d 0a 3d 84 2f c7 3c 31 72 b0 bd 67 66 fd bc
       0.033826143 0.02431465 -0.0861553 -0.030932618

network_body.linear_encoder.seq_layers.2.bias f4 [128]
000000 03 d3 c1 be dd fd 0a be b0 ea 4c bd 75 f0 c6 bc
       -0.37856302 -0.13573404 -0.050028503 -0.02428458
000010 fe 5a ac be f8 2a 03 be ae ab aa 3c 5e bf b7 bd
       -0.33663172 -0.1280936 0.020833816 -0.08972047
000020 0a de c2 bd b0 76 c4 bd 43 e4 02 3c 50 09 79 be
       -0.09515007 -0.0959295 0.007988992 -0.24319959
000030 f6 a0 0d 3d 5a 8e d0 bd 25 55 4f be 9a a7 43 bd
       0.034577332 -0.101834014 -0.20247324 -0.04776726
000040 e8 43 28 be 18 b1 f1 bc f7 5b 02 be 24 43 c8 3c
       -0.16432154 -0.02950339 -0.12730394 0.024446078
000050 52 65 96 bd 25 51 28 bd 2c a5 9b bd 6b f9 52 bd
       -0.07343544 -0.04109301 -0.075998634 -0.051507395
000060 58 43 81 bd a5 0d 41 bc 12 0d 42 bd 78 3b 4a bd
       -0.06311673 -0.011783038 -0.047375746 -0.04937312
000070 9d f1 24 be 8d a8 92 be c9 d8 e6 bc cb 0f 2d be
       -0.16107793 -0.2864422 -0.028179543 -0.16900556
000080 a3 57 3c be 13 af 36 be 52 68 8e be a8 03 2c be
       -0.18392806 -0.17840223 -0.27813965 -0.1679827
000090 35 9e 07 be 8a b4 69 be 7e b2 4e be b5 0d 07 bd
       -0.13243945 -0.22822776 -0.20185277 -0.032972056
0000a0 2d e7 77 be c7 1b 34 bd 73 70 2a be 46 d2 b1 be
       -0.2420928 -0.043971803 -0.16644458 -0.34730738
0000b0 33 ca a2 bd 97 be 52 be f2 14 3c 3d 0c 91 ca ba
       -0.07948723 -0.20580517 0.045918413 -0.0015454604
0000c0 c7 14 7a be cc 4f 8c bd 9b f7 6d be 06 93 8e bd
       -0.24421988 -0.068511575 -0.23238985 -0.06961636
0000d0 96 31 43 be 69 75 ee 3d 38 3c f9 bd 3a e9 69 be
       -0.19061884 0.11643488 -0.12169689 -0.22842875
0000e0 c5 2a ae bd d0 23 50 be ed 78 04 be 56 03 52 bd
       -0.085042514 -0.20326161 -0.12936755 -0.051272713
0000f0 0e 2a 4e be a2 c2 88 be ce 99 bc bd 19 40 78 bd
       -0.2013323 -0.26710993 -0.092090234 -0.060608003
000100 99 98 66 be cc ad 38 be 7a 68 17 be 30 23 03 be
       -0.22519149 -0.18035048 -0.14785948 -0.12806392
000110 9f 56 9c bd 9c 50 55 be 43 c3 9c 3b d3 b6 02 bd
       -0.07633709 -0.20831531 0.004784019 -0.031912636
000120 6d 4f 83 be b8 fb 97 bd 70 da 15 be 92 1f 44 be
       -0.25646535 -0.074210584 -0.14634109 -0.19152668
000130 c5 65 17 be 1b 6e a7 bd 02 be d9 3b 7e 1d f3 bd
       -0.14784916 -0.08175298 0.006644965 -0.118708596
000140 41 95 4f be b8 99 b6 bc 3f 3d ab be 6e 01 cf bd
       -0.2027178 -0.022290096 -0.33445165 -0.101076946
000150 f1 66 2a be b9 3d c4 3a c0 a7 07 be c8 5e 02 be
       -0.16640832 0.0014972008 -0.13247585 -0.12731469
000160 08 7b 0e 3e 61 12 e4 3d a3 32 18 be f5 9f 2d 3c
       0.1391412 0.11136318 -0.14863066 0.010597219
000170 a5 15 81 be 1e 2d 9b bd 91 ca a8 bd 04 b2 7c 3c
       -0.25211826 -0.07576965 -0.082417615 0.015423302
000180 3c 53 33 bc d4 49 33 be 98 28 24 be a4 e1 35 be
       -0.010945138 -0.17508632 -0.1603111 -0.17761856
000190 36 2e b6 bd d3 d2 df 3d f7 c0 31 be 5a d6 76 be
       -0.08895533 0.109288834 -0.17358766 -0.24105206
0001a0 84 77 81 be 13 6e a3 bc 74 79 25 be 6a 4b 8f be
       -0.25286496 -0.019949948 -0.16159612 -0.27987224
0001b0 74 03 84 be a8 7d 27 bd 2e 43 a7 bd c3 0e 17 be
       -0.25783885 -0.04089132 -0.081671104 -0.14751725
0001c0 0f 75 34 bd 58 8e 6f be 5e 25 8a be 95 ed 0e bd
       -0.04405695 -0.23394144 -0.26981634 -0.034894545
0001d0 78 26 34 be a2 fe 3a 3c b0 6d 06 3c 9b f0 bb be
       -0.175928 0.011413248 0.0082048625 -0.36707005
0001e0 ec bd 43 be 51 91 8f be 5d b4 86 be 4f 95 93 be
       -0.19115418 -0.28040555 -0.2630948 -0.2882485
0001f0 a2 7d 5b 3d 84 0d 2d be e3 7a a2 bc 96 ce ae bd
       0.05358661 -0.16899687 -0.019833988 -0.08535497

network_body.linear_encoder.seq_layers.2.weight f4 [128, 128]
000000 4c fe ee bd 17 c2 f0 bc 12 c4 f6 bd ab a5 d9 3d
       -0.11669597 -0.029389424 -0.12049116 0.10627302
000010 53 db 5e 3e 0a d9 c8 bc 03 0e 26 3e e9 4c f8 3d
       0.21763353 -0.024517555 0.16216283 0.121240444
000020 38 9a 1a 3e f7 47 01 3c 0c de 21 3e af 0e f1 3b
       0.15097892 0.007890693 0.1580736 0.0073564867
000030 01 db ff bd b1 08 e8 bc a6 d3 cd bd df c3 6f 3d
       -0.124929436 -0.028324457 -0.10050134 0.058536407
000040 4f ab 30 3e 46 e7 14 3e e2 c8 73 3e 99 1c 35 be
       0.17252849 0.14541349 0.238071 -0.1768669
000050 27 31 20 3d 14 c0 02 be 52 9b 17 3e da f6 51 3e
       0.039109375 -0.12768584 0.14805344 0.20504323
000060 7a f2 89 bd ee 53 02 bb 90 ce 04 be 9c bd be 3e
       -0.06735702 -0.0019886452 -0.12969422 0.37254035
000070 b5 0c 4f 3c 31 17 88 bd fe ae d8 bd b0 dd e1 3d
       0.012637307 -0.066450484 -0.10580252 0.11028612
000080 2b e5 92 bd 78 4c 0c be 3a 6a c6 3d 33 cf 31 be
       -0.071726166 -0.13701046 0.0968823 -0.17364196
000090 d7 e9 a2 3e 39 b1 47 bc c9 25 95 3d cf a2 c2 bd
       0.3181903 -0.012188249 0.072825976 -0.095037095
0000a0 68 79 05 be 16 ef 00 3e 4c 0b f6 bd ed 1c 92 3d
       -0.13034594 0.12591204 -0.120138735 0.071344234
0000b0 c0 cc a4 3c 77 11 8c be 13 a8 17 3e 8b 9a 30 be
       0.020117164 -0.27357075 0.14810209 -0.17246453
0000c0 8a e0 3a 3d b1 03 a1 bd fa 9d 0f 3d e3 2a 79 3d
       0.045624293 -0.07862032 0.035062768 0.060831916
0000d0 b0 05 19 be 5c 4c 31 3d 5b 92 bc 3a c7 b0 f0 3d
       -0.14943576 0.043285713 0.0014386879 0.117524676
0000e0 01 39 a6 3b 93 c5 6f 3e 03 b2 e6 bd 62 77 06 3c
       0.0050727134 0.23415212 -0.11264422 0.008207174
0000f0 1f 8a 93 bd 8d 4f 5e be e1 ff 36 3e 2f 84 e8 3d
       -0.07204079 -0.21710034 0.17871048 0.11353337
000100 de e4 dd 3d c6 9b ce 3d 7a 5d 18 3d 13 c0 70 3e
       0.108346686 0.10088305 0.03719852 0.2351077
000110 f3 a4 3a be 11 7e 85 3d 4d 0f e7 3c b3 0f c5 be
       -0.18226986 0.06518186 0.028205538 -0.3848854
000120 ca fa 89 ba 9f a0 aa 3c 31 f8 76 be 1d cc 8b 3e
       -0.0010527011 0.020828543 -0.24118115 0.27304164
000130 e3 14 d0 3e 55 68 82 3c be 95 bb 3d a5 9a 27 bd
       0.40640935 0.01591889 0.091594204 -0.040918965
000140 f6 f8 4b 3c 0d 07 d6 3d 30 bf 44 3e 09 5a eb bd
       0.012449494 0.104505636 0.19213557 -0.11491782
000150 b1 3e 93 3c 4c 15 03 be a8 a2 63 3d d1 7b b6 3e
       0.01797423 -0.12801093 0.055575043 0.3564134
000160 c7 65 0b 3d 4c 18 ca 3e 74 d9 a3 bc f9 e6 6d 3e
       0.03403261 0.39471662 -0.02000115 0.2323264
000170 6b 1c cd bc bc 01 bd bd 16 b7 1f 3d 19 3c 5b 3d
       -0.025037965 -0.092288464 0.038992964 0.05352411
000180 74 9b e5 3c 0b 2f a4 3e cb ba 2b be 05 87 16 3e
       0.028028227 0.3206714 -0.16770475 0.14699943
000190 6c 86 31 3d 5c 73 08 bd cd bd 2a 3e 30 0e 88 3d
       0.043341085 -0.03331314 0.16673966 0.06643331
0001a0 a9 4c ff bd 2e 42 40 bd b8 85 2b 3e 73 6d ab 3e
       -0.12465794 -0.046938114 0.16750228 0.3348194
0001b0 b3 53 4b 3e 28 48 e0 bd b9 f3 11 3d 18 9c 25 3e
       0.19856147 -0.10951263 0.035632823 0.16172826
0001c0 db d1 a6 3e f0 f1 2e 3e 3a f7 aa 3d 8d d8 01 3e
       0.32581982 0.1708448 0.08347936 0.12680264
0001d0 88 9c 1c 3e f9 eb 2e be bb f4 52 3e c6 72 87 3d
       0.15294087 -0.17082204 0.2060117 0.06613688
0001e0 6a 82 83 3e 0f 27 f2 3d 92 c0 45 bc a4 24 98 3e
       0.25685436 0.11823856 -0.012069838 0.29715455
0001f0 8b f5 08 3e bb c3 37 3e 0d bd c1 bd b3 e4 bd 3e
       0.13374917 0.17945759 -0.09459887 0.37088546
000200 93 0b 3c 3e a1 42 11 3d 2a 36 fb bc fa 4e 15 be
       0.1836379 0.035463933 -0.030665476 -0.14580908
000210 48 2e 5f bc c9 b8 6f bb d4 ba e7 bd c4 6a 60 3e
       -0.013621874 -0.0036578646 -0.113149315 0.21915728
000220 0c 7d f8 bc cf 42 c3 bd 5f ef 24 3e dd ea 42 3e
       -0.030333064 -0.09534227 0.16106938 0.19034906
000230 c5 08 1e be 59 ed 39 3d 93 4a d7 bd e9 51 9c 3d
       -0.15433033 0.045392368 -0.10512271 0.076328106
000240 3d 94 2b 3d 33 13 91 3e d7 c3 cd 3d 63 11 2e 3e
       0.041889418 0.2833496 0.10047119 0.1699882
000250 d0 67 21 bd ce 54 6a 3d dc 2b ba 3d c3 9d 7e 3e
       -0.039405644 0.057209782 0.09090397 0.24864869
000260 4a 98 37 be 54 76 d0 3d e0 9f 05 bd 2f 27 22 3e
       -0.17929187 0.10178819 -0.03262317 0.1583526
000270 1e e3 d1 bd f6 cc 00 3e 73 b1 b6 3c 42 c8 b6 bb
       -0.10248397 0.12578186 0.022301411 -0.005578072
000280 59 dd 92 3b 29 77 9a 3d 3c 14 ae bd 98 2e 35 ba
       0.004481953 0.07542259 -0.08499953 -0.0006911545
000290 1f 78 01 be ac 6a 50 bd 96 ef 8a 3d f1 53 8d be
       -0.12643479 -0.05088298 0.06783979 -0.27603105
0002a0 87 e0 99 3c 96 23 4b 3d bb ba e5 bd 19 b0 44 3e
       0.01878382 0.049594484 -0.11217257 0.19207801
0002b0 a9 8b 9b bd d1 37 a2 3d ef 64 1e bc 2b 5c fa 3d
       -0.075949974 0.079208024 -0.009667619 0.12224611
0002c0 f9 ae b8 3c a6 0e 70 3d d1 44 a3 bd 54 bc 95 bd
       0.022544371 0.05860772 -0.0797211 -0.07311311
0002d0 c0 bf bc 3c f9 3d db bd 7d a3 7c 3c 30 de fd bd
       0.023040652 -0.1070518 0.015419838 -0.123958945
0002e0 03 d7 8e 3d 1d 17 52 3d a4 ee 9f bc 3b 79 79 3d
       0.06974604 0.051291574 -0.019522972 0.06090663
0002f0 6c 9b a9 3d 98 1b 33 3d 3a 12 cc bd c0 35 4e bc
       0.082815975 0.043727487 -0.09964414 -0.012586057
000300 50 67 82 bd ee c0 6e 3d 63 1a 3c 3e 78 c0 13 3e
       -0.063673615 0.05828946 0.1836944 0.1442889
000310 32 37 31 3d 82 38 77 3d 23 68 54 bd 8d cd 85 bd
       0.04326553 0.060356624 -0.051857125 -0.06533346
000320 47 d0 30 3d da 88 42 3d cc ee be bd 9f 4d 0a bc
       0.04316738 0.047493793 -0.09322891 -0.008441358
000330 9c b0 a8 3e 0b 46 7d bd 96 59 13 bd 45 b6 2f 3e
       0.32947242 -0.061834376 -0.035974108 0.17159374
000340 e0 11 a1 3c 30 08 87 3d 55 e7 58 3e 73 81 2b bd
       0.019661844 0.065933585 0.21181996 -0.0418715
000350 b8 9c 1f 3e 33 ed 4f bd 45 60 7d be 00 77 3d 3e
       0.15587127 -0.05076332 -0.24743755 0.18502426
000360 6e f4 19 be cb 41 21 3e 3f 8e 40 be a4 58 11 3e
       -0.15034649 0.15747754 -0.18804263 0.1419397
000370 55 62 4f 3b 35 b0 8b bd 2a e2 52 3e bb 14 16 3e
       0.0031644304 -0.06820718 0.20594087 0.14656346
000380 ab b4 35 be 32 bc 07 3c d0 55 73 bc b9 8b 8b 3d
       -0.177447 0.008284615 -0.014852002 0.06813759
000390 35 29 63 bd e2 d7 58 bd 20 73 2f bd d0 36 5d be
       -0.05545922 -0.052940257 -0.0428344 -0.2160294
0003a0 bb a5 e2 bb 83 11 44 3d 56 c1 85 3d ad 1c 92 3d
       -0.0069167293 0.047868263 0.065310165 0.07134376
0003b0 d8 ca 83 bd 96 47 b9 bd da 1d cc bd e3 88 7f 3e
       -0.06435174 -0.09046857 -0.09966631 0.24954562
0003c0 06 77 05 3d 16 ef 88 3d a7 4b 13 3d 16 99 cb 3c
       0.032584213 0.06686227 0.03596082 0.02485327
0003d0 89 ef f6 3d 01 10 13 3d 4e 11 b2 3d 0c 00 3c bd
       0.120574065 0.035903934 0.08694707 -0.045898482
0003e0 ea f9 2d bb aa 7e 96 3c 74 75 3c 3e 2e 09 8f 3d
       -0.0026546665 0.018370945 0.1840418 0.06984173
0003f0 84 d2 2f bd 3b 2a 02 bc 31 59 04 bc c4 45 dc bd
       -0.042925373 -0.007944639 -0.0080779055 -0.10755494
