Oversteek Simulator/Learning/results/Oversteek-K-02/Player/Player-2349940.onnx (onnx, 151540 bytes, 8 tensors)

action_model._discrete_distribution.branches.0.bias f4 [2]
000000 9e 3c 83 bd a4 3c 83 3d
       -0.06408046 0.06408051

action_model._discrete_distribution.branches.0.weight f4 [2, 128]
000000 c6 7b e0 3c 24 6b a1 3c c1 23 00 bb aa 34 04 3c
       0.02740277 0.019704409 -0.001955256 0.008069197
000010 0e 15 11 3d 6f 7e 41 3d 96 a0 1e bb 92 21 36 bd
       0.03542047 0.047239717 -0.0024204603 -0.04446561
000020 4c 72 37 3d 6e 13 1b bc 65 ba 01 be 17 b8 9b 3c
       0.044786736 -0.009465082 -0.1266876 0.01900868
000030 ca d5 d5 bd 87 a1 ca bc d3 01 3b 3d f5 a2 bd 3c
       -0.10441168 -0.024735225 0.045656037 0.023148993
000040 2b 5f a0 3c 1b 5d dd 3b 12 4b f3 bb 8e 79 c4 bb
       0.01957663 0.006755484 -0.0074247206 -0.0059959358
000050 04 43 28 3d cc a4 47 ba a1 a1 e4 bc ad b0 18 be
       0.041079536 -0.0007615804 -0.027909102 -0.14911146
000060 5a 9a 9a ba 7c 0f e5 3c eb ae 64 3d e3 e9 45 3c
       -0.0011795268 0.027961485 0.055830877 0.012079689
000070 1d 9d c0 3d 98 24 84 3c 4c ca 0b bd 20 0e db 3b
       0.09404967 0.01613073 -0.034128472 0.0066850334
000080 69 2b 24 bc 01 e0 f4 bb 19 de e6 3c d7 ab 8f 3d
       -0.010020115 -0.0074729924 0.028182076 0.07015198
000090 e2 4b 89 3d 92 4d 18 3d 8b b3 2c bc 69 08 2d bb
       0.067039266 0.03718335 -0.010540853 -0.0026402718
0000a0 87 6b 4e bc 84 33 4e bc 81 91 cd 3c 59 7c 9c 3b
       -0.012598879 -0.0125855245 0.025093796 0.0047755656
0000b0 b2 1e b9 3b 32 ce 09 3d 00 c8 33 3a f8 36 ad 3b
       0.005649411 0.03364391 0.00068581104 0.005286094
0000c0 15 18 64 3c 8f e0 47 3c a5 1e b8 3b 61 01 d4 bc
       0.013921757 0.012199535 0.0056188875 -0.025879564
0000d0 a4 81 e3 bb b6 01 9b bd 52 af 4c 3c a0 d8 1a 3c
       -0.0069429446 -0.07568686 0.0124929715 0.0094510615
0000e0 dd 41 7b bd 55 75 26 3b 16 00 91 bd 2a 18 aa 3c
       -0.06134211 0.0025399525 -0.070800945 0.020763475
0000f0 8b 28 ff bc cc 84 60 3d c9 a9 51 3d c8 6f 86 3c
       -0.031147262 0.054814145 0.05118731 0.016410723
000100 93 e0 26 bc 61 38 7b bd 5b d7 92 3c 55 e6 c7 3c
       -0.010185379 -0.061333064 0.017924955 0.024401823
000110 00 bd a4 3c e4 59 b3 3c 39 16 9b bb 26 c7 63 3b
       0.020109653 0.02189345 -0.0047328738 0.0034756153
000120 a5 3d 3d 3c 52 01 b9 3c af dd c8 3c a8 05 19 3c
       0.011550342 0.022583637 0.02451977 0.009339727
000130 73 d7 0a bd 7c 11 c2 3c f0 04 c4 3c 5e d6 a7 3b
       -0.033896875 0.023689978 0.023928136 0.00512199
000140 48 c2 1c 3c f8 25 b3 bc fc f6 d0 3b 62 4a 12 3d
       0.009567805 -0.02186869 0.006377099 0.03571547
000150 de e3 fa 3c b1 7e a4 bd 8a d4 99 3c 01 63 03 3d
       0.030626234 -0.08031977 0.018778104 0.03207684
000160 a0 70 af bd 7d 8a 0b bd 54 cd 42 bd 5f 87 2f bb
       -0.085664034 -0.03406762 -0.047559097 -0.0026783568
000170 9d 06 f1 3a 2b dd f1 ba 76 6e 57 3b 17 de 9f ba
       0.0018388812 -0.0018452754 0.0032872236 -0.0012196925
000180 88 8a 49 3d 40 f3 84 b9 69 07 1b bd 1b d8 31 bc
       0.04920438 -0.00025358237 -0.037848864 -0.010854746
000190 e8 88 32 3c 0b 4a 8c bd 72 fd da 3c cc 77 63 3d
       0.010896899 -0.0685006 0.02673218 0.05553417
0001a0 30 51 98 3c 90 7c b4 3b 1f 73 2d 3c d2 8f 3f 3d
       0.0185934 0.005508013 0.010586529 0.046768017
0001b0 4d a4 6a 3d 32 8f c1 3c b9 cb b0 bc 92 00 58 3b
       0.057285596 0.023627851 -0.021581518 0.0032959324
0001c0 d1 61 dd bc 68 28 9e 3d 37 94 1a 3c fc df f0 bb
       -0.027024182 0.07722551 0.009434751 -0.00735092
0001d0 24 77 b6 3d 08 81 9b bc 67 8a 1a 3b e3 68 a4 3b
       0.08909443 -0.018982425 0.002358103 0.0050173863
0001e0 80 99 14 3c 3d 27 13 3d ab 75 f7 3c 74 5a 65 3c
       0.0090698 0.035926092 0.030207476 0.0139986165
0001f0 0a b0 b4 bc 77 e8 fd 3c 1d ae 4a bd a2 18 72 3b
       -0.022056598 0.030994637 -0.049482454 0.0036940952
000200 51 d9 0b bd d5 85 84 bb ad 88 37 bc 7e 4e 7c bc
       -0.034142796 -0.0040442743 -0.01120202 -0.015399573
000210 10 9b e8 bc 03 8b 36 bd d3 64 ec 3b 59 e4 1d 3d
       -0.028394252 -0.044566166 0.0072141676 0.038547847
000220 70 fa a3 bd 07 ef f1 3b ca b0 e2 3d b0 73 09 bd
       -0.080067515 0.0073832306 0.11068876 -0.033557594
000230 b6 5d dc 3d a6 fd bd 3c f8 0f 0d bd 7e 8b 1c bd
       0.107600614 0.023192238 -0.034439057 -0.038218968
000240 4d ba 0b bd 35 88 88 bc 54 89 f2 3b 46 e8 64 3c
       -0.034113217 -0.016666511 0.0074016247 0.013971394
000250 10 67 1c bd 78 f4 e0 3b b7 c0 0d 3d 9b 40 13 3e
       -0.038184226 0.0068650804 0.034607615 0.14380114
000260 82 84 0e 3b 64 e5 a5 bc 85 27 a9 bc ee 39 ab bb
       0.0021746461 -0.020250984 -0.020648727 -0.0052254116
000270 5a d2 8e bd 5b d6 44 bc 05 64 e4 3c 9a 0a 83 3c
       -0.06973715 -0.012013997 0.027879724 0.015996266
000280 f4 8e b3 3b 50 c5 2c bc d8 a9 8b bc 9c 1f 63 bd
       0.005479688 -0.01054509 -0.017048761 -0.055450067
000290 8b ac 98 bd 55 67 48 bc 8a c9 aa 3b 75 38 db bb
       -0.07454785 -0.0122316675 0.0052120136 -0.00669008
0002a0 42 45 a4 ba 75 ba 94 bc 7f 64 c1 bc 29 57 de bc
       -0.0012532847 -0.018155316 -0.02360749 -0.02714117
0002b0 c6 38 a7 3b ff 9f fc bc 66 78 4d bc fd ef e3 bb
       0.0051032035 -0.03083801 -0.012540912 -0.006956099
0002c0 1a 1c 86 bc f7 43 d1 bc da 55 88 3a 4d 2d a7 3c
       -0.016370822 -0.025545103 0.0010401562 0.020407343
0002d0 0c 1b 73 bc 7d db ab 3d 8f 5e 8c bc a6 a4 de bb
       -0.014837991 0.083914734 -0.017134933 -0.00679453
0002e0 09 d5 93 3d 04 e9 a3 bb b8 d7 52 3d 29 79 26 bd
       0.072183676 -0.005002143 0.051475257 -0.04064289
0002f0 9c cc 08 3d e4 e4 4c bd e5 32 87 bd 3e 6a 84 3c
       0.033398256 -0.050022975 -0.06601504 0.016163941
000300 96 16 96 3b cc 7e 14 3d b5 fb 6c bc 9f 2a e9 bc
       0.004580329 0.036253735 -0.0144643085 -0.028462706
000310 72 5a be bc a4 65 9f bc 51 a1 e5 bb 2a 1c 43 bc
       -0.023236487 -0.019457646 -0.007007756 -0.01190857
000320 37 0e 7b bc 58 06 66 bc af 75 25 bd 0d ad fd bc
       -0.015323213 -0.014039598 -0.040395435 -0.030966306
000330 94 a6 11 3d 56 1f f8 bc e1 b8 c5 bb 6b 45 83 3c
       0.035559252 -0.03028838 -0.006034002 0.016024312
000340 c1 77 c7 bc 02 02 3a 3c 4e 5c 67 3b c0 17 01 bd
       -0.024349095 0.011353018 0.003530282 -0.03151679
000350 cf 9b 78 bc cf 6d b7 3d a1 e0 ae 3b 68 d7 03 bd
       -0.015173866 0.08956491 0.0053368364 -0.03218785
000360 34 1b ab 3d 54 15 2e 3d 7a a3 35 3d 95 3f 8a 3c
       0.08354798 0.04250081 0.044345357 0.016876021
000370 08 81 50 bb c3 1e ac ba ca 88 19 bc 6a a6 a1 bb
       -0.003181519 -0.0013131726 -0.009370992 -0.004933168
000380 f9 0d 7c bd aa 54 b1 3b 54 2c 3a 3d 3c 34 c0 3c
       -0.061536763 0.005411704 0.04545243 0.023462407
000390 4e 62 ee bc 18 03 5f 3d f6 18 fa bc 6c a5 73 bd
       -0.02909961 0.05444631 -0.03052948 -0.05948393
0003a0 ef 7e 12 bd 04 cc 86 bb f1 36 03 bd fa 8a 35 bd
       -0.035765585 -0.004113676 -0.032034818 -0.04432199
0003b0 3e bd 6c bd 3e 59 16 bc aa 4f 94 3b e3 e0 c3 bc
       -0.057797663 -0.00917655 0.0045260983 -0.023910945
0003c0 fd b6 ab 3c a9 d5 a2 bd 2e 78 d0 bc aa 21 89 3b
       0.020961279 -0.07950909 -0.025447931 0.0041849213
0003d0 4f 79 93 bd 4e a9 91 3c 38 90 63 3c 32 73 8e 3b
       -0.07200872 0.017780926 0.013889365 0.0043472284
0003e0 4d 42 40 bc 83 27 20 bd fb 97 1a bd a1 5f 30 bc
       -0.011734557 -0.03910018 -0.037742596 -0.010764987
0003f0 6b 60 6a 3c cf a8 d0 bc d8 77 1c 3d 45 e8 78 3b
       0.014305214 -0.02547112 0.03820023 0.003798024

action_model._discrete_distribution.branches.1.bias f4 [2]
000000 9e 79 fc bd a8 79 fc 3d
       -0.12327884 0.123278916

action_model._discrete_distribution.branches.1.weight f4 [2, 128]
000000 65 d6 3d 3d 5b 4a 87 3c 9b a4 37 bc bd 1e a1 bc
       0.04634704 0.016514948 -0.011208679 -0.019667977
000010 0c 3a c9 3d fb 87 85 3a 7c 84 30 3c 97 be f5 3c
       0.09825525 0.001018762 0.010773774 0.029998107
000020 a3 ed b8 3d c5 ec fb bb c1 c2 9d 3d 5a e8 96 3d
       0.090297006 -0.0076881372 0.07703162 0.07368536
000030 46 97 47 bd 37 63 be ba a3 2f 9f 3d af 72 14 3c
       -0.04872825 -0.0014525418 0.07772758 0.009060546
000040 ef 8b 9c 3c f4 d4 15 bc bf 16 0a 3d 38 c3 5c bc
       0.019109694 -0.00914501 0.0337131 -0.013474278
000050 15 80 cf bd e9 41 00 bd f0 3e 47 bd 3d 8d 2d 3c
       -0.101318516 -0.031312857 -0.048644006 0.010592756
000060 fd 13 d8 bc 58 6c 01 bc 0c b4 c9 bd d1 19 8a 3b
       -0.026376719 -0.007899366 -0.09848794 0.0042145033
000070 11 a7 94 bd 40 57 b9 3d 87 58 e4 3c b3 ea 80 3d
       -0.07258428 0.09049845 0.027874244 0.06294765
000080 57 d9 98 3d e4 e6 3c bb 16 b8 61 3d 6d 68 20 bc
       0.07463329 -0.0028824145 0.0551072 -0.009790522
000090 a0 f3 95 bd 02 76 a0 3d 28 fa b7 3d a7 6f 73 bb
       -0.073218584 0.07835008 0.089832604 -0.0037145407
0000a0 eb 27 ce 3c 92 4d 2e bd 91 0e 22 3d 86 92 90 3d
       0.025165519 -0.042554446 0.039564673 0.07059197
0000b0 7c 86 b4 bc 23 86 19 3d db 7e 19 bd 15 e0 8c bb
       -0.022036783 0.03748144 -0.037474494 -0.0042991736
0000c0 18 06 a4 3d 71 2d 74 bd 98 bb d7 3d 7b f6 fb bc
       0.08008975 -0.05961365 0.105338275 -0.03075718
0000d0 9a 19 b6 bc da f8 cb bc a3 fb c7 bb 48 00 13 3c
       -0.022229005 -0.024898935 -0.0061029955 0.008972235
0000e0 b8 97 e8 3c de c2 20 3d 77 0a cf 3c 27 6e 1a 3b
       0.028392658 0.03924834 0.025273545 0.002356419
0000f0 cb 5c 81 3d 8b f0 29 3d 45 c8 98 bd 4a 06 99 bc
       0.06316527 0.041489165 -0.074600734 -0.018679757
000100 8d 10 1f 3d 24 40 ad 3d 78 36 23 3d 75 c2 74 bc
       0.038834143 0.084594995 0.039846867 -0.01493894
000110 4f 35 e0 bd 20 9c e0 3d a8 45 85 bd 6e 76 89 3c
       -0.10947668 0.109672785 -0.065074265 0.016780104
000120 dd 32 56 3c 80 f9 90 bc 0f 90 78 bb 3b 21 05 bd
       0.01307365 -0.017697096 -0.0037927662 -0.032502394
000130 52 61 25 3d f6 cf 47 3c f4 12 c2 3a f7 4a 61 bc
       0.040376015 0.012195578 0.0014806674 -0.013750783
000140 e7 c8 63 bb 8f 65 6c bc af 15 9d 3d 07 e3 42 bd
       -0.0034757198 -0.01442851 0.076701514 -0.04757979
000150 97 c8 6f 3c 16 3e 40 bd 61 d9 cf bb dc ce 9b bc
       0.014635227 -0.04693421 -0.0063430523 -0.019019537
000160 9d 83 86 bc 32 01 b1 bd 54 6c 80 bd 64 9d 43 bc
       -0.01642018 -0.08642806 -0.06270662 -0.01193938
000170 8d b4 9c 3d b4 dd a1 b9 35 fd 9f 3c 44 72 a7 3c
       0.07651625 -0.00030873495 0.019529918 0.020440228
000180 31 20 e1 bd b6 e7 82 3d 51 bc c2 3d ee 96 5f 3c
       -0.10992468 0.063918516 0.09508575 0.013646824
000190 81 78 25 bd 34 48 91 bd 88 8e 02 3e 77 6e 8d 3d
       -0.040398125 -0.0709385 0.12749684 0.06905835
0001a0 42 2d ad 3d b5 2e 2f 3d da 76 3f bd 8d 9b af 3c
       0.08455898 0.042769153 -0.046744205 0.021436477
0001b0 3f f4 4d 3d a6 5b 2e 3c 6c 7d b5 3c b0 bd 83 3c
       0.05028176 0.010641968 0.022154532 0.016081661
0001c0 ad 8c 9d 3d 98 33 1a 3c 86 ad d1 3c 4d ff bb 3b
       0.076928474 0.009411715 0.025595438 0.0057372213
0001d0 85 74 5c bd bf 98 e5 3b e3 c1 ab bb bc b9 c2 bb
       -0.05382206 0.007006734 -0.005241619 -0.0059425514
0001e0 e1 41 59 3d cf a5 be 3d b3 1d 9a 3d c4 bc 1d 3d
       0.053041343 0.09308969 0.07525196 0.0385101
0001f0 2a 12 80 bc 1a f6 80 3d 55 30 93 3c d4 c2 9c bc
       -0.015633661 0.0629694 0.017967382 -0.01913587
000200 de ab 7f bd ea a9 78 bc 87 c4 04 3d 5c a9 07 3d
       -0.062419765 -0.015177229 0.032413986 0.033120498
000210 e2 40 a5 bd 58 ff 3f 3c 76 1f 72 bc ef c5 a5 bc
       -0.08069016 0.011718594 -0.014778009 -0.020235984
000220 f6 e8 c1 bd f3 c3 e1 3c 4e 9a 97 bd 3c b9 8a bd
       -0.09468262 0.027559256 -0.07402478 -0.06773612
000230 e9 f4 66 3d c8 24 70 bb 17 23 80 bd 26 57 00 b7
       0.05638591 -0.0036643017 -0.06256693 -7.649685e-06
000240 bd 77 dd bc 51 bb f1 ba af f7 a0 bc 13 30 13 3b
       -0.027034635 -0.0018442665 -0.019649355 0.0022459074
000250 b5 cc c0 3d e4 a9 92 3c b5 19 2f 3d f6 ea 85 3c
       0.09414045 0.017903276 0.042749126 0.01634739
000260 82 f2 71 3c 09 20 be 3c 09 f8 b6 3d ba 7a ed 3b
       0.014767291 0.023208635 0.08934028 0.007247296
000270 c0 5d a8 3d 40 d9 ad bd dc 9e e8 bc 15 cc 8f bd
       0.082210064 -0.08488703 -0.028396063 -0.070213474
000280 85 bf b5 bd 71 d2 86 bb 68 d5 4d bd 5d 0a ba 3c
       -0.0887442 -0.004114442 -0.05025235 0.02271002
000290 5b 7d a4 3d 27 68 a8 bd d5 98 e3 bd 10 86 b4 3b
       0.08031722 -0.082229905 -0.11113135 0.0055091456
0002a0 31 30 a7 bc 9e 9c 5a 3d bd 19 1d bd 1a 26 9e bd
       -0.020408722 0.053372018 -0.038354624 -0.07722111
0002b0 be bb 53 3c 8f c5 37 bd 12 64 15 3d b8 aa 35 3b
       0.012923179 -0.04486614 0.036472388 0.0027720165
0002c0 ea 54 76 bd 9b a9 4e 3d eb 20 ca bd a4 b6 ff 3c
       -0.060139574 0.050454717 -0.0986956 0.03121502
0002d0 6f 14 d7 3c e8 6f 8d 3c 53 1d 0c 3c 1e 19 75 bc
       0.02625486 0.017265275 0.008551913 -0.014959602
0002e0 25 be 01 bd 0b 0d c3 bc d0 1f eb bc c0 98 24 3c
       -0.031675477 -0.02380993 -0.028701693 0.010046184
0002f0 fc 3d 85 bd 69 f4 1d bd 3a db be 3d 1e df c7 3b
       -0.06505963 -0.038563166 0.09319158 0.0060995957
000300 7c a3 62 bd 14 7b c7 bd 77 0b 22 bd 20 3b be 3b
       -0.055331692 -0.09740272 -0.039561715 0.005805388
000310 ae 6b d5 3d a9 93 f1 bd e7 52 9c 3d 6a 9a f2 bc
       0.10420929 -0.11795742 0.07633 -0.029614646
000320 1d 78 23 bd 1e 62 80 3c 34 fd 7a 3c 73 7d ad 3c
       -0.03990947 0.015671786 0.015319157 0.021177983
000330 1c d4 31 bd 5c f0 a5 3a 20 6b 56 3b da 27 80 bc
       -0.043415174 0.0012660134 0.003271766 -0.015644003
000340 43 91 bd bc ca fb 1d 3c 55 2a 8c bd 01 60 8b 3d
       -0.023140555 0.009642551 -0.06844012 0.06805421
000350 18 b2 20 bc de 6a 4c 3d 96 9b a5 ba 97 d2 b8 bb
       -0.009808086 0.049906604 -0.0012634869 -0.0056403386
000360 05 7b 6a 3d c0 ab a1 3d 8d 7e 57 3d e8 9f ad 3c
       0.057246227 0.07894087 0.052610923 0.021194413
000370 7b 1c 7a bd 19 9a 16 3c 7d 08 c0 bc a2 3f f2 bc
       -0.061062317 0.009192013 -0.023441548 -0.029571358
000380 9c 7a ce 3d 7a 6b bd bd e0 83 c4 bd 1e 61 33 bd
       0.1008198 -0.09249015 -0.09595466 -0.04379379
000390 9a e1 a7 3c de 11 38 3d d2 73 f8 bd be 94 85 bd
       0.020493317 0.044938914 -0.12131466 -0.06522511
0003a0 61 cc ac bd c2 7b 3c bd 4f 28 47 3d 4a f9 0d bd
       -0.0843742 -0.046016462 0.048622426 -0.03466157
0003b0 49 34 76 bd 97 c5 ab 3c 7d 11 20 bd 23 40 af bc
       -0.060108457 0.020968242 -0.039079178 -0.021392887
0003c0 c2 82 a7 bd 61 21 ab bc 4c f6 49 bc 2c 23 3c bb
       -0.08179237 -0.02088994 -0.012326788 -0.0028707488
0003d0 0e 68 52 3d 5d 35 59 3c 09 9d 30 3c 57 11 0d 3b
       0.051368766 0.013257352 0.010779628 0.0021525228
0003e0 c6 1a 64 bd 77 10 bf bd 98 62 89 bd 28 2c 47 bd
       -0.055689596 -0.09329312 -0.067082584 -0.048626095
0003f0 a9 a0 52 3c 29 db 59 bd 06 33 ae bc c4 7e 94 3c
       0.012855687 -0.053187523 -0.021264564 0.018126853

network_body.linear_encoder.seq_layers.0.bias f4 [128]
000000 65 c6 66 3e 47 93 fd 3c 99 b2 bc bc cd ce ec bd
       0.22536619 0.030954016 -0.02303438 -0.115628816
000010 8a 96 4a be 81 2d 44 3e 41 ce 13 3c 68 00 09 be
       -0.19783989 0.19157983 0.009021343 -0.13379061
000020 a1 5b 7b 3e 51 e1 5b 3d 75 4f 18 be 52 7f de 3d
       0.24546672 0.053681675 -0.1487406 0.10864128
000030 96 97 9c 3d 51 58 e7 3d b8 b6 33 3e 5a e6 40 be
       0.076461 0.11296142 0.1755017 -0.18837872
000040 6b b9 ac be 9d 94 83 bb ac 48 23 be 43 b0 51 3d
       -0.33735213 -0.004015519 -0.15945691 0.051193487
000050 20 51 18 3d 2c 7a ed 3d d4 58 5c bd d5 51 69 be
       0.03718674 0.11595568 -0.05379565 -0.22785123
000060 67 7e 32 bd 06 3f f0 bd 20 0d 2e 3d eb 48 af be
       -0.043577578 -0.11730771 0.042492986 -0.3423532
000070 76 04 cd 3d 59 c4 11 be b9 66 06 be 9d d4 33 be
       0.100106165 -0.14235057 -0.13125123 -0.17561574
000080 72 ab 60 3d a3 f7 ec 3d fb 01 bd bb b1 38 a5 3d
       0.054851003 0.115706705 -0.0057680584 0.08067454
000090 ac 9d e8 3d 87 10 ee 3c 9e bc f7 bb 96 4f 48 bd
       0.113581985 0.029060615 -0.0075603267 -0.048904024
0000a0 af 70 17 be 23 5e 53 be 66 e6 23 3e a3 3f 98 3d
       -0.14789079 -0.20641379 0.16005859 0.07434013
0000b0 75 d5 01 3e df 18 40 3e aa fd 90 3b 09 18 b1 3d
       0.12679084 0.18759488 0.0044247704 0.086471625
0000c0 cd 0c 10 bd ef da ce 3c f5 51 1d 3e d2 d2 78 bd
       -0.035168458 0.02525088 0.15363295 -0.06074793
0000d0 dc 45 bf 3d f6 19 09 3d 2b c5 ab 3e 42 d7 86 be
       0.093394965 0.033472024 0.33548865 -0.26336104
0000e0 70 58 79 bd 38 02 8d be 66 41 1d 3c 6b db a4 bc
       -0.060875356 -0.27540755 0.009598112 -0.020124158
0000f0 14 d8 94 bd b0 ca 87 bd 4e c4 14 be d6 4c 4e bc
       -0.07267776 -0.066304564 -0.1452801 -0.012591561
000100 c2 62 19 be 50 a8 52 be bf 49 c2 bc ee 60 7f be
       -0.1497908 -0.20572019 -0.023716806 -0.2493932
000110 22 1a 18 3e 7d b2 1a be 1b 51 fe bd d0 bd eb 36
       0.14853719 -0.1510715 -0.124178134 7.025643e-06
000120 c2 03 55 bd ed 4d 3c 3c e9 40 b8 3d ef 37 7a be
       -0.052005537 0.011493188 0.08996756 -0.244354
000130 fa 09 8d be ba 4e b0 3d f5 90 e4 3d ae 18 20 be
       -0.27546674 0.08608766 0.11160461 -0.15634415
000140 8e 04 5c 3d 82 56 5e be 65 e0 6e be fc 2b e4 3d
       0.05371528 -0.21712688 -0.23327787 0.11141202
000150 99 2a a9 bd 76 78 11 bd dc 31 23 3e 96 ed 50 be
       -0.08260078 -0.03551527 0.15936989 -0.20403132
000160 97 7e 00 be 5f d4 e5 be 96 f4 47 3d 8b ff 00 be
       -0.1254829 -0.4488859 0.04881724 -0.12597482
000170 23 c9 7a be 91 2c a8 bd 0d 16 85 be e7 8f 0b 3e
       -0.2449079 -0.08211625 -0.25993386 0.13629113
000180 83 cb 23 3e ab 8c 40 be f3 c4 e2 3d b1 7a 29 3e
       0.15995602 -0.1880366 0.11072721 0.1655071
000190 81 16 d6 bd 12 a1 d9 3d 44 5c 9a be 5e aa 10 3e
       -0.10453511 0.10626425 -0.30148518 0.1412749
0001a0 39 c7 d3 3d 52 c7 13 bd 1a cb ff 3c 20 70 48 be
       0.10340733 -0.03607876 0.031224776 -0.19574022
0001b0 5d d7 f7 bd 23 90 5c 3e 62 8a fe 3c 3a 2c 90 be
       -0.12101624 0.21539359 0.031071845 -0.28158742
0001c0 a9 21 c4 be 8b c1 26 bd 00 af 05 3e 6b 80 43 be
       -0.3830693 -0.04071192 0.13055038 -0.19091956
0001d0 84 4a c9 bd 96 35 09 3e d9 36 50 be 86 b8 04 be
       -0.09828666 0.13399348 -0.20333423 -0.12961015
0001e0 7e e9 86 be 17 3b 21 3e 65 0e 46 3a cc b7 d2 be
       -0.26350015 0.15745197 0.00075552455 -0.4115585
0001f0 ac d2 b4 bd 8c 69 84 bd 92 89 d3 bd f3 74 45 be
       -0.08829245 -0.06465444 -0.10328974 -0.19282894

network_body.linear_encoder.seq_layers.0.weight f4 [128, 156]
000000 4b a2 b9 bc ed 59 6f 3e fa 07 31 bd 5e 10 9d 3c
       -0.022660395 0.23374148 -0.043220498 0.019172844
000010 96 41 12 be 0a 3d 84 bd 2a c8 b7 3d e5 51 83 3d
       -0.14282832 -0.06456955 0.08973725 0.064121045
000020 64 ee 8f be 6c 22 00 3e 69 dd 32 bd fe 94 c7 3d
       -0.28111565 0.12513131 -0.043668184 0.09745215
000030 1b 00 45 be d8 d0 11 3e fb 3f 37 3d 0d 19 91 3d
       -0.19238321 0.14239824 0.04473875 0.07084856
000040 04 b3 c7 3d ed 70 3b 3e dc bc 10 3d e9 19 37 be
       0.097509414 0.18304797 0.03533636 -0.17880978
000050 ae 87 54 be 7c 5a 95 3e 0f cd b5 3d 3e b7 39 bc
       -0.20754883 0.29170597 0.088770024 -0.011335192
000060 17 fc be 3c 3e 72 3a 3e 6f a0 bb bd d1 a7 0e be
       0.023313565 0.18207642 -0.0916146 -0.13931204
000070 60 30 42 bd cd a1 4f 3e bc 40 22 bc 0a 6c 70 3d
       -0.047409415 0.20276566 -0.009903129 0.058696784
000080 26 75 76 3e 40 e6 84 3c 2d d2 12 bd 37 95 69 bd
       0.24068126 0.016223073 -0.03584497 -0.057027068
000090 46 95 28 3e 95 31 8a bd 9c 10 4b be 11 63 1a 3c
       0.16463193 -0.06747738 -0.19830555 0.009423033
0000a0 95 d2 b8 3e c2 78 36 be bb a1 79 be 5d 6e 02 be
       0.3609816 -0.17819503 -0.24378102 -0.12737413
0000b0 a9 cb 4a 3d d2 af 4d bd 1e 8f 94 3c 67 30 1b 3e
       0.04951063 -0.050216503 0.01813465 0.15155183
0000c0 bf c1 57 bd 30 70 2e be 1b 9a 51 3d 4c f2 85 3d
       -0.052675005 -0.17034984 0.051172357 0.06540355
0000d0 e5 86 8b bc 01 9f 5a bd ee 24 40 3e 64 5a a2 3e
       -0.017032096 -0.053374294 0.18764088 0.31709588
0000e0 a8 e4 1f be 08 38 0c bd 14 65 da 3c 64 10 70 bd
       -0.15614569 -0.034233123 0.026659526 -0.05860938
0000f0 61 ff 41 bd fd 4b 43 bd c8 2e 43 3e bd 75 3e 3d
       -0.04736269 -0.04767989 0.19060814 0.046499003
000100 07 f1 4d be 56 02 28 be 67 e0 f6 3d 12 f8 16 3e
       -0.20111476 -0.16407141 0.1205452 0.14743069
000110 79 9e cf 3b 20 29 6b 3d 0a bb fa 3c 7e 29 46 be
       0.00633603 0.057412267 0.030606765 -0.19351766
000120 25 c0 56 bb 70 d0 01 bf d8 fd 35 3e 2c 8b 5e bb
       -0.0032768336 -0.50708675 0.17772615 -0.0033957465
000130 37 94 55 b9 8e f1 24 bd 0d 17 e1 bd 75 df a1 bd
       -0.00020368477 -0.040269427 -0.10990725 -0.07903949
000140 c5 e6 3d 3d 2c 4d c2 be b8 21 42 3e 17 aa ca 3d
       0.046362657 -0.37949502 0.18958175 0.09895723
000150 cd 4f 0d bc 6c ea 47 be 92 34 a4 bd 04 b7 39 bd
       -0.008624983 -0.19523019 -0.080178395 -0.045340553
000160 85 bf 99 3d 49 28 8c bd 5a 16 28 3d 90 20 36 3e
       0.075072326 -0.06843621 0.04103694 0.17785859
000170 04 df 27 3e e6 97 c6 3c 98 85 bd 3d 63 38 3a be
       0.16393667 0.024242353 0.092539966 -0.18185572
000180 d3 24 40 3d 9d 8b 99 be 2a 81 e1 bc 20 ec cd ba
       0.04691012 -0.2998933 -0.02752741 -0.001571063
000190 60 06 a0 bd 76 af d0 3b e1 5f 39 bd f2 3b 43 be
       -0.07813716 0.006368573 -0.045257453 -0.19065836
0001a0 2a d0 d4 bd d4 82 ae 3d a5 ec 4a ba 0f fa 22 3e
       -0.10391267 0.08521047 -0.0007740951 0.15915702
0001b0 fd d8 fd 3c 8d 17 93 bd 34 34 7b bd a9 36 04 be
       0.030987257 -0.07182226 -0.06132908 -0.12911476
0001c0 c6 7f ce 3d bb 4f 8a bd 79 58 36 3d 4c 3f 88 bc
       0.100829646 -0.06753489 0.044517968 -0.016631745
0001d0 b4 d5 b7 bd 4e e4 89 be 5c 29 6a bd a3 1d b8 bc
       -0.089763075 -0.26931995 -0.05716835 -0.02247507
0001e0 a6 99 92 bc 61 35 a8 3b f0 bc 32 bd a6 ad b3 bd
       -0.01789553 0.0051333164 -0.043637216 -0.08773355
0001f0 3c ed de 3d b3 9c 01 3e 27 af e1 3d 08 ed cb bd
       0.108850926 0.12657432 0.11019736 -0.099573195
000200 ad 04 27 be 18 6d 2a be 4a 34 c9 3d c1 5b 98 b9
       -0.16310377 -0.16643178 0.098244265 -0.0002906006
000210 83 9a 35 be e9 41 ef 3d f5 54 3e 3c 18 41 0a 3e
       -0.17734723 0.11682493 0.011616935 0.13501394
000220 de c8 b0 bd f1 0b 66 bd 12 fe 0d be e7 6e 64 3d
       -0.086320624 -0.056163732 -0.13866451 0.055769827
000230 91 c1 1a be af bb ae 3d d5 a0 03 bd d8 66 05 be
       -0.15112902 0.085318916 -0.032135803 -0.13027513
000240 70 c8 02 be a0 c9 eb bd 8e 19 71 bd ce ea d3 bc
       -0.12771773 -0.11513066 -0.05886226 -0.0258688
000250 6d 2e a9 bd 03 13 cb 3c 8f f0 dc bd 9c 3b 56 bd
       -0.08260808 0.024789339 -0.107880704 -0.05230294
000260 27 ce 6e 3e f9 e0 02 3e 22 6a 3b be 18 e6 00 3a
       0.23320828 0.12781133 -0.18302205 0.0004917099
000270 d5 9f c6 3c fe 27 9f 3d 40 24 35 3e fa 94 cf 3d
       0.024246136 0.077713 0.1768961 0.10135837
000280 59 ef 36 3d 06 83 aa bd fc a1 d1 3c bb b0 04 be
       0.044661853 -0.08325772 0.025589935 -0.12958042
000290 09 00 ac bd 48 af 9b 3d 43 de 39 be 57 4a bd bd
       -0.08398444 0.076017916 -0.18151192 -0.09242695
0002a0 2a 4d 09 bd e5 ea f0 3d 55 3a c7 bc 51 ea f7 3d
       -0.033520855 0.117635526 -0.024319807 0.12105239
0002b0 4d 8c 56 3e 26 31 b7 3b ed bd 6d be 2c bf 3b 3d
       0.20951958 0.0055905757 -0.23216982 0.045836613
0002c0 40 45 4b 3b 06 74 d7 bd 10 5b 6f bd 63 a3 83 bc
       0.0031016618 -0.105201766 -0.058436453 -0.01606912
0002d0 bb 3b 6f 3e 6d 2a ab bd 94 b2 33 be a3 c3 0c be
       0.23362629 -0.083577015 -0.17548591 -0.13746504
0002e0 72 10 46 3e a7 33 6e 3d 4b 83 ee bd 84 6a f9 bc
       0.19342211 0.05815473 -0.11646136 -0.030446298
0002f0 60 cc 11 3d 8d 47 c9 3d 47 a0 80 bc 72 82 60 bd
       0.035595298 0.098281 -0.015701426 -0.054811902
000300 de 02 47 3d 07 b1 1e 3e 9e 9d 63 bd 30 5b 24 bd
       0.04858672 0.15497218 -0.055570237 -0.040126026
000310 f0 3c f6 3c c2 90 80 bc 19 af 90 bd ec c5 70 3d
       0.030058354 -0.015694026 -0.07064647 0.058782503
000320 42 ed 5d bc 68 f6 ca 3d 41 52 4b be a3 3f a3 bc
       -0.013545336 0.099102795 -0.19855596 -0.019927805
000330 e0 0c f8 bd a2 95 9a 3d 83 0e f3 bd 82 df 18 3d
       -0.12111831 0.075480714 -0.11868002 0.03732253
000340 10 ab 23 be 7e c4 5e bc c1 59 93 bd 57 85 b6 bd
       -0.15983224 -0.013596652 -0.071948536 -0.08912151
000350 c5 12 4d be d1 80 48 3e 86 74 0b 3e 4c 53 20 be
       -0.20026691 0.1958039 0.13618669 -0.15656775
000360 53 6c 4a be 51 e4 ae 3d 98 0e e9 bb be 4c bd 3d
       -0.19767885 0.08539642 -0.0071123354 0.09243153
000370 48 f1 ac be 1c 28 bd 3e 86 8a c5 3d b2 bc 88 3d
       -0.33777833 0.36944664 0.09645562 0.06676616
000380 b5 65 11 3e 20 bf 31 3d 7a be 2b 3d 82 5a 3c be
       0.14198954 0.04339516 0.0419297 -0.18393901
000390 0a f1 e7 bd c2 2b dd be 99 4a 87 bd a8 ee 4d be
       -0.113252714 -0.43197447 -0.06606025 -0.20110571
0003a0 b0 e2 c0 3d 8b a2 a4 3b 57 97 70 bd ad 53 97 bc
       0.09418237 0.0050242594 -0.05873808 -0.018472517
0003b0 3e 6b f7 bc 1a 27 e6 bd b0 9f a3 bd 62 37 1a be
       -0.030202504 -0.11237927 -0.07989442 -0.1506019
0003c0 69 67 0f bd 74 aa ac bd c7 13 52 3d c2 b6 9c bb
       -0.03501073 -0.08430949 0.051288392 -0.0047825286
0003d0 86 e1 2d bc d8 18 88 3d 56 0e bf bc 4b 23 dd bd
       -0.010612851 0.066453636 -0.023322266 -0.10797747
0003e0 25 33 34 3e 56 bf 8d be 2a 06 89 bd 6d 6c 31 be
       0.17597635 -0.2768504 -0.06690629 -0.17326517
0003f0 9a 33 0e 3d 87 33 3b 3b 19 af af bd f1 16 0d bd
       0.03471718 0.0028564648 -0.08578319 -0.034445707

network_body.linear_encoder.seq_layers.2.bias f4 [128]
000000 85 21 c4 be 4a ba 0b be 02 7d 58 bd 5d 53 09 bd
       -0.38306823 -0.13645282 -0.05285359 -0.033526767
000010 11 0c aa be 9d 0e ff bd b9 22 bd 3c 1e bc a6 bd
       -0.3321233 -0.12453959 0.023087846 -0.08141349
000020 52 a6 bd bd bb 4c c7 bd c3 78 b2 3b 43 24 6d be
       -0.09260239 -0.09731432 0.005446525 -0.23158364
000030 0d 83 84 3c 4b 2a d2 bd 78 05 4e be 8b 7e 6d bd
       0.016175771 -0.10261973 -0.20119274 -0.05798201
000040 46 b4 17 be 28 7d f7 bc 15 87 dc bd f8 7b f0 3a
       -0.14814863 -0.030211046 -0.10767952 0.0018347492
000050 d4 f8 80 bd 31 97 59 bd 58 b0 c7 bd ea 41 82 bd
       -0.0629746 -0.053122703 -0.09750432 -0.06360228
000060 6e 1d 86 bd 20 ad 99 bc c0 a8 fc bc 5c 7c 4e bd
       -0.06548582 -0.01875931 -0.030842185 -0.050411567
000070 0c a4 1a be 47 3b 8e be aa 02 e5 bc 0c dc 13 be
       -0.15101641 -0.277796 -0.027955372 -0.1443941
000080 f6 db 25 be 96 40 5a be 32 2a 88 be f9 1b 27 be
       -0.1619719 -0.213137 -0.26594692 -0.16319264
000090 42 3f fd bd ef 41 62 be 66 77 48 be f7 25 d0 bc
       -0.12365581 -0.22095464 -0.19576797 -0.025408728
0000a0 3d 09 7d be e7 97 55 bd 91 f2 28 be 83 93 aa be
       -0.24710555 -0.05214682 -0.16498782 -0.33315668
0000b0 21 fe aa bd c5 60 4d be 50 50 fa 3c 3e 09 0e 3c
       -0.083492525 -0.20056446 0.030555874 0.008669196
0000c0 f1 7f 76 be e2 d4 8c bd 91 12 63 be fe 75 69 bd
       -0.24072243 -0.06876542 -0.22175051 -0.05699729
0000d0 87 06 34 be 4b c0 e0 3d ec d2 ec bd d5 70 45 be
       -0.17580615 0.10974177 -0.11563668 -0.19281323
0000e0 42 7a a9 bd 5c bf 37 be 93 45 13 be c6 de 8f bd
       -0.08275272 -0.17944092 -0.14382009 -0.070249125
0000f0 97 59 3f be de 38 88 be 15 aa b1 bd 44 e7 8d bd
       -0.1868652 -0.26605886 -0.08675019 -0.06928876
000100 e7 46 59 be ae 4d 2a be ed 48 05 be 8a 26 fe bd
       -0.21218453 -0.16631195 -0.130161 -0.124096945
000110 54 70 99 bd b4 39 4e be 3d 32 22 bc f8 52 fd bc
       -0.07492128 -0.201392 -0.009899673 -0.030923352
000120 a8 73 62 be f6 28 90 bd 22 21 14 be 37 ff 39 be
       -0.22114432 -0.07039063 -0.14465764 -0.18163763
000130 87 99 1d be 47 cc a2 bd 28 94 fd 3b bd 43 da bd
       -0.15390597 -0.07949119 0.007738609 -0.10657451
000140 40 c6 3e be ae de 93 bc 7e 2c a4 be b6 e3 c2 bd
       -0.18630314 -0.018050518 -0.32065195 -0.09516089
000150 24 70 2a be b6 73 bf bb fa 44 13 be 3d b2 0f be
       -0.16644341 -0.0058426512 -0.14381781 -0.14032836
000160 6e f0 0c 3e 46 2a c2 3d 01 55 1f be b0 52 8b 3b
       0.13763592 0.09480719 -0.1555977 0.0042518005
000170 10 4a 77 be f0 48 92 bd ea 5a 99 bd 71 06 ce 3c
       -0.24149346 -0.07142818 -0.074880436 0.025149556
000180 43 87 e2 bb 47 2d 23 be e7 f4 1c be 31 8c 25 be
       -0.006913097 -0.1593524 -0.15327798 -0.1616676
000190 e4 b1 ba bd d8 cd c3 3d d7 f2 20 be b3 e5 71 be
       -0.09115961 0.09560746 -0.15717636 -0.2362278
0001a0 86 09 84 be b6 0d 51 bc 83 b5 23 be b6 3c 88 be
       -0.25788516 -0.012759617 -0.1598721 -0.2660882
0001b0 30 d5 80 be 26 0d 30 bd f2 a3 93 bd f9 69 19 be
       -0.2516265 -0.04298129 -0.072090045 -0.14981832
0001c0 55 4f 16 bd c6 0d 78 be 35 00 71 be bc e4 cb bc
       -0.03669675 -0.24224004 -0.23535235 -0.024889342
0001d0 c2 65 2a be 1a 3a fd 3b 4c 55 a6 3b 3c 2d 9c be
       -0.1664038 0.0077278735 0.005076086 -0.3050326
0001e0 32 42 34 be f3 ef 8b be 9f 3f 83 be c5 2f 8b be
       -0.17603377 -0.27331504 -0.25634477 -0.27184883
0001f0 33 3a 41 3d df c6 26 be 9a 6c d0 bc ab 10 d0 bd
       0.047174644 -0.16286801 -0.02544241 -0.10159429

network_body.linear_encoder.seq_layers.2.weight f4 [128, 128]
000000 17 64 df bd a7 0c cd bb dc a8 df bd 11 1f c4 3d
       -0.109077625 -0.006257612 -0.10920879 0.09576238
000010 75 b2 5d 3e e2 4a bf bc cb c6 3c 3e 92 1b 05 3e
       0.21650107 -0.023351137 0.18435208 0.12998798
000020 7f f6 2f 3e ce 96 30 3b 9d 00 2d 3e f7 4b 42 3c
       0.17183875 0.0026945355 0.16894765 0.011858932
000030 ef 37 02 be 57 96 17 3c 0b ba de bd 10 ee b9 3d
       -0.1271665 0.009252152 -0.10875329 0.0907861
000040 5c fc 2c 3e 9b f8 12 3e 31 df 84 3e 41 fa 38 be
       0.16893142 0.14352648 0.25951532 -0.18064214
000050 a2 73 02 3d ff e0 df bd dd 14 3c 3e b1 48 38 3e
       0.031848557 -0.109315865 0.18367334 0.1799648
000060 f7 c8 aa bd 12 fd 95 bc d2 11 f1 bd 63 f0 c2 3e
       -0.08339112 -0.01830915 -0.11770977 0.38074026
000070 92 9a ca bc 88 5d 27 bd 09 4d e5 bd a1 ac cd 3d
       -0.024731908 -0.040860683 -0.11196334 0.10042692
000080 cd 56 d5 bd 59 c6 10 be 09 bd d8 3d b8 c1 30 be
       -0.104169466 -0.14138164 0.105829306 -0.17261398
000090 cd a0 90 3e 11 49 38 3c 52 e3 a7 3d 88 14 b1 bd
       0.2824768 0.011247889 0.08197655 -0.08646494
0000a0 75 cb 07 be 6e 8a e1 3d 36 8c fe bd 9c e8 8e 3d
       -0.13261206 0.110127315 -0.12429087 0.069779605
0000b0 a5 3c e9 3b a5 1c 8f be b8 64 0e 3e 50 55 19 be
       0.007117825 -0.27951542 0.13905609 -0.1497395
0000c0 14 58 5d 3d c8 ba a6 bd c6 e0 26 3c 04 38 82 3d
       0.054039076 -0.081410944 0.010185426 0.063583404
0000d0 4d f7 12 be b3 00 53 3d 88 1a ff 3b f1 83 ef 3d
       -0.1435215 0.05151434 0.007785145 0.11695088
0000e0 50 8b 4d 3c 00 65 7f 3e 19 2e eb bd b1 7c ea bc
       0.012545422 0.24940872 -0.11483402 -0.02862391
0000f0 60 98 a5 bd 62 9d 4c be c3 40 26 3e 58 13 b6 3d
       -0.08085704 -0.19981912 0.16235642 0.08890408
000100 20 d7 cf 3d 1b 91 cf 3d 00 be 65 3d 8a 64 6d 3e
       0.10148454 0.101350985 0.0560894 0.23182884
000110 4d dd 3e be 04 7e 9b 3d bb bf dd 3c 56 0a c6 be
       -0.18639107 0.07592395 0.027068963 -0.3867976
000120 0b d9 90 bc c9 61 c4 3c 55 b4 77 be 63 f0 87 3e
       -0.01768162 0.023972409 -0.24189885 0.26550588
000130 8d 4c d1 3e f7 8d 83 3c 78 11 96 3d ee 80 23 bd
       0.40878716 0.016058905 0.07327551 -0.03991788
000140 95 0f 2d 3d 19 d6 d0 3d 08 24 3f 3e e5 28 fa bd
       0.04225119 0.10197086 0.18666089 -0.12214831
000150 46 44 b4 3c 86 48 00 be 1c d0 c8 3c 62 4d bb 3e
       0.022005212 -0.12527665 0.024513297 0.36582476
000160 08 f0 a2 3c b1 0d c5 3e 39 5f 0c bc a6 2d 6c 3e
       0.019889846 0.38487008 -0.008567625 0.23064288
000170 43 4b 21 bd 20 a5 b6 bd 24 ac 31 3d 44 ef b9 3d
       -0.039378416 -0.08918214 0.043377057 0.090788394
000180 53 95 89 3c fd c5 94 3e 70 94 27 be 9b c8 2b 3e
       0.016794836 0.29057303 -0.16365218 0.16775744
000190 7f 27 4b 3d 06 69 44 bd 16 54 18 3e 75 02 40 3d
       0.049598213 -0.04795172 0.14875826 0.046877343
0001a0 b5 56 f6 bd 1f 4d 33 bd 6d 7a 2c 3e 9a 69 a9 3e
       -0.12028257 -0.04377472 0.16843577 0.3308838
0001b0 ba b1 4c 3e af 0f 0a be f0 32 0b 3d 40 0b 2f 3e
       0.19989672 -0.13482545 0.033984125 0.17094135
0001c0 63 b4 a6 3e 9e ba 2b 3e 1e 1d b0 3d 47 4d bf 3d
       0.325595 0.16770408 0.08599304 0.09340911
0001d0 74 c1 1f 3e f4 68 1c be b9 21 59 3e 6a 44 4f 3d
       0.1560114 -0.15274411 0.2120427 0.050602354
0001e0 e6 96 85 3e d7 25 f9 3d 6c 26 6f 3c 94 45 98 3e
       0.2609169 0.121654205 0.014596563 0.29740584
0001f0 0c 86 d8 3d 2d 74 43 3e f3 f2 f2 bd 8c c6 bb 3e
       0.105724424 0.19087286 -0.11862745 0.36674917
000200 4a fa 39 3e 3e 2c 06 3d f3 85 2c bd 7f 3f d3 bd
       0.18161884 0.032757036 -0.04211993 -0.10314845
000210 bf b6 22 ba 7c d9 8a 3c 24 2c e5 bd 4d 09 67 3e
       -0.0006207041 0.016949408 -0.1119006 0.22562142
000220 d3 df cd bc 55 a1 a8 bd 0c ca 21 3e aa 29 40 3e
       -0.025131142 -0.08233897 0.15799731 0.18765894
000230 0a 2e 2f be 50 09 65 3d 6e 5a d1 bd 4e 36 9f 3d
       -0.17107406 0.055917084 -0.10222326 0.0777403
000240 92 8f 13 3d 8c 82 94 3e 86 c7 e2 3d b4 d9 2e 3e
       0.03602559 0.2900585 0.11073212 0.17075235
000250 c8 45 19 bd cd 53 1e 3d 7a aa 8c 3d 0c 60 7a 3e
       -0.037420064 0.038654137 0.06868453 0.24450701
000260 33 3c 33 be 34 ca f4 3d af 9e a2 bc 9a be 1c 3e
       -0.17503433 0.1195263 -0.019851057 0.15307084
000270 b8 65 bf bd 0d 37 f1 3d 23 49 b0 3c f2 20 1a bc
       -0.09345573 0.11778078 0.02151925 -0.009407269
000280 88 85 be 3c c4 f8 82 3d 92 30 a5 bd f4 e8 e7 bc
       0.023257032 0.063951045 -0.08065905 -0.028309323
000290 6c 5b 0e be 2b 1d ec bc fc 09 8d 3d 82 98 93 be
       -0.13902062 -0.028822502 0.0688667 -0.28827292
0002a0 9a f4 96 3c 95 e4 47 3d cc 7e f4 bd 2c 25 53 3e
       0.018427182 0.048801977 -0.11938247 0.20619649
0002b0 9c 3e 8c bd a9 fb 74 3d fc 24 8d bc ea cf c2 3d
       -0.06847879 0.059810314 -0.01722955 0.09512313
0002c0 ab 14 e1 3c d8 35 a2 3d 15 64 bf bd 18 59 9f bd
       0.027475676 0.07920426 -0.09345261 -0.07780665
0002d0 70 a2 23 3d b4 e6 bf bd 5c 66 9e 3c 63 9e 0d be
       0.039949834 -0.09370175 0.019335918 -0.13829951
0002e0 7b d3 81 3d 44 a9 5f 3d b1 72 9c bc 6f 4b c6 3d
       0.06339165 0.054604784 -0.019097658 0.096823566
0002f0 86 37 a0 3d 3b 48 32 3d eb 34 b3 bd d1 c2 41 bc
       0.0782309 0.043525916 -0.08750328 -0.011826233
000300 36 b2 83 bd a1 b0 8e 3d 63 8b 42 3e dd 9a 32 3e
       -0.064304754 0.06967283 0.18998484 0.17441888
000310 12 4c 1d 3d cc 5e 95 3d 37 5e 45 bd ab 00 94 bd
       0.038402624 0.07293472 -0.048185553 -0.0722669
000320 af 3c 82 3d a6 20 46 3c b2 cf e3 bd e3 e6 18 bc
       0.06359231 0.012092745 -0.11123599 -0.009332391
000330 0d 69 a7 3e 95 21 d2 bd cf dd 03 bd 11 cc 28 3e
       0.32697335 -0.102603115 -0.032193955 0.16484095
000340 38 63 1e 3d eb ea 91 3d 99 4d 4d 3e 72 33 29 bd
       0.03866884 0.07124885 0.20049132 -0.041308828
000350 02 60 31 3e b3 b3 89 bd b2 26 77 be 68 23 3c 3e
       0.1732178 -0.06723728 -0.24135855 0.18372881
000360 ac 89 1d be 22 d1 24 3e 01 6f 36 be e8 78 22 3e
       -0.15384549 0.16095403 -0.17815782 0.15866435
000370 dd ae 4d bb 2a b2 9a bd ff a9 54 3e 93 c2 13 3e
       -0.0031384744 -0.07553513 0.20767973 0.14429693
000380 91 9a 38 be e4 e7 30 3c 51 2d 70 bc 27 09 84 3d
       -0.18027712 0.0107974745 -0.014659242 0.06447058
000390 4e 46 7c bd 00 b6 33 bd 6c 27 b5 bc fd 0e 5c be
       -0.061590485 -0.04387474 -0.022113524 -0.21490093
0003a0 04 06 11 bd f4 37 49 3d f6 8e ad 3d d7 85 80 3d
       -0.035406128 0.049125627 0.08474533 0.06275528
0003b0 8b d7 79 bd 5f 9f ab bd 79 59 db bd 97 0a 76 3e
       -0.060996573 -0.08380007 -0.10710425 0.24027477
0003c0 88 39 e6 3c 59 bf 90 3d 7d cf 1e 3d 1a ae 79 3d
       0.028103605 0.07067747 0.038772095 0.06095705
0003d0 66 75 0e 3e ca 25 fb 3c 54 9f a9 3d df 18 60 bd
       0.13911971 0.030657668 0.082823426 -0.05471122
0003e0 2d ad 19 bb ae 3d d1 3c 25 b6 1d 3e 7d 2e 86 3d
       -0.0023449168 0.025542106 0.15401514 0.06551836
0003f0 53 72 d5 bb 7c 4f 53 3c 60 e4 5c bb a9 ec eb bd
       -0.0065138726 0.0128973685 -0.0033705458 -0.11519749
