Oversteek Simulator/Learning/results/Oversteek-K-02/Player/Player-2458724.onnx (onnx, 151540 bytes, 8 tensors)

action_model._discrete_distribution.branches.0.bias f4 [2]
000000 fc 6a 55 bd 09 6b 55 3d
       -0.05210398 0.05210403

action_model._discrete_distribution.branches.0.weight f4 [2, 128]
000000 bf 98 87 3c dd 17 3e 3c 9c 40 44 bd 98 26 0f bb
       0.016552327 0.011602369 -0.04791318 -0.0021843072
000010 91 22 a9 3c 42 7f 86 3c 4e 26 74 bc 15 22 68 bd
       0.020646365 0.016418103 -0.014901711 -0.05667313
000020 5b d8 5e 3d 41 de 04 bd 22 f4 0d be 5b c8 13 bc
       0.05440555 -0.03243852 -0.1386266 -0.009019936
000030 ee 31 1b be 50 47 26 bd 5f 06 cf 3c 84 2e 80 3d
       -0.15155765 -0.040595353 0.025271593 0.06258872
000040 f5 f3 8d 3b e4 26 1f bc df 57 98 bc ab e5 31 bd
       0.0043320605 -0.009713862 -0.018596588 -0.04343192
000050 3b ee 32 3c 78 55 ae b9 1a 7d 8b bd 2b ad 5e be
       0.010921056 -0.00033251545 -0.068109706 -0.21745746
000060 6f a1 bf 3a 80 39 4a 3d a1 02 44 3d 61 9a 18 bc
       0.0014620255 0.049371243 0.04785407 -0.009314151
000070 b9 62 9f 3d 26 fe 88 bc 9d e5 4c bd 58 97 31 bc
       0.07782502 -0.01672275 -0.050023664 -0.010839306
000080 a1 d4 f4 3b 19 b2 a5 bc 79 fe a5 3b d1 f1 6e 3d
       0.0074716364 -0.020226525 0.005065736 0.058336083
000090 cd c0 80 3d 1c b1 d4 3c 79 37 26 bd 60 02 69 bc
       0.06286774 0.025963359 -0.040580247 -0.014221758
0000a0 65 b6 fe bc 3c f1 85 bd 9d 06 10 3d 45 68 0b bd
       -0.031092832 -0.065401524 0.035162557 -0.034034986
0000b0 12 68 d0 bc 50 9e 6a 3c 85 ca 54 bd 74 67 0e ba
       -0.02544025 0.014319971 -0.05195095 -0.0005432286
0000c0 81 4b 40 bb 66 56 a6 bc 0a 15 68 bc 80 cb 63 bc
       -0.0029341879 -0.02030487 -0.014165172 -0.013903499
0000d0 77 02 1a bc 4d f4 b6 bd a1 e2 96 bb 5f 44 53 bc
       -0.009400002 -0.089333154 -0.004604653 -0.012894719
0000e0 9b 62 c2 bd 1b c0 bd bc a3 2e c7 bd 62 d9 45 3d
       -0.09491464 -0.023162892 -0.09725692 0.048303016
0000f0 d4 90 66 bd ac d5 25 3d 6e cb 5f 3d f4 be 78 3c
       -0.056290463 0.040486977 0.054637365 0.0151822455
000100 93 ea fb bc 6d 74 b6 bd 07 3f 5c 3c f0 f7 cd 3c
       -0.030751502 -0.08908925 0.013442761 0.02514264
000110 26 23 ce bc 74 47 a8 b9 25 cb e9 bc f9 95 ab 3c
       -0.025163244 -0.00032096694 -0.02853925 0.020945536
000120 04 8c 33 bc 19 6f cd ba 47 5c 2d 3c 2b 77 d2 bb
       -0.010958675 -0.0015673368 0.010581083 -0.0064228973
000130 18 aa 8e bd af d1 44 3d 4e c5 9d 3d d7 78 c1 3b
       -0.069660366 0.048051532 0.077036485 0.005904298
000140 fa 6a 1f 3c a5 1c 11 bc 19 9c 49 bc b0 83 8b 3c
       0.009730095 -0.008856927 -0.012305283 0.017030567
000150 13 64 50 3d 06 e5 f1 bd 8f 0a 0a 3d ab 37 7f 3d
       0.05087669 -0.11811261 0.033701476 0.06230895
000160 48 f2 cf bd 17 b5 98 bd af 99 99 bd c1 5b 58 bd
       -0.10153633 -0.07456415 -0.07500016 -0.05282188
000170 57 77 d0 bc 34 a0 6e bc 77 dd 66 bc 93 cd 7f bc
       -0.02544753 -0.014564563 -0.014090887 -0.015612978
000180 8c 0e 23 3d 09 b9 f5 bb 63 e3 53 bd c0 69 f5 bc
       0.039808795 -0.0074988646 -0.051730525 -0.029957652
000190 72 f8 fa 3c 91 e9 80 bd e7 b2 bd 3c 2b c4 2a 3d
       0.030636046 -0.06294549 0.023156596 0.041690987
0001a0 b9 12 31 bb de 20 aa 3c 2d c2 08 bd bc b3 0b 3d
       -0.0027019216 0.020767625 -0.033388305 0.034106955
0001b0 d8 fe 2f 3d eb 29 bc 3c 92 29 3b bd 47 32 1c 3d
       0.042967647 0.022969207 -0.04569394 0.038133886
0001c0 46 6a f3 bb 28 3e 94 3d 97 b8 a4 bc f7 01 8d 3b
       -0.0074284403 0.07238418 -0.02010755 0.0043032127
0001d0 a9 95 98 3d c8 b1 cf 3b ca 4f 11 3c 91 cc d2 bc
       0.074504204 0.006338332 0.008869121 -0.02573231
0001e0 15 37 61 bc 11 cb a2 3c 9c 92 1a 3c f5 9c 3c bc
       -0.013746043 0.01987222 0.009434368 -0.011512031
0001f0 87 3c cc bc 04 da 92 3b 65 7c 96 bd bd 2b 46 bd
       -0.024931205 0.004481556 -0.07347945 -0.048381556
000200 9d cf be bc cf f6 84 3b 22 5c 0e 3d 2c a0 a8 bb
       -0.023292357 0.004057742 0.034755833 -0.005146047
000210 ad 26 5f bc 27 31 61 bc 3d 58 a1 3c e8 e4 4f 3d
       -0.013620061 -0.013744629 0.019695396 0.05075541
000220 5e ad b7 bd 95 ae f8 3c 9b 24 fb 3d 6f 2c b5 bb
       -0.08968614 0.030356685 0.12262841 -0.0055289785
000230 e4 75 1e 3e 70 f5 1f 3d 74 45 66 bc 87 0b 9f bd
       0.15474659 0.039052427 -0.014054645 -0.077658705
000240 6c 92 9a bc 3c cb 4e b9 77 27 98 3c 8c 90 52 3d
       -0.018868648 -0.00019721402 0.018573506 0.051407382
000250 62 7e 03 bc 3f e5 d2 3b 02 35 99 3d 15 3d 59 3e
       -0.0080257375 0.0064360197 0.074808136 0.21214707
000260 10 cc f4 b9 6b a4 2a bd da 9d 4f bc ac 73 84 3c
       -0.00046691345 -0.041660707 -0.012671912 0.016168438
000270 fe 2f 5b bd 82 b7 aa 3c 39 4d 33 3d ed 4c 09 3d
       -0.053512566 0.020839456 0.043774817 0.033520628
000280 2e ce 44 bc 3e bc 10 3b 54 d1 c6 3b f4 b9 32 bd
       -0.012012048 0.0022084857 0.0060674343 -0.04363437
000290 71 21 90 bd b4 9a 84 ba bd 63 10 3d 33 48 a0 3b
       -0.070376284 -0.0010116906 0.035251368 0.0048914193
0002a0 3a 3c 8d 3c a0 f8 0d 3d 00 f0 09 bd c1 30 3f 3c
       0.017240632 0.034660935 -0.033676147 0.011669339
0002b0 ea 3e 14 3d 8b a5 3c bc 95 3b 24 3d 0c b1 93 ba
       0.036192812 -0.011514078 0.040095884 -0.0011267974
0002c0 79 57 fe 39 bb 0a e4 3b 91 97 aa 3c 8d 23 0a 3c
       0.00048511827 0.006959287 0.020824226 0.0084313275
0002d0 62 d9 4a bc 18 ce c7 3d c6 49 1c b8 ba ca 7e 3c
       -0.01238093 0.09756106 -3.7262005e-05 0.0155512635
0002e0 ad 96 d8 3d 87 94 a9 3c 84 9a 9f 3d 1b a3 8b bd
       0.10575614 0.020700706 0.077931434 -0.06818219
0002f0 3f c9 6f 3d c1 35 12 bd 8e 43 8e bd c1 7a 8e 3c
       0.058541533 -0.035695795 -0.06946479 0.017392518
000300 f9 ff cd 3c 93 17 83 3d dd 8b 23 bc 69 3c ef bc
       0.025146471 0.06400981 -0.0099820765 -0.02920361
000310 a2 85 b4 3c 16 ab 34 3b 47 9d 89 3c 43 ab f0 bc
       0.022036377 0.0027567795 0.016798628 -0.029378539
000320 70 77 eb 3b 4b aa 25 3c 25 bc d8 bc 67 18 79 bc
       0.007185869 0.010111402 -0.026456902 -0.015203572
000330 a8 11 92 3d ab d8 5f bd 2d 3f 72 bd c5 b9 79 3c
       0.07132274 -0.05464999 -0.05914228 0.015242045
000340 f3 cb c8 bc 15 67 d9 ba 34 f7 b5 3c c8 3c 52 bc
       -0.024511313 -0.0016586507 0.022212602 -0.012831874
000350 25 19 11 bd 07 6a 02 3e 7b 10 1d bc 11 ac 7f bd
       -0.03542437 0.12735759 -0.009586449 -0.062419955
000360 d8 9c cb 3d 7d fa a9 3d c3 04 93 3d aa 41 89 3d
       0.09942025 0.0829973 0.071786426 0.067019776
000370 ae 77 c5 3c b4 e0 3a 3c 5f 30 03 3c 94 fe 1a 3c
       0.02410492 0.011406112 0.008007138 0.00946011
000380 ec 91 55 bd 62 5f 4f 3c 49 08 73 3d 05 59 2e 3d
       -0.052141115 0.012657018 0.059334073 0.042565364
000390 6a 0b 48 bd e6 41 48 3d 43 ce dc bc aa f1 3a bd
       -0.04883901 0.04889097 -0.026953822 -0.045640625
0003a0 40 15 6d bc ba b4 9e bc 1d a0 43 3c e0 ae 01 bd
       -0.014470398 -0.019373287 0.011940029 -0.031660914
0003b0 c9 17 32 bd d5 8e 0b bc 8a 9b ea 3c ba a2 70 bd
       -0.043479715 -0.0085179405 0.02863862 -0.05874894
0003c0 e6 f7 b2 3a 68 eb 98 bd 4d 29 86 3b f5 bf f4 bb
       0.0013654202 -0.07466775 0.004094279 -0.007469172
0003d0 ac 2f 6b bd c8 10 f7 bb 8c c5 f1 3b ce c1 0f 3d
       -0.05741851 -0.0075398423 0.0073782858 0.035096936
0003e0 53 8e 35 3c a3 cb bc bc 8a 03 8b bc af 97 71 3c
       0.011081296 -0.02304632 -0.016969461 0.014745637
0003f0 9c bc 8c 3c 6f 94 88 3a 7f c2 7e 3d c5 db 64 3d
       0.01717978 0.0010420213 0.062197205 0.05587365

action_model._discrete_distribution.branches.1.bias f4 [2]
000000 53 5f 1b be 54 5f 1b 3e
       -0.15173082 0.15173084

action_model._discrete_distribution.branches.1.weight f4 [2, 128]
000000 97 a0 8f 3d 0c f5 9a 3c 2b bc 57 3c 83 36 05 3c
       0.07013052 0.018915676 0.013167421 0.008130672
000010 d1 55 0b 3e ae 97 05 3d e0 2f d1 3c 4c fb 35 3d
       0.13606955 0.032615356 0.025535524 0.04442911
000020 e7 35 95 3d e1 43 27 3d 90 01 6a 3d f0 fc c0 3d
       0.07285672 0.04083622 0.057130396 0.09423244
000030 cc 29 0d bd fe a0 b6 3c ba 37 df 3d 11 9c 45 bc
       -0.03446369 0.022293564 0.10899301 -0.012061135
000040 22 37 f3 3c 5c 62 b8 3b b2 a5 19 3d 3c 70 6d 3b
       0.029689375 0.0056269597 0.037511535 0.0036230227
000050 bd 01 15 bd cd 5e 13 bc bc f7 07 bd 53 0f ae 3c
       -0.03637861 -0.00899477 -0.033195242 0.021247542
000060 dd 7e bb 3c 1d 9a b4 3b ca 0b 96 bd dd d8 f4 3c
       0.022887642 0.005511536 -0.07326467 0.029888565
000070 31 5b 87 bd 34 89 e9 3d 9c a1 0a 3d 1b 96 9b 3d
       -0.0660919 0.114031225 0.03384553 0.0759699
000080 a0 33 83 3d df 26 83 3c 5c 46 d5 3d ce 28 0a 3c
       0.06406331 0.016009746 0.104138106 0.00843258
000090 2c 3c 58 bd ea 76 e3 3d a7 2e df 3d bf e2 d6 3c
       -0.05279176 0.111066654 0.1089757 0.026231168
0000a0 f0 ce 71 3d 7e 9f ea bc 62 d8 3e 3d ac 35 c7 3d
       0.05903524 -0.028640505 0.046593077 0.09727034
0000b0 4d a2 a0 3c 83 d6 4d 3d 65 7a f9 bc ae 60 ef ba
       0.019608641 0.050253402 -0.03045387 -0.0018263066
0000c0 4c c1 d4 3d b1 32 53 bd 99 6c 13 3e 87 cb 39 bb
       0.10388431 -0.051562015 0.14396895 -0.0028350072
0000d0 97 47 96 3c d7 64 57 bc 48 bf 07 3c 39 dd f9 3c
       0.018344684 -0.013146601 0.008285351 0.030500995
0000e0 93 20 0a 3d 72 2f 92 3d 9f 90 28 3d 72 a0 2d 3c
       0.03372247 0.07137956 0.041153546 0.010597335
0000f0 0a 1d a3 3d f2 93 6b 3d 62 fb 53 bd e4 a7 22 3b
       0.07964523 0.05751414 -0.05175341 0.002481931
000100 dd 75 bb 3d a1 02 00 3e 10 c9 3f 3d 5e 7c cc 3b
       0.0915334 0.12501003 0.046822608 0.0062404117
000110 2d 43 a3 bd b2 a2 ff 3d 27 75 ba bd 3b 90 5f 3c
       -0.07971797 0.124822035 -0.09104376 0.013645227
000120 54 f4 25 3d 18 be 7b 3c be d7 94 3c 4f f0 09 3c
       0.040516213 0.015365146 0.01816928 0.00841911
000130 78 77 9f 3d c8 8c 7f bc 52 9f 08 bd 1b fd 69 bc
       0.07786459 -0.01559753 -0.033355065 -0.014281536
000140 60 7e 8a 3c eb 2b 71 3b 05 03 03 3e 03 31 76 3c
       0.016905963 0.0036799859 0.1279412 0.015026334
000150 8a b5 79 3c 67 cb 8d bc 06 ea 9c bc 18 30 b1 bb
       0.015241036 -0.017308904 -0.01915456 -0.0054073445
000160 b2 87 24 ba b0 71 b0 bd 1c aa 15 bd 93 a5 43 3c
       -0.00062763237 -0.08615434 -0.036539182 0.011941331
000170 c8 2c cc 3d 72 5f b7 3c 62 05 81 3b 1a 22 10 3c
       0.09969479 0.022384379 0.0039374093 0.008797193
000180 70 ec 5b bd 8d 02 91 3d 8d c5 e6 3d 6a da 00 3d
       -0.05369228 0.07080565 0.112681486 0.031458296
000190 27 af 80 bc 56 a2 4e bd e1 4b 00 3e 98 48 d6 3d
       -0.01570852 -0.050447784 0.12528946 0.10463065
0001a0 97 1c ef 3d f1 49 3d 3d 8d 70 eb bb f0 42 2a 3d
       0.11675375 0.046213094 -0.007185048 0.041567743
0001b0 0d 97 a8 3d 3a d0 b1 3c 3f dd 9a 3c ca fb 61 3c
       0.08231936 0.021705735 0.018904326 0.013792941
0001c0 12 69 77 3d 01 f6 7c 3d 4f 73 32 3d 0e 1d 86 3c
       0.060402937 0.061758045 0.043566998 0.016371276
0001d0 c8 c6 bd bc 3b 3c 5b 3b 63 89 10 bb 72 e6 18 3d
       -0.023166075 0.0033452648 -0.0022054545 0.037329145
0001e0 d5 df 86 3d d2 88 09 3e a9 22 d9 3d 2e b1 62 3d
       0.06585661 0.13431099 0.10602314 0.055344753
0001f0 cc 83 44 3c 78 43 a6 3d 2f cc 91 3d b1 f5 0f bc
       0.011994313 0.081183374 0.07119023 -0.008786605
000200 41 8b b0 bd a3 ff 8f bc 3b b1 03 3c c4 62 ae 3b
       -0.086203106 -0.017577952 0.0080378605 0.0053218324
000210 a4 b2 f2 bd 6c d7 a2 bc 51 fd f1 bc f1 fe 0d bd
       -0.11850479 -0.019878112 -0.029539736 -0.03466696
000220 40 31 9e bd ec be ab bc ac b0 5d bd c0 cd b4 bd
       -0.077242374 -0.020965062 -0.054123566 -0.08828306
000230 57 87 2c 3d bb 8b e0 bc 2f 2b c0 bd 64 f7 ac 3c
       0.042121258 -0.027410379 -0.093832366 0.021114059
000240 9f 11 1a bd b2 1e 88 bc 91 15 c0 bc 16 53 73 bc
       -0.03761446 -0.0166162 -0.023447784 -0.014851352
000250 dc 35 ef 3c 6f aa 90 bb 6d a5 df 3c e4 89 ba 3b
       0.029200487 -0.0044148485 0.02730056 0.0056927074
000260 c4 4c 0d bd 9c 86 20 3c c8 4f 83 3d ab f3 96 bc
       -0.034497038 0.009797718 0.064117014 -0.018426737
000270 df 11 9b 3d 36 0b de bd bf c4 0c bd 56 77 aa bd
       0.07571768 -0.10841982 -0.03436732 -0.08323543
000280 ba 19 a0 bd 62 78 bc bc 12 55 cb bd 00 07 93 3b
       -0.07817407 -0.023006622 -0.09928335 0.0044869184
000290 ee 4f 75 3d 0d 69 eb bd 9c 66 05 be 27 2f c8 bc
       0.05989068 -0.11494646 -0.13027424 -0.024436546
0002a0 17 53 5e bd ab 9e 21 3d 8b e3 39 bd 42 c9 d4 bd
       -0.05427846 0.03945796 -0.045383018 -0.103899494
0002b0 e9 4a eb bc ee 15 6c bd cb 44 f1 3c a5 da 9c 39
       -0.028722243 -0.0576381 0.029451748 0.00029917542
0002c0 97 e5 ab bd e1 ae 2d 3d 42 9f 0c be 61 cd 57 3b
       -0.083934 0.042403106 -0.13732627 0.0032928812
0002d0 76 99 6a bc 2c a6 b4 3b 82 3f bf bb d2 74 15 bd
       -0.0143188145 0.0055129733 -0.005836428 -0.03648836
0002e0 c6 92 17 bd 75 22 65 bd 5c 9b 36 bd 88 9e ec 3a
       -0.03700521 -0.055941064 -0.044581756 0.0018052617
0002f0 24 fe a6 bd d2 97 5f bd a0 10 90 3d 02 c7 76 bc
       -0.08153942 -0.054588147 0.07034421 -0.015062096
000300 5b 3f dd bd 28 20 0d be 06 9e 3e bd 15 e3 7b bc
       -0.108031 -0.13781798 -0.04653742 -0.015373965
000310 a2 79 98 3d 40 4d 08 be 65 82 d1 3d 3e ec d8 bc
       0.074450746 -0.13310719 0.10229949 -0.026479837
000320 d6 ef 89 bd 87 76 8e bc 48 ac d9 bb 64 bd a1 bc
       -0.06735198 -0.017390503 -0.006642852 -0.019743629
000330 dc b0 a5 bd 66 0d ee 3c 94 16 1c 3d 50 9d 77 bc
       -0.08090374 0.029059123 0.03810747 -0.01511319
000340 4e 44 32 bd e3 b4 0a bc ab 1a f5 bd 7c 86 b2 3b
       -0.04352217 -0.008465978 -0.11967977 0.0054481607
000350 cb 9e 2a bc f6 24 a6 3c cb 33 3d 3c 80 b7 9d bc
       -0.010413836 0.020281296 0.011547993 -0.019252539
000360 59 cb 29 3d 41 1c a1 3d 13 a0 d8 3c a3 0c 30 bb
       0.041453693 0.07866717 0.026443517 -0.0026863
000370 5b 86 ac bd b8 33 5d bc 57 99 00 bc 71 de 92 bc
       -0.08424064 -0.0135011 -0.007849059 -0.017928334
000380 70 a1 36 3d 5b 86 cb bd 1a 8d e8 bd f1 55 7c bd
       0.044587553 -0.09937736 -0.11355038 -0.061605398
000390 60 81 89 bb ee 47 c8 3c 9d ee f3 bd df 6e ce bd
       -0.004196331 0.024448361 -0.11910746 -0.10079741
0003a0 ae bb ee bd f7 96 4a bd 4b 7e 14 3c a1 6e 60 bd
       -0.11656891 -0.049460378 0.009063314 -0.054793004
0003b0 14 b7 bc bd 53 46 22 3c 34 c1 12 bd 5e 80 9c bc
       -0.09214607 0.009904462 -0.035828784 -0.019104179
0003c0 a7 aa 85 bd e3 fc 95 bd 42 34 f8 bc 20 43 5d bc
       -0.0652669 -0.07323625 -0.030298356 -0.013504773
0003d0 d7 ad a9 3c 38 99 8a 3c 9b bc fd 3b 9b 6c 28 bd
       0.020712776 0.016918764 0.007743431 -0.0411192
0003e0 59 4c 8c bd 24 be 09 be 8f 67 c8 bd 4e 10 86 bd
       -0.068505 -0.13451439 -0.09785377 -0.065460786
0003f0 70 07 72 bc 00 3b 92 bd da 8c 98 bd 7c db fe 3b
       -0.014772281 -0.071401596 -0.0744874 0.0077776294

network_body.linear_encoder.seq_layers.0.bias f4 [128]
000000 7d cc 67 3e 58 51 30 ba 46 f8 f4 3b 36 e9 0d be
       0.226366 -0.00067259884 0.0074758856 -0.13858494
000010 86 30 4c be f5 cd 61 3e 35 b2 06 3d 1b af 14 be
       -0.19940385 0.22051223 0.032884795 -0.14519922
000020 38 70 90 3e 82 bb 58 3d 90 ca 07 be e3 33 fc 3d
       0.28210616 0.052913196 -0.13260865 0.12314584
000030 22 2a b1 3d 23 70 c5 3d 4a 49 59 3e ec 4e 51 be
       0.08650614 0.09640529 0.21219364 -0.20440263
000040 69 d3 97 be be ca 91 ba 82 96 28 be bc 3f 27 3d
       -0.2965348 -0.0011123044 -0.16463664 0.040832266
000050 1b 04 ac 3c 4c 02 13 3e 6b f1 60 bd 32 75 70 be
       0.020998051 0.14356345 -0.054917734 -0.23482206
000060 49 54 11 bd 6d 49 1d be f7 ee 19 3d b2 42 91 be
       -0.03548077 -0.15360041 0.03758141 -0.28371197
000070 b6 e1 c1 3d 95 f8 09 be 22 36 d8 bd a4 18 0d be
       0.09466879 -0.13473733 -0.105572 -0.13778931
000080 8d d8 c0 3d 23 39 1c 3e 51 ce 2f bd 22 34 ed 3d
       0.09416304 0.15256171 -0.042921368 0.11582209
000090 fe 01 cc 3d 75 ab 9c 3c 7e a8 e0 bc 50 c2 bb bc
       0.099613175 0.019124726 -0.027424093 -0.022919804
0000a0 b4 3d ec bd 97 3d 42 be 18 14 1e 3e 63 4f 89 3d
       -0.115352064 -0.18968807 0.15437353 0.06704595
0000b0 68 1e 0c 3e 42 92 49 3e ff 3d 28 bc 59 31 b2 3d
       0.13683474 0.19684699 -0.010268687 0.087008186
0000c0 0b dc 62 bd 16 18 4e 3b aa 13 26 3e 10 e2 fa 3c
       -0.05538563 0.0031447462 0.16218439 0.030625373
0000d0 0b c0 9f 3d 3d bc 1b 3d 48 fa b2 3e 3e 9c 87 be
       0.07800301 0.038021315 0.34956574 -0.2648639
0000e0 0a bf 39 bd b1 ba 83 be a7 5f 5e ba ef 5b 0f 3c
       -0.045348205 -0.25728372 -0.0008482881 0.008749946
0000f0 30 a3 9c bd d3 dd b5 bd 97 3e 1d be f8 a7 40 3d
       -0.07648313 -0.088802 -0.15355907 0.047035187
000100 41 1e 0c be 49 00 80 be 50 ee 42 bc dd 3f 7b be
       -0.13683416 -0.25000218 -0.011897638 -0.2453608
000110 99 51 0e 3e cf 86 1b be 1d c0 ee bd 8a 45 84 bc
       0.13898315 -0.15188144 -0.116577365 -0.01614644
000120 7d 19 d6 bc 04 8c 8b 3c 2a fd ae 3d 2b 49 8d be
       -0.0261352 0.017034538 0.08544381 -0.27594885
000130 4c 1d 86 be d4 35 d2 3d c6 e7 a8 3d 52 8f 19 be
       -0.26194227 0.10264173 0.08247332 -0.14996079
000140 d0 16 47 3d 5f 8b 2f be 3e b0 12 be 40 d8 3e 3e
       0.04860574 -0.1714301 -0.14325044 0.1863718
000150 b1 38 9b bd 9a 78 e2 bc 77 d4 36 3e c2 35 2c be
       -0.075791724 -0.027645398 0.17854486 -0.16817382
000160 3f 4d d8 bd e3 93 ca be 7c 59 8e 3d a9 03 10 be
       -0.105616085 -0.39565954 0.069506615 -0.14063896
000170 3b 2f 67 be ef cc 53 bd 24 9f 8a be 41 94 2a 3e
       -0.2257661 -0.05170911 -0.2707454 0.16658117
000180 7d 38 50 3e ec b6 59 be bf 12 3d 3e 1d d9 41 3e
       0.20334049 -0.21261185 0.18464182 0.18930478
000190 4c d9 03 be 27 ed 38 3e a0 58 a3 be aa cc fb 3d
       -0.12875861 0.18059216 -0.31903553 0.12294896
0001a0 f3 b2 d7 3d 4a 99 01 bd d3 da 13 3d e7 e2 1c be
       0.10532179 -0.03164033 0.03609736 -0.15320931
0001b0 97 cb 03 be ff 61 6e 3e 38 57 f1 3c be d6 45 be
       -0.12870632 0.2327957 0.029460534 -0.19320199
0001c0 06 37 cd be 73 01 83 3c 3d 37 0e 3e 25 63 82 be
       -0.40081042 0.015991902 0.13888259 -0.25466266
0001d0 bb e6 dd bd 03 f8 0f 3e 6f df f2 bd 5d 48 b6 bd
       -0.10835024 0.14059453 -0.11859023 -0.08900521
0001e0 46 a7 8a be 75 97 26 3e 75 34 0c 3d 0b e7 a4 be
       -0.27080745 0.16268714 0.034229714 -0.32207522
0001f0 24 f4 00 bd 30 ab 17 bd 56 9b e8 bd f1 67 d2 bd
       -0.03148283 -0.03702849 -0.11357753 -0.102737315

network_body.linear_encoder.seq_layers.0.weight f4 [128, 156]
000000 64 ea a4 bc 3d 56 72 3e 12 c4 45 bd 7b 4c 30 3c
       -0.020131297 0.2366571 -0.04828269 0.010760422
000010 2c 4b 10 be 4a 5a 47 bd 77 a1 a0 3d 6c f3 76 3d
       -0.14091176 -0.04867009 0.07843297 0.06029074
000020 96 9e 8d be 2d 40 0a 3e 6d 79 3d bd 99 75 b3 3d
       -0.27660054 0.13501044 -0.04625838 0.08762664
000030 91 86 42 be a5 07 2a 3e 72 1b 3d 3d 06 1d 95 3d
       -0.18996646 0.16604479 0.046168752 0.072809264
000040 46 87 cd 3d a4 1d 2d 3e c9 8b 19 3d 0c 45 41 be
       0.10035567 0.16905838 0.037486825 -0.18873996
000050 c7 91 56 be 82 c0 9e 3e e2 b7 ab 3d b1 47 55 bc
       -0.20954047 0.31006247 0.08384682 -0.013017581
000060 7a f3 4e 3d a8 84 14 3e 8a 8d cc bd 6a 0c 1a be
       0.050525166 0.1450373 -0.09987934 -0.15043798
000070 13 75 34 bd 7b 61 6d 3e 68 70 ae bc 41 0f 69 3d
       -0.044056963 0.23181717 -0.021293834 0.056899313
000080 55 4e 77 3e b4 34 1b 3c 57 91 20 bd 0d 9b 82 bd
       0.24150975 0.009473015 -0.039201107 -0.0637723
000090 03 5d 12 3e 93 3b 3d bd 64 2d 4d be 9c 38 4c 3c
       0.14293294 -0.046199393 -0.20036846 0.012464669
0000a0 7b 93 b5 3e f0 7b 3e be 07 19 7b be b8 5b 0c be
       0.3546408 -0.18601966 -0.24521266 -0.13706863
0000b0 98 e4 f8 3c 4b ce 84 bc 74 e0 69 3a 33 6b 16 3e
       0.03038244 -0.01621165 0.0008921691 0.14689331
0000c0 46 ff 40 bd f6 d4 29 be 40 4a 17 3d 5f c7 52 3d
       -0.047118448 -0.16585144 0.036936045 0.051459666
0000d0 d2 55 03 bd 4c c5 f6 bc bc 3c 30 3e 3a ad 9e 3e
       -0.032064267 -0.030123375 0.17210668 0.30991536
0000e0 e4 4d 3b be 65 42 63 3b b3 74 df 3c 95 2c 83 bd
       -0.18291432 0.0034677025 0.027277326 -0.06404988
0000f0 8a 41 55 bd 10 1f 83 bc c2 99 2a 3e d7 76 0b 3d
       -0.052064456 -0.016006023 0.16660216 0.03404888
000100 14 a3 5a be 5b eb 2a be 0a 7a f0 3d 73 a1 0e 3e
       -0.21351272 -0.16691343 0.11742027 0.13928775
000110 24 9e 20 3d aa 07 8a 3d 0a bb fa 3c e5 44 53 be
       0.039213315 0.06739743 0.030606765 -0.2063175
000120 c9 c9 21 3c ff 3a 17 bf 61 eb 41 3e 8f a4 f6 bc
       0.0098747695 -0.59074396 0.18937446 -0.030107765
000130 d9 4d b2 3c 75 79 e7 bc 0d 17 e1 bd ce 2a a7 bd
       0.021765636 -0.028256157 -0.10990725 -0.08162461
000140 a8 ed 62 3d f8 6f df be 7e b1 40 3e 4d f6 8b 3d
       0.055402428 -0.43640113 0.18817708 0.068340875
000150 1d f1 08 3c f3 9b 46 be 92 34 a4 bd e7 af 87 bd
       0.008358267 -0.19395427 -0.080178395 -0.066253476
000160 fa 2f b7 3d a6 72 a8 bd 9e 35 2b 3d 67 77 31 3e
       0.08944698 -0.082249925 0.04179918 0.17330705
000170 b4 00 18 3e ba 34 19 3d 98 85 bd 3d d8 72 2c be
       0.14844018 0.0374038 0.092539966 -0.16840684
000180 ff a6 66 3d 80 1f a4 be 92 76 82 bd ec c6 14 bd
       0.056311604 -0.32055283 -0.06370272 -0.03632252
000190 e7 67 a5 bd 32 cb 7f bc e1 5f 39 bd aa 57 57 be
       -0.080764584 -0.01561241 -0.045257453 -0.21029535
0001a0 d9 dc c1 bd fd b7 b8 3d 65 4c 18 bd 2a eb 1c 3e
       -0.094659515 0.09019468 -0.03718223 0.15324083
0001b0 17 cd c1 3c fb 86 70 bd 34 34 7b bd 87 27 ed bd
       0.023657365 -0.058722477 -0.06132908 -0.11579805
0001c0 e3 f9 d9 3d 90 40 a6 bd 24 f9 a6 3c 80 4d 62 bd
       0.10643365 -0.08117783 0.020382471 -0.05524969
0001d0 d5 07 97 bd 21 1f 83 be 5c 29 6a bd 9e fd 3f bd
       -0.07374541 -0.25609687 -0.05716835 -0.046872728
0001e0 5b 2a bf bb 86 df 89 3c ce 88 f7 bd 18 33 cd bd
       -0.0058339066 0.016830217 -0.1208664 -0.10019511
0001f0 96 b3 29 3d db 29 0f 3e 27 af e1 3d 24 65 91 bd
       0.041431032 0.1398081 0.11019736 -0.07099369
000200 9e 64 34 be 7e 8a 31 be ee 5e 2d 3d 07 83 7a bd
       -0.17616507 -0.17337987 0.04232686 -0.061160114
000210 6c ec 2f be 14 fd fc 3d f5 54 3e 3c 74 bb ef 3d
       -0.17180032 0.12352958 0.011616935 0.11705676
000220 1c 74 99 bd 79 7c 12 bd 7f ae 69 be 2d 7f 20 3d
       -0.07492849 -0.035763238 -0.22820471 0.039183784
000230 d6 04 33 be f7 37 c2 3d d5 a0 03 bd 69 54 ef bd
       -0.17482314 0.09483331 -0.032135803 -0.11686022
000240 5c a9 fa bd ec e8 07 be 2a ac 15 be 32 7b bc bd
       -0.12239334 -0.13272446 -0.14616457 -0.09203185
000250 84 bb 86 bd 67 8f c2 3c 8f f0 dc bd 02 1f c0 bd
       -0.065787345 0.02375002 -0.107880704 -0.09380914
000260 34 3f 7e 3e a8 11 10 3e fe a6 82 be 71 48 96 bc
       0.24828798 0.14069235 -0.2551803 -0.01834509
000270 b0 9d 97 3c bc 72 81 3d f7 26 4c 3e 6e ba de 3d
       0.018507808 0.06320712 0.19936739 0.108754024
000280 af 8d 1b 3d ad 96 92 bd 39 60 c2 3c 1b fb 03 be
       0.037976917 -0.071576454 0.023727523 -0.12888758
000290 7e 48 a5 bd 0e b9 9e 3d d1 25 25 be 92 fe a3 bd
       -0.080704674 0.0775014 -0.16127707 -0.0800754
0002a0 5b 7c 1f bd 2f 53 10 3e 62 d1 cc bb cd 95 02 3e
       -0.038936954 0.14094232 -0.0062505463 0.12752457
0002b0 92 28 6c 3e 78 c1 d1 bb 97 5c 44 be 8a 5b 8f 3d
       0.23062351 -0.006401237 -0.19175945 0.069998816
0002c0 00 83 46 3a eb 59 8f bd 91 c3 54 bd fb 44 89 bc
       0.0007572621 -0.06999572 -0.05194432 -0.016756525
0002d0 19 b6 84 3e b6 ee e4 bd 95 96 25 be e1 97 f2 bd
       0.2592018 -0.11178343 -0.16170724 -0.11845375
0002e0 43 3f 42 3e ea d5 da 3d 3d 26 e7 bd 2c 7b ff bc
       0.18969445 0.10685332 -0.1128659 -0.031186663
0002f0 19 92 2a 3d 9d 04 c2 3d 3e c8 13 bc fc a4 34 bd
       0.041643236 0.09473536 -0.009019909 -0.044102654
000300 12 60 10 3d cd 2e 4e 3e 8f 1f 47 bd 9a bd 2a bd
       0.03524787 0.2013504 -0.04861408 -0.041684724
000310 07 21 2c 3d c0 c4 0b bd 9f 29 b6 bd fb a7 75 3d
       0.042023685 -0.034123182 -0.08894657 0.05997465
000320 06 da 78 bc 58 f2 11 3e 1a 19 57 be 3e 56 df bc
       -0.0151887 0.14252603 -0.21005669 -0.027262803
000330 8e f8 c2 bd c8 c8 48 3d dc 04 19 be 6f ca 0b 3d
       -0.09520064 0.049019605 -0.1494326 0.034128603
000340 72 60 0f be 76 d5 2c 3c 05 c1 a3 bd 30 b3 cc bd
       -0.14001635 0.01054894 -0.079958 -0.09995115
000350 49 97 4c be 16 ca 32 3e 57 5e 23 3e c1 0b 0b be
       -0.19979586 0.17459902 0.15953957 -0.13578703
000360 33 58 43 be 59 d5 c0 3d b6 10 9f bc c7 26 af 3d
       -0.19076614 0.09415693 -0.019417148 0.08552318
000370 25 3a a7 be c8 db 9b 3e 2d 3c f8 3d e6 32 ad 3d
       -0.32661548 0.30441117 0.121208526 0.08456974
000380 c0 9d 00 3e 80 a1 4a 39 7a be 2b 3d d3 29 4d be
       0.12560177 0.00019324385 0.0419297 -0.20035486
000390 de eb c3 bd 0f ae de be 41 bb ae bd a3 1f 59 be
       -0.095664725 -0.4349217 -0.085318096 -0.21203475
0003a0 d4 59 7f 3d 5b 6b 16 bd 57 97 70 bd 3e 42 d5 bc
       0.062341526 -0.036723476 -0.05873808 -0.026032563
0003b0 14 fe b7 bc e6 8c 9f bd 54 8d b8 bd ad 5e 1d be
       -0.022460021 -0.07790546 -0.09011331 -0.15368147
0003c0 ca cb 5b bd c2 3b c4 bd c7 13 52 3d 20 01 b0 bb
       -0.053661145 -0.095817104 0.051288392 -0.005371228
0003d0 1a 2f 83 3b 58 32 8d 3d ef 3e 1b bd 4b 03 ea bd
       0.0040034177 0.06894368 -0.037901815 -0.11426409
0003e0 28 3a dc 3d 83 1e 9c be 2a 06 89 bd 93 68 1a be
       0.1075328 -0.3049203 -0.06690629 -0.15078954
0003f0 48 8d 0a 3d fb 72 48 3d d7 4d e4 bd c4 74 1b bd
       0.033826143 0.04893778 -0.11147659 -0.037953153

network_body.linear_encoder.seq_layers.2.bias f4 [128]
000000 4a 08 c7 be 98 b3 13 be d6 06 8c bd 75 d6 23 3c
       -0.38873512 -0.14423978 -0.06837241 0.009999861
000010 0e c5 a5 be 37 64 12 be 6a 7f ab bb 56 aa e9 bd
       -0.32376903 -0.14296041 -0.005233695 -0.11409442
000020 cc bf e4 bd 66 80 db bd 31 03 33 bc 44 65 75 be
       -0.11169395 -0.107178494 -0.010926054 -0.23964411
000030 fe 25 de 3c d9 a6 0c be d6 4d 4c be 3f e2 70 bc
       0.027117725 -0.13735522 -0.19951567 -0.014702379
000040 eb 42 34 be 84 cb d6 bc 8d 57 32 be 12 d3 fb 3b
       -0.17603652 -0.02622009 -0.1741621 0.0076850737
000050 7a 6f a2 bd 87 10 6a bc f7 ea a9 bd 6a 2d 42 bd
       -0.07931419 -0.014286167 -0.08296769 -0.04740659
000060 57 9e 77 bd b0 c5 a7 3c 61 43 32 bd ee 08 64 bd
       -0.06045374 0.020480007 -0.04352129 -0.05567258
000070 31 b2 29 be 10 4a 98 be 13 e9 80 bd 94 43 46 be
       -0.16571881 -0.29744005 -0.062944554 -0.19361717
000080 ef 44 53 be 2b 18 3f be be 7a 8d be ef 3a 34 be
       -0.20631765 -0.18661563 -0.27632707 -0.17600606
000090 67 49 05 be d6 09 73 be 0a 93 4c be f1 bc 33 bd
       -0.13016282 -0.23734221 -0.19977966 -0.04388136
0000a0 79 7d 7d be 1a 66 5a bd 79 3c 31 be 17 23 b7 be
       -0.24754895 -0.053320028 -0.17308225 -0.3576896
0000b0 84 43 a7 bd b8 56 5f be f4 00 37 3d 63 49 b0 3b
       -0.081671745 -0.21810424 0.044678643 0.005379842
0000c0 d0 42 65 be 0c 7d 82 bd 5d d3 74 be 93 ab ae bd
       -0.22388768 -0.06371507 -0.23908754 -0.08528819
0000d0 92 81 4f be 21 ae c6 3d 44 d7 eb bd c9 70 71 be
       -0.20264271 0.09701181 -0.11515668 -0.2357818
0000e0 98 0b db bd 00 db 4b be a5 c1 1f be c8 87 90 bc
       -0.10695571 -0.1990776 -0.15601213 -0.01764287
0000f0 08 41 67 be 45 7a 8f be 53 98 c0 bd d7 26 83 bd
       -0.22583401 -0.28022972 -0.094040535 -0.064038925
000100 c1 c6 62 be 11 f8 48 be 78 4f 1d be e0 97 12 be
       -0.22146131 -0.1962588 -0.15362346 -0.14315748
000110 28 77 a7 bd 0b c2 5e be ed 5d 97 3c c5 69 34 bd
       -0.08177024 -0.21753709 0.018477404 -0.044046182
000120 61 2a 83 be fc 19 67 bd c9 87 1e be a1 01 4c be
       -0.2561827 -0.056421265 -0.15481485 -0.19922496
000130 cb db 26 be 03 a7 8d bd b2 1d b8 3c ee b2 f9 bd
       -0.16294782 -0.069166206 0.022475097 -0.12192331
000140 78 cf 3c be db 8a 12 bd 59 a0 ad be b9 53 dd bd
       -0.18438518 -0.035776954 -0.33911398 -0.108069845
000150 9e 2f 32 be 67 c1 20 bc 72 87 fc bd 65 f0 ee bd
       -0.17400977 -0.009811736 -0.12330522 -0.11666945
000160 e6 c1 fb 3d 29 ce e2 3d 94 43 14 be b0 ae cb bb
       0.122928426 0.11074478 -0.14478904 -0.0062158927
000170 27 f1 83 be c2 a6 87 bd 34 10 c1 bd ca 76 88 bb
       -0.25769922 -0.066236034 -0.094269186 -0.0041645514
000180 4c 75 71 bc 5a fd 4a be cd 2c 41 be 42 99 53 be
       -0.014737438 -0.19823208 -0.18864746 -0.20663932
000190 40 f3 3a bd 57 ee ce 3d 39 27 32 be 15 72 83 be
       -0.045642138 0.101040535 -0.17397775 -0.25672975
0001a0 c7 7e 85 be 36 21 0b bd 0f 8a 21 be 23 29 8b be
       -0.26073286 -0.03396722 -0.15775321 -0.27179822
0001b0 cf fd 88 be 30 54 62 bd a9 98 dd bd 58 81 14 be
       -0.2675614 -0.05525607 -0.10820133 -0.14502466
0001c0 2b 87 8b bd 34 64 6b be 67 fe 92 be a1 c4 37 bd
       -0.068128906 -0.22987443 -0.2870972 -0.044865254
0001d0 e5 80 39 be bf 68 39 3d e0 a7 5b 3c cf c0 cc be
       -0.18115576 0.04526591 0.013406724 -0.3999085
0001e0 43 27 44 be 62 ca 90 be d7 d6 8a be ba c5 92 be
       -0.19155602 -0.28279406 -0.27117035 -0.28666478
0001f0 64 02 13 3d 31 02 2c be 8c d8 06 bd 4d e2 d1 bd
       0.03589095 -0.16797711 -0.03292136 -0.102482416

network_body.linear_encoder.seq_layers.2.weight f4 [128, 128]
000000 7a 5c 0b be d8 7a 03 bd 8b cb e9 bd d1 9b e9 3d
       -0.13609496 -0.032099575 -0.11415776 0.11406673
000010 d8 05 6a 3e f5 52 59 bc 82 22 2e 3e 62 ee 01 3e
       0.22853792 -0.013264407 0.17005351 0.12688592
000020 50 e7 0f 3e 6a db 06 bc d5 d0 21 3e cc 04 c1 3b
       0.14053082 -0.008231023 0.1580232 0.0058904644
000030 de ac e2 bd 77 f7 15 bd f1 ae dd bd 47 55 83 3d
       -0.11068128 -0.036612954 -0.10824383 0.0641275
000040 c0 62 39 3e 34 a2 15 3e 21 c7 73 3e b1 6e 18 be
       0.18104076 0.14612657 0.2380643 -0.14885975
000050 0a 3c 47 3d 2a 23 05 be 89 4c 1f 3e f5 db 50 3e
       0.048641242 -0.13001695 0.1555654 0.20396407
000060 0c 43 f5 bc 95 1d 8f 3a b8 61 0c be d3 89 c0 3e
       -0.029939197 0.001091885 -0.13709152 0.37605152
000070 e1 3f ea 3c 4a 0d 64 bd 1f b3 a7 bd 70 f1 fb 3d
       0.028594913 -0.055676736 -0.081884615 0.1230191
000080 4f 02 92 bd ea c0 f2 bd 1a 25 c5 3d d8 f5 2f be
       -0.071293466 -0.11853202 0.09626217 -0.17183626
000090 8d 7d 9e 3e fe f9 c4 bb 32 15 54 3d d0 11 cf bd
       0.30955163 -0.0060112467 0.051778026 -0.10110819
0000a0 46 fd dc bd 10 55 0e 3e ac 37 fd bd 83 e6 cd 3d
       -0.107904956 0.13899636 -0.12364134 0.10053732
0000b0 89 99 1b 3c 36 7b 84 be 5e ab 1f 3e fe f9 36 be
       0.009497055 -0.25875252 0.15592715 -0.17868802
0000c0 1c fe e6 3c cd 0f ad bd db d7 0e 3d 8f b0 82 3d
       0.02819734 -0.084502794 0.034873825 0.06381332
0000d0 20 ba 27 be 35 10 35 3d a3 a6 93 bc 13 4b e7 3d
       -0.16379595 0.04420491 -0.018023795 0.11293616
0000e0 aa 92 00 3d 39 9a 7c 3e 7c 9b f3 bd 17 c6 28 bc
       0.03138987 0.24668206 -0.11894891 -0.010301135
0000f0 33 69 98 bd 2c 71 6f be 39 c8 3f 3e 1e 0e f3 3d
       -0.0744194 -0.23383015 0.18728723 0.11867927
000100 fa 9b e6 3d fd ca d7 3d f9 29 6a 3d 21 85 6c 3e
       0.11260219 0.10536764 0.057168934 0.2309766
000110 17 40 2e be a1 e3 a4 3d 57 0b 03 3d 2d be c9 be
       -0.17016636 0.08051229 0.031993236 -0.39402905
000120 1f 07 53 3c a9 c7 14 3c 74 a7 67 be 19 80 8f 3e
       0.012880116 0.009080806 -0.22622472 0.28027418
000130 49 20 d2 3e 3c 85 32 3c 46 67 d1 3d f4 fe 1b bd
       0.41040257 0.010896023 0.10224776 -0.03808494
000140 1e 4c 13 ba 4a ec eb 3d 7e 19 45 3e d7 c8 ef bd
       -0.00056189473 0.11519678 0.19248006 -0.11708229
000150 28 3b f0 3c 55 93 05 be f1 e4 a3 3d a3 26 ba 3e
       0.029325083 -0.13044484 0.080026515 0.36357602
000160 d2 08 2a 3d 5e 5a ce 3e 0a 1b d3 bc f6 d2 76 3e
       0.041512318 0.4030332 -0.02576973 0.24103913
000170 39 ef 5c bc 62 ce bd bd c0 78 41 3d bb 8f 13 3d
       -0.0134847695 -0.0926788 0.047234297 0.036025744
000180 c9 46 81 3d 30 b7 9b 3e bb b4 28 be 0c ef 0f 3e
       0.06312329 0.30413198 -0.16475193 0.14056033
000190 1b 40 22 3d 04 16 31 bd 1e 73 30 3e 25 ce 9f 3d
       0.039611917 -0.043233886 0.17231414 0.07802991
0001a0 b9 9a 07 be 48 91 89 bd 98 c5 28 3e 8f 64 b1 3e
       -0.13242616 -0.06717163 0.16481626 0.34647033
0001b0 63 20 4c 3e 7f d6 f4 bd c7 e3 29 3d 66 9f 26 3e
       0.1993423 -0.119549744 0.04147699 0.16271743
0001c0 c4 d5 a9 3e 01 4a 34 3e 6f 98 df 3d 0c de 0d 3e
       0.33170903 0.17606355 0.10917746 0.13854235
0001d0 8a e6 1f 3e 52 f8 35 be 28 f5 56 3e 29 0f 91 3d
       0.15615287 -0.17770508 0.20991957 0.0708297
0001e0 2c c1 8a 3e 5c c3 fc 3d 5a a1 ac bc a1 db 9a 3e
       0.27100503 0.12341949 -0.021073032 0.3024569
0001f0 72 af 10 3e df d7 37 3e 1a d4 8c bd d8 a9 c1 3e
       0.14129427 0.17953442 -0.06876393 0.37824893
000200 a9 cd 2a 3e 00 1f 1c 3d c1 5c 0f bd 3e bf 15 be
       0.16680016 0.0381155 -0.035000566 -0.14623734
000210 ae 40 c2 bb 49 c9 4c 3c 88 a7 eb bd 55 68 65 3e
       -0.0059281206 0.012499162 -0.115065634 0.22403081
000220 68 2b 64 bc 63 42 eb bd d7 c9 23 3e 77 79 41 3e
       -0.0139263645 -0.11487272 0.15994965 0.18893991
000230 78 24 24 be 56 7e 1a 3d d9 c7 f9 bd c8 9c 9b 3d
       -0.16029537 0.03771814 -0.12196321 0.07598263
000240 e9 89 30 3d fd 2c 94 3e 70 fc db 3d 26 9a 2f 3e
       0.04310027 0.28940573 0.10741508 0.17148647
000250 64 91 9e bc 5f f5 41 3d 91 dd d1 3d e7 49 89 3e
       -0.019356437 0.047353145 0.102473386 0.26814196
000260 24 71 32 be 01 d9 d3 3d 30 56 79 bd 24 c9 28 3e
       -0.17425972 0.103441246 -0.06087321 0.16482979
000270 41 ce dd bd 75 ad eb 3d 07 0b 23 3d b8 27 08 3c
       -0.108303554 0.11507694 0.03980544 0.008310251
000280 c2 1e f6 3c 5e 44 a0 3d 5c e5 9e bd c2 73 2a bc
       0.030043963 0.0782554 -0.077585906 -0.010403575
000290 85 63 ca bd c2 7c 86 bd a0 a4 50 3d c1 a2 88 be
       -0.09882263 -0.065667644 0.05093825 -0.2668667
0002a0 2e 6f 25 3d b8 f2 5d 3d ce 27 d8 bd 00 5e 34 3e
       0.040389232 0.054186553 -0.10554467 0.17613983
0002b0 0f 7b 57 bd 9a 91 89 3d 24 1f 13 3b 3a 9a d5 3d
       -0.052607592 0.067172244 0.0022448981 0.10429807
0002c0 3c 58 41 3c 94 ca 3d 3d 72 22 82 bd ff 94 90 bd
       0.011800822 0.04633577 -0.06354226 -0.07059669
0002d0 f1 6d aa ba 50 51 d1 bd f8 ac ee 3a 55 70 ff bd
       -0.0013002736 -0.10220587 0.0018209508 -0.124725975
0002e0 26 4e 58 3d 39 65 53 3d 7d 88 0e bd 23 97 62 3d
       0.052808903 0.051610205 -0.034798134 0.055319916
0002f0 2b 9d a0 3d e7 4a 0d 3d d7 4e b4 bd c9 ec be 3b
       0.078424774 0.03449526 -0.088041 0.005826567
000300 22 09 80 bd 50 22 8a 3d ea 6c 2c 3e b5 a4 20 3e
       -0.06251742 0.06744826 0.16838422 0.15687831
000310 e3 5e 0a 3d d7 60 44 3d ce 60 2c bd 47 9d 9d bd
       0.033781897 0.047943916 -0.042084508 -0.07696014
000320 7c 0d 08 3d 07 4d 05 3d 8e 43 cc bd ac 41 8c 3b
       0.033215985 0.032544162 -0.099738225 0.0042802896
000330 63 5b ad 3e 0c ee 99 bd 7e a8 de bb 46 a1 36 3e
       0.33858785 -0.07516107 -0.006794988 0.17834958
000340 16 c2 51 3c 4a 55 91 3d 16 76 60 3e 77 5b 2a bd
       0.012802621 0.07096346 0.21920046 -0.041591134
000350 79 76 24 3e ea a7 13 bd da ed 76 be 4e eb 44 3e
       0.16060819 -0.036048807 -0.2411417 0.19230387
000360 6d f8 10 be 5e 44 24 3e 46 3d 4a be 44 d2 16 3e
       -0.14157267 0.16041705 -0.19749936 0.14728647
000370 b4 ee 75 3c df 2d 70 bd 5a 71 54 3e 66 97 0f 3e
       0.015010525 -0.058637496 0.20746365 0.14022598
000380 f3 06 28 be 2d 01 db 3c 88 c5 c3 bc 03 98 6c 3d
       -0.16408901 0.02673396 -0.023897901 0.057762157
000390 4a ca 40 bd a1 ab 85 bd f1 2c 1f bd 37 8b 44 be
       -0.047067918 -0.06526876 -0.03886122 -0.19193731
0003a0 be 5f 81 bc 1b 47 57 3d 02 38 3f 3d 17 6f ab 3d
       -0.015792724 0.052558046 0.046684273 0.08370798
0003b0 1e e4 48 bd 70 6c bd bd 87 4a b1 bd d2 9c 86 3e
       -0.049045675 -0.092491984 -0.08656793 0.2629152
0003c0 1e 9b 31 3d 29 b8 96 3d 31 2f c6 3c 4f 89 d7 3c
       0.043360822 0.073593445 0.024192424 0.026310591
0003d0 5b 74 f1 3d b5 db b6 3c 8e 2c b8 3d 98 b5 16 bd
       0.11789771 0.022321561 0.08992873 -0.036794275
0003e0 4a cb 62 3b 42 a7 9f 3b d4 1b 36 3e d7 40 98 3d
       0.0034606033 0.0048722336 0.17784053 0.07434242
0003f0 d7 7c 9a bc 9e eb 17 3c be 34 af bb 33 1b e0 bd
       -0.018858356 0.009272484 -0.0053468635 -0.10942688
