Oversteek Simulator/Learning/results/Oversteek-K-02/Player/Player-2299955.onnx (onnx, 151540 bytes, 8 tensors)

action_model._discrete_distribution.branches.0.bias f4 [2]
000000 e9 f4 7d bd f3 f4 7d 3d
       -0.062001143 0.06200118

action_model._discrete_distribution.branches.0.weight f4 [2, 128]
000000 f0 56 d2 3c bc da 0e 3c fa be 83 bc ac 0f d2 bb
       0.02567622 0.0087191425 -0.016082276 -0.0064105596
000010 95 d2 3c 3c 2b a9 51 3d f4 9c 08 bc 94 f0 8c bd
       0.011524816 0.05118672 -0.008338202 -0.06881824
000020 05 76 1d 3d 96 cf 48 3b 36 7c 0a be 6e d3 a3 3c
       0.03844263 0.003064131 -0.13523945 0.019998278
000030 60 dd ed bd 62 7a 05 bd 4f d6 d3 3c 34 f7 e0 3b
       -0.116144896 -0.032587416 0.025859026 0.0068654064
000040 a5 67 38 3c 93 77 62 3c d4 71 52 bc be 41 8d bb
       0.0112551795 0.013822454 -0.012844522 -0.0043108156
000050 68 47 47 3d 69 e3 62 3c 57 40 31 bd 8a 50 24 be
       0.048652083 0.013848164 -0.04327425 -0.16046348
000060 20 56 6e bb 44 1a cf 3c 37 e9 88 3d 4e 5b ce 3c
       -0.0036367252 0.02528108 0.06685107 0.025190022
000070 30 1a d5 3d 15 6e 8f 3c ad a7 52 bd 68 12 27 bd
       0.104053855 0.017508546 -0.05142944 -0.040789038
000080 69 87 dd bc 72 3c 90 bc 4d f9 a5 3c 2a 94 97 3d
       -0.027042108 -0.017606948 0.020260477 0.07401307
000090 df 32 96 3d ca b2 21 3d 5e 28 15 bd e8 c5 58 3b
       0.07333922 0.039477147 -0.03641545 0.0033076946
0000a0 b1 7e 75 bc 1e ed af bb 9a ee b2 bb 97 b5 af 3b
       -0.014983819 -0.0053688427 -0.0054605724 0.0053622234
0000b0 24 7e 17 3c 66 88 ea 3c 93 05 80 3b d0 31 40 3c
       0.009246383 0.028629493 0.0039069145 0.011730626
0000c0 3a ca 7b 3c da bd c9 3a 45 6c 3c 3b 51 65 17 bd
       0.015368039 0.0015391663 0.0028751057 -0.036961857
0000d0 13 8b 11 bc c4 bb 86 bd 4f f4 30 3c 93 51 c9 3a
       -0.0088832555 -0.06578782 0.010800435 0.0015359394
0000e0 d7 60 a3 bd 2c 16 db bb 6b e3 83 bd 70 1e 17 3d
       -0.07977455 -0.0066859927 -0.06439861 0.03689426
0000f0 f0 7c 35 bd bf 62 3b 3d 70 3b 83 3d 7b 60 85 3b
       -0.044308603 0.04574847 0.06407821 0.0040703393
000100 ea e9 af bc 66 15 89 bd 9c 0a 9e bc 26 f7 b9 3c
       -0.021473844 -0.066935346 -0.019292168 0.022700857
000110 79 aa 88 3c 3b 6b 33 ba a3 64 1b bc bf 06 45 3c
       0.01668285 -0.00068442867 -0.009484443 0.012025534
000120 29 d6 0e 3c 92 98 bc 3c 99 15 0e 3d c4 c8 b1 3c
       0.008718052 0.02302197 0.034688566 0.021702178
000130 ce e2 1f bd 64 25 0d bb 9f 2f 26 3b c4 0b 7d 3c
       -0.039034657 -0.002153718 0.0025357974 0.0154447
000140 56 67 d0 3a 87 af b2 bc 9e ca 26 3c 5a d0 37 3d
       0.0015899937 -0.021812214 0.010180144 0.044876434
000150 f0 22 99 3c 38 58 c4 bd 7a 15 c0 3c 50 af 86 3c
       0.018693417 -0.09587139 0.02344774 0.016441017
000160 ee 18 a8 bd ca a3 1b bd 4a 86 64 bd 35 25 b3 3c
       -0.0820788 -0.037998 -0.05579213 0.021868328
000170 bd f7 33 bc db de 7e bb 80 ac e6 bc 3d a7 c5 3b
       -0.010984358 -0.0038890156 -0.028158426 0.0060318992
000180 92 5f 6f 3d ef 47 9c ba a6 ce c8 bc 71 b1 d0 bc
       0.058440752 -0.0011923293 -0.0245126 -0.025475236
000190 82 fb 36 3c 1e 89 8c bd ab 01 1d 3c 46 88 87 3d
       0.011168363 -0.068620905 0.009582917 0.06617789
0001a0 b5 71 05 3c 49 b2 9a 3c 0c 87 cf 3b 14 91 34 3d
       0.008144786 0.018883841 0.0063332375 0.04408367
0001b0 13 96 55 3d 1a 25 09 3d 8d af 5e bd f5 c1 4f bc
       0.052145075 0.03348265 -0.054366637 -0.01268052
0001c0 90 90 d9 bc d7 df 90 3d 45 43 cc 3a 9b 85 91 3b
       -0.02655819 0.07073944 0.0015584013 0.004440976
0001d0 f9 77 c2 3d af 5e 18 bc b6 a3 d9 ba 79 c8 33 3c
       0.09495539 -0.009299918 -0.0016604576 0.010973089
0001e0 2b 9e 00 bc db a4 ed 3c 1e 94 94 3c 0f 6f 10 3c
       -0.00785021 0.029009273 0.018137034 0.008815541
0001f0 3d 9c 91 bc df e4 af 3c bc 7d 85 bd 21 6d 5b 3b
       -0.017774696 0.021471439 -0.065181226 0.0033481794
000200 d4 c6 04 bd 1b 71 e3 3b 8c b0 3f 3b e3 1e 71 ba
       -0.03241618 0.0069409735 0.0029249517 -0.0009198023
000210 2e 69 93 bb c9 b5 46 bd 21 27 57 3c f3 d1 80 3d
       -0.0044986224 -0.048513208 0.013131888 0.06290045
000220 58 fc 96 bd b9 9f a8 bb 42 34 f4 3d 46 81 0d bd
       -0.073723495 -0.0051459935 0.1192403 -0.034547113
000230 4e 65 f4 3d f2 50 fe 3c 1b e5 6f bc a2 b1 b3 bc
       0.11933385 0.031044457 -0.014642025 -0.021935288
000240 30 49 d3 bc aa 6c c2 bc ec 10 52 3c 53 4c 49 3c
       -0.025791734 -0.023733456 0.012821417 0.0122862635
000250 70 6b 3b bd 02 c7 fd bb 44 b0 4c 3d 78 e0 1e 3e
       -0.045756757 -0.007744671 0.049972787 0.15515316
000260 cf c6 97 3b 30 f0 8f bc 0d b7 01 bd d2 34 96 bc
       0.004631854 -0.017570585 -0.03166871 -0.018335734
000270 6e 4f a3 bd 5d 69 5b bc 58 0f 39 3d bd fc 81 3d
       -0.079741344 -0.01339182 0.04518065 0.06347034
000280 78 55 b8 3c 2b 9a d7 b9 29 8a 15 bc 28 f0 72 bd
       0.022501692 -0.0004112286 -0.009127178 -0.059311062
000290 88 93 a5 bd 4b fc 6d bc 45 a9 fe 3c d0 0f 4f bc
       -0.0808478 -0.014525483 0.031086573 -0.012638047
0002a0 89 54 94 3a fe d8 cf bc b4 a2 e3 3b 76 25 e3 bc
       0.0011316697 -0.025372025 0.006946886 -0.027727824
0002b0 de 6d c5 3a c1 8b d3 bc 65 1f 81 bc 5c 8e 5b bc
       0.001506265 -0.025823476 -0.01576204 -0.01340064
0002c0 26 f5 91 bc 6f df 73 bc b5 fb 77 3b 48 fb 00 3d
       -0.017817091 -0.014884814 0.0037839238 0.03148964
0002d0 95 50 53 bc 8d 95 97 3d 59 02 7d bc df e0 92 3a
       -0.01289763 0.074015714 -0.015442454 0.0011205933
0002e0 f6 94 b9 3d ca 67 8a 3b 51 9e 38 3d 9b 8b 68 bd
       0.09061615 0.0042237984 0.045072857 -0.056773763
0002f0 4c b5 3e 3d d9 c2 27 bd 60 99 a1 bd eb 81 e9 3c
       0.046559617 -0.040957306 -0.07890582 0.028504333
000300 38 ff 81 3c 76 71 2b 3d 2a 64 ba 3c 62 3b db bc
       0.015868768 0.04185625 0.02275284 -0.026761714
000310 e9 47 a2 bc e5 7b 4c 3b 2a dd 13 bb 91 98 a7 bc
       -0.01980968 0.0031201777 -0.0022562244 -0.020458492
000320 d5 a6 4c bc f5 34 6d bc 79 1c 4f bd a9 79 31 bd
       -0.012490948 -0.014477958 -0.050564263 -0.043328915
000330 e8 b1 26 3d b3 a4 91 bb a7 a1 7b 3c 35 d4 ba 3b
       0.04069701 -0.0044446825 0.015358365 0.0057015666
000340 10 1d 86 bc 23 15 39 3c 59 00 8f b9 b2 9d 26 bd
       -0.01637128 0.011296543 -0.00027275344 -0.040677734
000350 6b 67 54 bb 56 47 d7 3d 83 e7 2e 3a 1d 98 87 bc
       -0.0032410275 0.10511653 0.0006672071 -0.016552025
000360 81 c3 a3 3d ab 2e 3e 3d 6d 5c 57 3d 02 5a fb bb
       0.07996274 0.046431225 0.05257838 -0.007670642
000370 65 f8 1d 3c 25 84 3f 3a fb d5 b4 3c 96 a2 47 bc
       0.009641741 0.0007305763 0.02207469 -0.01218476
000380 7e f1 90 bd 80 17 d0 3b 1f 8c 03 3d cf fc 1b 3d
       -0.07077311 0.0063504577 0.03211605 0.038082894
000390 b2 9b f0 bc 72 81 5f 3d f4 38 5b bc 1c 9f 8f bd
       -0.029371116 0.054566808 -0.013380278 -0.070127696
0003a0 a2 65 cf bc 33 46 8f bc 09 96 e3 bc 3e 8c 2a bd
       -0.025317017 -0.017489528 -0.027781503 -0.04163765
0003b0 04 af 57 bd ab e7 9b bc 94 d3 18 3d 9b ff 01 bc
       -0.052657142 -0.019031366 0.03731115 -0.007934476
0003c0 ae e5 a7 3c 17 8d 95 bd 3e f2 8f bc c0 43 f9 bb
       0.020495262 -0.073023014 -0.017571565 -0.0076069534
0003d0 1e 7a 9f bd 2a af 04 3c ac b3 92 3c 48 d4 d2 ba
       -0.07786964 0.008098403 0.01790794 -0.0016084993
0003e0 c4 ea a9 3b a5 d2 03 bd 7a 4e d2 bc a6 e8 b6 bb
       0.005185457 -0.03218331 -0.025672186 -0.005581933
0003f0 d5 38 24 3c 17 a5 82 bc 3b c5 5c 3d b9 c9 87 3b
       0.010023315 -0.015947862 0.05389903 0.0041439203

action_model._discrete_distribution.branches.1.bias f4 [2]
000000 bb 19 0c be be 19 0c 3e
       -0.1368169 0.13681695

action_model._discrete_distribution.branches.1.weight f4 [2, 128]
000000 be 70 6c 3d 78 e4 d0 3c d8 85 35 bb bd 87 97 bc
       0.057724707 0.025499567 -0.0027698185 -0.018497342
000010 41 27 e7 3d cf 7f 88 3c 7c f5 fd 3c fc f1 03 3d
       0.11286784 0.016662506 0.031000845 0.032213196
000020 97 04 c3 3d 0f 8e 4b 3c e0 d8 9a 3d f3 3a a8 3d
       0.0952236 0.012424006 0.07560897 0.08214369
000030 39 17 1e bd a7 f7 27 3c 30 b2 a3 3d b7 7c 00 3d
       -0.038596366 0.010251916 0.07992971 0.031368937
000040 ce 7a a9 3c 01 98 00 3c 58 e7 48 3d a2 c0 62 3c
       0.02068844 0.007848741 0.04904875 0.013839873
000050 0b 58 94 bd 9e 8d c0 bc be 9c 13 bd aa 26 16 3c
       -0.07243355 -0.023505028 -0.036038153 0.009164492
000060 ac da 65 bc b1 0f 03 3c a8 f0 94 bd fd 67 b4 3c
       -0.014029186 0.007999347 -0.07272464 0.022022242
000070 77 80 30 bd 32 b0 cb 3d aa 9d 9b 3c 62 24 35 3d
       -0.043091264 0.09945716 0.018996079 0.04422415
000080 a0 f4 9f 3d 9d 71 27 3c e8 68 8a 3d 1b 09 8b 3c
       0.078103304 0.010219959 0.067582905 0.016972115
000090 e8 9a 4e bd 3c 02 b9 3d 36 58 bc 3d 23 df bb 3a
       -0.0504407 0.09033629 0.091965124 0.0014333468
0000a0 fa 0e 3f 3d 98 0a 05 bd 31 37 83 3d bd 83 a1 3d
       0.046645142 -0.032480806 0.06407011 0.07886455
0000b0 16 a9 91 bc 27 6d 35 3d 3c 47 bd bc 6f ff 3e b8
       -0.017780822 0.04429355 -0.023105256 -4.553742e-05
0000c0 d8 0b aa 3d 1c 28 1f bd 74 bf db 3d 8d 41 19 bc
       0.0830304 -0.03885661 0.10729876 -0.009354007
0000d0 20 ea 03 bc b8 fe 34 bc 6b 92 f5 3a 45 62 4d 3c
       -0.008051425 -0.011047058 0.0018735653 0.012535636
0000e0 87 0b e9 3c 21 d1 4d 3d 64 9d 27 3d dd 94 95 3c
       0.02844788 0.05024827 0.040921584 0.01825946
0000f0 91 32 80 3d 0f 15 4d 3d 10 19 2e bd 64 5d 93 bc
       0.06259645 0.05006891 -0.04250437 -0.017988868
000100 c6 28 5d 3d 2f b3 b1 3d 8f b3 12 3d 59 ba 34 3c
       0.053993963 0.08676755 0.03581577 0.011030757
000110 80 33 bb bd fe b2 d2 3d af 11 6b bd 41 bb 2c 3d
       -0.09140682 0.10288046 -0.05738991 0.042170767
000120 ab 26 e0 3c 18 54 8f bb 08 a8 7e 3c 5e 54 ba bb
       0.027362188 -0.0043740384 0.015542991 -0.005686327
000130 57 3d 46 3d cd 08 02 3b fc 6a 0e 3c 18 3e 15 3c
       0.048398342 0.0019841671 0.008692499 0.009109043
000140 8b f2 74 3c 74 85 b9 3a 94 73 b3 3d a5 af d8 bc
       0.014950405 0.0014154152 0.08762279 -0.026450941
000150 68 bc 6c 3c 53 1f fb bc df d3 f2 bb c3 b1 a3 bb
       0.014449216 -0.030654585 -0.007410511 -0.004995556
000160 fe 96 4c 39 c0 3a 73 bd 5f 64 4b bd 83 7b 06 3c
       0.00019511205 -0.0593822 -0.04965627 0.008208158
000170 31 44 aa 3d 0d 2d c4 3b b5 33 a9 ba 17 ba 00 3d
       0.08313788 0.005986816 -0.0012909087 0.03142747
000180 c0 6c d6 bd 12 c6 8b 3d be e7 de 3d 7e c2 b0 3c
       -0.10469961 0.06824888 0.10884045 0.021577116
000190 bb 7d bb bc 74 01 3a bd f3 8e 07 3e e5 92 b1 3d
       -0.022887101 -0.045411542 0.13238125 0.08670596
0001a0 40 66 a1 3d 3c 90 81 3d 71 1f 19 bd 2e b8 21 3d
       0.07880831 0.06326339 -0.0373835 0.039482288
0001b0 bb f0 86 3d 58 a0 cd 3c 14 97 26 3c 7a db 19 3d
       0.065888844 0.025100872 0.010167856 0.037562825
0001c0 83 00 bd 3d 79 4a fa 3c d8 c2 2d 3d b0 2f 8a 3c
       0.09228613 0.03055309 0.042422146 0.016868442
0001d0 7a 71 bf bc 3e 7d 23 ba a6 31 9d 3b 78 12 e8 3b
       -0.02336954 -0.0006236619 0.0047971783 0.00708228
0001e0 85 ef 84 3d 5b a5 d2 3d 53 42 9c 3d 70 3b 47 3d
       0.06490997 0.10285445 0.07629838 0.04864067
0001f0 68 d6 9b bb a8 18 87 3d 4b 8d 2a 3d 17 9f 93 bc
       -0.004755784 0.065965 0.041638654 -0.018020196
000200 0a 23 97 bd 24 ef c5 bc 82 67 c4 3c f5 dd 02 3d
       -0.0737973 -0.024161883 0.023975138 0.031949956
000210 19 2e c3 bd 7c 9e 80 bb 73 61 0f bd 5a eb b7 bc
       -0.09530277 -0.003925143 -0.035005044 -0.022451092
000220 ea ff cb bd 3e 06 f4 3b 6b b0 94 bd e7 0b 9c bd
       -0.09960921 0.007447033 -0.072602116 -0.07619458
000230 04 75 3d 3d 3c cd 7b bc 9c a5 84 bd 25 d0 b6 bc
       0.046254173 -0.015368756 -0.064769 -0.022316048
000240 8c 66 ea bc 38 52 9a bc 63 4c 0f bd e8 5b cd bc
       -0.028613351 -0.018838033 -0.034984957 -0.025068238
000250 aa a4 85 3d 59 67 25 3c 12 ef f6 3c 70 9e 91 3c
       0.06525548 0.010095441 0.030143294 0.017775744
000260 1a 94 1e 3b 0b 88 ef 3b a5 34 82 3d a6 05 2d bc
       0.0024197162 0.0073099188 0.063576974 -0.010560429
000270 9f ed 57 3d 2f 32 c0 bd 12 e4 9f bc 4e e7 52 bd
       0.052716848 -0.09384572 -0.019517932 -0.05149012
000280 d0 da bc bd 50 0a 8d bc 86 77 80 bd 21 cc 84 bb
       -0.09221423 -0.017216831 -0.06272797 -0.0040526544
000290 74 ae 6b 3d 60 f4 c0 bd e1 f6 e7 bd ca 68 bd 39
       0.05753942 -0.09421611 -0.11326385 0.00036126963
0002a0 20 93 2b bd 9a 59 31 3d ce bc 80 bd 4b 17 af bd
       -0.041888356 0.04329834 -0.06286012 -0.08549365
0002b0 db 00 0e 3c 96 ac 53 bd b4 11 b5 3c ea 32 c2 ba
       0.008667196 -0.051678263 0.022103168 -0.0014816199
0002c0 51 30 81 bd 57 48 f3 3c cb 24 ce bd da c1 20 3c
       -0.06308044 0.02969758 -0.100656115 0.009811843
0002d0 b3 df 45 3c 60 b3 5f 3b 2c d2 16 3a 84 bd 97 bc
       0.01207726 0.0034134015 0.0005753364 -0.018522985
0002e0 14 f8 01 bd cb 94 0e bd 13 a8 35 bd 84 ea bf bb
       -0.031730726 -0.03480987 -0.04434974 -0.005856814
0002f0 c1 13 84 bd f2 18 41 bd e0 3e 7a 3d 38 3b b1 3b
       -0.0644908 -0.04714293 0.06109512 0.0054086708
000300 ee 5d 90 bd 26 ee cb bd 8c 88 11 bd a6 2f a5 bc
       -0.07049166 -0.099575326 -0.035530612 -0.020164322
000310 dd 69 b0 3d 89 aa e3 bd fd 95 8c 3d 63 4d 61 bd
       0.08613942 -0.111165114 0.068645455 -0.055005442
000320 be fe 5d bd a3 ec 19 3b 5c 9d 83 bb 72 bf b8 bb
       -0.05419802 0.0023486994 -0.0040165614 -0.0056380564
000330 18 b0 52 bd c0 0b 3c 3c 98 1b 81 bb 26 b6 1d bd
       -0.051437467 0.011477411 -0.003940057 -0.03850379
000340 d1 41 2a bd ab 34 cb bb 38 88 a2 bd d9 34 40 3d
       -0.041566674 -0.006201347 -0.07936138 0.0469254
000350 e0 a5 1d bc 72 bc 09 3d 8d 90 4d b9 28 17 a1 bc
       -0.009622067 0.03362698 -0.00019604173 -0.019664362
000360 a1 6c 26 3d e7 8f 54 3d 27 0a 22 3d ea 37 89 3a
       0.04063094 0.05189505 0.039560463 0.0010468934
000370 f7 9d 8a bd bb d2 3d 3b c9 bf 2b bb d6 20 26 bd
       -0.06768411 0.0028964716 -0.0026206842 -0.04055866
000380 28 c7 c3 3d d6 49 c6 bd 51 af e0 bd b6 dc 53 bd
       0.095594704 -0.09682052 -0.10970939 -0.05172416
000390 1d 74 43 3b ac 05 9f 3c 5a 3a 01 be 2c b9 a9 bd
       0.0029823848 0.019411884 -0.12619916 -0.08287272
0003a0 5a 05 a1 bd c2 36 88 bd f7 d0 20 3d a9 e3 57 bd
       -0.07862349 -0.06651069 0.039261784 -0.052707348
0003b0 bd 10 9b bd a0 4c d5 3b 28 f1 dd bc ab 9c 2f bd
       -0.07571552 0.0065093786 -0.027092531 -0.04287402
0003c0 99 f6 c6 bd 18 29 2c bd 43 d3 ee bc 7b 68 65 bc
       -0.097150035 -0.042031378 -0.029153472 -0.014001961
0003d0 80 58 ab 3c d0 1c ab 3c 89 32 42 3a d3 21 32 bc
       0.020916224 0.020887762 0.0007408043 -0.010872322
0003e0 f6 5b 8a bd 04 10 d3 bd 4c 87 8b bd d5 aa 70 bd
       -0.067558214 -0.10305789 -0.06812915 -0.058756668
0003f0 32 9e 01 3b 1e 20 66 bd ad 0e 38 bd 17 5b 8b 3c
       0.001977813 -0.056182973 -0.04493587 0.017011208

network_body.linear_encoder.seq_layers.0.bias f4 [128]
000000 16 59 66 3e 49 73 12 bb 2e 59 52 3b 34 1c 0d be
       0.22494921 -0.0022346547 0.0032096612 -0.1378029
000010 e2 1a 3a be a2 cd 37 3e 35 b5 af bc d6 3c 1e be
       -0.18174317 0.17949536 -0.021448711 -0.15452895
000020 5c 38 55 3e 5f fc fe 3c a5 10 21 be 3f 94 cf 3d
       0.2082228 0.0311262 -0.15729006 0.101356976
000030 ae 38 9a 3d 71 b4 ab 3d b3 77 31 3e 6a 05 4c be
       0.07530342 0.08384026 0.17330818 -0.1992394
000040 7c fa aa be 7f 34 fd bc ef d8 32 be 05 1b 3a 3d
       -0.3339423 -0.030908821 -0.17465566 0.045435924
000050 15 4c 2d 3d d7 d6 d1 3d c2 ac 70 bd eb ef 84 be
       0.042308886 0.102460556 -0.058758505 -0.25964293
000060 e5 54 4a bd b0 ba 01 be cd 61 3d 3d a8 91 ab be
       -0.049397368 -0.12668872 0.04623585 -0.33509564
000070 6b d6 d1 3d d6 cd 0b be 4b 6a fc bd a4 97 24 be
       0.10245975 -0.13652739 -0.12324961 -0.16073471
000080 d7 47 2f 3d b6 2f db 3d 7e 9b 22 3c e1 65 90 3d
       0.04279312 0.107024595 0.009924768 0.07050682
000090 a9 8d b9 3d 86 d8 ca 3c 36 f3 61 bc d1 f7 1b bd
       0.09060223 0.02476145 -0.013790896 -0.038078133
0000a0 d4 c7 fb bd ec ea 48 be 35 44 28 3e c3 d3 86 3d
       -0.122939736 -0.19620866 0.16432269 0.06583359
0000b0 cb 84 01 3e a7 28 3e 3e ff ae e7 bb 54 6c bc 3d
       0.12648313 0.18570195 -0.0070704217 0.092003495
0000c0 70 ac 14 bd 2d a0 d7 3c 89 24 1c 3e 0b 39 77 bd
       -0.03629726 0.026321495 0.15248312 -0.060357135
0000d0 bd 90 a3 3d 36 34 1e 3d 5a 86 aa 3e 6d e6 8d be
       0.07986591 0.03862401 0.33305627 -0.27714863
0000e0 e3 37 7f bd 9e 7f 92 be f9 60 a8 3c 08 a1 24 bd
       -0.062309157 -0.2861299 0.020554053 -0.040192634
0000f0 04 85 89 bd 91 92 88 bd 32 b6 19 be 69 35 a5 bb
       -0.06714824 -0.0666858 -0.15010908 -0.0050417674
000100 f1 aa 32 be 85 63 4d be 09 4e b7 bc 81 27 80 be
       -0.17448021 -0.20057495 -0.022376077 -0.2503014
000110 cc 20 24 3e 0a ca 2a be 8d c7 ed bd b7 b7 c9 bb
       0.16028136 -0.16678634 -0.11610327 -0.0061559337
000120 54 26 70 bd 6a dd a3 3c 13 43 b4 3d 6d 22 77 be
       -0.058630303 0.02000304 0.08801856 -0.24134226
000130 3f 74 99 be e8 70 b2 3d e6 36 db 3d ba 2c 18 be
       -0.299715 0.087129414 0.107038304 -0.14860812
000140 c5 b5 9d 3c 49 da 46 be 32 cc 7a be e4 57 08 3e
       0.019251714 -0.19419207 -0.24491957 0.13314778
000150 ab 7e b5 bd 49 b1 db bc ce 01 2b 3e 52 e4 4e be
       -0.088620506 -0.026817935 0.16699907 -0.20204285
000160 e7 5b ec bd cc f9 e2 be 03 c0 58 3d ca e1 14 be
       -0.115409665 -0.44331205 0.05291749 -0.14539257
000170 56 c8 67 be 84 05 b7 bd 27 ad 87 be 38 de 0d 3e
       -0.22635016 -0.08936599 -0.26499292 0.13854301
000180 7e 19 20 3e 4d 2c 38 be 94 da 04 3e 85 b4 1b 3e
       0.15634724 -0.1798565 0.12974006 0.15205581
000190 b0 1b c4 bd 51 39 f3 3d cc 07 9f be de 8b 0e 3e
       -0.095755935 0.118761666 -0.31060636 0.13920543
0001a0 45 20 d4 3d 07 54 01 bd 93 ac aa 3c d4 2e 4c be
       0.103577174 -0.031574275 0.020834243 -0.19939739
0001b0 8c 77 d2 bd ad 15 5e 3e e4 2c e6 3c 49 f8 9e be
       -0.10276708 0.21687956 0.028097577 -0.31048802
0001c0 00 7b ba be 7f e6 3f bd 68 21 07 3e 26 38 47 be
       -0.36421967 -0.046850678 0.13196337 -0.19455013
0001d0 9f f0 06 be ac 62 08 3e 9c 7f 56 be f8 a3 d6 bd
       -0.13177727 0.1331889 -0.20947117 -0.10480493
0001e0 db e6 7f be eb c8 16 3e 3f 28 d6 3a 1c c9 ca be
       -0.24990408 0.14725082 0.0016338899 -0.3960656
0001f0 b4 79 b3 bd f9 aa 77 bd 41 e9 c9 bd 60 10 42 be
       -0.087634474 -0.060465787 -0.09858943 -0.18951559

network_body.linear_encoder.seq_layers.0.weight f4 [128, 156]
000000 87 8b 45 bc b3 51 48 3e 48 d7 2f bd b6 28 d6 3c
       -0.012057192 0.19562416 -0.042929918 0.02614246
000010 82 cf ee bd 6e 9d 8d bd 10 65 a3 3d c3 d1 7f 3d
       -0.11660673 -0.06914793 0.079782605 0.062455904
000020 98 8f 91 be 42 c9 76 3d 07 0e af bc 55 06 e6 3d
       -0.28429866 0.06025053 -0.021368993 0.112316765
000030 56 a2 36 be 73 bf 01 3e f2 d2 23 3d 95 b0 99 3d
       -0.17835364 0.12670688 0.039996095 0.075043835
000040 e6 74 ed 3d 43 98 1b 3e 95 b3 25 3d d3 99 31 be
       0.11594562 0.15194802 0.040454466 -0.17343836
000050 ed 2c 53 be 2c 39 8e 3e c7 99 c2 3d 27 c8 ae bb
       -0.20622607 0.27777994 0.09501987 -0.0053339186
000060 f1 18 04 3d c1 0c 24 3e 79 90 a6 bd 0a 54 07 be
       0.03225035 0.1602049 -0.08133025 -0.13215652
000070 ff c9 a8 bc 19 9d 34 3e 2f 95 8d bc 8a 19 73 3d
       -0.020604132 0.17638053 -0.01728305 0.059350528
000080 53 80 7d 3e 44 a5 a6 bb fb 1c e0 bc 10 3a 50 bd
       0.24755983 -0.005085619 -0.027357569 -0.050836623
000090 f3 53 1e 3e 9e c1 7c bd b4 e8 52 be 55 1e 09 3c
       0.15461712 -0.061708085 -0.20596582 0.008369048
0000a0 e7 d3 bd 3e d2 a9 33 be 88 d4 76 be 78 5e 00 be
       0.3707573 -0.1754525 -0.24104512 -0.12536037
0000b0 83 77 91 3d 79 f0 9f bd 1d 39 98 3c 4b 58 1c 3e
       0.07102873 -0.078095384 0.018581921 0.15268056
0000c0 e1 83 5e bd 8e 75 2b be 30 26 62 3d 7a e7 8a 3d
       -0.05432499 -0.16744062 0.0552122 0.06782432
0000d0 99 ff b3 3b 37 25 57 bd b4 7d 2c 3e b6 1b a1 3e
       0.005493116 -0.052525725 0.16844827 0.31466454
0000e0 bf 8b 21 be 69 c5 fb bc 85 0e 07 3d 2e ea 5e bd
       -0.15775965 -0.030733781 0.03297283 -0.05442255
0000f0 11 89 99 bd 77 f7 42 bd 9c fb 40 3e ec 44 4b 3d
       -0.074968465 -0.047599282 0.18845981 0.049626276
000100 bf cc 67 be 31 f8 13 be ac e2 02 3e 69 7f 1c 3e
       -0.22636698 -0.14450146 0.12781781 0.15282978
000110 f6 07 0d 3c e8 30 b3 3d 0a bb fa 3c c6 9d 69 be
       0.008607855 0.087495625 0.030606765 -0.22814092
000120 11 ae 6a bb 65 ff f4 be 2c 6c 46 3e 8b 95 c7 bb
       -0.0035809318 -0.478511 0.19377202 -0.006090825
000130 3a 38 42 3b 3a b6 67 bd 0d 17 e1 bd 3a f0 cf bd
       0.0029635564 -0.05657027 -0.10990725 -0.101532415
000140 75 03 99 3c f2 71 bb be d0 47 63 3e d6 23 d5 3d
       0.018678406 -0.3661037 0.22195363 0.10407226
000150 f0 0c 05 ba df c8 2f be 92 34 a4 bd a7 c7 84 bd
       -0.0005075475 -0.1716647 -0.080178395 -0.06483393
000160 1e b7 68 3d ed d5 73 bd a1 75 27 3d b9 d6 2e 3e
       0.05681526 -0.059530187 0.040883664 0.17074098
000170 1c 1e 08 3e 89 fc 96 3b 98 85 bd 3d 1b d9 4b be
       0.13292736 0.0046077413 0.092539966 -0.19907038
000180 9a b6 0c 3d 7a e0 94 be 21 ad da bc c9 e1 f3 bb
       0.03435383 -0.29077512 -0.026693882 -0.007442687
000190 3d 1c 90 bd ae e4 30 3d e1 5f 39 bd 1f f4 4e be
       -0.07036636 0.043186836 -0.045257453 -0.20210312
0001a0 9d 00 f6 bd 37 9e c2 3d 91 21 a2 bb 4a 8c 14 3e
       -0.12011836 0.09502833 -0.004947849 0.14506641
0001b0 09 f0 e0 3c c3 68 bc bd 34 34 7b bd 91 0f 22 be
       0.027458208 -0.09199669 -0.06132908 -0.1582625
0001c0 af c7 b0 3d 74 a4 ab bd 50 64 0f 3d ac 69 dd bc
       0.086318366 -0.08380976 0.035007775 -0.027027927
0001d0 6d d5 c0 bd 5f 2c 48 be 5c 29 6a bd d6 97 15 bd
       -0.09415708 -0.19548176 -0.05716835 -0.036521755
0001e0 18 bd 23 bd 98 ec d2 3c 47 a9 2f bd a8 5d c3 bd
       -0.039975256 0.025747582 -0.042886045 -0.09539348
0001f0 05 34 c3 3d a4 1e b6 3d 27 af e1 3d 57 fb ce bd
       0.09531406 0.08892563 0.11019736 -0.10106533
000200 ce b2 41 be 75 8c 34 be d7 33 bf 3d d4 05 a2 bb
       -0.18915865 -0.17631705 0.093360595 -0.0049445424
000210 8d 12 22 be fb 78 33 3e f5 54 3e 3c 0b 52 dd 3d
       -0.15827389 0.17526619 0.011616935 0.10806664
000220 8b e0 ce bd b0 d5 4e bd 07 6b 0d be 12 47 52 3d
       -0.10101422 -0.050496757 -0.13810359 0.05133731
000230 93 e1 53 be e5 30 25 3d d5 a0 03 bd b3 ff f0 bd
       -0.20691518 0.040329833 -0.032135803 -0.11767521
000240 39 41 18 be f8 aa ac bd d2 0d 72 bd 0c 12 a0 bc
       -0.1486863 -0.08431047 -0.05909521 -0.019539855
000250 22 15 87 bd fe 6d b4 3d 8f f0 dc bd 02 db 32 bd
       -0.06595828 0.08810042 -0.107880704 -0.043665893
000260 92 84 51 3e fe ee 01 3e 6f eb 3b be 8e f0 13 3c
       0.20460728 0.12688825 -0.1835153 0.009029521
000270 fc 38 b5 bc 71 e1 91 3d e8 df 28 3e e1 87 a3 3d
       -0.022121899 0.07123078 0.16491663 0.07984901
000280 1f 23 f9 3b 84 39 f2 bd f2 d2 01 3d b3 d7 13 be
       0.0076030637 -0.118273765 0.031695314 -0.14437751
000290 d6 92 c8 bd 77 64 9d 3d b3 e3 50 be 3e 19 02 be
       -0.09793632 0.07685178 -0.2039936 -0.12704942
0002a0 dc 73 7c bd 5f c0 ea 3d 46 7e 38 bd 2e d9 d2 3d
       -0.06163393 0.11462473 -0.0450423 0.1029533
0002b0 8f 01 4c 3e fc a1 ca bb e0 ce 7c be 07 61 62 3c
       0.1992247 -0.006183861 -0.24688292 0.013817078
0002c0 9c 26 fa bc 32 44 dd bd aa 85 88 bd 72 b6 18 bd
       -0.030535989 -0.10804023 -0.066661194 -0.03728337
0002d0 16 da 4d 3e b9 bb cb bd ad 84 38 be a2 c8 2d be
       0.20102724 -0.09947915 -0.18019362 -0.16971067
0002e0 c8 fe 23 3e f5 48 38 3d df 00 07 be af a1 4a bd
       0.1601516 0.044991452 -0.13183926 -0.0494706
0002f0 84 97 63 3c 36 0a ab 3d 51 cb dc bc 89 dc ae bd
       0.013891105 0.08351557 -0.026952418 -0.085381575
000300 2c 57 0e 3d e1 d2 05 3e 5c 4c a9 bd fb 71 7d bd
       0.034751102 0.13068725 -0.082665175 -0.06187628
000310 f4 28 67 3c 51 a3 04 bd 65 ae b7 bd c8 01 e3 3c
       0.014108885 -0.032382313 -0.0896881 0.02771081
000320 54 12 63 bd e3 68 b9 3d 71 67 5b be 9f 31 08 bd
       -0.0554374 0.09053209 -0.21426179 -0.033250447
000330 5e b6 0a be 66 4f 55 3d 83 e3 06 be b6 ab e7 3b
       -0.1354613 0.052077673 -0.13172726 0.00707003
000340 50 5b 36 be 07 08 01 bd 78 3c b0 bd 32 15 e6 bd
       -0.1780827 -0.031501796 -0.086052835 -0.112345114
000350 46 a9 52 be c1 44 2a 3e 43 d1 e5 3d 7b 7e 42 be
       -0.20572385 0.1662779 0.11221554 -0.18993561
000360 73 9c 65 be cc ab 5f 3d 7f 1c e2 bc 15 14 a2 3d
       -0.22422962 0.054607198 -0.027601479 0.079139866
000370 98 de 95 be 48 9c af 3e b1 4b 3a 3d fb 7e cd 3c
       -0.29271388 0.3429892 0.04548234 0.025084963
000380 de 52 14 3e 33 f1 f8 3c 7a be 2b 3d 6f 87 44 be
       0.14484736 0.03038845 0.0419297 -0.19192289
000390 e7 1b ce bd cd b4 e0 be 7a a7 a8 bd 69 4e 63 be
       -0.10063916 -0.4388794 -0.082350686 -0.2219788
0003a0 8b 78 b5 3d 53 c5 98 3c 57 97 70 bd 08 8a 31 bd
       0.08860882 0.018648779 -0.05873808 -0.043344527
0003b0 26 eb 3a bc 7a a3 cd bd ea 6a b1 bd b0 6b 33 be
       -0.011408603 -0.10040946 -0.0866297 -0.17521548
0003c0 10 16 36 bd 7b 37 d1 bd c7 13 52 3d 94 a5 90 bc
       -0.044454634 -0.1021566 0.051288392 -0.017657079
0003d0 89 7d 5a bc fe 96 90 3d 15 5b 1f bd 61 de fe bd
       -0.013335594 0.070600495 -0.038905222 -0.12444759
0003e0 d6 ca 40 3e 90 78 84 be 2a 06 89 bd ff 97 43 be
       0.18827376 -0.25873232 -0.06690629 -0.1910095
0003f0 8f bd cf 3c a2 67 5b bc 24 58 bb bd 08 e8 72 bd
       0.025358943 -0.013391407 -0.09147671 -0.059303313

network_body.linear_encoder.seq_layers.2.bias f4 [128]
000000 60 51 b9 be 39 aa ff bd 7b cd 50 bd 7a c3 d1 bc
       -0.36194897 -0.12483639 -0.05097721 -0.025605906
000010 4b ee ab be 8c 4e e7 bd 90 ba c8 3c 5f 9b 90 bd
       -0.3358024 -0.112942785 0.024503022 -0.07060885
000020 0e 70 bd bd 41 dc d6 bd fc c9 1d 39 61 8a 72 be
       -0.09249888 -0.10491229 0.00015047932 -0.236856
000030 91 64 e8 3c b4 fc c9 bd a8 d0 4b be 0f 88 56 bd
       0.028368266 -0.098626524 -0.19903815 -0.05237585
000040 fe a7 25 be e3 ac 78 bc 13 3b dd bd e9 a3 1f bc
       -0.16177365 -0.015177938 -0.10802283 -0.009743669
000050 98 63 6d bd 7c f9 5b bd 0e 35 b5 bd c4 00 67 bd
       -0.057956308 -0.053704724 -0.0884801 -0.056397215
000060 2b a0 6f bd dc 4d c3 ba 22 e3 d6 bc 4d be 29 bd
       -0.058502357 -0.0014900523 -0.026231352 -0.04144125
000070 3f fe 15 be e8 2b 8d be c5 c7 b9 bc fb eb 17 be
       -0.14647768 -0.2757256 -0.022678265 -0.14836113
000080 f2 5f 27 be a6 90 58 be 9e ab 80 be 1f e7 1a be
       -0.16345194 -0.21148929 -0.25130934 -0.15127228
000090 50 44 06 be b5 c6 57 be 47 02 49 be 88 da fb bc
       -0.13111997 -0.21071894 -0.19629775 -0.030743852
0000a0 04 00 6f be e4 4f 24 bd 1f 62 2a be 72 9e a8 be
       -0.2333985 -0.040115252 -0.16638993 -0.32933384
0000b0 2d 09 96 bd 2a e5 40 be d6 c0 10 3d 81 d3 46 3c
       -0.07325969 -0.18837419 0.035340153 0.012135387
0000c0 92 c0 75 be 07 cd 79 bd bd b7 61 be 47 bd 34 bd
       -0.23999241 -0.060986545 -0.22042747 -0.04412582
0000d0 6b 24 32 be e9 4c d9 3d 30 6e bc bd 49 34 49 be
       -0.17396705 0.106103726 -0.09200704 -0.19648851
0000e0 fb ad 92 bd 0b 35 35 be 59 f7 19 be b3 bd 2c bd
       -0.071620904 -0.17696016 -0.15035762 -0.0421731
0000f0 f7 79 38 be 00 3a 8c be fa b3 9b bd 70 6e 65 bd
       -0.18015276 -0.27388 -0.07602687 -0.056013525
000100 76 4b 47 be 81 d4 20 be 90 dd 0b be a7 08 f1 bd
       -0.1946238 -0.15706064 -0.13658738 -0.117692284
000110 a2 f8 8d bd 19 b8 4e be 25 3a 81 3b 83 db c5 bc
       -0.069321886 -0.20187415 0.003943699 -0.024152523
000120 4f 8d 4b be 7f bd 7a bd 49 ad 0f be 4a 33 30 be
       -0.19878124 -0.061215874 -0.14030947 -0.17207065
000130 31 ce 24 be eb d8 a9 bd a3 c9 41 3b a5 1e c6 bd
       -0.16094281 -0.08293327 0.0029569648 -0.09673814
000140 32 d7 28 be ee 07 98 bc 82 43 a0 be 6b 6c b3 bd
       -0.1648834 -0.018558469 -0.31301504 -0.087609135
000150 09 45 24 be 15 76 3b ba 54 59 13 be 88 ff 0c be
       -0.1604196 -0.00071510795 -0.14389545 -0.13769352
000160 b4 bc 08 3e 36 fb b6 3d ef 8e 1d be d5 80 97 3b
       0.13353235 0.089346334 -0.15386556 0.0046235123
000170 a7 b9 75 be 00 78 af bd b6 70 96 bd c0 35 e6 3c
       -0.23996602 -0.0856781 -0.07345717 0.028101802
000180 ec 53 bb 3b 2f 08 26 be 9b f5 1b be 95 ee 23 be
       0.0057167914 -0.1621406 -0.1523041 -0.1600898
000190 6e 2a c4 bd 55 4f 87 3d 02 d0 22 be 5c b4 6a be
       -0.09578405 0.06606928 -0.15899661 -0.22920364
0001a0 72 28 8b be d7 b2 8a 3a 4b ff 19 be 09 13 7a be
       -0.27179295 0.0010581863 -0.15038793 -0.24421324
0001b0 37 df 82 be de a0 2d bd 04 61 89 bd d7 7e 17 be
       -0.25560924 -0.042389743 -0.067079574 -0.1479448
0001c0 4c 04 23 bd 06 79 6c be 52 98 5d be 30 25 b7 bc
       -0.03979902 -0.23093042 -0.21640137 -0.0223566
0001d0 72 3c 27 be de 18 3e 3c 47 5e 2b 3c 64 21 74 be
       -0.16331652 0.0116026085 0.010459489 -0.23840863
0001e0 d8 2b 31 be 31 d7 81 be ff 76 84 be f7 83 81 be
       -0.17301881 -0.2535949 -0.25872037 -0.25295994
0001f0 36 84 2f 3d c8 e9 13 be 6e 50 92 bc 52 0a be bd
       0.042850696 -0.14444649 -0.017860617 -0.09279312

network_body.linear_encoder.seq_layers.2.weight f4 [128, 128]
000000 0d cf ce bd e2 64 ad bc 00 1d f4 bd 2d 70 c6 3d
       -0.100980856 -0.021166269 -0.11919594 0.096893646
000010 ca 70 5a 3e 7a cc 19 bd c8 c0 45 3e 36 b9 ed 3d
       0.21332088 -0.03754852 0.19311821 0.11607592
000020 b9 f3 16 3e cb 5e 01 3d 6e b5 13 3e f8 fe 26 bc
       0.1474141 0.031584542 0.14424679 -0.010192625
000030 f5 24 f5 bd 2f 7a 75 bb 54 05 c5 bd 9a 6c a5 3d
       -0.119699396 -0.003745686 -0.09620157 0.08077355
000040 da f1 15 3e fd 77 19 3e 38 e2 8a 3e b4 87 3b be
       0.1464304 0.14987178 0.27125716 -0.18313485
000050 60 e3 86 3d 3d 93 b8 bd 45 c7 22 3e ca 94 18 3e
       0.06586337 -0.090124585 0.15896328 0.14900509
000060 a5 f7 78 bd a0 43 e0 3b b7 d2 d4 bd ed a3 b5 3e
       -0.060783047 0.006843999 -0.10391753 0.35476628
000070 90 40 b8 bb 74 7f 47 bd 65 a0 e8 bd 38 4d b2 3d
       -0.005622931 -0.048705533 -0.11358718 0.087061346
000080 95 6c ca bd fe 33 f1 bd 92 5e b7 3d 70 8c f2 bd
       -0.09883992 -0.11777495 0.08953585 -0.118431926
000090 54 fc 83 3e 76 7c 92 3c 5f 1c d1 3d d9 d1 74 bd
       0.2577845 0.017881613 0.102104895 -0.05977044
0000a0 ab 03 00 be 4c df 93 3d 85 b7 e2 bd 29 7b 6f 3d
       -0.12501399 0.07220325 -0.1107016 0.058467064
0000b0 15 f3 80 bc 30 08 85 be 32 9a de 3d 2a 7b 0e be
       -0.01574091 -0.2598281 0.10869254 -0.13914171
0000c0 fa 60 2d 3d 77 ea b1 bd fe 61 ca 3c ea 27 91 3d
       0.042328812 -0.08687299 0.02470493 0.07087691
0000d0 9e 56 06 be 22 98 17 3d d0 27 9f 3c 55 a4 c7 3d
       -0.1311898 0.03701032 0.019428164 0.09748141
0000e0 49 be ef bb 31 56 6b 3e 24 34 09 be 3b 18 3d bd
       -0.007316385 0.22982098 -0.13398796 -0.046165686
0000f0 de bc c5 bd 99 44 4b be a3 7d 35 3e 84 b1 c5 3d
       -0.09655164 -0.19850387 0.17723708 0.09652999
000100 e4 53 f1 3d 89 46 a9 3d 53 d7 95 3d a9 59 68 3e
       0.11783579 0.08265407 0.073164605 0.22690453
000110 c8 8a 47 be 3e da 94 3d 1c 1a 6f 3d 6f 60 b8 be
       -0.19486535 0.07268189 0.05837451 -0.36011073
000120 8d f2 c1 bc 7a 39 07 3d c4 a0 67 be a6 09 6e 3e
       -0.023675228 0.0330138 -0.22619921 0.23245868
000130 4d c4 c2 3e 9f a1 3f 3c 6c d9 a1 3d 17 db 58 bd
       0.3804039 0.011696248 0.07902798 -0.052943315
000140 c3 b8 e5 3c 88 42 a5 3d 06 23 27 3e 13 b7 13 be
       0.028042203 0.080693305 0.16321954 -0.14425306
000150 56 6e ed 3b 2e 66 04 be 94 2a c6 3c 5b ef b9 3e
       0.007245819 -0.12929603 0.024190225 0.36315426
000160 26 6d fb 3c 33 d1 bf 3e 2a 57 95 bc 00 7e 68 3e
       0.030691694 0.37464294 -0.01823004 0.22704315
000170 bc 58 9e bc 15 0a da bd 4c ab a0 3c 31 37 bb 3d
       -0.019329421 -0.10646454 0.01961293 0.09141386
000180 ae 8d f5 3c 90 34 8b 3e 12 17 38 be b3 96 27 3e
       0.029974785 0.2718854 -0.1797755 0.16366081
000190 dd de f3 3c b3 3a 8b bd 7c ff 12 3e d0 5f 8a 3d
       0.029769355 -0.06798305 0.14355272 0.06756556
0001a0 7e e4 d2 bd 12 29 1a bd 64 85 3e 3e 65 59 96 3e
       -0.10297488 -0.037636824 0.18605572 0.29365078
0001b0 8e a2 2f 3e b2 93 1d be 5a 5f 28 3b 43 f3 06 3e
       0.17151853 -0.15388373 0.00256916 0.13178734
0001c0 e6 18 99 3e 21 34 09 3e 31 58 d2 3d 94 b6 a6 3d
       0.29901809 0.13398792 0.102707274 0.08140293
0001d0 79 58 34 3e 9b 99 0e be 9a 63 41 3e b9 5d ed 3c
       0.17611875 -0.13925783 0.18885651 0.028975355
0001e0 bb ea 78 3e 1a 42 99 3d ed b9 71 3b 97 b2 95 3e
       0.24308293 0.07483311 0.0036884502 0.29237816
0001f0 d4 87 d8 3d f0 58 31 3e 02 16 ec bd 2b 83 b4 3e
       0.10572782 0.17319083 -0.11527635 0.35256323
000200 ba 9d 2b 3e 40 e3 f8 3c a7 9b 52 bd fc 3d 0f be
       0.16759387 0.030381799 -0.051417973 -0.13988489
000210 30 a2 58 bc b7 f5 27 3d 24 e0 0a be ff 95 45 3e
       -0.013222262 0.041005816 -0.13562065 0.192955
000220 c8 1f d9 bc 85 11 ad bd 26 d7 20 3e 7f 14 46 3e
       -0.026504412 -0.08450607 0.15707073 0.19343756
000230 28 36 12 be 98 89 20 3d 6d ce 08 be 0c b3 88 3d
       -0.14278471 0.03919372 -0.13359995 0.066747755
000240 19 13 04 3d 81 45 87 3e dc f8 b2 3d 13 bd 3a 3e
       0.032244775 0.26420215 0.087388724 0.18236189
000250 a1 20 1a bd c7 44 f5 3c c6 82 6e 3d d4 95 7c 3e
       -0.037628774 0.029940022 0.058230184 0.2466653
000260 14 e0 41 be 49 a2 ca 3d 8a 49 0e bd ca 71 1b 3e
       -0.18933135 0.09894235 -0.0347381 0.15180126
000270 0e e6 dc bd ec 76 ce 3d 25 24 b9 3c 40 d2 5b bc
       -0.10786067 0.10081276 0.022600243 -0.013416827
000280 1f 66 54 3c 6a bf c5 3c 5a e1 8a bd 03 93 6e bc
       0.012963801 0.024139125 -0.06781264 -0.0145614175
000290 8a e4 0c be d5 6b 4d bd 64 82 81 3d 50 ec 85 be
       -0.13759056 -0.050151665 0.06323698 -0.26156855
0002a0 ba 88 20 3d 4c f4 27 3d 66 a1 a9 bd f9 ea 5a 3e
       0.039192893 0.041004464 -0.082827374 0.21378697
0002b0 50 88 b4 bd 4b a3 5c 3d 60 bb a0 bc b3 ef b4 3d
       -0.08815062 0.053866666 -0.019620597 0.088347815
0002c0 a5 26 9b 3c a9 62 97 3d c2 7c b5 bd 18 20 4e bd
       0.018939326 0.07391865 -0.08861686 -0.050323576
0002d0 1f 1e 93 3c 90 75 e4 bd 6f ad 97 bb 6b ea 16 be
       0.017958699 -0.11155236 -0.004628829 -0.14737861
0002e0 e1 f3 77 3d 40 98 43 3d ea 76 06 bd dc 59 d7 3d
       0.060535315 0.04775262 -0.03282825 0.10515186
0002f0 54 67 bf 3d a5 73 20 3d bd 8a e7 bd 70 11 78 bc
       0.0934588 0.039172787 -0.11305759 -0.015140876
000300 f7 ea 93 bd 10 1d 62 3d 6f 5f 2d 3e 5f 3b 18 3e
       -0.0722255 0.055203497 0.16930936 0.14866398
000310 14 0f 27 3d 25 81 34 3d c2 0e 0f bd f8 97 89 bd
       0.040785864 0.044068474 -0.034926184 -0.06718439
000320 dc 9a 73 3d f2 4d 90 3c f4 a7 81 bd 25 d2 ca bc
       0.059473857 0.017615292 -0.06330863 -0.024758408
000330 19 ce a4 3e 30 9b c1 bd 1d 8c a5 bc 56 3a 1e 3e
       0.3218849 -0.09453428 -0.020208413 0.15451941
000340 10 08 2c 3d d2 bc 42 3d 6c c0 2d 3e a5 e9 4c bd
       0.041999876 0.047543354 0.16967934 -0.05002751
000350 32 0e 25 3e 57 89 84 bd a8 fc 83 be e8 c6 48 3e
       0.16118696 -0.06471508 -0.257787 0.19607127
000360 cf 2e 23 be 3e 8c 02 3e c6 bd 4e be 68 84 07 3e
       -0.15935825 0.1274881 -0.2018958 0.13234103
000370 fd d1 74 b9 ce 8b a5 bd 60 e7 48 3e 8a e6 00 3e
       -0.0002334788 -0.08083306 0.19619513 0.12587944
000380 4a a0 30 be 34 db bf 3b cf 9d b1 bc 79 2e 13 3d
       -0.17248645 0.0058549885 -0.021681694 0.03593299
000390 a2 98 78 bd a8 f7 74 bd 25 f3 65 bd fa b8 40 be
       -0.060692437 -0.059806496 -0.056140084 -0.18820563
0003a0 4f d6 7f bc 06 d3 71 3d 40 df 72 3d 9c 79 71 3d
       -0.01561506 0.05903914 0.05929494 0.058953866
0003b0 1f c4 8c bd 4d 4c cd bd c0 0b e8 bd 93 b0 6b 3e
       -0.06873345 -0.10024319 -0.11330366 0.23016576
0003c0 ce e3 b7 3c 72 6d 96 3d 70 cd 8d 3d 30 ed 18 3d
       0.022447493 0.07345094 0.0692395 0.037335575
0003d0 f5 24 e6 3d b5 ce c9 3b 8d 19 bb 3d 60 a4 83 bd
       0.11237518 0.0061586746 0.09135733 -0.064278364
0003e0 71 62 74 3b 70 e1 03 3d a7 0d 10 3e 85 42 91 3d
       0.003729012 0.032197416 0.14067708 0.07092766
0003f0 48 1e ae bc 6f 51 aa 3c 8c 3d a3 bb c8 2f d7 bd
       -0.021254674 0.020790784 -0.004981702 -0.105071604
