Oversteek Simulator/Learning/results/Oversteek-K-01/BadCar.onnx (onnx, 90288 bytes, 6 tensors)

action_model._discrete_distribution.branches.0.bias f4 [3]
-0.00016119081 0.031766698 -0.033954836
00000000: 5405 29b9 cc1d 023d 3a14 0bbd

action_model._discrete_distribution.branches.0.weight f4 [3, 128]
-0.03701213 0.03479003 -0.0038626413 -0.013027093 0.023738852 -0.0033770574 -0.028031876 0.026811467
-0.011586552 0.006320594 -0.04002509 0.022368519 -0.0027596257 -0.016832117 0.00041181874 0.101290375
-0.07366902 -0.010765916 -0.023059484 -0.00816152 -0.021016853 0.008533598 -0.06716618 -0.052979477
-0.028617423 -0.038987376 -0.008481752 -0.038074996 -0.008005807 -0.09222962 -0.0074896794 0.016140692
-0.008284169 0.003796602 -0.026150981 -0.012553256 0.008273546 -0.03497518 0.00659992 -0.0742477
0.022417756 -0.012119929 -0.03612089 -0.0043426836 0.015038441 -0.0051750345 -0.0052634194 -0.0033259178
-0.022756185 0.007009486 -0.03782805 0.013838326 -0.010480426 -0.0282766 -0.0025120147 -0.005207971
-0.011183817 0.0035982141 0.0011874079 0.000598635 -0.012014286 -0.00741081 -0.09751166 0.0024691334
0.0062216925 -0.011029581 -0.009927095 0.037183817 -0.011671086 -0.01701705 -0.059399273 -0.072090864
-0.07538021 -0.016106976 -0.06696685 0.0022447305 -0.03681067 -0.00582085 0.038013626 -0.010072527
-0.05121967 -0.037389573 -0.01532841 0.037353892 -0.055954292 3.75904e-05 -0.038089328 -0.019026784
-0.053075194 0.00034295605 -0.079937 -0.0019421006 -0.059489984 -0.029909708 -0.0073707025 0.0066987867
-0.0069941017 -0.02855695 -0.017799515 -0.049173623 0.011818517 -0.024167294 0.014494356 -0.009921347
0.011859935 -0.037094913 -0.013825967 0.011185132 -0.0004223292 0.05833395 -0.011626021 -0.04560541
8.311872e-05 -0.030637914 -0.009060922 -0.005270538 0.017432285 -0.030380834 -0.017624391 0.030335607
-0.017773518 -0.00015292004 -0.022042617 -0.022623803 -0.0074784947 -0.015849786 -0.029008096 0.005073771
0.066768155 -0.031692117 -0.01699669 0.004296272 0.001639423 -0.017874202 0.028618878 -0.020832857
-0.011109571 0.012389663 0.07991974 -0.043279868 0.0140839545 -0.030997334 -0.0007728516 -0.04247896
0.1584173 0.015728492 0.037323266 0.013842181 0.013556249 -0.02286126 0.03167975 0.14850724
0.00530051 0.028701724 -0.0060224533 0.023535565 -0.0042515667 0.01674672 -0.04069315 -0.0029722878
0.0073079304 -0.0019294235 0.057941414 0.009950632 -0.063703075 0.062999636 -0.010802612 0.17583193
-0.019920118 -0.003006729 0.044503797 0.01096867 -0.008430206 -0.0010015086 -0.06116217 -0.015653014
0.054606467 0.032306675 0.04463026 0.0040224814 -0.0071197604 0.011775948 0.0010180103 -0.0009615427
0.017670019 3.4993627e-05 0.016910119 0.049028546 0.009861979 -0.011278918 0.21638384 0.029164197
0.008525129 0.002939625 0.0042618313 0.008493827 -0.011191942 0.037538134 0.06299948 0.14111175
0.1505552 -0.011995816 0.107222825 0.017307246 0.08615958 -0.014178345 -0.10226369 0.016223492
0.027742011 0.071638994 0.014157375 -0.058882523 0.077212945 0.0070322026 0.059139363 0.021935884
0.112517826 0.0042061443 0.13535072 -0.014606778 0.12157165 0.017774275 -0.0081548365 -0.021103863
0.047187585 0.020633953 0.022659544 0.07766813 0.008345625 0.028304618 0.016917264 -0.0054630716
0.00579534 0.041665398 -0.013551267 0.0047740513 0.013829922 0.0018013198 0.0032655417 0.0122048175
-0.011825872 0.083777584 0.0135083925 0.0023463315 -0.021580247 0.07179992 0.028202804 0.021574609
0.012841206 0.0064485865 0.03513195 -0.011032693 -0.0019506649 0.050304033 0.019729575 -0.0063612047
00000000: 089a 17bd fe7f 0e3d 5e24 7dbb 976f 55bc
00000010: fb77 c23c 9f51 5dbb 1ba3 e5bc b9a3 db3c
00000020: 85d5 3dbc fc1c cf3b 59f1 23bd 2f3e b73c
00000030: d6da 34bb 82e3 89bc 60e9 d739 5471 cf3d
00000040: c8df 96bd 8663 30bc 3ee7 bcbc e5b7 05bc
00000050: 892b acbc 81d0 0b3c 6c8e 89bd 0201 59bd
00000060: 166f eabc 3ab1 1fbd 0cf7 0abc 87f4 1bbd
00000070: ca2a 03bc e2e2 bcbd fc6b f5bb 7c39 843c
00000080: 53ba 07bc 69d0 783b 953a d6bc 2cac 4dbc
00000090: c48d 073c 2242 0fbd 2444 d83b 2e0f 98bd
000000a0: 71a5 b73c ab92 46bc 80f3 13bd 124d 8ebb
000000b0: cb63 763c 5693 a9bb c378 acbb a4f7 59bb
000000c0: 2e6b babc d5af e53b 96f1 1abd 25ba 623c
000000d0: 18b6 2bbc 54a4 e7bc 9da0 24bb a1a7 aabb
000000e0: 543c 37bc 04d0 6b3b cca2 9b3a b7ed 1c3a
000000f0: 91d7 44bc 61d6 f2bb 31b4 c7bd 2fd1 213b
00000100: 57df cb3b 6ab5 34bc 41a5 22bc 0f4e 183d
00000110: 1538 3fbc 5767 8bbc a74c 73bd 60a4 93bd
00000120: f160 9abd c7f2 83bc ea25 89bd 541c 133b
00000130: c9c6 16bd d4bc bebb 2db4 1b3d 3e07 25bc
00000140: b7cb 51bd cf25 19bd 0324 7bbc 6500 193d
00000150: 5430 65bd 62aa 1d38 8e03 1cbd 0fde 9bbc
00000160: 6065 59bd c8ce b339 03b6 a3bd 158e feba
00000170: c5ab 73bd 3405 f5bc ef85 f1bb 7f81 db3b
00000180: c72e e5bb 44f0 e9bc 4ad0 91bc 486a 49bd
00000190: 74a2 413c 7dfa c5bc bc79 6d3c 258d 22bc
000001a0: 2c50 423c d6f0 17bd 4f86 62bc d841 373c
000001b0: 116c ddb9 94ef 6e3d 117b 3ebc bdcc 3abd
000001c0: 0650 ae38 5dfc fabc 4374 14bc 7ab4 acbb
000001d0: 27ce 8e3c 3ae1 f8bc 0761 90bc 6182 f83c
000001e0: c599 91bc 2959 20b9 b892 b4bc 8e55 b9bc
000001f0: 290e f5bb 69d7 81bc 63a2 edbc e041 a63b
00000200: bebd 883d 98cf 01bd a43c 8bbc bec7 8c3b
00000210: e8e1 d63a eb6c 92bc 2372 ea3c aba9 aabc
00000220: eb04 36bc 03fe 4a3c f6ac a33d 3b46 31bd
00000230: 63c0 663c 1fee fdbc 3199 4aba 6bfe 2dbd
00000240: 2538 223e 0ad9 803c 48e0 183d 51ca 623c
00000250: 081b 5e3c 8a47 bbbc a0c2 013d 4812 183e
00000260: e7af ad3b e11f eb3c 0058 c5bb a8cd c03c
00000270: ba50 8bbb 6b30 893c dcad 26bd b7ca 42bb
00000280: 5d77 ef3b b6e4 fcba fa53 6d3d fa07 233c
00000290: c276 82bd f405 813d 70fd 30bc 490d 343e
000002a0: 842f a3bc 8b0c 45bb 9d49 363d f0b5 333c
000002b0: d91e 0abc 0d45 83ba 2f85 7abd c03a 80bc
000002c0: 08ab 5f3d 0154 043d 38ce 363d 05cf 833b
000002d0: e14c e9bb e8ef 403c c26e 853a 0a10 7cba
000002e0: b7c0 903c 1fc6 1238 1787 8a3c 28d2 483d
000002f0: 2394 213c 36cb 38bc ba93 5d3e c1e9 ee3c
00000300: fcac 0b3c b9a6 403b d5a6 8b3b b129 0b3c
00000310: 685e 37bc 96c1 193d df05 813d 997f 103e
00000320: 242b 1a3e 198a 44bc a497 db3d edc7 8d3c
00000330: 6f74 b03d 4a4c 68bc a06f d1bd 21e7 843c
00000340: 3743 e33c 77b7 923d 56f4 673c cd2e 71bd
00000350: d221 9e3d 646e e63b 1e3c 723d e2b2 b33c
00000360: bf6f e63d b2d3 893b 6199 0a3e 4451 6fbc
00000370: 8ffa f83d 5b9b 913c dd9b 05bc 02e2 acbc
00000380: c547 413d 8908 a93c 82a0 b93c 7810 9f3d
00000390: 17bc 083c 16df e73c 1396 8a3c 9103 b3bb
000003a0: d6e6 bd3b 56a9 2a3d 2206 5ebc a56f 9c3b
000003b0: e696 623c 431a ec3a b302 563b b7f6 473c
000003c0: 4dc1 41bc 9593 ab3d 4e52 5d3c e9c4 193b
000003d0: 0fc9 b0bc d60b 933d 9109 e73c 3cbd b03c
000003e0: ec63 523c aa4e d33b 85e6 0f3d 78c2 34bc
000003f0: 74ad ffba 9a0b 4e3d eb9f a13c a771 d0bb

network_body.linear_encoder.seq_layers.0.bias f4 [128]
-0.003317588 -0.07223908 0.0030431387 -0.02976619 0.12561435 -0.06547678 -0.035595965 -0.047202006
-0.00981923 0.030867726 -0.0549673 -0.0324808 0.11936784 0.033365797 0.06140008 -0.045778833
-0.018704396 -0.064879306 0.022873947 -0.018580507 0.035605196 -0.06131576 0.085058205 -0.020373989
-0.031043127 0.124091 0.085738316 -0.027988974 -0.054708585 0.061701175 -0.034803014 -0.032581564
0.16936061 -0.04696409 -0.047019478 -0.07327537 0.0031875991 -0.03602822 -0.056580096 0.07100261
-0.012281438 -0.102037385 0.01227205 -0.0033389828 0.027418273 0.035475414 -0.045818858 -0.0272302
-0.08739551 0.08774642 0.03292142 -0.122877344 -0.054228425 0.07226653 -0.085949026 -0.018086987
-0.062493965 0.012747869 0.049350288 -0.102336444 0.07147258 -0.0041054827 0.044906337 0.020775
-0.06341474 -0.082880266 0.044491965 -0.03582284 -0.02411006 -0.06414417 0.01759794 -0.06131305
0.023855243 -0.050352193 -0.05301137 0.034260824 -0.04957334 0.10877154 0.0008669789 0.03943235
-0.071051896 0.0053833397 -0.037920047 -0.015930288 -0.03375791 -0.047673635 0.0013268021 0.033565123
0.079360284 0.010626532 -0.017355515 -0.021580763 -0.0013440398 0.115967706 0.123636365 -0.020071302
-0.071421616 0.13504204 -0.0010039323 -0.04286775 0.0036464385 0.0847042 -0.09609305 -0.031797286
0.03560688 -0.046465926 0.121298596 0.12600812 0.0138071785 -0.04201446 0.10372931 -0.09443818
0.0012271664 0.07631438 0.035001557 -0.09746624 0.017421544 -0.0005453072 -0.10325378 0.04160657
0.019286864 -0.07983095 0.002762394 0.020062136 -0.03368614 -0.067769445 0.14145988 -0.04034505
00000000: e46b 59bb 15f2 93bd 656f 473b 3ad8 f3bc
00000010: 0ca1 003e b118 86bd 13cd 11bd e456 41bd
00000020: d6e0 20bc 50de fc3c 6425 61bd 960a 05bd
00000030: 2077 f43d 93aa 083d a67e 7b3d 9682 3bbd
00000040: f639 99bc 71df 84bd 2562 bb3c 2636 98bc
00000050: c1d6 113d 3c26 7bbd ff32 ae3d 5ae7 a6bc
00000060: 284e febc 6c23 fe3d 9297 af3d 2249 e5bc
00000070: 1c16 60bd 5fba 7c3d 9b8d 0ebd 3f74 05bd
00000080: de6c 2d3e 6b5d 40bd 7f97 40bd 6611 96bd
00000090: 0ae7 503b 5492 13bd 88c0 67bd d169 913d
000000a0: 1638 49bc faf8 d0bd b510 493c d6d2 5abb
000000b0: 499c e03c ab4e 113d 8eac 3bbd de11 dfbc
000000c0: 6bfc b2bd 65b4 b33d 9cd8 063d 1ea7 fbbd
000000d0: a01e 5ebd 7900 943d 0b06 b0bd 292b 94bc
000000e0: acf9 7fbd 70dc 503c 8723 4a3d c595 d1bd
000000f0: 3760 923d 4987 86bb b5ef 373d 5530 aa3c
00000100: 96df 81bd 21bd a9bd 353d 363d f8ba 12bd
00000110: 7682 c5bc 055e 83bd 8e29 903c 6523 7bbd
00000120: 126c c33c 1a3e 4ebd 7322 59bd 1455 0c3d
00000130: 6a0d 4bbd 9dc3 de3d f845 633a d183 213d
00000140: a883 91bd ba66 b03b 0d52 1bbd 3c80 82bc
00000150: bc45 0abd 6e45 43bd 17e8 ad3a 957b 093d
00000160: a587 a23d e81a 2e3c 272d 8ebc 24ca b0bc
00000170: 7e2a b0ba 7a80 ed3d 1035 fd3d 926c a4bc
00000180: 7f45 92bd 7648 0a3e 6196 83ba 1896 2fbd
00000190: 16f9 6e3b 6579 ad3d 6fcc c4bd df3d 02bd
000001a0: 85d8 113d 0e53 3ebd 666b f83d 4608 013e
000001b0: 8137 623c 5b17 2cbd 0870 d43d ce68 c1bd
000001c0: dfd8 a03a b74a 9c3d cb5d 0f3d 619c c7bd
000001d0: a0b7 8e3c f2f2 0eba b876 d3bd a76b 2a3d
000001e0: 7cff 9d3c 697e a3bd 4809 353b 5959 a43c
000001f0: 7afa 09bd b5ca 8abd dcda 103e da40 25bd

network_body.linear_encoder.seq_layers.0.weight f4 [128, 39]
-0.1439516 -0.04210665 -0.07588663 0.11043989 -0.31172734 0.3438524 -0.4891298 0.075235315
0.254366 -0.5099153 0.006074087 -0.40903175 0.13707973 0.1400705 -0.1640795 0.20896186
-0.012037303 0.14698479 0.07754108 -0.08539336 0.10726974 -0.29533774 0.2909866 -0.056052394
-0.24960499 -0.06959645 -0.05746782 0.1655477 0.046689514 0.068592295 0.14735049 -0.0628532
-0.03862052 0.39363757 -0.19926055 -0.037559625 0.11670916 -0.151334 0.15569034 -0.04514143
0.39698943 -0.09053581 -0.1255087 -0.17508076 0.029730948 0.006046292 -0.12260474 -0.034814972
0.06438283 -0.23774202 -0.123808235 -0.12502997 0.16042282 -0.2108947 -0.17862858 0.2091569
-0.081066936 -0.15393588 -0.09148422 0.140597 -0.057200085 -0.018676369 0.25098962 -0.16791043
0.25265208 -0.11224137 -0.22564967 -0.09825285 0.033268444 -0.11182764 0.1249352 0.09408766
-0.16782437 0.19791465 -0.060180467 -0.0431827 0.14377248 -0.019992935 0.2648969 -0.028571503
-0.076578334 0.12161669 0.1626584 -0.0012589496 -0.22817382 0.03621637 0.1429571 0.22030818
-0.27640337 0.2008485 0.13131891 -0.079291664 0.08763659 -0.13165137 0.01298181 0.09877686
-0.11343009 -0.050968193 -0.06762181 0.054558817 -0.17297177 0.11717118 -0.28369036 -0.15187113
-0.25429195 -0.18130955 0.07093835 0.11514295 0.34934944 0.11415357 0.08594 0.072350465
0.10577318 -0.14211993 0.059607446 -0.20812036 0.018729597 0.24478331 0.59770334 0.35493764
-0.19571325 -0.46937844 0.20439275 0.11384912 -0.014512414 -0.081929624 -0.006706151 0.18534045
0.22972289 0.023795154 0.30188584 -0.009265457 0.11546175 0.124742046 0.007442357 -0.11743628
-0.17108674 -0.24329133 -0.009593939 -0.05401855 -0.23170753 -0.054557636 -0.21079661 0.09924468
-0.010173494 -0.03544146 0.0069996603 0.43025663 -0.1800687 0.09864134 -0.12735718 -0.14813136
-0.080814905 -0.11379689 0.09801426 -0.19793199 0.055357512 -0.3447131 -0.35793656 0.00049670326
0.09891568 0.028615026 -0.37572652 -0.04965848 -0.12697831 0.12791738 -0.2545223 -0.33259925
0.24114567 0.15530075 0.03287007 -0.050980315 -0.62797695 0.06840713 0.08658553 0.13226022
-0.446414 -0.4353923 -0.11495942 -0.111675754 0.22198218 0.31176895 -0.30706862 -0.16374679
0.12191941 0.16617866 0.07216739 -0.065841444 0.19039206 0.07902496 0.10744664 0.02009345
-0.020457331 0.4423005 -0.45608515 0.22200592 0.026016401 -0.24572453 -0.09730904 -0.14095055
-0.14023177 0.385418 -0.31658694 -0.25790754 0.031923715 0.34010747 0.42946973 0.07004059
0.11321536 0.023417698 0.33300436 0.65798146 -0.16548473 0.017285394 -0.17053404 0.33774558
0.026824918 0.17660609 -0.0053642364 -0.14787778 6.342859e-05 0.34487414 -0.08958384 0.09100194
-0.04391561 0.21643351 0.15266316 0.27355257 -0.14381985 -0.19294374 0.1225056 0.011638034
-0.07694055 0.12943323 -0.046566784 0.22950178 0.08913123 -0.1126002 -0.13836788 0.29927006
-0.04877663 -0.0137616815 -0.2322641 -0.060311 0.051629886 0.24884908 -0.19486032 0.040635616
0.1318224 0.017627278 0.15959334 0.16830125 0.15422717 -0.26884145 -0.07717973 -0.06132709
00000000: 0c68 13be 0678 2cbd 736a 9bbd 4f2e e23d
00000010: ba9a 9fbe 6c0d b03e 396f fabe f914 9a3d
00000020: 433c 823e cf89 02bf 2309 c73b 9c6c d1be
00000030: a15e 0c3e a46e 0f3e 7504 28be 19fa 553e
00000040: 1c38 45bc 2e83 163e dccd 9e3d b7e2 aebd
00000050: 3db0 db3d 8236 97be 32fc 943e 3297 65bd
00000060: 7398 7fbe 9588 8ebd 6063 6bbd 5685 293e
00000070: 813d 3f3d 1e7a 8c3d 0ce3 163e 2eb9 80bd
00000080: 8d30 1ebd dd8a c93e f50a 4cbe 1fd8 19bd
00000090: 3605 ef3d 4df7 1abe 4a6d 1f3e 38e6 38bd
000000a0: 3342 cb3e d76a b9bd 5a85 00be 5f48 33be
000000b0: 518e f33c f91f c63b 3218 fbbd 259a 0ebd
000000c0: 25db 833d a572 73be 2c8f fdbd db07 00be
000000d0: e145 243e c8f4 57be 69ea 36be 3a2d 563e
000000e0: 6c06 a6bd 5ea1 1dbe 145c bbbd a9f8 0f3e
000000f0: a34a 6abd 2fff 98bc b681 803e b6f0 2bbe
00000100: 9d5b 813e cede e5bd b510 67be ca38 c9bd
00000110: 7e44 083d e405 e5bd 07de ff3d 08b1 c03d
00000120: 27da 2bbe 23aa 4a3e cb7f 76bd 58e0 30bd
00000130: 1839 133e 39c8 a3bc 91a0 873e c90e eabc
00000140: 1ad5 9cbd 2c12 f93d ec8f 263e 5703 a5ba
00000150: 66a6 69be 9e57 143d 5963 123e 7898 613e
00000160: be84 8dbe 3bab 4d3e 7778 063e ab63 a2bd
00000170: d07a b33d 9ecf 06be a8b1 543c 864b ca3d
00000180: 094e e8bd 06c4 50bd 4e7d 8abd 1179 5f3d
00000190: 831f 31be 72f7 ef3d dd3f 91be 1b84 1bbe
000001a0: 8e32 82be 36a9 39be 2048 913d 11d0 eb3d
000001b0: eedd b23e 59c9 e93d 5001 b03d 7b2c 943d
000001c0: 9c9f d83d e387 11be f026 743d 811d 55be
000001d0: d06e 993c 7aa8 7a3e 1603 193f 63ba b53e
000001e0: 0e69 48be 5f52 f0be 554c 513e ba29 e93d
000001f0: 7ac5 6dbc b8ca a7bd 46bf dbbb e3c9 3d3e
00000200: 7a3c 6b3e 0eee c23c c890 9a3e 25ce 17bc
00000210: 3677 ec3d c278 ff3d 04df f33b 6f82 f0bd
00000220: 5d31 2fbe 5d21 79be e62f 1dbc 8e42 5dbd
00000230: bd44 6dbe d477 5fbd 11db 57be cb40 cb3d
00000240: baae 26bc 102b 11bd 685d e53b 994a dc3e
00000250: ee63 38be 7904 ca3d ec69 02be bfaf 17be
00000260: 4982 a5bd 580e e9bd b3bb c83d afae 4abe
00000270: 8fbe 623d 3c7e b0be 7643 b7be 3135 023a
00000280: 4e94 ca3d 0f6a ea3c 3a5f c0be b166 4bbd
00000290: 9a06 02be c6fc 023e bf50 82be 734a aabe
000002a0: e4ee 763e 2907 1f3e c4a2 063d bcd0 50bd
000002b0: 19c3 20bf 0a19 8c3d c153 b13d 396f 073e
000002c0: 6090 e4be bdeb debe d86f ebbd 42b6 e4bd
000002d0: 4c4f 633e 2ea0 9f3e 1938 9dbe 3dad 27be
000002e0: e2b0 f93d bd2a 2a3e 7fcc 933d e1d7 86bd
000002f0: 23f6 423e d7d7 a13d fc0c dc3d 059b a43c
00000300: 2296 a7bc 3675 e23e fe83 e9be 8555 633e
00000310: 5920 d53c 369f 7bbe f649 c7bd 5755 10be
00000320: eb98 0fbe 8255 c53e af17 a2be 750c 84be
00000330: 71c2 023d 9122 ae3e 75e3 db3e 7171 8f3d
00000340: 74dd e73d 79d6 bf3c 8c7f aa3e 7971 283f
00000350: d474 29be 199a 8d3c 7aa0 2ebe fdec ac3e
00000360: eebf db3c 3ad8 343e 7ac6 afbb 466d 17be
00000370: f704 8538 5893 b03e bb77 b7bd 3a5f ba3d
00000380: dbe0 33bd bfa0 5d3e bb53 1c3e 150f 8c3e
00000390: 8345 13be 0b93 45be 37e4 fa3d 74ad 3e3c
000003a0: 0293 9dbd 258a 043e d0bc 3ebd 8402 6b3e
000003b0: 6f8a b63d ef9a e6bd 4fb0 0dbe ed39 993e
000003c0: 01ca 47bd ad78 61bc a4d6 6dbe ab08 77bd
000003d0: dc79 533d 4bd2 7e3e 7789 47be 8871 263d
000003e0: 74fc 063e 1567 903c 706c 233e 2a57 2c3e
000003f0: baed 1d3e 96a5 89be 6810 9ebd 1d32 7bbd

network_body.linear_encoder.seq_layers.2.bias f4 [128]
-0.059666444 0.02352574 0.06510275 -0.009952027 -0.005549293 -0.014747331 -0.019759042 -0.017795153
-0.1000558 -0.047971524 -0.05096952 0.11101021 -0.05112142 -0.0016134222 0.02861229 0.00037329207
-0.0302585 -0.029494397 0.034715302 -0.037648182 -0.14009988 -0.016067445 -0.027440837 -0.019347606
-0.041884024 -0.044047166 -0.012442135 -0.0014574528 0.006081839 -0.037141725 0.047899652 -0.018826405
-0.026095843 -0.0414987 -0.021762412 -0.057717223 0.03648002 -0.037380874 -0.036025442 -0.071903646
0.06954848 -0.016776728 -0.040122226 -0.015745146 0.003638221 0.0072809705 0.019843059 -0.030059444
-0.030597465 0.014832166 -0.09384188 -0.0203675 -0.04424151 -0.098169416 1.1703982e-05 -0.044030245
0.0023877474 -0.047697306 -0.020266902 0.04801377 -0.105925485 -0.019731052 -0.0828619 0.033838667
-0.015253601 -0.051096153 -0.035025425 -0.020163627 -0.07515184 -0.047170166 -0.026087912 -0.05867173
-0.040598266 -0.042603523 -0.076698594 -0.034981873 -0.06768606 0.019061143 0.118674375 -0.042778183
-0.06445427 -0.03232423 -0.06353218 0.0030340843 -0.078694046 0.026692122 -0.028797433 -0.029787697
-0.02584442 0.018548515 -0.05116556 -0.01708389 -0.09383423 -0.04747717 -0.057123054 0.06120859
0.039407216 -0.06709498 -0.0060380576 -0.0892972 -0.041644067 -0.018488675 -0.016924715 -0.011196247
-0.04208697 -0.06944243 -0.042408116 -0.041314747 -0.0120937675 0.035022315 -0.058815412 -0.01693353
-0.001171071 0.005931957 -0.011906128 -0.019400863 -0.014755651 -0.008021194 -0.10316322 0.02777318
-0.06508028 -0.011863797 0.007196136 0.0076198643 -0.02705483 0.03545713 -0.09441505 -0.02359203
00000000: cd64 74bd 0db9 c03c 9754 853d d40d 23bc
00000010: d8d6 b5bb ca9e 71bc b7dd a1bc 24c7 91bc
00000020: 0eea ccbd ca7d 44bd 6ac5 50bd 5259 e33d
00000030: b264 51bd 7779 d3ba 5264 ea3c 6ab6 c339
00000040: ace0 f7bc 3c9e f1bc a231 0e3d fb34 1abd
00000050: 5876 0fbe e09f 83bc 9bcb e0bc df7e 9ebc
00000060: 958e 2bbd cd6a 34bd 19da 4bbc 0008 bfba
00000070: 2a4a c73b ec21 18bd 6d32 443d d539 9abc
00000080: f3c6 d5bc 8afa 29bd 1647 b2bc e568 6cbd
00000090: 136c 153d b01c 19bd 6a8f 13bd 3842 93bd
000000a0: 6f6f 8e3d 596f 89bc 3457 24bd f7fb 80bc
000000b0: 386f 6e3b 3595 ee3b e98d a23c 393f f6bc
000000c0: 89a7 fabc 9d02 733c 2c30 c0bd bed9 a6bc
000000d0: 9636 35bd 0c0d c9bd 385c 4437 0f59 34bd
000000e0: c17b 1c3b 405e 43bd c606 a6bc 16aa 443d
000000f0: 76ef d8bd 04a3 a1bc 80b3 a9bd 6a9a 0a3d
00000100: 3dea 79bc 334a 51bd d276 0fbd 312e a5bc
00000110: 35e9 99bd 8135 41bd 51b6 d5bc c551 70bd
00000120: 5e4a 26bd 0881 2ebd 2714 9dbd 2749 0fbd
00000130: fd9e 8abd 1d26 9c3c 8d0b f33d 2d38 2fbd
00000140: 9a00 84bd 6966 04bd 291d 82bd 7dd7 463b
00000150: 582a a1bd 70a9 da3c 98e8 ebbc 5405 f4bc
00000160: adb7 d3bc 0ef3 973c fa92 51bd 84f3 8bbc
00000170: 292c c0bd 6c77 42bd ddf9 69bd dcb5 7a3d
00000180: 7669 213d 1869 89bd e6da c5bb 73e1 b6bd
00000190: f892 2abd 9075 97bc b3a5 8abc 7770 37bc
000001a0: 6363 2cbd d537 8ebd 22b4 2dbd a739 29bd
000001b0: f024 46bc 8f73 0f3d 6ee8 70bd 30b8 8abc
000001c0: 9f7e 99ba dd60 c23b ec11 43bc 8fee 9ebc
000001d0: b0c1 71bc 536b 03bc 3d47 d3bd 9484 e33c
000001e0: cf48 85bd 5f60 42bc 90cd eb3b 0eb0 f93b
000001f0: 17a2 ddbc 7f3b 113d ae5c c1bd 1344 c1bc

network_body.linear_encoder.seq_layers.2.weight f4 [128, 128]
-0.1627089 0.08195584 0.025189223 -0.0027735592 -0.09961551 -0.10359953 -0.09967784 0.06349153
0.109495744 -0.11793355 0.036426216 -0.0448286 0.05768436 0.020957936 -0.023854753 0.09056887
-0.121558025 0.0010586359 -0.02603234 -0.0714444 -0.063426524 0.0659462 0.030197198 0.05648961
-0.23038326 -0.11160142 0.09531028 -0.034860764 -0.038428992 -0.030887337 0.02139417 -0.1021732
0.032753848 -0.212017 -0.0828223 0.008689116 -0.06911441 -0.06674155 -0.21847221 -0.14826824
-0.019824365 -0.1679609 0.087792665 0.0010913191 0.05729567 -0.030751344 0.054778267 -0.024811838
-0.055846743 -0.035229217 0.0070497994 -0.003403055 -0.07560656 0.0076469462 0.032180134 -0.17721967
-0.067751534 -0.020353204 -0.13831413 -0.018709661 -0.0004543122 -0.049201492 -0.008296982 0.052972868
-0.120737724 -0.037777133 -0.008900607 0.2035127 -0.11976469 -0.06009817 -0.10091976 0.0012633641
0.016143952 0.10935797 -0.075670525 -0.049263254 0.0069849426 -0.089088306 0.14064117 0.00080167607
0.040376954 -0.027121626 -0.09557225 0.11352048 -0.051821295 0.0047698403 0.034722276 -0.14941041
-0.094371684 -0.08100315 0.035593763 0.049295403 0.082156695 -0.059323285 0.09524026 -0.046672236
-0.0041739354 -0.0061748135 0.13218547 0.01507371 -0.101020016 -0.05138016 0.06449007 0.0778263
-0.09753998 -0.16677472 0.0039393306 -0.15155998 0.0049308646 -0.09071255 -0.047317427 -0.11086097
0.012928887 0.10312134 0.0599082 -0.07933073 -0.14676599 -0.067951 -0.11100582 -0.13379748
0.071296304 -0.12648164 0.07841586 0.037702344 -0.05038461 -0.048668317 -0.009424652 -0.08989788
0.099206306 0.021434223 0.0652882 -0.11606379 -0.06832739 0.16669162 -0.20553991 -0.14382073
-0.06370487 -0.028685758 -0.059429504 -0.18240446 -0.04432776 -0.12409287 -0.17427061 -0.07925281
-0.03577592 -0.10114355 -0.23586933 -0.02876155 0.013141506 -0.06477349 -0.27319005 0.0149655985
0.0349135 -0.11627196 -0.30118227 0.05719782 0.19173482 -0.046362862 -0.21054663 0.030960318
-0.23573996 0.04040801 0.14610165 -0.054067954 -0.063750066 -0.10884335 -0.062499467 -0.0409087
-0.0413872 -0.1791569 0.17834364 -0.007452217 -0.09476257 -0.1617804 0.0029055183 0.035187103
0.022455286 -0.13074866 -0.18621086 0.027774371 0.04751644 -0.09329446 -0.08835476 -0.11281109
-0.054898147 -0.09481041 0.07581595 0.015281852 -0.017004902 -0.15137763 0.1515497 -0.21375456
0.12652583 0.04442979 0.0639518 -0.15746847 -0.1781168 0.009889142 -0.061620522 0.14095919
-0.13951498 -0.020034382 0.22839932 -0.0018659473 -0.12199949 -0.09237672 -0.04042629 -0.053691804
-0.05153574 -0.033569153 -0.008530823 -0.08349943 -0.010309194 -0.0534071 -0.10921297 -0.19114548
-0.033679333 0.19966087 -0.12752874 -0.06938712 -0.19434068 -0.3178668 0.0519961 0.045208316
-0.21947488 -0.06782947 -0.15745787 -0.1331428 -0.02845124 -0.026323056 -0.035554126 0.14230426
0.016242238 0.17480232 -0.19220033 -0.3118324 0.035769206 -0.17751649 -0.10994444 -0.057198353
0.2185499 -0.12706906 0.09994554 -0.03399093 -0.17209493 -0.059113353 0.01093115 -0.059176918
0.08826838 0.020029543 -0.019418076 -0.011477941 -0.1499462 -0.11447289 -0.106793486 -0.0149354115
00000000: 299d 26be 77d8 a73d a159 ce3c 9ac4 35bb
00000010: 3703 ccbd fe2b d4bd e523 ccbd d907 823d
00000020: 4e3f e03d 2587 f1bd a833 153d 329e 37bd
00000030: 6f46 6c3d faaf ab3c 0b6b c3bc 2c7c b93d
00000040: 6af3 f8bd edc1 8a3a c641 d5bc 7151 92bd
00000050: c4e5 81bd cd0e 873d 1d60 f73c a661 673d
00000060: 97e9 6bbe 498f e4bd 0932 c33d 29ca 0ebd
00000070: b867 1dbd 7107 fdbc d442 af3c 2f40 d1bd
00000080: e628 063d fc1a 59be bd9e a9bd cb5c 0e3c
00000090: db8b 8dbd cbaf 88bd 2eb7 5fbe a1d3 17be
000000a0: b566 a2bc f1fd 2bbe a4cc b33d 980a 8f3a
000000b0: ddae 6a3d 3eea fbbc 2d5f 603d 3242 cbbc
000000c0: 8ebf 64bd 834c 10bd 0102 e73b ca05 5fbb
000000d0: 9dd7 9abd 3c93 fa3b 51cf 033d 1379 35be
000000e0: 51c1 8abd c3bb a6bc 38a2 0dbe 0145 99bc
000000f0: c030 eeb9 8187 49bd 11f0 07bc 14fa 583d
00000100: 5745 f7bd 32bc 1abd dad3 11bc a265 503e
00000110: 3147 f5bd 8029 76bd 05af cebd 7797 a53a
00000120: 5240 843c 12f7 df3d 26f9 9abd 44c8 49bd
00000130: f2e1 e43b ee73 b6bd 3d04 103e 9227 523a
00000140: 4e62 253d 2c2e debc 62bb c3bd 6d7d e83d
00000150: 9142 54bd 524c 9c3b f238 0e3d 0bff 18be
00000160: f145 c1bd fbe4 a5bd c4ca 113d fae9 493d
00000170: c541 a83d f9fc 72bd 530d c33d 632b 3fbd
00000180: 82c5 88bb 1756 cabb a15b 073e b9f7 763c
00000190: 95e3 cebd 0174 52bd 5f13 843d 6563 9f3d
000001a0: 0bc3 c7bd fec6 2abe 8015 813b 8a32 1bbe
000001b0: 1793 a13b 80c7 b9bd ebcf 41bd 140b e3bd
000001c0: afd3 533c 4831 d33d 4d62 753d 2678 a2bd
000001d0: d349 16be e529 8bbd 0557 e3bd 3502 09be
000001e0: cc03 923d 6784 01be 7f98 a03d c66d 1a3d
000001f0: 1860 4ebd 6e58 47bd db69 1abc 611c b8bd
00000200: ad2c cb3d d396 af3c d2b5 853d dab2 edbd
00000210: 3bef 8bbd 35b1 2a3e 0e79 52be be45 13be
00000220: b377 82bd 65fe eabc 5a6c 73bd 3cc8 3abe
00000230: 0691 35bd 6724 febd ff73 32be 4c4f a2bd
00000240: c589 12bd 5924 cfbd bb87 71be 589d ebbc
00000250: 794f 573c f7a7 84bd 91df 8bbe 4532 753c
00000260: 7501 0f3d fe1f eebd 9034 9abe 4348 6a3d
00000270: 2256 443e fce6 3dbd 8999 57be 7ea0 fd3c
00000280: d165 71be df82 253d ac9b 153e 5c76 5dbd
00000290: 658f 82bd 43e9 debd 71ff 7fbd e28f 27bd
000002a0: a085 29bd e874 37be b79f 363e ba31 f4bb
000002b0: e112 c2bd c3a9 25be 826a 3e3b 5a20 103d
000002c0: 26f4 b73c fae2 05be 0fae 3ebe 1487 e33c
000002d0: 99a0 423d 2a11 bfbd 57f3 b4bd 8009 e7bd
000002e0: e1dc 60bd f62b c2bd 6545 9b3d bc60 7a3c
000002f0: dd4d 8bbc bd02 1bbe d82f 1b3e 7ae2 5abe
00000300: fd8f 013e 03fc 353d 29f9 823d 6a3f 21be
00000310: 4064 36be 1106 223c cd65 7cbd 9b57 103e
00000320: 04dd 0ebe 251f a4bc 83e1 693e cd92 f4ba
00000330: deda f9bd 0130 bdbd 0a96 25bd f0eb 5bbd
00000340: 2417 53bd cf7f 09bd ddc4 0bbc c001 abbd
00000350: e5e7 28bc 67c1 5abd 0dab dfbd a4bb 43be
00000360: 57f3 09bd e673 4c3e e596 02be d61a 8ebd
00000370: 3e01 47be 70bf a2be ddf9 543d 5b2c 393d
00000380: 06be 60be 2dea 8abd a33c 21be 9656 08be
00000390: 9312 e9bc 73a3 d7bc 34a1 11bd 35b8 113e
000003a0: 710e 853c 61ff 323e 2ad0 44be 7fa8 9fbe
000003b0: bb82 123d e2c6 35be 8d2a e1bd d248 6abd
000003c0: 8ccb 5f3e 641e 02be 3fb0 cc3d 133a 0bbd
000003d0: a739 30be d820 72bd 9118 333c 7f63 72bd
000003e0: 0dc6 b43d ff14 a43c a812 9fbc f90d 3cbc
000003f0: 7f8b 19be c370 eabd 8bb6 dabd a8b3 74bc
