Oversteek Simulator/Learning/results/Oversteek-K-01/Player.onnx (onnx, 151540 bytes, 8 tensors)

action_model._discrete_distribution.branches.0.bias f4 [2]
0	0x3a4de22b	0.0007853831
1	0xba4de1eb	-0.0007853794

action_model._discrete_distribution.branches.0.weight f4 [2, 128]
0	0xbba44718	-0.005013358
1	0x3cbbb916	0.022915404
2	0xbc48ad78	-0.012248389
3	0x3c184d9a	0.009295845
4	0xbcbf1819	-0.02332692
5	0x3c21159b	0.009831811
6	0x3c0c8fcf	0.0085792085
7	0x3b8e29c4	0.004338475
8	0x3bd1a2d9	0.006397587
9	0xba61cd7e	-0.00086136896
10	0xba1f25ad	-0.0006070983
11	0x3c15167b	0.009099598
12	0xbb834d07	-0.004006985
13	0x3bacdd84	0.00527543
14	0xbc7ce35d	-0.015435067
15	0x3b6916e8	0.0035566632
16	0x3b94df4e	0.0045432216
17	0xbc25e8e0	-0.0101263225
18	0xbbd0c504	-0.0063711423
19	0x393f083e	0.0001821825
20	0xbb3f64bd	-0.0029204332
21	0x3c2bbb48	0.010481663
22	0x3b26ddfd	0.0025461905
23	0xbc6242f5	-0.013809909
24	0xbcbc969a	-0.023021031
25	0xbcb965ac	-0.022631489
26	0xbc7e01ee	-0.01550339
27	0xbbaa2bdb	-0.0051932163
28	0xbb1b3638	-0.002368344
29	0xbc90c992	-0.017674241
30	0xbc633d5c	-0.01386961
31	0x3c136534	0.008996297
32	0xbbf1d342	-0.00737992
33	0x3ca653fd	0.02030372
34	0xbc8ef69f	-0.017451582
35	0x3c82b916	0.015957396
36	0xbbd5d84d	-0.006526029
37	0xbc3ce1ff	-0.011528491
38	0x3c8954ca	0.016764063
39	0xbb8e45ce	-0.0043418175
40	0xbc019b53	-0.007910567
41	0xbbab849f	-0.0052343155
42	0x3c038134	0.00802641
43	0x3a038670	0.0005017286
44	0xbcae9c37	-0.021314723
45	0x3be3a62a	0.0069472985
46	0xbbfd9257	-0.0077383923
47	0xbafd34d3	-0.0019318111
48	0x3a999526	0.0011717423
49	0xbb94fee0	-0.004546985
50	0x3b8b82c7	0.0042575332
51	0xbbc705c8	-0.006073687
52	0xbab447d9	-0.0013754322
53	0x3c81b98a	0.015835542
54	0xbb9156ed	-0.004435411
55	0x3c9d8776	0.019229632
56	0xbaa47aaa	-0.0012548764
57	0x3c4da88e	0.012552394
58	0x3aa11d68	0.0012292089
59	0x3c964060	0.018341243
60	0xbb93bb27	-0.0045083943
61	0x3b54968a	0.003243836
62	0xbbce53b0	-0.0062965974
63	0xbc46f246	-0.012142723
64	0x3c5611fd	0.013065812
65	0x39df03d2	0.0004253672
66	0xbc978367	-0.018495275
67	0x3cac0b4b	0.021001479
68	0xbc9771fa	-0.018486965
69	0xbc506f06	-0.012721783
70	0xbbc56b13	-0.006024727
71	0xbb5310da	-0.003220609
72	0xbbf66163	-0.0075189336
73	0x3ca2f2ab	0.019891104
74	0xbc8f8b6f	-0.017522542
75	0x3c7078f4	0.014677275
76	0x3c50ddd0	0.012748197
77	0xbc10d745	-0.008840387
78	0x3c9f952f	0.019480316
79	0xbbf3362c	-0.0074222293
80	0xbbde3a32	-0.0067818398
81	0xb9e34cb0	-0.0004335395
82	0xbbdb51aa	-0.0066930847
83	0xbacccf88	-0.0015625814
84	0xbc863446	-0.016382348
85	0x3bde364b	0.0067813746
86	0xbbfb3426	-0.0076661287
87	0xbc7bdbc8	-0.015372224
88	0xbc819aa1	-0.015820803
89	0xbb7e6c2d	-0.0038821802
90	0x3b9b7561	0.0047442173
91	0x3c1c1609	0.009526738
92	0x3afe119f	0.0019383914
93	0x3c32df40	0.010917485
94	0xbbbe1d1a	-0.005801809
95	0x3bc01e59	0.0058629927
96	0x3cd39b68	0.02583094
97	0x3c962653	0.018328821
98	0xbc41ccb2	-0.011828588
99	0x3c1a4b51	0.009417371
100	0xbb33599c	-0.0027366644
101	0x3a73aaf5	0.0009295189
102	0x3c625a4d	0.013815475
103	0xbbdcee9d	-0.006742312
104	0xbc307a26	-0.01077131
105	0xbc958269	-0.018250661
106	0xbca5f106	-0.02025653
107	0x3b6e06de	0.003632001
108	0x3c08205c	0.008308496
109	0xbb67f3a0	-0.0035393015
110	0xbb8e9b9b	-0.0043520457
111	0xb9e3c42c	-0.00043442973
112	0xba38d76e	-0.00070511445
113	0xbbb1e9c5	-0.005429479
114	0xbc3dec98	-0.011592053
115	0x3c5fb726	0.013654506
116	0x3bd9fbe4	0.006652342
117	0xbb73051d	-0.0037081905
118	0xba987a13	-0.0011633061
119	0xbc65baf1	-0.014021621
120	0x3c3a001f	0.011352568
121	0x3b58d450	0.0033085532
122	0xbb721709	-0.003694
123	0xbc5c0f32	-0.013431357
124	0x3c50b3ae	0.0127381515
125	0x3c7851d1	0.015156225
126	0xb8cbbd9e	-9.715113e-05
127	0x3adfa18e	0.0017061697
128	0xbc1a102f	-0.0094032725
129	0xbb43e76f	-0.0029892584
130	0x3b9c7842	0.004775078
131	0x3c8fbca4	0.017546006
132	0x3c4edd3a	0.012625987
133	0x3ac96dec	0.0015367842
134	0xbb80075e	-0.0039071282
135	0x3c0aba1e	0.008467225
136	0x3bb5e77a	0.005551276
137	0xbc1cd16e	-0.009571416
138	0xbc6b6545	-0.014367406
139	0xbca57c92	-0.020201001
140	0x3c8012fa	0.015634049
141	0x3bfe157a	0.007754025
142	0x3ba67e1e	0.0050809523
143	0xbad702c3	-0.0016404021
144	0x3c33607f	0.010948299
145	0x3c58f844	0.013242785
146	0xbc3aaea3	-0.011394176
147	0xbb43e123	-0.002988883
148	0xbbb66c02	-0.0055670748
149	0xbca41e5c	-0.020034008
150	0x3bc8d7d0	0.0061292425
151	0x3ca51b85	0.020154724
152	0x3caa67c4	0.020801432
153	0x3c60d9cc	0.013723802
154	0x3c995e41	0.018721702
155	0xbc0b39e0	-0.008497685
156	0xbb474c87	-0.0030410604
157	0xbab22c9a	-0.0013593615
158	0xb8f75f81	-0.00011795667
159	0xbbebbdf8	-0.007194277
160	0xbb250749	-0.0025181344
161	0xbc1c6b0c	-0.009547006
162	0x3c932a44	0.01796449
163	0xbc4d138e	-0.012516869
164	0xbc11a195	-0.008888622
165	0xbb353b19	-0.0027653633
166	0xbba0ed65	-0.004911112
167	0x38de578b	0.00010602091
168	0xbc104cfb	-0.008807416
169	0x3bfc4b6c	0.0076994207
170	0xbc05d46c	-0.008168321
171	0x3c38039f	0.011231332
172	0x3cf7ba88	0.030240312
173	0x3ad9abc4	0.0016606976
174	0x3b1086ea	0.0022053071
175	0xbc74bef1	-0.014938102
176	0xbb45e5ab	-0.0030196707
177	0xb90a2f3b	-0.000131783
178	0x3c2a125f	0.010380357
179	0xbc7d71e3	-0.015469047
180	0xbc0b7da0	-0.008513838
181	0xbbd5a734	-0.0065201763
182	0x3b3d1b07	0.002885522
183	0x3c7c45a7	0.015397466
184	0xbc1ec05a	-0.009689415
185	0xbc632549	-0.01386387
186	0x3c160a94	0.009157795
187	0xbc1ef230	-0.009701297
188	0xbc01bd5f	-0.007918685
189	0x3c15b02a	0.009136239
190	0xb92a3cfe	-0.00016235185
191	0x3c8a7168	0.01689978
192	0xbc1447fc	-0.009050366
193	0x3c0b634e	0.008507563
194	0x3c40dbe1	0.011771173
195	0xbbcda8e0	-0.006276235
196	0x3c9c1945	0.019055018
197	0x3ce22fc8	0.027610675
198	0x3a243e58	0.00062653935
199	0x3c55bb7a	0.013045186
200	0x3c631fdb	0.013862575
201	0xba72f5c8	-0.00092681916
202	0xbc0a961a	-0.008458639
203	0xbcf117d8	-0.029430315
204	0xba6eeee6	-0.0009114578
205	0x3c5db59e	0.01353207
206	0xbc87c1ef	-0.016571967
207	0x3cc45ffe	0.023971554
208	0xbb58707d	-0.0033026033
209	0x3c800dab	0.015631517
210	0x3c6cd2ac	0.014454525
211	0xbb0c3068	-0.0021391157
212	0x3cad9817	0.021190686
213	0xbc3f4563	-0.011674258
214	0x3c41d16c	0.011829715
215	0x3b90a64a	0.0044143545
216	0x3c1fa158	0.009743057
217	0x3cb99651	0.022654684
218	0xbc4d6c59	-0.012538039
219	0xb9104242	-0.00013757593
220	0xbad932ef	-0.0016570966
221	0xbc34cfb6	-0.01103585
222	0x3c426ab5	0.011866261
223	0x3b447c8c	0.0029981462
224	0xbb45fe53	-0.0030211404
225	0xbc881ce8	-0.016615346
226	0x3bd9dedc	0.0066488814
227	0x3c0c6ec9	0.008571335
228	0xbc0b8395	-0.008515258
229	0x3607c5b8	2.0231655e-06
230	0xbc031108	-0.007999666
231	0x3be1f59e	0.006895735
232	0x3c01fbe9	0.007933595
233	0xbba081fb	-0.0048983074
234	0xbc162813	-0.009164828
235	0xbc76ee5e	-0.01507148
236	0x3b6fb453	0.0036575987
237	0x3c566614	0.013085861
238	0xbc048d67	-0.008090354
239	0x3bc284a5	0.0059362226
240	0xbc1928ef	-0.009348138
241	0xbbfe4e7a	-0.00776082
242	0x3bd22f86	0.0064143566
243	0xbbe2b386	-0.0069183735
244	0xbc2e827d	-0.010651228
245	0x3c409a22	0.011755498
246	0x3cc66dff	0.024222372
247	0x3bed1469	0.007235099
248	0xb972a9e7	-0.00023142212
249	0x3c8c1ea4	0.017104454
250	0xbc47b662	-0.01218948
251	0x3bb15eef	0.0054129283
252	0xbc724c48	-0.014788695
253	0xbc0c2324	-0.0085533
254	0xbba2ef28	-0.0049723573
255	0xbadc2447	-0.001679548

action_model._discrete_distribution.branches.1.bias f4 [2]
0	0xbbe2a731	-0.0069169034
1	0x3be2a73c	0.0069169085

action_model._discrete_distribution.branches.1.weight f4 [2, 128]
0	0x3b0870a1	0.0020819085
1	0xbcb6a61d	-0.022296006
2	0x3ad9ec50	0.0016626213
3	0xbc78f494	-0.015195031
4	0x3b974c83	0.004617275
5	0xbcb7970f	-0.022410898
6	0xbb215608	-0.002461793
7	0x3c624c67	0.013812161
8	0x3c962101	0.018326284
9	0x3b91c3dc	0.004448397
10	0x3c98018a	0.018555421
11	0xbc893ee1	-0.016753616
12	0x3ce29a9a	0.02766161
13	0xbcbea982	-0.023274187
14	0x3be5d320	0.0070136935
15	0x3c034706	0.008012539
16	0x3c053268	0.008129694
17	0xbba41137	-0.005006935
18	0x3c1065c0	0.008813322
19	0x38cc5aa1	9.744359e-05
20	0x3d02c998	0.031930536
21	0xbc679d28	-0.01413659
22	0x3c1ee389	0.009697803
23	0x3c942912	0.01808599
24	0x3c8ae0d8	0.016952917
25	0xbc752514	-0.014962453
26	0xbd00354e	-0.031300835
27	0xbad61c32	-0.0016335307
28	0xbbad12ab	-0.0052817664
29	0x3c4f682e	0.012659116
30	0x3baa1f4a	0.005191718
31	0xbb03fc20	-0.0020139292
32	0xbbbe8f38	-0.005815413
33	0xbb8c4584	-0.004280748
34	0xbb5bf569	-0.0033563024
35	0xbc588c59	-0.013217055
36	0xbc4d1709	-0.012517699
37	0x3bd21283	0.006410898
38	0x3c8396cd	0.016063118
39	0x3c21d30e	0.0098769795
40	0x3bdfaffe	0.0068264
41	0xbb741320	-0.0037242845
42	0x3bd882bb	0.006607381
43	0x3d128960	0.035775542
44	0x3b5525b9	0.0032523705
45	0x3a8df840	0.001083143
46	0xbce418db	-0.027843883
47	0xbc57a945	-0.013162916
48	0xbc59a84a	-0.013284752
49	0x3cc241d3	0.023713028
50	0xbd1e384d	-0.03862791
51	0x3bc0ddf5	0.0058858343
52	0xbc7a63ed	-0.015282613
53	0xbbfa6942	-0.0076419422
54	0xbca7406d	-0.020416463
55	0x3ce4ecc0	0.027944922
56	0x38b831a8	8.783053e-05
57	0x3c75b191	0.014995948
58	0xbbd674b4	-0.006544674
59	0xbc8215d3	-0.015879547
60	0xbb454fb5	-0.0030107324
61	0x3aab3a2a	0.0013063599
62	0xbc6a46d8	-0.014299117
63	0xbcac701b	-0.02104955
64	0x3c44376d	0.011976105
65	0x3c616650	0.013757303
66	0xbc11d483	-0.008900764
67	0x3c3f6eb6	0.01168411
68	0x3befb53c	0.007315306
69	0xbcb9d539	-0.02268468
70	0xbcd3b157	-0.025841398
71	0xbc07b4e7	-0.008282877
72	0x39aa133b	0.00032439255
73	0x3ba84617	0.0051353085
74	0x3c4fb236	0.012676766
75	0xbc2e861f	-0.010652094
76	0x3c7334f8	0.014844172
77	0x3b81fb12	0.0039666975
78	0x3c9a45ea	0.018832166
79	0xbcfd83b0	-0.030946583
80	0x3c39a3df	0.011330574
81	0x3c4fb4e3	0.012677404
82	0xbb879c4c	-0.004138505
83	0xbb8d0472	-0.0043035084
84	0xb991fb73	-0.000278439
85	0xbc26d53a	-0.010182673
86	0x3cdddb93	0.02708224
87	0x3c401dc4	0.011725847
88	0xbc969688	-0.018382326
89	0xbb69ca70	-0.003567364
90	0x3b8d46ba	0.00431141
91	0xbae57c2e	-0.0017508322
92	0x39815f54	0.00024675822
93	0xbb223ba3	-0.0024754785
94	0xbbfb888b	-0.0076761893
95	0xbca74ccc	-0.020422362
96	0xbc755de0	-0.014975995
97	0xbb64d503	-0.0034917004
98	0x3aae1797	0.0013282177
99	0x3ae25394	0.001726734
100	0xbd11240b	-0.035434764
101	0xbb036a44	-0.0020052353
102	0xbc82bbb3	-0.015958643
103	0xbbdecc84	-0.0067992825
104	0x3cb5087a	0.022098769
105	0x3a54fc93	0.00081247947
106	0x3c2a92d9	0.010410988
107	0x3c7d7290	0.015469208
108	0x3b8ee63f	0.0043609436
109	0x3b9e5d58	0.004832905
110	0xbc9eea76	-0.019398909
111	0xbc52ff68	-0.012878276
112	0xbc971bb4	-0.018445827
113	0x3bb793cc	0.0056023356
114	0x3cfd5be7	0.030927612
115	0xba84e1ba	-0.0010138073
116	0xbc34d329	-0.011036673
117	0xbd0cf365	-0.034411807
118	0xb99973ba	-0.00029268657
119	0xbaf29ed4	-0.0018510469
120	0xbbe51135	-0.0069905766
121	0xbb50e86b	-0.0031876813
122	0xbc131c30	-0.008978888
123	0xbd17693b	-0.03696559
124	0x3caf00d8	0.021362707
125	0xbca2b997	-0.019863887
126	0x3bf3cb3c	0.007439999
127	0x3ce27bf9	0.027647005
128	0xbbe82f2e	-0.0070857024
129	0x3ce74bb9	0.02823435
130	0xbbd81cad	-0.0065952153
131	0x3c3e8405	0.011628156
132	0xbb6029ad	-0.0034204528
133	0xbab93a33	-0.0014131725
134	0xbbdc7f52	-0.006729045
135	0xbbc8fd5f	-0.00613372
136	0xba437a71	-0.0007456905
137	0x3b58f8c3	0.0033107258
138	0xbb9de50a	-0.0048185633
139	0x3c7d6210	0.015465274
140	0xbc8c1fdb	-0.017105034
141	0x3ca59311	0.020211728
142	0xbae78c18	-0.0017665653
143	0xbc3a17f1	-0.011358247
144	0xbc8bb7cd	-0.017055416
145	0x3c757762	0.014982076
146	0xbc5ac304	-0.013352159
147	0x3a696d85	0.00089045643
148	0xbc861005	-0.01636506
149	0xba0fa6ac	-0.0005479853
150	0xbc49bd32	-0.012313174
151	0xbcaf6320	-0.021409571
152	0xbce9c815	-0.02853779
153	0x3d0a7b57	0.033809032
154	0x3b8ba2bd	0.0042613433
155	0xbbcad748	-0.0061902143
156	0xbbdd1c6a	-0.006747772
157	0xbcb69bf0	-0.022291154
158	0xbc41a0c8	-0.011818118
159	0x3c17596e	0.00923763
160	0xbc0ee959	-0.008722627
161	0x3b9bbc35	0.0047526606
162	0x3ab5d26a	0.0013871912
163	0x3c4ef7d4	0.012632329
164	0x3c198b67	0.009371615
165	0xbc2b7d95	-0.010466953
166	0xbc713335	-0.014721681
167	0x3bb68c8a	0.005570953
168	0xbc77d990	-0.015127555
169	0xbc2f6f8e	-0.010707749
170	0x3c1d863f	0.009614526
171	0xbbe8a226	-0.0070994077
172	0x3bbec08d	0.0058212937
173	0xbb7d35ca	-0.0038636797
174	0x3d152ad8	0.036417812
175	0xba7231c5	-0.00092389836
176	0xbc09261c	-0.008370902
177	0xbcbfef76	-0.023429614
178	0x3d0448a3	0.032295834
179	0xbc5f314b	-0.013622592
180	0xbb6511aa	-0.0034953156
181	0x3b95d685	0.004572692
182	0x3c86354e	0.01638284
183	0xbcc134cd	-0.023584748
184	0x3b44164e	0.0029920521
185	0xbce44515	-0.027864972
186	0x3aef9e46	0.0018281422
187	0x3c5698ca	0.013097951
188	0x3c56dd97	0.013114355
189	0xbc02bfd5	-0.007980307
190	0x3b9e2552	0.0048262263
191	0x3c9a3084	0.018821962
192	0xbbc433b6	-0.0059876097
193	0x3a7c8f77	0.0009634415
194	0xbc1f1f65	-0.009712075
195	0xbc8a5a40	-0.016888738
196	0x3b699e93	0.0035647496
197	0x3d0e15dd	0.03468882
198	0x3cbe263e	0.023211595
199	0xbcc8ca19	-0.02451043
200	0xbbeae060	-0.007167861
201	0xbc1272b4	-0.00893848
202	0x3c3a7f45	0.0113828825
203	0x3b8f778f	0.004378266
204	0xbc81826a	-0.015809257
205	0xbb286669	-0.0025695807
206	0xbc92feea	-0.017943818
207	0x3c425731	0.011861608
208	0xbcbfc67d	-0.023410076
209	0xbbdb3bde	-0.0066904863
210	0x3ba1eaa2	0.0049413005
211	0xbc924a23	-0.017857617
212	0xbcafa326	-0.0214401
213	0x3bccec5a	0.0062537612
214	0xbc639ac9	-0.013891884
215	0xbc9bcc23	-0.019018238
216	0xbc088462	-0.008332344
217	0x3c1d4341	0.009598554
218	0xbc83a5f5	-0.016070345
219	0x3b5c11fb	0.0033580053
220	0x3b627539	0.0034554733
221	0x3c53fe52	0.012939053
222	0x3d00cc5c	0.031444892
223	0x3c9ede6e	0.019393172
224	0x3b7c1860	0.0038466677
225	0x3cbf4754	0.023349442
226	0xbc3dfa36	-0.0115952995
227	0xbbbc3407	-0.005743507
228	0x3c7c0bd6	0.015383681
229	0xbc6f4260	-0.014603227
230	0x3c450249	0.012024471
231	0x3c001373	0.007817137
232	0xbced4cf1	-0.028967353
233	0xbc0dff0a	-0.008666763
234	0xbcb0acc7	-0.021566762
235	0xbc72c54b	-0.014817546
236	0xbc9bad81	-0.019003632
237	0xbb8d82e3	-0.0043185814
238	0x3c8b83bc	0.01703059
239	0x3cbeec96	0.023306172
240	0xbb02cb98	-0.0019957777
241	0x3c355957	0.011068664
242	0xbc3498d5	-0.011022766
243	0x3b604072	0.00342181
244	0x3c997de0	0.01873678
245	0xba8e2529	-0.0010844815
246	0xbb34271b	-0.002748913
247	0x3cd32194	0.025772847
248	0x3c8917b9	0.016734945
249	0x3986b9e1	0.00025696962
250	0x3c880a3c	0.016606443
251	0x3cbe99c8	0.023266688
252	0xbbaf861a	-0.0053565623
253	0x3bf996c3	0.007616849
254	0xbc7b3923	-0.015333447
255	0xbd0ffc37	-0.03515264

network_body.linear_encoder.seq_layers.0.bias f4 [128]
0	0xbc5d5d61	-0.013511033
1	0xbc32b21a	-0.0109067205
2	0xbc608def	-0.013705715
3	0x3c0d387e	0.008619426
4	0xbb542dcf	-0.0032375937
5	0xbbbb4319	-0.005714786
6	0x3b8dab88	0.0043234266
7	0xbc2a319d	-0.010387805
8	0x3ca6984c	0.020336293
9	0xbb8ce939	-0.0043002632
10	0xbbc7a952	-0.0060931826
11	0x3ba3f28d	0.0050032795
12	0x3c066f03	0.008205178
13	0xbc5586ea	-0.013032654
14	0x3c8282f3	0.015931582
15	0x3b3b9f32	0.0028628823
16	0xbb706285	-0.0036679816
17	0x3bc69266	0.0060599325
18	0xbb117c04	-0.0022199163
19	0x3ab545df	0.0013830027
20	0xbbd86a19	-0.0066044447
21	0xbbb44d11	-0.005502351
22	0x3c3e691d	0.011621741
23	0xbc32945c	-0.010899629
24	0xbc75159d	-0.014958766
25	0x3c1be8b8	0.009515934
26	0x3c81ef01	0.015861036
27	0x3a81ebae	0.0009912157
28	0x3aa39c2a	0.0012482454
29	0xbbd5c607	-0.006523851
30	0x3b61e887	0.0034470872
31	0x3bd1316b	0.006384065
32	0x3b882eeb	0.0041559837
33	0x3c91db41	0.017804744
34	0x3caee6d0	0.021350294
35	0x3b1859d9	0.0023246913
36	0xbc7fa7fd	-0.015604016
37	0xbcaa533c	-0.020791642
38	0xbb7a86b1	-0.0038227255
39	0xbc744139	-0.014908128
40	0x3a11bcae	0.00055594265
41	0xbbaf281a	-0.0053453567
42	0xbb9aaba9	-0.0047201705
43	0x39c92d21	0.0003837133
44	0x3b8ef70f	0.004362948
45	0x3cccfc0e	0.025022533
46	0x3ba2bece	0.0049665933
47	0xbc8f77dc	-0.017513208
48	0xbbfb2539	-0.0076643494
49	0xbb01df8d	-0.0019817085
50	0xbc68cb20	-0.014208585
51	0x3b85358e	0.004065222
52	0xbc0f2b42	-0.008738341
53	0xbbd1b4ad	-0.006399712
54	0x3ca100a3	0.019653624
55	0xbbc32f2d	-0.0059565515
56	0xbc1f0f23	-0.009708199
57	0xbc1cc6c9	-0.009568878
58	0xbc52e4dd	-0.012871948
59	0xbc423a1f	-0.011854677
60	0x3b675504	0.0035298476
61	0xbc995496	-0.018717092
62	0x3c53146f	0.01288329
63	0xbc347f56	-0.011016687
64	0xbc64a219	-0.013954663
65	0xbbbde600	-0.0057952404
66	0xbbb20ee2	-0.005433903
67	0xbc7bc197	-0.01536598
68	0xbbf7f0b1	-0.0075665344
69	0xbc393bc5	-0.011305754
70	0xbc15210d	-0.009102118
71	0xbc37bcae	-0.011214418
72	0xbcbf7869	-0.023372846
73	0x3c3f95ae	0.011693401
74	0xbbec564c	-0.007212436
75	0x3b868611	0.0041053374
76	0x3c4d42c9	0.01252813
77	0xbc3cb05d	-0.011516658
78	0xbc0575a8	-0.008145727
79	0xbb53c33c	-0.0032312414
80	0xbc21f7ca	-0.009885738
81	0x3c36816c	0.011139255
82	0xbbed5ef3	-0.007243985
83	0x3b91fa4e	0.0044548875
84	0x3a9285a6	0.0011178746
85	0xbc6de7d6	-0.014520606
86	0xbc8021b1	-0.015641065
87	0x3cb57957	0.022152586
88	0xbbada435	-0.005299116
89	0x3c1942e9	0.0093543315
90	0x3c9e8802	0.019351963
91	0xbc20f18a	-0.009823212
92	0xbc66c17a	-0.014084214
93	0x3ba3691b	0.004986895
94	0x3c86f1a6	0.016472649
95	0xbaca483a	-0.0015432902
96	0xbaa13e3d	-0.0012301874
97	0xbc8c44fc	-0.017122738
98	0x3af933b0	0.0019012596
99	0xbb9420f5	-0.0045205303
100	0x3ae723df	0.0017634592
101	0x3b4522fb	0.0030080664
102	0x3b7ca363	0.0038549535
103	0xbc24b814	-0.010053653
104	0x3c7a906a	0.01529322
105	0x3c124c00	0.008929253
106	0x3b4c3928	0.0031161997
107	0x399c9037	0.00029862087
108	0x3bc5b65f	0.006033703
109	0xbaac86ee	-0.0013162771
110	0xbbcd4ddb	-0.0062653846
111	0x3c1d6712	0.009607093
112	0xbc035815	-0.008016606
113	0xbc6c2fce	-0.014415694
114	0xbc1e23f6	-0.009652128
115	0xb8cf93c6	-9.898054e-05
116	0x3ca1d7a6	0.01975615
117	0xbc131347	-0.008976764
118	0x3bbaf032	0.005704903
119	0x3b71c58e	0.0036891433
120	0x3ca61036	0.020271402
121	0xbce2053a	-0.027590383
122	0x3b5f39bf	0.003406152
123	0x3c6be0d0	0.014396861
124	0xb8cb70d0	-9.700807e-05
125	0x3ac0e4f9	0.0014716677
126	0x3bdbe5e6	0.0067107556
127	0x3c25542a	0.010090867

network_body.linear_encoder.seq_layers.0.weight f4 [128, 156]
0	0x3e1b0206	0.1513749
1	0x3d025bea	0.031825937
2	0xbdce2511	-0.100656636
3	0xbc96ff31	-0.018432232
4	0xbe048ead	-0.12945051
5	0xba81ebda	-0.0009912208
6	0xbca9b500	-0.02071619
7	0xbcb4059b	-0.02197533
8	0x3cfc8930	0.030827135
9	0x3da3ec29	0.08004028
10	0x3d61a5f7	0.055089917
11	0xbe0c82ee	-0.1372182
12	0xbdfff8c3	-0.124986194
13	0x3d66c35a	0.056338646
14	0xbcf82296	-0.03028993
15	0x3d0d9bde	0.034572475
16	0xbdc7178d	-0.09721289
17	0x3d19c5d7	0.03754219
18	0x3d0c669a	0.034277536
19	0xbcce6f4f	-0.02519956
20	0x3bf739c6	0.007544729
21	0xbcc573f1	-0.024103137
22	0xbc96c971	-0.018406602
23	0x3e2585c6	0.16164312
24	0xbd39af8e	-0.045333438
25	0x3c882314	0.016618289
26	0x3d60edcf	0.054914292
27	0x3e05dfa5	0.13073595
28	0x3e2efb3a	0.17088023
29	0x3d8cae50	0.06869185
30	0x3da1dba4	0.07903221
31	0xbe1707b7	-0.14749037
32	0xbe53d70d	-0.20687504
33	0x3e195f1d	0.14977689
34	0x3d0c0871	0.034187738
35	0xbd6c3202	-0.05766488
36	0xbd005773	-0.031333398
37	0xbd829fdb	-0.06378146
38	0x3dbc14df	0.09183668
39	0x3c2409ce	0.010012103
40	0xbe318125	-0.17334421
41	0xbd9ef709	-0.07761962
42	0x3d76ec7b	0.06028412
43	0x3e29f344	0.16596705
44	0xbe5dd048	-0.21661484
45	0xbdda6458	-0.1066367
46	0xbc32266b	-0.010873417
47	0xbde96602	-0.113964096
48	0x3d92fd22	0.071771875
49	0x3ce265c8	0.027636424
50	0x3dc722c0	0.09723425
51	0x3ce996e2	0.02851433
52	0xbd798962	-0.060922034
53	0xbd179a27	-0.037012246
54	0xbe31a5fa	-0.17348471
55	0x3d852c35	0.065025724
56	0x3dda0770	0.1064595
57	0x3de80b4a	0.11330278
58	0x3ca1d23e	0.019753572
59	0xbd65383b	-0.05596183
60	0xbdb49984	-0.08818343
61	0xbd958128	-0.07300025
62	0xbd74d364	-0.05977191
63	0xbd26f475	-0.040760476
64	0xbdf40cd8	-0.11916512
65	0x3d2b81c2	0.041871794
66	0x3e40cb95	0.1882766
67	0x3ac5ad8f	0.0015081632
68	0x3d877fbc	0.0661616
69	0x3e050c54	0.12992984
70	0x3dd38ff6	0.10330193
71	0xbe030697	-0.12795483
72	0xbda52ef5	-0.08065597
73	0xbd91d495	-0.07120625
74	0x3d5ffea4	0.054686204
75	0xbd9bad3b	-0.076014005
76	0x3cc4df5f	0.024032293
77	0xbd6a0cb1	-0.05714101
78	0xbd5476cb	-0.051871102
79	0xbdbb201f	-0.09136986
80	0xbca65848	-0.020305768
81	0x3cfb20ea	0.030655343
82	0xbd1f1d13	-0.038846087
83	0xbcae1331	-0.021249386
84	0x3d38eb82	0.045146473
85	0xbdb5d28d	-0.0887805
86	0xbdb930f1	-0.09042538
87	0xbd334cce	-0.04377442
88	0xbd1f377b	-0.03887127
89	0x3c755a7d	0.014975187
90	0x3e147691	0.14498354
91	0xbd473013	-0.04862983
92	0xbe0bfe80	-0.13671303
93	0x3d96d3a2	0.073645845
94	0x3d8183fe	0.06324004
95	0x3c02b5ff	0.007977962
96	0xbc1e556f	-0.009663924
97	0x3bfc4ce7	0.007699597
98	0xbd96f705	-0.07371334
99	0x3cb2a572	0.021807406
100	0xbd8bf661	-0.068341024
101	0xbd1b3c2e	-0.03789919
102	0xbc921f86	-0.017837297
103	0x3d8472e2	0.06467225
104	0x3c926c5f	0.017873941
105	0x3df6bf91	0.12048257
106	0x3d3eeed2	0.046614476
107	0xbd252bb9	-0.0403249
108	0x3dc38c08	0.09548193
109	0x3bd522da	0.006504399
110	0xbc928887	-0.017887367
111	0xbda49db4	-0.08037892
112	0x3cef1963	0.02918691
113	0x3d473ebe	0.04864382
114	0xbc548000	-0.012969971
115	0x3d57bc15	0.052669603
116	0x3d97e972	0.07417573
117	0xbcaf398f	-0.02138975
118	0xbe0fb584	-0.14034086
119	0x3d56abbc	0.052409872
120	0xbd56f1a0	-0.052476525
121	0x3db5ca06	0.088764235
122	0xbd3b78e2	-0.04576958
123	0xbd5a4347	-0.053286817
124	0x3b736a69	0.0037142283
125	0x3dba808a	0.09106548
126	0xbe0f8767	-0.14016496
127	0xbd1a6e57	-0.037702885
128	0x3e64b017	0.22332798
129	0xbad05af7	-0.001589625
130	0xbcd9df64	-0.026595779
131	0x3de2a40d	0.110664465
132	0x3da9af4c	0.08285388
133	0xbc3e8b8f	-0.011629953
134	0xbca78cb5	-0.020452837
135	0x3cb71529	0.022348957
136	0xbd8e05ec	-0.06934723
137	0xbd39edd0	-0.04539281
138	0x3be86d1a	0.007093084
139	0xbc781b1e	-0.015143184
140	0xbd03a636	-0.032140933
141	0x3d45760f	0.048208293
142	0xbd7b3e15	-0.061338503
143	0xbd72f595	-0.059316237
144	0xbc59dd07	-0.013297326
145	0x3d8d0010	0.068847775
146	0xbd3077b9	-0.043082926
147	0xbcbd51f3	-0.023110365
148	0x3de58493	0.11206927
149	0xbbbb5304	-0.0057166833
150	0xbd6df537	-0.058095183
151	0xbcf4cca2	-0.029882733
152	0x3dfac83e	0.122452244
153	0x3df52f32	0.119718924
154	0xbcb880e1	-0.022522392
155	0xbd5f653d	-0.054539908
156	0xbd4b9992	-0.049707003
157	0x3ccb42ca	0.024812121
158	0xbcc4707f	-0.023979424
159	0x3cd3990d	0.025829816
160	0xbe02688f	-0.12735198
161	0x3d85b5de	0.06528829
162	0xbe0ad5e9	-0.13558163
163	0x3ca692de	0.020333704
164	0xbdbab08d	-0.09115706
165	0x3de25b7e	0.11052607
166	0x3cb9ed78	0.022696242
167	0xbd4f1daf	-0.050565418
168	0xbcccab8c	-0.024984144
169	0xbd708e36	-0.058729373
170	0x3da3157e	0.07963084
171	0x3dd7c42b	0.10535463
172	0xbdf14672	-0.117810145
173	0x3d8e68dd	0.06953595
174	0x3df8cc18	0.12148303
175	0x3d5b93df	0.053607818
176	0x3dffeb6a	0.124960735
177	0x3be08f1b	0.006852997
178	0x3d27456b	0.040837687
179	0x3d340cc8	0.0439575
180	0x3db2fe0f	0.08739864
181	0xbd54779b	-0.051871877
182	0xbbcf5be2	-0.006328092
183	0x3e071ea2	0.13195279
184	0x3af9293e	0.0019009484
185	0xbdea8bbb	-0.11452433
186	0xbbd3a091	-0.00645835
187	0xbcaafbb2	-0.02087197
188	0x3db07b23	0.086172365
189	0x3e1edfc9	0.15515055
190	0xbdab392f	-0.08360516
191	0xbd983f96	-0.07434003
192	0x3d1fe9a1	0.039041165
193	0xbd351433	-0.044208717
194	0xbcf36a8f	-0.029713897
195	0xbd30470a	-0.043036498
196	0x3dbdcca1	0.092675455
197	0xba17d3e4	-0.0005791767
198	0x3d832083	0.064026855
199	0xbe03c8aa	-0.12869516
200	0x3da00f37	0.07815402
201	0xbd67a6cd	-0.056555558
202	0x3c690d4d	0.014224363
203	0x3cb18495	0.021669665
204	0x3cb6ec54	0.022329487
205	0xbdbcc8b9	-0.09217972
206	0x3d98b43f	0.07456254
207	0xbd4d5503	-0.0501299
208	0xbd0438cb	-0.032280724
209	0xbdd70f87	-0.105010085
210	0xbe1f2c5f	-0.1554427
211	0x3d8a3be3	0.06749704
212	0x3da9d007	0.08291631
213	0xbd5a3f95	-0.053283293
214	0x3e1ce227	0.15320645
215	0x3d0956ce	0.03353005
216	0x3d0145d0	0.03156072
217	0x3d9a1d74	0.07525149
218	0x3d83bb0e	0.06432162
219	0x3dca447e	0.09876345
220	0xbd85fdd5	-0.06542555
221	0x3c956e8a	0.018241186
222	0x3df93958	0.121691406
223	0xbb4642d6	-0.003025224
224	0x3dd7afe9	0.10531599
225	0xbb23745b	-0.002494118
226	0xbdb36b9d	-0.0876076
227	0xbb9a0d46	-0.0047012893
228	0x3c0c6b40	0.008570492
229	0xbd80553d	-0.06266258
230	0x3d8807b2	0.06642093
231	0xbdf20c0d	-0.11818705
232	0xbdaf8a00	-0.08571243
233	0xbbfb39dc	-0.0076668095
234	0xbd9a0cf3	-0.07522001
235	0xbc41070e	-0.011781467
236	0xbd3d70fb	-0.046250325
237	0x3beb31be	0.0071775606
238	0xbd391980	-0.045190334
239	0x3cb4dc0a	0.022077579
240	0xbd19652e	-0.037450008
241	0xbd6a2017	-0.05715951
242	0xbd1dd21c	-0.038530454
243	0xbdd39d31	-0.10332716
244	0x3bd1ac65	0.006398725
245	0x3d534d05	0.051587123
246	0xbd1b2239	-0.037874434
247	0xbdc7c8c8	-0.09755093
248	0xbc8c8f6b	-0.01715823
249	0x3d0f8305	0.03503706
250	0x3cbd764a	0.023127694
251	0xbddf0f33	-0.10891571
252	0x3c1586a3	0.009126338
253	0x3d8e0c20	0.069359064
254	0xbda63d55	-0.08117167
255	0xbc8fb778	-0.01754354

network_body.linear_encoder.seq_layers.2.bias f4 [128]
0	0xbb158dac	-0.0022820039
1	0x3bbb88f0	0.0057231113
2	0xbb5ebe9a	-0.003398812
3	0x3bc50b28	0.006013293
4	0x3bea7d1c	0.0071560275
5	0xbb542236	-0.0032369024
6	0xbc2fbbd9	-0.010725939
7	0x38d2b689	0.0001004758
8	0xbbeabdaf	-0.0071637253
9	0xbc21c246	-0.009872979
10	0xbbeb5563	-0.0071818097
11	0x3c2c9d79	0.010535591
12	0xbc1b4ac0	-0.009478271
13	0x3c080b22	0.0083034355
14	0x3c530ed6	0.012881955
15	0xbbbad515	-0.005701671
16	0xbb72c51a	-0.0037043751
17	0x3b4ee974	0.0031572254
18	0x3b52e6da	0.0032181055
19	0x3bc4ac23	0.0060019656
20	0xbbff4fdd	-0.007791503
21	0x3bb8b5a4	0.0056368876
22	0x3b52c130	0.0032158606
23	0xba627bab	-0.0008639644
24	0x3973840d	0.00023223479
25	0x3c6a17c3	0.014287892
26	0x3c68ee87	0.014217026
27	0xbbe8a074	-0.0070992056
28	0x3c4a23dd	0.012337652
29	0xbc0b7f16	-0.008514186
30	0xbbd1f894	-0.0064078066
31	0xbc1b3a75	-0.009474386
32	0xb9dbbf57	-0.00041913494
33	0x3a8e50a9	0.0010857779
34	0x3bbd28e4	0.005772697
35	0x3b582764	0.0032982463
36	0x3c72a977	0.014810911
37	0xbbea757e	-0.0071551194
38	0xbbf0493b	-0.0073329485
39	0x3bdc7d32	0.0067287916
40	0xbc5892c2	-0.013218584
41	0x3cd04d45	0.02542747
42	0xbbaa8a6c	-0.0052044895
43	0xbc13453b	-0.008988674
44	0x3c40a451	0.011757926
45	0x3ba27831	0.0049581756
46	0x3c9dc929	0.01926096
47	0xbc153dd0	-0.0091089755
48	0xbadd44f3	-0.001688151
49	0xbbb67e6b	-0.0055692694
50	0x3c3ebc48	0.011641569
51	0xbbd241e4	-0.006416546
52	0xbb499f20	-0.0030765012
53	0xbb52ce73	-0.003216651
54	0x3c682ab2	0.014170336
55	0x39cf846a	0.00039580773
56	0x3a43f721	0.0007475485
57	0xbc2e8b61	-0.010653348
58	0xbbb356e5	-0.005473005
59	0x3b81f318	0.0039657466
60	0x3c29b843	0.010358873
61	0xbc5f1409	-0.013615617
62	0x374aea10	1.2094635e-05
63	0x3c0c9cb2	0.008582281
64	0xbbe11a3d	-0.006869583
65	0xbbad8bb5	-0.0052961954
66	0x3ba4cdad	0.0050294013
67	0xbbf95a58	-0.007609647
68	0x3c98ab59	0.018636392
69	0x3c9e4c79	0.019323574
70	0x3c841781	0.016124489
71	0xb9ee24d1	-0.00045422328
72	0x3b4b7a26	0.0031048148
73	0xbc799e80	-0.015235543
74	0x3bbde1ff	0.005794763
75	0x3c2d273c	0.010568436
76	0xbc3fde0a	-0.011710653
77	0x3b772038	0.0037708413
78	0xbc12586d	-0.008932215
79	0x3c5452b4	0.012959171
80	0xbbbc93ae	-0.0057549095
81	0xbc035773	-0.008016455
82	0xba25f3e6	-0.0006330594
83	0xbc55209d	-0.013008264
84	0x3b10121f	0.0021983457
85	0x3c092bb9	0.008372241
86	0xbb656412	-0.0035002274
87	0xbc4c8dc9	-0.012484976
88	0x3b77b344	0.003779606
89	0x3c51f909	0.012815722
90	0xbc19c30b	-0.009384881
91	0x3b58e867	0.0033097507
92	0x3c1257ee	0.008932097
93	0xbc2403b1	-0.010010646
94	0x3c3b4592	0.011430161
95	0x3b624566	0.0034526228
96	0x3c1e07c5	0.009645407
97	0x3baf421e	0.005348458
98	0x3bb3055a	0.0054632844
99	0x3be392fe	0.006945013
100	0x3c33e39c	0.010979559
101	0x3ba0b01e	0.0049038073
102	0xba39cf6e	-0.00070880994
103	0x3c1fa073	0.009742844
104	0xbbba382d	-0.005682966
105	0xbc1c4798	-0.009538554
106	0x3bf8abe2	0.0075888494
107	0xbc1ae7db	-0.009454693
108	0xbc92fdd2	-0.017943297
109	0x3b9fb098	0.0048733465
110	0x3c470ca9	0.0121490145
111	0x3bf65394	0.0075172875
112	0xbbf252e0	-0.0073951334
113	0x3c63e1b8	0.013908796
114	0xbbe39521	-0.006945268
115	0xbc0649a5	-0.008196269
116	0x3a66da05	0.0008806291
117	0x3ca84139	0.020538913
118	0xbc47e277	-0.0121999895
119	0x3b6df5c3	0.0036309815
120	0xbad4e893	-0.0016243629
121	0x3b4153de	0.0029499452
122	0x3c77ddb1	0.015128539
123	0x3c551b7d	0.013007042
124	0xbc29d487	-0.010365612
125	0x3c5a7a70	0.013334855
126	0xbc1fe203	-0.009758475
127	0xbb7003cb	-0.0036623355

network_body.linear_encoder.seq_layers.2.weight f4 [128, 128]
0	0xbc59d10d	-0.0132944705
1	0x3cdeb873	0.027187562
2	0xbd627c4d	-0.055294324
3	0xbdbc2bb3	-0.091880225
4	0x3dca29bf	0.09871244
5	0x3cc1442d	0.023592079
6	0x3d32c33c	0.04364322
7	0x3e0175c6	0.12642583
8	0xbda7e341	-0.08197642
9	0xbdcdd198	-0.100497425
10	0xbe2e3212	-0.17011288
11	0x3d60c79e	0.05487787
12	0x3c8dd58c	0.017313741
13	0x3c73381e	0.014844922
14	0xbd26ac23	-0.040691506
15	0x3d533be2	0.05157078
16	0xbe234238	-0.15943229
17	0x3c740f98	0.014896296
18	0x3e1dcc16	0.15409884
19	0x3e1cd43a	0.15315333
20	0xbd47dca7	-0.048794415
21	0x3d54eeb0	0.051985443
22	0xbd8e47c9	-0.06947286
23	0xbe05f64e	-0.13082239
24	0x3b459112	0.0030146283
25	0x3d32d9c0	0.043664694
26	0x3e487432	0.19575575
27	0xbd2c0969	-0.04200116
28	0xbd86b234	-0.06576958
29	0xbcd2c342	-0.025727872
30	0xbdaeb5ca	-0.08530767
31	0xbd19093c	-0.037362322
32	0xbdd401cd	-0.10351906
33	0x3c718261	0.014740557
34	0x3c111bdd	0.008856741
35	0xbb3d38de	-0.0028873007
36	0x3d8f70ba	0.07003923
37	0x3c4a658a	0.01235331
38	0x3dfbc50a	0.122934416
39	0xbdd6c09d	-0.10485957
40	0xbe151fbe	-0.1456289
41	0x3e5c3b09	0.21506895
42	0x3e1c1164	0.15241009
43	0x3b004e61	0.0019577967
44	0xbd69e7a5	-0.05710568
45	0x3d652214	0.055940703
46	0xbd783c7a	-0.06060455
47	0x3d210657	0.039312687
48	0x3dc3d565	0.09562186
49	0x3dbcac05	0.092124976
50	0x3d2335cb	0.039846223
51	0xbc8efbbc	-0.01745402
52	0xbe40d5f0	-0.1883161
53	0x3e008608	0.12551129
54	0x3d011af3	0.03151984
55	0xbd1e7e86	-0.03869488
56	0x3dc1b0e8	0.0945757
57	0x3d68877b	0.05676983
58	0x3daa0d81	0.08303357
59	0xbe0a8da1	-0.1353059
60	0xbe1534db	-0.14570944
61	0xbc1c3693	-0.009534496
62	0x3dce68f1	0.1007861
63	0xbe0b315d	-0.1359305
64	0xbe144672	-0.14479998
65	0x3d996cf1	0.07491482
66	0x3d1555d3	0.0364588
67	0xba36d9a3	-0.00069751794
68	0x3d941dd2	0.0723225
69	0x3e002ebd	0.12517829
70	0xbe1c4065	-0.1525894
71	0x3d686f75	0.05674692
72	0x3d4f31ce	0.050584607
73	0x3d389e19	0.04507265
74	0x3d5b7904	0.053582206
75	0xbdb609b1	-0.08888567
76	0x3e0a39ad	0.13498564
77	0xb98d4037	-0.0002694146
78	0xbdec3055	-0.11532656
79	0xbe2821dd	-0.16419168
80	0x3df14eff	0.117826454
81	0xbde4b455	-0.11167208
82	0xbc99ca07	-0.018773092
83	0xbe1cd95b	-0.1531729
84	0x3d800b32	0.06252135
85	0x3e2600e0	0.16211271
86	0x3d8424db	0.06452342
87	0x3e33f743	0.17574792
88	0xbd54aa3c	-0.05192016
89	0xbe08b2f1	-0.1334951
90	0x3e50d54c	0.20393866
91	0x3de63e15	0.1124231
92	0xbda21473	-0.07914057
93	0x3dd71f62	0.10504033
94	0xbc8b1761	-0.016978921
95	0x3d225dad	0.039640117
96	0xbc2db818	-0.010602973
97	0xbde333d7	-0.11093872
98	0xbd4ea86e	-0.050453596
99	0xbdcd2aba	-0.10017915
100	0x3e115c74	0.14195424
101	0x3c1aa8d6	0.009439668
102	0x3da49fed	0.08038316
103	0x3b70ea5a	0.0036760778
104	0x3d27416f	0.040833887
105	0x3cb4db41	0.022077205
106	0x3c64d9e3	0.013967964
107	0xbe025e66	-0.12731323
108	0xbcb9838e	-0.022645738
109	0xbccc193a	-0.024914373
110	0x3e0002a0	0.12501001
111	0x3d53ccf9	0.05170915
112	0x3d888685	0.066662826
113	0x3db69aea	0.08916266
114	0x3da2562e	0.07926594
115	0x3d25971a	0.040427305
116	0xbab6fef5	-0.0013961481
117	0xbe16c5c0	-0.14723873
118	0x3cf8d4e0	0.030374944
119	0xbcc3c26a	-0.023896415
120	0xbd2c2556	-0.042027794
121	0x3dae8ea2	0.08523299
122	0x3d0d1009	0.03443912
123	0x3ce0b203	0.027428633
124	0xbd9d028d	-0.07666502
125	0x3d795f1c	0.06088172
126	0x3d281608	0.041036636
127	0xbd8d4026	-0.06897001
128	0x3e0e2cf3	0.13884334
129	0x3de2b71c	0.110700816
130	0xbe132662	-0.1437011
131	0xbd49c029	-0.049255524
132	0xbe342b64	-0.17594677
133	0xbbe4ec5e	-0.006986185
134	0xbdbc61ea	-0.09198363
135	0xbdfe1999	-0.12407226
136	0x3c85bf99	0.016326712
137	0xbc643ecb	-0.013930987
138	0x3e43f2f0	0.19135642
139	0xbd4d9ee4	-0.050200358
140	0xbcd5cdfd	-0.0260992
141	0x3c4473f6	0.011990538
142	0xbe1c75c5	-0.152793
143	0x3d8506ca	0.064954355
144	0xbc227772	-0.009916173
145	0x3dd34f76	0.1031789
146	0xbe18c53a	-0.14918986
147	0xbd810345	-0.06299452
148	0x3d8c2fcb	0.06845053
149	0xbd8f371a	-0.06992932
150	0xbc045dc6	-0.008078998
151	0x3dd4c11c	0.10388395
152	0xbe280a78	-0.16410244
153	0x3c96f7b6	0.018428665
154	0xbd9681a0	-0.07348943
155	0xbdd696e6	-0.10478
156	0x3da441da	0.08020373
157	0x3bfe682c	0.007763883
158	0xbddb3315	-0.107031025
159	0x3cd29734	0.025706865
160	0x3e1cbd65	0.15306623
161	0xbd96c9da	-0.07362719
162	0x3d994d20	0.074854136
163	0x3cb00ffa	0.021491993
164	0xbd4e3b9e	-0.050349824
165	0x3de9d7f1	0.11418141
166	0xbbaec8ef	-0.0053340117
167	0x3ccc9f91	0.024978431
168	0x3e0431cc	0.12909621
169	0xbc90155d	-0.017588312
170	0xbd3707c6	-0.044685148
171	0xbc84fb12	-0.016233
172	0xbd44b21a	-0.048021413
173	0xbdaccbd0	-0.08437312
174	0x3d9f6f15	0.07784859
175	0x3d78939b	0.060687643
176	0xbc073897	-0.008253238
177	0xbd951896	-0.0728008
178	0xbd7b31f3	-0.061326932
179	0x3e3f9349	0.18708529
180	0x3cc81e7d	0.0244286
181	0x3c41506b	0.011798958
182	0xbdd988d5	-0.10621802
183	0xbda00744	-0.07813886
184	0xba8dc519	-0.0010816186
185	0x3d50ca05	0.05097391
186	0x3e0b62ac	0.13611859
187	0xbdde2e04	-0.108486205
188	0xbb105341	-0.002202228
189	0x3dd1a7ff	0.10237121
190	0x3d6b31f4	0.057420686
191	0xbe0696d8	-0.1314348
192	0x3badb056	0.005300562
193	0x3d321c4d	0.04348402
194	0xbe0a0d11	-0.13481547
195	0x3da3e0c1	0.08001853
196	0x3df352a5	0.118809976
197	0x3d8f5b5a	0.06999846
198	0xbd10b78b	-0.03533129
199	0xbd31dc4a	-0.043422975
200	0xbd244ba6	-0.040111206
201	0x3e6e9763	0.23299937
202	0x3ba701a8	0.005096633
203	0xbd82506a	-0.06362994
204	0x3e487bc7	0.19578467
205	0xbdbc8180	-0.09204388
206	0x3d28ea90	0.04123932
207	0x3d5c9d84	0.053861156
208	0x3e24b4e1	0.16084625
209	0x3ca5b881	0.02022958
210	0x3d9485a4	0.072520524
211	0xbe4e14e0	-0.2012515
212	0x3d1d19fd	0.038354862
213	0x3d38d2a2	0.04512275
214	0xbe02557c	-0.12727922
215	0x3d3b0743	0.045661222
216	0xbde86494	-0.11347309
217	0x3e3bd772	0.18343905
218	0xbd824018	-0.06359881
219	0x3db9f4f8	0.09079927
220	0xbd2e29bd	-0.042520273
221	0x3d232bf8	0.039836854
222	0xbc468a48	-0.01211793
223	0xbd64cc45	-0.05585887
224	0xbda53cd7	-0.08068245
225	0x3b8aba19	0.0042336104
226	0x3be0c6d0	0.006859638
227	0x3d699e1e	0.057035558
228	0x3ce1d848	0.027568951
229	0x3d1b98ca	0.037987508
230	0x3cff0bd4	0.03113357
231	0xbd9c303e	-0.07626389
232	0x3d36ec27	0.044658806
233	0xbc1feec8	-0.00976152
234	0xbb6706c7	-0.0035251842
235	0x3d5d68de	0.054055087
236	0xbb84c9e7	-0.004052389
237	0x3c32a444	0.010903422
238	0x3da8b0b2	0.08236827
239	0x3d8cc200	0.0687294
240	0xbd7d4b2a	-0.06183926
241	0x3da3b937	0.07994311
242	0xbdc8bbd5	-0.09801451
243	0xbe06c1a5	-0.13159807
244	0xbd8592c2	-0.065221325
245	0x3d9698ae	0.0735334
246	0xbdff4f1b	-0.1246626
247	0x3d8e4d99	0.06948394
248	0xbd7d5e72	-0.06185765
249	0xbcf2f51b	-0.029657891
250	0xbd762ea1	-0.060103063
251	0xbc90546f	-0.017618386
252	0xbd8fd0e4	-0.070222646
253	0xbd94ed76	-0.072718546
254	0x3d4441ed	0.047914434
255	0xbce00027	-0.027343823
