Oversteek Simulator/Learning/results/Oversteek-K-01/BadCar/BadCar-199959.onnx (onnx, 90288 bytes, 6 tensors)

action_model._discrete_distribution.branches.0.bias f4 [3]
0	0x3b62d6a0	0.003461279
1	0x3ce0d240	0.027444005
2	0xbd078bd3	-0.03309233

action_model._discrete_distribution.branches.0.weight f4 [3, 128]
0	0xbd1daae8	-0.038493067
1	0x3d130239	0.03589079
2	0xbbd1efd2	-0.0064067626
3	0xbc577d56	-0.013152441
4	0x3cbad9a7	0.022808863
5	0xbbacbac6	-0.0052712886
6	0xbcafaff9	-0.021446215
7	0x3cd88ae6	0.02643342
8	0xbc4c2c0e	-0.012461675
9	0x3bb7e460	0.005611941
10	0xbd338d4c	-0.043835923
11	0x3cb90e0b	0.022589704
12	0xbb4eddc7	-0.0031565295
13	0xbc746e28	-0.014918841
14	0xb8f263c0	-0.00011558039
15	0x3dcc6c14	0.09981552
16	0xbd9ec4b8	-0.07752365
17	0xbc3c5e9f	-0.011497169
18	0xbcaae6d2	-0.020862017
19	0xbc028926	-0.007967269
20	0xbcb368cf	-0.021900563
21	0x3bb9dbbe	0.0056719473
22	0xbd8901f0	-0.06689823
23	0xbd67efd2	-0.056625195
24	0xbcefffcd	-0.02929678
25	0xbd26cc7a	-0.040722348
26	0xbc08041b	-0.00830176
27	0xbd0362d7	-0.032076683
28	0xbc16e464	-0.009209726
29	0xbdc3ae5c	-0.09554741
30	0xbc1502e2	-0.009094926
31	0x3c58a8f7	0.013223878
32	0xbc1807bc	-0.009279188
33	0x3b5f4c0f	0.0034072434
34	0xbcede4cc	-0.029039763
35	0xbc5c3964	-0.013441417
36	0x3baf76ec	0.0053547528
37	0xbd163e76	-0.03668066
38	0x3baa35b7	0.0051943916
39	0xbd969f52	-0.07354607
40	0x3cb6b5be	0.022303458
41	0xbc51e847	-0.012811727
42	0xbd1692df	-0.03676116
43	0xbb66642d	-0.0035154924
44	0x3c5256a5	0.0128380405
45	0xbb9809aa	-0.004639824
46	0xbb3dfd4e	-0.0028990093
47	0xba21582c	-0.0006154801
48	0xbcc55080	-0.024086237
49	0x3c261297	0.010136268
50	0xbd24cf2b	-0.040236633
51	0x3c5d4313	0.013504761
52	0xbc31406c	-0.010818582
53	0xbcf5e5cb	-0.0300168
54	0xba3dd140	-0.00072409585
55	0xbbba3b01	-0.0056833033
56	0xbc5347b6	-0.012895515
57	0x3b85784f	0.00407318
58	0x3a178af8	0.0005780901
59	0x3b3764a5	0.0027983573
60	0xbc67f486	-0.01415742
61	0xbb9c06d7	-0.0047615576
62	0xbdcd7c33	-0.10033455
63	0x3a3befc2	0.00071692106
64	0x3bc5fc99	0.006042075
65	0xbc3a5735	-0.011373331
66	0xbc2a4863	-0.010393235
67	0x3d1aed73	0.037824105
68	0xbc41efa9	-0.011836925
69	0xbc92fa9d	-0.017941767
70	0xbd591075	-0.05299421
71	0xbd967b2b	-0.07347711
72	0xbda41222	-0.08011271
73	0xbc874cc9	-0.016516106
74	0xbd8a3fcd	-0.0675045
75	0x3b05f837	0.0020442137
76	0xbd2243d6	-0.039615475
77	0xbbdf9f64	-0.0068244208
78	0x3d285548	0.041096956
79	0xbc29c018	-0.01036074
80	0xbd52001c	-0.051269636
81	0xbd1ba24a	-0.037996568
82	0xbc83092c	-0.015995584
83	0x3d1b1dc1	0.037870172
84	0xbd6ffdf2	-0.05859179
85	0xb8f7d1bb	-0.00011816943
86	0xbd26387b	-0.040581208
87	0xbc9f8139	-0.019470798
88	0xbd6bcf62	-0.057570823
89	0x391049e8	0.00013760442
90	0xbda84788	-0.082167685
91	0xbb46aef7	-0.003031669
92	0xbd800c06	-0.06252293
93	0xbcfd319f	-0.03090745
94	0xbbf1a7bb	-0.0073747314
95	0x3bfd7d51	0.007735886
96	0xbb99953d	-0.00468698
97	0xbcf1a143	-0.02949584
98	0xbc98f626	-0.01867206
99	0xbd531249	-0.05153111
100	0x3c46e068	0.012138464
101	0xbcd7b52c	-0.026331507
102	0x3c6f49f5	0.014605035
103	0xbc24306f	-0.010021313
104	0x3c4e3381	0.012585522
105	0xbd1d4870	-0.03839916
106	0xbc78ee12	-0.015193479
107	0x3c1df884	0.00964177
108	0xbaa7049a	-0.001274246
109	0x3d6ff5d4	0.05858405
110	0xbc4c368f	-0.01246418
111	0xbd28651a	-0.041112043
112	0x3a566d65	0.0008179753
113	0xbcfc9ab1	-0.030835481
114	0xbc249fff	-0.010047912
115	0xbba8c996	-0.005150984
116	0x3c8f6ebe	0.01750886
117	0xbcf9b9bb	-0.030484071
118	0xbc990898	-0.018680856
119	0x3cf722ef	0.030168025
120	0xbc9c8635	-0.019106964
121	0xb91482d0	-0.00014163111
122	0xbcb643e1	-0.022249164
123	0xbcdd5b18	-0.027020976
124	0xbc1195e3	-0.008885833
125	0xbc46bef9	-0.012130492
126	0xbcfdc4e3	-0.030977672
127	0x3b81ebf1	0.003964894
128	0x3d87e1ae	0.06634842
129	0xbd006d16	-0.031354032
130	0xbc70424e	-0.014664246
131	0x3b79af4b	0.0038098868
132	0xbb828ec8	-0.003984306
133	0xbc784fd3	-0.01515575
134	0x3cbd442e	0.0231038
135	0xbcac33c3	-0.021020776
136	0xbc2af4e4	-0.010434363
137	0x3c4c712c	0.012478154
138	0x3da0d5d9	0.07853288
139	0xbcfb729b	-0.030694297
140	0x3c691409	0.014225968
141	0xbd006dab	-0.031354588
142	0xba87ef41	-0.0010370986
143	0xbd3af43c	-0.045643076
144	0x3e2182e7	0.15772592
145	0x3c80dce6	0.015730333
146	0x3d089234	0.033342555
147	0x3c7ba1bf	0.0153583875
148	0x3c5dfb82	0.013548734
149	0xbca359ac	-0.01994022
150	0x3d02f357	0.03197035
151	0x3e16bedf	0.14721249
152	0x3bda2b29	0.006657977
153	0x3ceaddcc	0.028670214
154	0xbbbf9962	-0.005847142
155	0x3c9532cf	0.018212704
156	0xbafcc6b7	-0.0019285296
157	0x3cbe5ae3	0.023236698
158	0xbd20ca00	-0.039255142
159	0xbbc648ac	-0.0060511436
160	0x3befb4c0	0.0073152483
161	0xbad2890f	-0.0016062575
162	0x3d692bb5	0.056926448
163	0x3c22f5c9	0.009946295
164	0xbd78db29	-0.060755882
165	0x3d80722c	0.062717766
166	0xbc227ed2	-0.009917932
167	0x3e347055	0.17620976
168	0xbca11d01	-0.01966715
169	0x3aa53bad	0.0012606286
170	0x3d365672	0.044516034
171	0x3c4f9aaa	0.012671152
172	0xbc28f495	-0.010312219
173	0xba82f033	-0.0009989798
174	0xbd7d8702	-0.06189633
175	0xbc87da8a	-0.0165837
176	0x3d5d9a85	0.05410244
177	0x3ce27531	0.027643772
178	0x3d33f30a	0.043932952
179	0x3b3e7950	0.0029064007
180	0xbbd8e75c	-0.006619377
181	0x3c405d1a	0.011740947
182	0x39eec0bb	0.00045538493
183	0xb9a7f218	-0.00032033096
184	0x3c8be700	0.017077923
185	0xba27ec0e	-0.00064057193
186	0x3c8848aa	0.016636211
187	0x3d3b53fb	0.045734387
188	0x3c202045	0.009773319
189	0xbc354e54	-0.011066038
190	0x3e5d80cc	0.21631163
191	0x3d01ff4f	0.031737622
192	0x3bf03054	0.00732998
193	0x3b422e61	0.0029629695
194	0x3b939e1a	0.004504931
195	0x3b3182d5	0.0027086039
196	0xbc2e064f	-0.010621621
197	0x3d19313a	0.03740046
198	0x3d6b323c	0.057420954
199	0x3e108d61	0.14116432
200	0x3e18f86e	0.14938518
201	0xbc28dc51	-0.010306434
202	0x3ddcde3d	0.10784576
203	0x3c8e46be	0.017367717
204	0x3daf8814	0.08570877
205	0xbc3b8085	-0.011444216
206	0xbdc26064	-0.09491041
207	0x3c84f891	0.016231807
208	0x3ce44b5b	0.027867964
209	0x3d932de4	0.07186487
210	0x3c665437	0.014058164
211	0xbd71a8d7	-0.05899891
212	0x3d9c9988	0.07646471
213	0x3bcdbe34	0.0062787775
214	0x3d6ed901	0.05831242
215	0x3cb3b383	0.021936184
216	0x3de3405a	0.110962585
217	0x3b0fc4e5	0.0021937427
218	0x3e09eb82	0.13468745
219	0xbc612ae2	-0.013743134
220	0x3df85285	0.12125114
221	0x3c91a440	0.017778516
222	0xbc05a499	-0.008156919
223	0xbc867965	-0.016415307
224	0x3d3244b2	0.043522544
225	0x3ca7cd11	0.020483525
226	0x3cb8012a	0.022461493
227	0x3d9d1b4b	0.07671221
228	0x3c1b54be	0.009480653
229	0x3ce213a5	0.027597258
230	0x3c8cfdc5	0.01721085
231	0xbbaea2a5	-0.0053294473
232	0x3b83ff6f	0.004028253
233	0x3d2a4942	0.04157377
234	0xbc394fc0	-0.011310518
235	0x3ba62708	0.005070571
236	0x3c5ab71d	0.013349322
237	0xb98b207e	-0.00026536355
238	0x3b558cb1	0.003258508
239	0x3c478347	0.012177295
240	0xbc51818d	-0.012787235
241	0x3dac3cda	0.08410044
242	0x3c6c7481	0.014432074
243	0x3b1c3261	0.002383374
244	0xbcaf9162	-0.021431629
245	0x3d9381ec	0.07202515
246	0x3ce69e34	0.028151609
247	0x3cb06af6	0.021535378
248	0x3c525274	0.012837041
249	0x3bd90943	0.0066234185
250	0x3d10572a	0.035239376
251	0xbc5e4f2a	-0.013568679
252	0xb9d3a83a	-0.00040370395
253	0x3d39c72a	0.045355953
254	0x3ca0834a	0.019593854
255	0xbb9ef1c0	-0.004850596

network_body.linear_encoder.seq_layers.0.bias f4 [128]
0	0xbbac9b71	-0.0052675535
1	0xbd98d2ae	-0.07462059
2	0x3b3e7c71	0.0029065872
3	0xbcf849d6	-0.030308645
4	0x3e01a34e	0.12659952
5	0xbd87669f	-0.0661137
6	0xbd110dab	-0.035413425
7	0xbd477c52	-0.048702545
8	0xbc0bb8d3	-0.008527952
9	0x3cd40c5b	0.025884798
10	0xbd6adb0c	-0.057337806
11	0xbd0c1726	-0.034201764
12	0x3debb198	0.11508483
13	0x3d116977	0.03550097
14	0x3d7b4aaf	0.06135052
15	0xbd3df34f	-0.046374615
16	0xbc9ffab7	-0.01952873
17	0xbd837014	-0.064178616
18	0x3c9fe2ac	0.019517265
19	0xbc8f8a36	-0.017521959
20	0x3d0b702a	0.034042515
21	0xbd88c0e4	-0.06677416
22	0x3db0556a	0.086100414
23	0xbca80410	-0.02050975
24	0xbd0c3a5d	-0.034235347
25	0x3dfd2b46	0.123617694
26	0x3da90673	0.08253183
27	0xbce7db0a	-0.028302688
28	0xbd5abe07	-0.05340388
29	0x3d72c775	0.05927225
30	0xbd1a4bf8	-0.037670106
31	0xbd0b73fc	-0.03404616
32	0x3e2cf3c9	0.16889872
33	0xbd43a09b	-0.047760587
34	0xbd45fd5c	-0.048337325
35	0xbda381ee	-0.079837665
36	0x3aac02c1	0.0013123379
37	0xbd24118c	-0.040055797
38	0xbd61fc9b	-0.055172544
39	0x3d910782	0.0708151
40	0xbc84c78e	-0.016208436
41	0xbdd1d36b	-0.10245403
42	0x3c38ff94	0.011291403
43	0xbbbf7db4	-0.0058438424
44	0x3cc64303	0.024201876
45	0x3d0db3b2	0.0345952
46	0xbd38e019	-0.04513559
47	0xbce0cd6d	-0.027441705
48	0xbdb6c716	-0.089246914
49	0x3db015ce	0.08597909
50	0x3d20fb02	0.03930188
51	0xbdefa9ef	-0.11702334
52	0xbd5b8807	-0.053596523
53	0x3d90cfb5	0.07070867
54	0xbda6f686	-0.08152489
55	0xbc81e47a	-0.015856016
56	0xbd7f0329	-0.062258873
57	0x3c308889	0.01077474
58	0x3d458397	0.048221197
59	0xbdc44c52	-0.095848694
60	0x3d9c769f	0.07639813
61	0xbc2deb73	-0.0106152175
62	0x3d2fc54f	0.042912778
63	0x3ca370c9	0.019951241
64	0xbd812ff0	-0.063079715
65	0xbd9ef02d	-0.07760654
66	0x3d346655	0.044042904
67	0xbd107c71	-0.035274927
68	0xbcce158c	-0.025156759
69	0xbd868e5e	-0.06570123
70	0x3c1c9353	0.009556609
71	0xbd6722de	-0.056429736
72	0x3cafe416	0.021471065
73	0xbd40bc58	-0.04705462
74	0xbd4b773d	-0.04967426
75	0x3d18ee1e	0.03733646
76	0xbd35849a	-0.04431591
77	0x3ddda901	0.108232506
78	0x3b1754eb	0.0023091387
79	0x3d2326b5	0.039831836
80	0xbd8d1a34	-0.068897635
81	0x39a87c59	0.00032136103
82	0xbd3bfc4d	-0.04589491
83	0xbc83556a	-0.01603194
84	0xbd101695	-0.035177786
85	0xbd43ad92	-0.04777295
86	0x3b8147f2	0.003945344
87	0x3cc4d716	0.024028342
88	0x3da60d12	0.08107962
89	0x3bd577ef	0.0065145413
90	0xbc986600	-0.018603325
91	0xbc8c38c8	-0.01711692
92	0xbb154584	-0.002277703
93	0x3dec5f3d	0.11541603
94	0x3dfbbe84	0.12292197
95	0xbc82d3d8	-0.015970156
96	0xbd8d7442	-0.0690694
97	0x3e08cce5	0.13359411
98	0x3ae2c4f5	0.0017301129
99	0xbd30643e	-0.04306435
100	0x3b2feb54	0.0026843147
101	0x3daf0480	0.0854578
102	0xbdc8adc1	-0.09798766
103	0xbcf218be	-0.029552814
104	0x3d15fa70	0.03661579
105	0xbd4778d3	-0.04869921
106	0x3df5727b	0.11984726
107	0x3dffec9f	0.12496304
108	0x3c346071	0.011009322
109	0xbd212d04	-0.03934957
110	0x3dd28256	0.10278766
111	0xbdbdaefa	-0.0926189
112	0xba242c95	-0.0006262747
113	0x3d942eb9	0.07235474
114	0x3d203636	0.0391142
115	0xbdc165c9	-0.09443242
116	0x3c54ca5d	0.0129877
117	0x3b454475	0.0030100618
118	0xbde0a31c	-0.10968611
119	0x3d074c25	0.0330316
120	0x3cce96de	0.025218423
121	0xbd9b908f	-0.07595932
122	0x3b403486	0.0029328181
123	0x3c8e50e4	0.017372556
124	0xbce71a5f	-0.028210817
125	0xbd8a20a6	-0.067445084
126	0x3e0ec76e	0.13943264
127	0xbd1f76ed	-0.038931776

network_body.linear_encoder.seq_layers.0.weight f4 [128, 39]
0	0xbe13680c	-0.1439516
1	0xbd470d3b	-0.048596602
2	0xbd9b6a73	-0.07588663
3	0x3de22e4f	0.11043989
4	0xbea0503a	-0.31311208
5	0x3eb00d6c	0.3438524
6	0xbef11182	-0.4708367
7	0x3d9a14f9	0.075235315
8	0x3e823c43	0.254366
9	0xbf03b191	-0.5144282
10	0x3bc70923	0.006074087
11	0xbecf3b3d	-0.40474883
12	0x3e0c5ea1	0.13707973
13	0x3e0f6ea4	0.1400705
14	0xbe2b6523	-0.167378
15	0x3e55fa19	0.20896186
16	0xbbc8ff6c	-0.0061339643
17	0x3e16832e	0.14698479
18	0x3d9ecddc	0.07754108
19	0xbdb1178d	-0.0864707
20	0x3ddbb03d	0.10726974
21	0xbe979dd4	-0.296126
22	0x3e94fc32	0.2909866
23	0xbd659732	-0.056052394
24	0xbe80c317	-0.25148842
25	0xbd8e8895	-0.06959645
26	0xbd5bff01	-0.053709988
27	0x3e298556	0.1655477
28	0x3d3f3d81	0.046689514
29	0x3d8969eb	0.067096554
30	0x3e16e30c	0.14735049
31	0xbd835a2b	-0.064136826
32	0xbd1e308d	-0.03862052
33	0x3ec98add	0.39363757
34	0xbe4ea76b	-0.20181052
35	0xbd21a23e	-0.039461367
36	0x3deb0599	0.11475677
37	0xbe18f744	-0.14938074
38	0x3e1d8d94	0.15386039
39	0xbd38e638	-0.04514143
40	0x3ec6b3da	0.3880909
41	0xbdb96ad7	-0.09053581
42	0xbe00855a	-0.1255087
43	0xbe34c1b7	-0.17652021
44	0x3cf38e51	0.029730948
45	0x3cb13205	0.021630296
46	0xbdfb1832	-0.12260474
47	0xbd0e9a25	-0.034814972
48	0x3d74c7ec	0.059760973
49	0xbe7372a5	-0.23774202
50	0xbdf395fb	-0.11893841
51	0xbe0007db	-0.12502997
52	0x3e2445e1	0.16042282
53	0xbe5b3929	-0.21408524
54	0xbe36ea69	-0.17862858
55	0x3e463a43	0.19358163
56	0xbda6066c	-0.081066936
57	0xbe1da15e	-0.15393588
58	0xbdbe5e77	-0.092953615
59	0x3e0ff8a9	0.140597
60	0xbda07a3b	-0.078358136
61	0xbc98ff2f	-0.018676369
62	0x3e8081b6	0.25098962
63	0xbe2d1dd6	-0.16905913
64	0x3e815b9d	0.25265208
65	0xbe0849ee	-0.13309452
66	0xbe6710b5	-0.22564967
67	0xbdc938ca	-0.09825285
68	0x3d0414a8	0.03224626
69	0xbde505e4	-0.11182764
70	0x3df5797c	0.11986062
71	0x3dc0b108	0.09408766
72	0xbe2bda27	-0.16782437
73	0x3e48f315	0.19623978
74	0xbd5f3748	-0.05449608
75	0xbd3a8d28	-0.045544773
76	0x3e15d1ee	0.14630863
77	0xbcacdb71	-0.021100732
78	0x3e87a091	0.2648969
79	0xbd0690de	-0.032853
80	0xbd9cd51a	-0.076578334
81	0x3df9122c	0.12161669
82	0x3e26a342	0.16273215
83	0xbaa50357	-0.0012589496
84	0xbe567e43	-0.20946603
85	0x3d14579e	0.03621637
86	0x3e126359	0.1429571
87	0x3e5fcf3b	0.21856396
88	0xbe8d84be	-0.27640337
89	0x3e5854ce	0.211261
90	0x3e067877	0.13131891
91	0xbda263ab	-0.079291664
92	0x3db111b2	0.08645953
93	0xbe06cf9e	-0.13165137
94	0x3c05d9b8	0.008169584
95	0x3dca4b86	0.09877686
96	0xbde84e09	-0.11343009
97	0xbd4d00ed	-0.05004971
98	0xbd8a7d4e	-0.06762181
99	0x3d447c31	0.04797
100	0xbe311f83	-0.17297177
101	0x3deff772	0.11717118
102	0xbe9113d6	-0.28335446
103	0xbe1b841b	-0.15187113
104	0xbe86a0cb	-0.2629455
105	0xbe39a936	-0.18130955
106	0x3d914820	0.07093835
107	0x3ded8af7	0.11598771
108	0x3eb2ddee	0.34934944
109	0x3deaec06	0.11470799
110	0x3db00150	0.08594
111	0x3d942c7b	0.072350465
112	0x3dd8bdf3	0.10583105
113	0xbe1196ab	-0.14217632
114	0x3d739699	0.059469793
115	0xbe54cbe9	-0.2078091
116	0x3c998941	0.018742206
117	0x3e7aa87a	0.24478331
118	0x3f162f99	0.5866638
119	0x3eb5ba63	0.35493764
120	0xbe48690e	-0.19571325
121	0xbef07968	-0.46967626
122	0x3e514c55	0.20439275
123	0x3dd586f6	0.104261324
124	0xbc6dc57a	-0.014512414
125	0xbda7cab8	-0.081929624
126	0xbbe62f83	-0.007024707
127	0x3e3dc9e3	0.18534045
128	0x3e638cc9	0.22221674
129	0x3cc2ee0e	0.023795154
130	0x3e9a90c8	0.30188584
131	0xbc1d69a6	-0.009607708
132	0x3dec7736	0.11546175
133	0x3dee8b0b	0.11647614
134	0x3bf3df04	0.007442357
135	0xbdf0826f	-0.11743628
136	0xbe2f9ae1	-0.17148925
137	0xbe79215d	-0.24329133
138	0xbc44af24	-0.012004647
139	0xbd5d428e	-0.05401855
140	0xbe6d44bd	-0.23170753
141	0xbd612742	-0.05496908
142	0xbe57db11	-0.21079661
143	0x3dbc1fc7	0.091857485
144	0xbc26aeba	-0.010173494
145	0xbd112b10	-0.03544146
146	0x3bd61334	0.006533051
147	0x3edc4a99	0.43025663
148	0xbe397533	-0.18111114
149	0x3dca0479	0.09864134
150	0xbe0269ec	-0.12735718
151	0xbe1829e0	-0.14859724
152	0xbda54494	-0.08069721
153	0xbde9115e	-0.11380266
154	0x3dc8fb01	0.098135
155	0xbe4b4061	-0.19848777
156	0x3d62be8f	0.055357512
157	0xbea502bb	-0.32228646
158	0xbeb74376	-0.35793656
159	0x3a023531	0.00049670326
160	0x3dbee59c	0.09321138
161	0x3cea6a0f	0.028615026
162	0xbeb3294b	-0.34992442
163	0xbd4b66b1	-0.04965848
164	0xbe02069a	-0.12697831
165	0x3df96908	0.12178236
166	0xbe8250bf	-0.2545223
167	0xbe9d1587	-0.30680487
168	0x3e76eee4	0.24114567
169	0x3e1f0729	0.15530075
170	0x3cdf5e02	0.027266506
171	0xbd50d0bc	-0.050980315
172	0xbf1c60bb	-0.610851
173	0x3d8c190a	0.06840713
174	0x3db153c1	0.08658553
175	0x3e047687	0.1293584
176	0xbee49060	-0.446414
177	0xbed6618a	-0.4187129
178	0xbdeb6fd8	-0.11495942
179	0xbde4b642	-0.111675754
180	0x3e6066cc	0.21914214
181	0x3e9fa02e	0.31176895
182	0xbe973fa9	-0.29540756
183	0xbe27ad3d	-0.16374679
184	0x3df9b0e2	0.12191941
185	0x3e298c79	0.16557492
186	0x3d93cc7f	0.07216739
187	0xbd61415a	-0.054993965
188	0x3e42f623	0.19039206
189	0x3da1d7d7	0.07902496
190	0x3ddaad81	0.106776245
191	0x3caaf7ef	0.020870177
192	0xbca76a00	-0.020436287
193	0x3ee2feca	0.44335014
194	0xbeea09fd	-0.45710745
195	0x3e635585	0.22200592
196	0x3d1206a6	0.03565087
197	0xbe7b9f36	-0.24572453
198	0xbdc749f6	-0.09730904
199	0xbe117790	-0.14205766
200	0xbe0f98eb	-0.14023177
201	0x3ec698f6	0.38788575
202	0xbea217af	-0.31658694
203	0xbe840c75	-0.25790754
204	0x3d07791c	0.033074483
205	0x3eae2291	0.34010747
206	0x3ee02d7b	0.437847
207	0x3d8f7171	0.07004059
208	0x3de7dd74	0.11321536
209	0x3cc3ad56	0.023886364
210	0x3eaa7f8c	0.33300436
211	0x3f266950	0.65004444
212	0xbe2974d4	-0.16548473
213	0x3c8d9a19	0.017285394
214	0xbe2f0c18	-0.17094457
215	0x3eacecfd	0.33774558
216	0x3c524b02	0.012835266
217	0x3e34d83a	0.17660609
218	0xbbafc67a	-0.0053642364
219	0xbe16601a	-0.14685097
220	0x388504f7	6.342859e-05
221	0x3eb0ba1a	0.34516984
222	0xbdb777bb	-0.08958384
223	0x3dba5f3a	0.09100194
224	0xbd3b0927	-0.045663025
225	0x3e5da0bf	0.21643351
226	0x3e08ccbc	0.1335935
227	0x3e8c0f15	0.27355257
228	0xbe134583	-0.14381985
229	0xbe448493	-0.19191198
230	0x3df21549	0.11820466
231	0x3c35826e	0.01107846
232	0xbd9af6b6	-0.075665876
233	0x3e029a49	0.12754168
234	0xbd3ebcd0	-0.046566784
235	0x3e71bb16	0.23606524
236	0x3db68a6f	0.08913123
237	0xbde69aef	-0.1126002
238	0xbe0de791	-0.13857867
239	0x3e9939ed	0.29927006
240	0xbd198fa2	-0.037490495
241	0xbc6178ad	-0.0137616815
242	0xbe6dd6a4	-0.2322641
243	0xbd780994	-0.06055601
244	0x3d5379dc	0.051629886
245	0x3e84f803	0.25970468
246	0xbe478977	-0.19486032
247	0x3d267188	0.040635616
248	0x3e06c18d	0.13159771
249	0x3c906715	0.017627278
250	0x3e2a95ef	0.16658758
251	0x3e2c572a	0.16830125
252	0x3e1dedba	0.15422717
253	0xbe89ac9f	-0.26889512
254	0xbd9e1068	-0.07717973
255	0xbd71fd30	-0.05907935

network_body.linear_encoder.seq_layers.2.bias f4 [128]
0	0xbd72023f	-0.059084173
1	0x3cb95db8	0.022627696
2	0x3d84d0f4	0.06485167
3	0xbc0cdadf	-0.008597105
4	0xb90a1c83	-0.00013171327
5	0xbc8e8752	-0.01739851
6	0xbc984f18	-0.018592402
7	0xbc8fbd63	-0.017546361
8	0xbdcbf54b	-0.09958895
9	0xbd3f5fff	-0.04672241
10	0xbd4c7d30	-0.049924076
11	0x3de3e3d9	0.11127443
12	0xbd4d5fc5	-0.05014016
13	0xbb819287	-0.003954235
14	0x3cf52055	0.029922644
15	0x3b305600	0.0026906729
16	0xbceecd7f	-0.029150723
17	0xbcea3cd2	-0.028593455
18	0x3cfece1d	0.031104142
19	0xbd0b6447	-0.03403118
20	0xbe0eac6c	-0.13932961
21	0xbc9827e6	-0.018573713
22	0xbcdaeb32	-0.026723478
23	0xbc97d029	-0.018531876
24	0xbd216200	-0.0394001
25	0xbd2f810d	-0.04284768
26	0xbc48377c	-0.01222026
27	0x398c4ce8	0.0002676018
28	0x3bfbdc02	0.007686139
29	0xbd0ed983	-0.034875404
30	0x3d3c55d0	0.045980275
31	0xbc5978a3	-0.013273391
32	0xbccdc085	-0.025116215
33	0xbd2b5ac9	-0.041834626
34	0xbcab9ce5	-0.020948837
35	0xbd6a5f3b	-0.057219725
36	0x3d09441b	0.033512216
37	0xbd149c07	-0.03628161
38	0xbd10af6e	-0.035323553
39	0xbd92249a	-0.071358874
40	0x3d8df589	0.06931598
41	0xbc879685	-0.016551265
42	0xbd21b453	-0.03947861
43	0xbc8053ef	-0.015665023
44	0x3c1ac8e0	0.009447306
45	0x3bfa93df	0.007647022
46	0x3c9ce693	0.019152915
47	0xbcfbec62	-0.030752365
48	0xbce3f82c	-0.027828299
49	0x3c05dd9f	0.008170514
50	0xbdbec85e	-0.09315561
51	0xbcad3edd	-0.02114814
52	0xbd3647df	-0.044502135
53	0xbdc76bdd	-0.0973737
54	0x3780b0af	1.5341064e-05
55	0xbd33072f	-0.043708023
56	0x3b6e5883	0.0036368675
57	0xbd42f5f0	-0.047597826
58	0xbc9fb2a8	-0.01949437
59	0x3d409b14	0.047022894
60	0xbdd64750	-0.104628205
61	0xbca18ad6	-0.019719522
62	0xbda7c58c	-0.08191976
63	0x3d1c8723	0.038214814
64	0xbc642758	-0.013925396
65	0xbd4f2948	-0.05057648
66	0xbd09e31a	-0.033663847
67	0xbcb38bf1	-0.021917315
68	0xbd981bc7	-0.07427173
69	0xbd3eae06	-0.04655268
70	0xbcd32d6d	-0.025778497
71	0xbd6e03ce	-0.058109097
72	0xbd22b9bd	-0.039727915
73	0xbd2e7e53	-0.04260094
74	0xbd9b3318	-0.07578105
75	0xbd0ccc69	-0.03437463
76	0xbd8918b9	-0.066941686
77	0x3c8ba47d	0.017046208
78	0x3df1a51d	0.11799071
79	0xbd2a9309	-0.04164413
80	0xbd83bc72	-0.064324275
81	0xbd0203fb	-0.031742077
82	0xbd805f03	-0.06268122
83	0x3b51f53b	0.0032037038
84	0xbd9facf1	-0.07796658
85	0x3ce2ab3e	0.027669545
86	0xbce6edc5	-0.02818955
87	0xbcef97fd	-0.029247278
88	0xbccdcf05	-0.025123129
89	0x3ca41705	0.020030508
90	0xbd4b5f64	-0.04965152
91	0xbc8bc074	-0.017059542
92	0xbdbe90b9	-0.093049474
93	0xbd3d4ae4	-0.046214
94	0xbd69f901	-0.057122234
95	0x3d820b28	0.06349784
96	0x3d1b7901	0.037957195
97	0xbd882709	-0.0664807
98	0xbbad094f	-0.0052806507
99	0xbdb48a6d	-0.08815465
100	0xbd294a36	-0.04133054
101	0xbc9083dd	-0.017641002
102	0xbc8419b6	-0.016125541
103	0xbc2f31b3	-0.010693002
104	0xbd264e67	-0.040602114
105	0xbd8c5dad	-0.06853805
106	0xbd2df992	-0.042474337
107	0xbd2dc5c3	-0.04242493
108	0xbc2694d5	-0.01016732
109	0x3d0dfb27	0.034663346
110	0xbd6c99ce	-0.057763867
111	0xbc7bc0a4	-0.015365753
112	0x39ab7b9e	0.00032707764
113	0x3bd45df7	0.006480928
114	0xbc23cc80	-0.009997487
115	0xbc9be39a	-0.019029427
116	0xbc75d5b2	-0.015004562
117	0xbbf92f5b	-0.007604522
118	0xbdd19f86	-0.10235505
119	0x3d02c99d	0.031930555
120	0xbd82d3d6	-0.06388061
121	0xbc3e86a1	-0.011628778
122	0x3bf9b951	0.0076209684
123	0x3bfb5398	0.0076698773
124	0xbcc981c5	-0.024598012
125	0x3ce482f9	0.027894484
126	0xbdbf34e3	-0.09336259
127	0xbccbad79	-0.024862992

network_body.linear_encoder.seq_layers.2.weight f4 [128, 128]
0	0xbe268a00	-0.1626358
1	0x3da7a3cb	0.08185538
2	0x3cce5b6f	0.025190083
3	0xbb38e882	-0.0028214757
4	0xbdcb577f	-0.09928798
5	0xbdd1e1d0	-0.102481484
6	0xbdcc3aa2	-0.09972121
7	0x3d84307d	0.06454561
8	0x3de03fd0	0.10949671
9	0xbdf037ac	-0.117293686
10	0x3d153480	0.03642702
11	0xbd345730	-0.04402846
12	0x3d6ed2a3	0.058306348
13	0x3cae7efc	0.021300785
14	0xbcc36c01	-0.023855211
15	0x3dbbab8f	0.091635816
16	0xbdf8f356	-0.12155788
17	0x39f433e2	0.00046577962
18	0xbcd540fb	-0.026031962
19	0xbd913a80	-0.07091236
20	0xbd81dcc3	-0.06340935
21	0x3d870f6f	0.065947406
22	0x3cfcc168	0.030853942
23	0x3d6ab58b	0.05730204
24	0xbe6be966	-0.23038253
25	0xbde3cf45	-0.11123518
26	0x3dc4cc84	0.09609321
27	0xbd0eebfb	-0.034893017
28	0xbd1d58e4	-0.03841485
29	0xbcfd061f	-0.030886708
30	0x3cb693a1	0.022287192
31	0xbdca2eeb	-0.0987223
32	0x3d084906	0.033272766
33	0xbe591cb0	-0.2120235
34	0xbdaa3f16	-0.08312814
35	0x3c206c73	0.009791481
36	0xbd8c55dc	-0.06852314
37	0xbd88af7b	-0.06674095
38	0xbe5eacc5	-0.21745594
39	0xbe181308	-0.1485101
40	0xbca26789	-0.01982476
41	0xbe2abc23	-0.16673331
42	0x3db3cdd4	0.08779493
43	0x3b027821	0.0019908028
44	0x3d6aaef7	0.057295766
45	0xbcfb3960	-0.030667007
46	0x3d6959a8	0.05697027
47	0xbcca9ddd	-0.024733478
48	0xbd64bd02	-0.055844314
49	0xbd0c6b9d	-0.034282316
50	0x3be7137b	0.007051883
51	0xbb238236	-0.0024949438
52	0xbd98b54e	-0.07456456
53	0x3c0a2c64	0.008433435
54	0x3d037d14	0.032101706
55	0xbe34932c	-0.17634267
56	0xbd8ad38e	-0.06778632
57	0xbca6b984	-0.020352133
58	0xbe0da0cb	-0.13830869
59	0xbc927f7f	-0.01788306
60	0x392d7bfe	0.00016544756
61	0xbd4986ce	-0.049200825
62	0xbbf676b5	-0.007521475
63	0x3d5bae52	0.05363304
64	0xbdf5725f	-0.11984705
65	0xbd13d7d4	-0.0360945
66	0xbc14f800	-0.009092331
67	0x3e51489d	0.20437856
68	0xbdf5469f	-0.119763605
69	0xbd7628ac	-0.06009738
70	0xbdceaea2	-0.10091902
71	0x3aa0275b	0.001221876
72	0x3c893016	0.016746562
73	0x3ddff71b	0.109358035
74	0xbd98c0e1	-0.07458664
75	0xbd4725f3	-0.048620176
76	0x3bf529b9	0.0074817804
77	0xbdb5c58f	-0.08875572
78	0x3e10cef9	0.14141454
79	0x3a56334b	0.00081710954
80	0x3d250b74	0.040294126
81	0xbcde306a	-0.027122695
82	0xbdc1e7ee	-0.09468065
83	0x3dea87c1	0.11451674
84	0xbd50b594	-0.050954416
85	0x3b9c450c	0.004768973
86	0x3d115675	0.035482842
87	0xbe186045	-0.14880474
88	0xbdbf9d4c	-0.09356174
89	0xbda5e289	-0.08099849
90	0x3d108875	0.035286386
91	0x3d4c67ca	0.04990367
92	0x3da9de69	0.082943745
93	0xbd6ff013	-0.058578562
94	0x3dc482d9	0.0959527
95	0xbd3f2bf9	-0.046672795
96	0xbb4906b7	-0.0030674168
97	0xbbb12db9	-0.005407062
98	0x3e083700	0.13302231
99	0x3c76db83	0.015066984
100	0xbdcfe6d6	-0.1015145
101	0xbd4f6b90	-0.05063969
102	0x3d8413e5	0.06449107
103	0x3da15102	0.07876779
104	0xbdc7c283	-0.09753897
105	0xbe2afe66	-0.16698608
106	0x3b97cd6f	0.004632644
107	0xbe1a8188	-0.15088475
108	0x3bb6b421	0.0055756723
109	0xbdb9c759	-0.09071226
110	0xbd4023fa	-0.04690931
111	0xbde13ba6	-0.10997705
112	0x3c53d771	0.012929783
113	0x3dd33163	0.10312154
114	0x3d788069	0.060669336
115	0xbda278b5	-0.07933179
116	0xbe1649bc	-0.14676565
117	0xbd8b21e6	-0.06793575
118	0xbde04536	-0.10950701
119	0xbe0853ca	-0.13313213
120	0x3d93a641	0.07209445
121	0xbdfd6474	-0.123726755
122	0x3da25176	0.07925694
123	0x3d1d7944	0.038445726
124	0xbd4a63dd	-0.049411643
125	0xbd439030	-0.04774493
126	0xbc137e3e	-0.009002266
127	0xbdb64774	-0.08900347
128	0x3dc9badc	0.09850094
129	0x3cb3a9ba	0.021931518
130	0x3d823c60	0.06359172
131	0xbded0f0b	-0.11575135
132	0xbd8bef3b	-0.06832739
133	0x3e2a5bc9	0.16636576
134	0xbe526f24	-0.2055021
135	0xbe0f3a9b	-0.139872
136	0xbd861372	-0.06546678
137	0xbceb068c	-0.028689645
138	0xbd80b763	-0.06284978
139	0xbe3adce6	-0.18248329
140	0xbd31ccb6	-0.04340812
141	0xbdfe3d16	-0.12413995
142	0xbe3273ff	-0.17427061
143	0xbda34acd	-0.079732515
144	0xbd126b86	-0.035747074
145	0xbdcde7fd	-0.10054014
146	0xbe6804dd	-0.22658105
147	0xbcf16e46	-0.029471528
148	0x3c46d6a2	0.012136133
149	0xbd87f2b4	-0.06638089
150	0xbe8bdf91	-0.27319005
151	0x3c72d76c	0.014821868
152	0x3d09221c	0.033479795
153	0xbdee1fe6	-0.11627178
154	0xbe9a47ae	-0.30132812
155	0x3d6a61ee	0.0572223
156	0x3e44b238	0.1920861
157	0xbd437f54	-0.04772885
158	0xbe568a7b	-0.20951264
159	0x3cf7c955	0.03024737
160	0xbe71680b	-0.23574845
161	0x3d1ed937	0.03878137
162	0x3e12e731	0.14346005
163	0xbd592bcf	-0.053020295
164	0xbd811422	-0.06302668
165	0xbde382dd	-0.111089446
166	0xbd80eeff	-0.06295585
167	0xbd2ad378	-0.04170558
168	0xbd28a8df	-0.041176673
169	0xbe383749	-0.1798984
170	0x3e359609	0.17733015
171	0xbbf7edf3	-0.0075662076
172	0xbda5618f	-0.080752485
173	0xbe24c96f	-0.16092466
174	0x3b35721f	0.002768643
175	0x3d130b0e	0.035899214
176	0x3cad4891	0.021152766
177	0xbe05ea60	-0.13077688
178	0xbe400a3e	-0.18753907
179	0x3ce0a0a9	0.027420359
180	0x3d4058f4	0.046959832
181	0xbdbe4402	-0.09290315
182	0xbdbe607b	-0.09295746
183	0xbde5e681	-0.11225606
184	0xbd7779c7	-0.06041887
185	0xbdc5e1ab	-0.096621834
186	0x3d9900f7	0.07470887
187	0x3c7ca1e1	0.015419454
188	0xbc8b5406	-0.017007839
189	0xbe1e281e	-0.15444991
190	0x3e1bdbca	0.15220562
191	0xbe5a6953	-0.2132924
192	0x3e0115b1	0.12605931
193	0x3d331945	0.04372527
194	0x3d82f929	0.0639518
195	0xbe202f5a	-0.15643063
196	0xbe3ac4ea	-0.18239179
197	0x3bfeeeff	0.0077799554
198	0xbd84f1c6	-0.06491427
199	0x3e0fceea	0.14043775
200	0xbe0ee191	-0.13953234
201	0xbca22e6a	-0.019797523
202	0x3e699923	0.22812323
203	0xbafd9864	-0.0019347784
204	0xbdf9711b	-0.12179776
205	0xbdbd4d80	-0.092432976
206	0xbd25ff24	-0.040526524
207	0xbd5fe434	-0.05466099
208	0xbd51e6fa	-0.051245667
209	0xbd0e5685	-0.03475048
210	0xbc119969	-0.0088866735
211	0xbda90cf5	-0.082544245
212	0xbc1db5d8	-0.009625874
213	0xbd5ab786	-0.053397678
214	0xbddf3a54	-0.10899797
215	0xbe43bc92	-0.19114903
216	0xbd0a60d5	-0.033783752
217	0x3e4b4a5c	0.19852585
218	0xbe028f9b	-0.12750094
219	0xbd8e83b4	-0.06958714
220	0xbe4619f8	-0.19345844
221	0xbea2bf70	-0.3178668
222	0x3d54f9e0	0.051996112
223	0x3d3abd3f	0.045590635
224	0xbe5fea86	-0.21866807
225	0xbd8aea2d	-0.06782947
226	0xbe21d42b	-0.15803592
227	0xbe084de9	-0.1331097
228	0xbce83ff9	-0.028350817
229	0xbcd8c5bb	-0.026461473
230	0xbd1a6825	-0.037696976
231	0x3e113c7e	0.14183232
232	0x3c70c050	0.014694288
233	0x3e32d7bd	0.1746511
234	0xbe44d02c	-0.19220036
235	0xbe9fa87f	-0.3118324
236	0x3d11bc77	0.035580125
237	0xbe3adb08	-0.18247616
238	0xbde122ba	-0.10992952
239	0xbd6b9c06	-0.057521842
240	0x3e5e0259	0.21680583
241	0xbdf52712	-0.11970343
242	0x3dccd1a6	0.10000925
243	0xbd056655	-0.032568295
244	0xbe2a4aad	-0.16630049
245	0xbd75fd45	-0.06005599
246	0x3c4af884	0.012388352
247	0xbd73cd57	-0.059522
248	0x3db62197	0.088931255
249	0x3c9e5a00	0.019330025
250	0xbc9895b3	-0.01862607
251	0xbc318c03	-0.010836604
252	0xbe18b804	-0.14913946
253	0xbde8c56e	-0.11365782
254	0xbdda29cf	-0.106525056
255	0xbc666ace	-0.01406355
