Oversteek Simulator/Learning/results/Oversteek-K-01/BadCar/BadCar-149994.onnx (onnx, 90288 bytes, 6 tensors)

action_model._discrete_distribution.branches.0.bias f4 [3]
00000000: 6669 8e3c bcc0 cdba f05c 8ebc
0.017384242 -0.0015697698 -0.0173783

action_model._discrete_distribution.branches.0.weight f4 [3, 128]
00000000: 959f 08bd dd09 383c 5a2d 633b b1c0 5abc
00000010: 78a9 a23b edf5 ab3a cdfb 6bbc d78c f23c
00000020: 52db 89bc 3405 093c 08cc 14bd 4b88 ba3c
00000030: aae7 e7ba cdb2 c43a 500c 4a3b cf87 ae3c
00000040: 47da 8bbd 69ce 0ebc da61 bbba 8b45 d7ba
00000050: a5cc a6bc 264a 0a3c 4708 99bc b102 42bd
00000060: 8400 a1bc 7363 22bd 0a8d e7bb ec7c c4bc
00000070: 8f29 cfbb 890a 03bd ae2d 30bc 219e f9b9
00000080: a19e f5bb b20b 603b 63ca d6bc 37f6 50bc
00000090: 310d f23b f504 ffbc 0149 713b 6c5b 78bd
000000a0: fe9a bd3c 6fd7 bcba 0225 febc 0300 123b
000000b0: 6cda 13b8 53c9 4438 bbe1 b13c f1c5 853c
000000c0: 4e55 73bc ae0a a53b 5409 0ebd 655c d83c
000000d0: 40bf 5cbc 11f1 04bd ffb4 fb3b b23a 74bb
000000e0: e6e0 27bc c001 293c eecd ae3a 903d cabb
000000f0: 6461 a0bc e80e 003b 0ae7 b2bd a1e8 a7bc
00000100: da1e 223c cc5e 3bbc 5cf6 eebb 6d9a 033c
00000110: dcdc 3dbc 114d 63bc 015f a0bb ef2f 81bd
00000120: ded7 93bd 672a 41bc 86ed 71bd c25e 463b
00000130: 5085 02bd e1fc fdbb faa2 0a3d 94b9 c7bb
00000140: 8b1a 52bd 407a f6bc 2fca 86bc f902 453d
00000150: 42cf 53bd a004 df3a 6118 12bd 6416 88bc
00000160: 5ad0 4ebd f9bc 583b e54b a4bd a65d 8dbb
00000170: fe39 55bd 5f1c dabc c149 b5bb 1180 2b3c
00000180: f60c 67bc c153 d7bc 4e99 82bc dfd5 3abd
00000190: ea65 b43b 18a0 c1bc ba38 c73c 80df 18bc
000001a0: 3241 753c 2720 fdbc ceeb b2bb 9457 d43b
000001b0: 27a6 c53b e8a9 973c 7dcb 34bc 5976 85bc
000001c0: 3add 6e3a abfd cdbc 5dd8 a9bb 5ee7 89bb
000001d0: c8c1 a03c d4ad ccbc 888a 8abc 27a8 a93c
000001e0: f23c 9abc b050 2e3c 2ac3 92bc b2ac b9bc
000001f0: 7a98 b1bb 2aac 2dbc 298b eabc ec03 7f3b
00000200: e324 873d f619 afbc a4d3 64bc 3a16 a5ba
00000210: 02af 32bb be52 2dbc 34ae 513c 3d70 c3bc
00000220: 1ac5 9dbb 61bb 1e3c aa6c 9c3d a804 4ebb
00000230: ca0b 5f3c 7d93 20bd bc68 3dbb ea2b b0bc
00000240: 14d3 1d3e fe0b 793c 884a 7a3c ed92 9a3c
00000250: 3735 593c 3fa7 81bc fa3d 38bb 5e3e 123e
00000260: 6f7c 3d3c bafe e83c 4d0f 3cbb d81b f73b
00000270: 36db 92ba 7c7e 65bc 3268 17bd d134 b13a
00000280: c3aa 7b3b 9305 93ba 795b 603d ab4f 223c
00000290: 28b4 6abd 4784 793d 833a 26bb e35c 343e
000002a0: 6c73 a7bc 7f45 1d3c 26e4 383d e3dd 683c
000002b0: db3b 1d3b 16ce 81ba 4820 9abd 8fdc ddbc
000002c0: 5128 453d 9c38 b63c 6c6b 2a3d 4c5f a63b
000002d0: 1739 5cbb 96b5 3a3c 28bb d439 9b17 adbb
000002e0: fb2b 513c 73e1 8cb9 1f4a 533c 115a 153d
000002f0: 2cd4 1e3c da33 7bba 6bef 5a3e c835 0e3d
00000300: cfaf 103b b852 043b 8532 ae3b 25e0 d2ba
00000310: 0bad d6bb 1b70 183d 4b9b 42bb 2059 0f3e
00000320: 2922 143e 5f2b d9ba 2689 e53d 9bc2 893c
00000330: 460b b03d 3d83 ffbb 735f 91bd 177d 853c
00000340: 5bbd e93c d60c 943d f5fc 4e3c 4b1c 87bd
00000350: 97be 983d f7be f2b9 a9a2 673d 9cbe af3c
00000360: ee54 da3d 3fba 59bb 392d 093e 5a23 2fbc
00000370: adf4 f23d 42b3 903c 86aa 13bc 6bd3 bdbc
00000380: f251 0c3d 4602 9e3c bb83 9a3c 3645 973d
00000390: 7ce4 2e3c a386 ce3c 93ed 6b3c e8c2 5e3b
000003a0: e9eb e83b 97a0 253d fa8b 26bc 4b26 cd3b
000003b0: ae91 443c d485 fb3a f4ac 4c3b 9dea 473c
000003c0: 28f5 d0bb 17c0 ac3d d65b 553c dbfe 323b
000003d0: e942 94bc 43bd 943d 540b de3c e461 af3c
000003e0: 843d 4f3c 4cfd c23a 56f7 103d c8a1 90bc
000003f0: fa0c 85b9 5c7b 0a3d 2c27 913c c61c 68ba
-0.033355314 0.01123282 0.0034664483 -0.013351605 0.00496405 0.0013119556 -0.014403296 0.029608173
-0.016828213 0.008363057 -0.036327392 0.022770068 -0.0017692943 0.00150069 0.0030830093 0.021304993
-0.068287425 -0.008716204 -0.001429613 -0.0016423924 -0.020361254 0.00844053 -0.018680705 -0.047365848
-0.019653566 -0.039645623 -0.0070663737 -0.023985349 -0.006322093 -0.03199247 -0.010753078 -0.00047610796
-0.0074957167 0.0034186658 -0.026219552 -0.012754015 0.0073868264 -0.031130293 0.0036817195 -0.06063406
0.023145195 -0.0014407466 -0.031023506 0.002227784 -3.5250952e-05 4.691754e-05 0.021714082 0.016329737
-0.014851881 0.0050366735 -0.034676865 0.026411245 -0.013473332 -0.03245646 0.0076814885 -0.003726643
-0.010246491 0.010315359 0.0013336518 -0.0061718896 -0.01957769 0.0019540135 -0.087354735 -0.020496668
0.009895051 -0.011436176 -0.007292552 0.008032423 -0.0115883015 -0.0138733545 -0.004894138 -0.06307971
-0.07218908 -0.011789895 -0.05906441 0.0030268882 -0.031865418 -0.007751093 0.033846833 -0.0060951207
-0.051294845 -0.03008759 -0.01645383 0.048098538 -0.05171133 0.0017014928 -0.03566778 -0.01661224
-0.05049167 0.003307162 -0.08022288 -0.0043141423 -0.05205726 -0.026624857 -0.005532474 0.010467545
-0.014102211 -0.026285054 -0.015942242 -0.04561412 0.005505313 -0.023635909 0.024319042 -0.00933063
0.014969157 -0.03089912 -0.005460239 0.0064801667 0.00603177 0.018513635 -0.0110348435 -0.016291784
0.0009111945 -0.025145372 -0.005183263 -0.0042084893 0.019623652 -0.024985231 -0.01691176 0.020710064
-0.01882789 0.010639355 -0.017915327 -0.022665355 -0.005419788 -0.010600129 -0.02863081 0.003891225
0.065988325 -0.021374684 -0.013966475 -0.0012595125 -0.0027264957 -0.010578809 0.012797881 -0.02385723
-0.004814756 0.009688229 0.076379135 -0.003143588 0.013613651 -0.039203156 -0.0028901538 -0.021505315
0.15412551 0.015200613 0.015276559 0.018868888 0.013257316 -0.01582682 -0.0028113113 0.14281604
0.011565312 0.028441776 -0.0028695643 0.007541161 -0.0011204246 -0.014007207 -0.036964603 0.0013519769
0.0038401342 -0.0011216871 0.054774735 0.00990669 -0.057300717 0.060917165 -0.0025364466 0.17613558
-0.02044078 0.009599089 0.045139454 0.014213058 0.0023991975 -0.0009903337 -0.075256884 -0.02708271
0.04813415 0.02224379 0.04160635 0.0050772782 -0.0033603364 0.0113958325 0.00040575233 -0.005282355
0.012766833 -0.00026870854 0.01289609 0.036462847 0.00969414 -0.00095826166 0.21380393 0.03471926
0.0022077446 0.0020190906 0.005316081 -0.0016088529 -0.00655139 0.037216287 -0.0029694613 0.13998842
0.14466156 -0.0016568712 0.112077996 0.016816428 0.085959 -0.0077976272 -0.070982836 0.016294999
0.028532675 0.07229011 0.012633552 -0.06597193 0.07458227 -0.00046300117 0.05655161 0.021453194
0.1066073 -0.0033222584 0.13396157 -0.010689581 0.118630745 0.017663602 -0.009012824 -0.023172101
0.034257837 0.019288193 0.018861642 0.07386248 0.010674592 0.025210684 0.014399904 0.0033990685
0.007108201 0.040436354 -0.010165209 0.0062606684 0.011997623 0.0019189664 0.0031231018 0.012201932
-0.006376881 0.08435076 0.013022384 0.002731255 -0.018098311 0.07262661 0.027105011 0.021408983
0.012648944 0.0014876514 0.035392128 -0.017655268 -0.00025377405 0.03380905 0.017718874 -0.0008854385

network_body.linear_encoder.seq_layers.0.bias f4 [128]
00000000: da70 b23a 6aed 7ebd c099 383c a69a d7bc
00000010: 2c94 f83d 6028 37bd b9cf edbc 2d5f 55bd
00000020: c133 11bc d3ac 803c 5f95 2bbd 2220 26bd
00000030: ed2b d63d 7c9c fd3c eabe 8c3d e0de 3bbd
00000040: 7502 99bc 17fe 5cbd 3290 78bb 4c6f bfbb
00000050: 6e6a bf3c 95b2 61bd fbb9 a33d e607 0ebb
00000060: bb95 cabc da5e ef3d 9813 813d 8eb2 bbbc
00000070: 14e0 70bd 4d80 4b3d 314a 87bd 74d5 c8bc
00000080: ce60 223e ba7c 1bbd d635 26bd b205 9cbd
00000090: 8a3b 093b 5d77 25bd 1f66 23bd 76e8 833d
000000a0: 111d d2bc fed2 b8bd a51a a73c d4a6 6dbc
000000b0: d641 42bc da2d df3c b6ca 50bd a334 c1bc
000000c0: f8f0 96bd dd72 993d 81c9 173d b4a6 94bd
000000d0: 744a 08bd 38da 733d 9efe 9fbd f6e0 01bd
000000e0: 1149 7bbd 2750 f73a 14da 843d a92a 80bd
000000f0: 4e0f 9d3d e8e7 a5bc e79c 5d3d ee59 1cbc
00000100: 6433 29bd a7c5 84bd 98c7 283d 266a 30bd
00000110: c656 23bd 260e 22bd a802 d63b 15c8 2ebd
00000120: 0be8 6b3c f6d9 2bbd 7769 99bc 36a8 223d
00000130: a18e d3bc 9086 bc3d 0f3d da3b f921 293d
00000140: 648b 83bd 9157 b839 4af6 54bd de0b 14bd
00000150: fac6 3fbd 7fd5 24bd f36e ecbb 971e 733b
00000160: 6484 833d 2738 c03c 9d6d bbbc c13b aebc
00000170: 731d 0739 db66 d63d 5f1c e53d c453 1dbc
00000180: 2838 a6bd 992e ff3d bf7c 05bc fa88 5ebd
00000190: 8f1f 9d39 a52c a13d 1517 a2bd 10e4 033a
000001a0: fafb f23c 60f7 7bbc 6665 dc3d 498a ea3d
000001b0: 65ee 173c a5b9 60bd 448c b13d b6cc a1bd
000001c0: e1a2 d13a 974e 143d 19e8 203d 937c b4bd
000001d0: 4c41 983b 60ec 243c 47bd d7bd 7921 e03c
000001e0: ed0e 263d bd44 9abd 0565 f439 5b9d 9bbb
000001f0: 2984 26bd 2b05 9bbd aa32 f73d 4dff 0fbd
0.0013613955 -0.062238134 0.011267126 -0.02631886 0.121376365 -0.04471624 -0.029029714 -0.05209272
-0.008862437 0.015707409 -0.0418905 -0.040557988 0.10457597 0.030958407 0.068723515 -0.045866847
-0.01867793 -0.053953256 -0.0037927744 -0.005842125 0.02336618 -0.05510195 0.07994457 -0.0021672188
-0.0247296 0.116880134 0.06302565 -0.02291229 -0.058807448 0.049682904 -0.06605948 -0.024515845
0.1585724 -0.037960745 -0.040578686 -0.07618274 0.002094003 -0.040397037 -0.039892312 0.06440823
-0.025648626 -0.090246186 0.020398447 -0.014505107 -0.011856517 0.027243543 -0.05097457 -0.02358467
-0.0737018 0.074926116 0.037057403 -0.072583586 -0.03327413 0.05953428 -0.07812236 -0.03170868
-0.06134898 0.0018868492 0.064869076 -0.06258137 0.07668935 -0.020252183 0.05410471 -0.009542925
-0.041308776 -0.06483012 0.041205972 -0.04306998 -0.039877675 -0.039564274 0.0065310784 -0.04267128
0.014398585 -0.04195591 -0.018727047 0.0397112 -0.025824847 0.09205353 0.006660111 0.041292164
-0.06423071 0.00035160457 -0.051992692 -0.03614413 -0.04682062 -0.04024267 -0.0072153746 0.003709709
0.06421736 0.023464276 -0.022879416 -0.021268727 0.00012885574 0.10468837 0.11187052 -0.009602491
-0.0811618 0.1246006 -0.008147418 -0.05432985 0.00029968887 0.078698434 -0.07914559 0.00050312374
0.029661167 -0.015378803 0.10761528 0.11452157 0.009273146 -0.054864544 0.08669332 -0.07900374
0.0015993976 0.03620776 0.039283846 -0.08812823 0.004646456 0.010066122 -0.10534149 0.027359711
0.040541578 -0.07532642 0.00046614572 -0.004748983 -0.04065338 -0.07569345 0.1207021 -0.035155583

network_body.linear_encoder.seq_layers.0.weight f4 [128, 39]
00000000: 0c68 13be e1ba 64bd 736a 9bbd 4f2e e23d
00000010: c441 9bbe 6c0d b03e 5fe1 eebe f914 9a3d
00000020: 433c 823e d953 01bf 2309 c73b cfc8 cebe
00000030: a15e 0c3e a46e 0f3e 5de2 21be 19fa 553e
00000040: 7219 523d 2e83 163e dccd 9e3d d9d4 b8bd
00000050: 3db0 db3d 156d 6dbe 32fc 943e 3297 65bd
00000060: d6b8 7cbe 9588 8ebd f138 26bc 5685 293e
00000070: 813d 3f3d e3c7 873d 0ce3 163e d28a 85bc
00000080: 8d30 1ebd dd8a c93e 5e92 4bbe bebb 22bd
00000090: 6d08 fa3d b500 21be e859 293e 38e6 38bd
000000a0: cb1b ca3e d76a b9bd 5a85 00be add0 2bbe
000000b0: 518e f33c 46d0 483c 3218 fbbd 259a 0ebd
000000c0: 89bb 8c3d a572 73be 5295 02be db07 00be
000000d0: e145 243e 402c 51be 69ea 36be babc 2e3e
000000e0: 6c06 a6bd 5ea1 1dbe 56df a5bd a9f8 0f3e
000000f0: 437c 97bd 2fff 98bc b681 803e ee22 23be
00000100: 9d5b 813e 21fb 0dbe b510 67be ca38 c9bd
00000110: 88ae 343d e405 e5bd aaf3 0d3e 08b1 c03d
00000120: 27da 2bbe 5258 523e 6fc1 86bd f4ec 06bd
00000130: 076d 093e 2c00 20bc 91a0 873e c8d1 11bd
00000140: 1ad5 9cbd 2c12 f93d 1544 293e 5703 a5ba
00000150: be2c 4abe 9e57 143d 5963 123e 7374 603e
00000160: be84 8dbe 7e81 5f3e 7778 063e ab63 a2bd
00000170: de3d b63d 9ecf 06be 8880 793d 864b ca3d
00000180: 094e e8bd ca85 4fbd 4e7d 8abd 1f88 bb3d
00000190: 831f 31be 72f7 ef3d a2ea 8fbe 1b84 1bbe
000001a0: e69e 61be 36a9 39be 2048 913d e856 f23d
000001b0: eedd b23e da0e 223e 5001 b03d 7b2c 943d
000001c0: 6cfa db3d b531 08be 739f 8c3d 7b79 5dbe
000001d0: 2b88 ed3c 7aa8 7a3e a59b 113f 63ba b53e
000001e0: 0e69 48be c234 eebe 554c 513e f329 b13d
000001f0: 7ac5 6dbc b8ca a7bd 5c06 51bb e3c9 3d3e
00000200: c6db 553e 0eee c23c c890 9a3e 4b56 a9bb
00000210: 3677 ec3d 7c66 ad3d 04df f33b 6f82 f0bd
00000220: f13e 2bbe 5d21 79be 5ebd 8abc 8e42 5dbd
00000230: bd44 6dbe dc50 4fbd 11db 57be 6446 a53d
00000240: baae 26bc 102b 11bd bfbe 2e3c 994a dc3e
00000250: abe7 39be 7904 ca3d ec69 02be 2bfb 13be
00000260: 1f4b adbd 9e05 e9bd f4e8 bf3d 0e10 37be
00000270: 8fbe 623d 927a 4cbe 7643 b7be 3135 023a
00000280: e47c 7d3d 0f6a ea3c f3bf 63be b166 4bbd
00000290: 9a06 02be 61f8 bb3d bf50 82be 0fb9 38be
000002a0: e4ee 763e 2907 1f3e 60c3 8abb bcd0 50bd
000002b0: 6ab1 ecbe 0a19 8c3d c153 b13d b38a cb3d
000002c0: 6090 e4be 2573 a7be d86f ebbd 42b6 e4bd
000002d0: 5bdc 483e 2ea0 9f3e a31d 69be 3dad 27be
000002e0: e2b0 f93d b3b2 1e3e 7fcc 933d 6c36 14bd
000002f0: 23f6 423e d7d7 a13d 7a0e c93d 78df 9d3c
00000300: 1403 a8bc 5e4c df3e 4063 debe 8555 633e
00000310: f077 3fbd 369f 7bbe f649 c7bd 17dc dabd
00000320: eb98 0fbe bcb4 8c3e af17 a2be 750c 84be
00000330: f8fa 913d 9122 ae3e 81f2 a73e 7171 8f3d
00000340: 74dd e73d 8ce8 703d 8c7f aa3e f23a f93e
00000350: d474 29be 199a 8d3c 15a0 07be fdec ac3e
00000360: 49f2 ecbc 3ad8 343e 7ac6 afbb 6924 eabd
00000370: f704 8538 0880 863e bb77 b7bd 3a5f ba3d
00000380: 6fd8 8fbc bfa0 5d3e a7cc 003e 150f 8c3e
00000390: 8345 13be 2fb4 29be 9189 dd3d 2259 083d
000003a0: f9c0 bdbd c988 153e d0bc 3ebd e961 873e
000003b0: 6f8a b63d ef9a e6bd 9dbe 08be ed39 993e
000003c0: a326 aaba ad78 61bc a4d6 6dbe 8c3d 63bd
000003d0: dc79 533d fb75 963e 7789 47be 8871 263d
000003e0: b6ec 0b3e 1567 903c 2261 5d3e 2a57 2c3e
000003f0: baed 1d3e 2808 87be 6810 9ebd 1200 4dbd
-0.1439516 -0.055842284 -0.07588663 0.11043989 -0.30323613 0.3438524 -0.4665632 0.075235315
0.254366 -0.50518566 0.006074087 -0.4038758 0.13707973 0.1400705 -0.15809007 0.20896186
0.051293798 0.14698479 0.07754108 -0.090249725 0.10726974 -0.23186143 0.2909866 -0.056052394
-0.24679884 -0.06959645 -0.010145412 0.1655477 0.046689514 0.06629922 0.14735049 -0.016301546
-0.03862052 0.39363757 -0.19880053 -0.039729826 0.12208638 -0.15722926 0.16538203 -0.04514143
0.3947433 -0.09053581 -0.1255087 -0.16778822 0.029730948 0.0122566875 -0.12260474 -0.034814972
0.06871707 -0.23774202 -0.12752274 -0.12502997 0.16042282 -0.20427036 -0.17862858 0.17064181
-0.081066936 -0.15393588 -0.080992386 0.140597 -0.07396748 -0.018676369 0.25098962 -0.15931293
0.25265208 -0.1386533 -0.22564967 -0.09825285 0.04411176 -0.11182764 0.13862482 0.09408766
-0.16782437 0.20541504 -0.06579863 -0.03294082 0.13420497 -0.009765666 0.2648969 -0.035600454
-0.076578334 0.12161669 0.16529877 -0.0012589496 -0.1974363 0.03621637 0.1429571 0.21919422
-0.27640337 0.21826741 0.13131891 -0.079291664 0.08898519 -0.13165137 0.060913593 0.09877686
-0.11343009 -0.0506647 -0.06762181 0.091568224 -0.17297177 0.11717118 -0.28108698 -0.15187113
-0.22033271 -0.18130955 0.07093835 0.11832982 0.34934944 0.15825978 0.08594 0.072350465
0.107411236 -0.13300212 0.0686635 -0.21628372 0.028995594 0.24478331 0.5687812 0.35493764
-0.19571325 -0.46524626 0.20439275 0.08650579 -0.014512414 -0.081929624 -0.003189466 0.18534045
0.20884618 0.023795154 0.30188584 -0.0051677576 0.11546175 0.08466813 0.007442357 -0.11743628
-0.16723229 -0.24329133 -0.016936 -0.05401855 -0.23170753 -0.050614223 -0.21079661 0.080700666
-0.010173494 -0.03544146 0.010665595 0.43025663 -0.1815478 0.09864134 -0.12735718 -0.14451282
-0.08461594 -0.113780245 0.09370604 -0.17877218 0.055357512 -0.19968632 -0.35793656 0.00049670326
0.061886683 0.028615026 -0.22241192 -0.04965848 -0.12697831 0.09178234 -0.2545223 -0.18039344
0.24114567 0.15530075 -0.0042347163 -0.050980315 -0.46229106 0.06840713 0.08658553 0.09938564
-0.446414 -0.32705036 -0.11495942 -0.111675754 0.19615309 0.31176895 -0.22765212 -0.16374679
0.12191941 0.15497856 0.07216739 -0.036184713 0.19039206 0.07902496 0.09817214 0.019271597
-0.02050928 0.4361295 -0.43435097 0.22200592 -0.04674524 -0.24572453 -0.09730904 -0.1068651
-0.14023177 0.2748164 -0.31658694 -0.25790754 0.071279466 0.34010747 0.32802203 0.07004059
0.11321536 0.058815524 0.33300436 0.48677784 -0.16548473 0.017285394 -0.1324466 0.33774558
-0.028924124 0.17660609 -0.0053642364 -0.11432726 6.342859e-05 0.26269555 -0.08958384 0.09100194
-0.017559258 0.21643351 0.12578069 0.27355257 -0.14381985 -0.16572641 0.10817254 0.03328813
-0.09265322 0.1460296 -0.046566784 0.26441887 0.08913123 -0.1126002 -0.13353963 0.29927006
-0.0012981485 -0.0137616815 -0.2322641 -0.055478618 0.051629886 0.29386887 -0.19486032 0.040635616
0.13664517 0.017627278 0.21619084 0.16830125 0.15422717 -0.2637341 -0.07717973 -0.050048895

network_body.linear_encoder.seq_layers.2.bias f4 [128]
00000000: 6f9f 78bd 4314 2c3c 77c6 883d 85da 3cbc
00000010: aba3 6bbc e29b 88bc 3ebd bebc fe0c d2bb
00000020: c88a c1bd cc61 1bbd 8aa5 59bd 3839 d53d
00000030: 8cd5 4fbd e125 b2bb 4424 053d 85bf b7bc
00000040: c990 04bd 5b7e febc 383e 363c e6a3 c8bc
00000050: 7df4 11be 3b6e 72bc 0102 16bd 6508 babc
00000060: dd75 18bd 97ad 35bd 2776 1fbc a7ec 32bc
00000070: 1a7f 4b3c 42d7 11bd c5ca 2b3d 2bd9 10bd
00000080: f492 a8bc edc1 2fbd a97e 9dbc 5ed3 6ebd
00000090: c773 0d3d ec7c 21bd 4e8b 03bd 3607 90bd
000000a0: 661b 903d 2732 15bc 5dd8 28bd a11b fdbb
000000b0: a8cb b7bb 0bc0 253c 9cf9 bf3c 72bb d7bc
000000c0: 0762 f3bc 9fec 8b3c 20f0 c2bd 72c9 35bc
000000d0: d37e 2ebd 248e cebd 9354 c93b 4bd5 f2bc
000000e0: 72aa 1f3b 02df 29bd b493 9ebc 2013 203d
000000f0: 45fc d7bd a9e0 0cbc 0b6f afbd f1e6 123d
00000100: 42fa 03bc db4c 4fbd 646d fbbc 5835 d7bc
00000110: 069f 88bd 6837 41bd 0c2e e5bc 41dd 73bd
00000120: 1f5d 38bd f90b 1dbd 4692 9dbd d87d 13bd
00000130: 47d9 88bd ddf8 b83c 7cad dc3d 4c79 1bbd
00000140: e323 83bd 1fc2 01bd 18df 6cbd c72b 4c3c
00000150: 0ce1 a3bd 6613 083d 818e f8bc 576e fdbc
00000160: 8eb1 f6bc 1c37 c93c 65e4 55bd 8389 86bc
00000170: 2fa4 c4bd 45fb 40bd 6b5f 6fbd 5cbc 823d
00000180: 43dd f13c 25e1 8bbd 1cc9 0bbc 5c9e bdbd
00000190: a278 0bbd 6545 a1bc fc29 91ba 19a2 fbb9
000001a0: b90b f8bc a533 91bd 4966 1cbd 71cb 0dbd
000001b0: 0603 81bb 981f cb3b 6155 72bd df4b 88bc
000001c0: 452d 793b 6327 eb3b 6e93 1fbc 7ce1 80bc
000001d0: 9f72 34bc 8d7a f0bb a883 d3bd c6ab cb3c
000001e0: d1ed 83bd 0b3d 1a3b 1eb1 d93b 9b90 bbbc
000001f0: 5d69 97bc 2ace 053d c320 c3bd 303f d5bc
-0.060698923 0.010502878 0.06678479 -0.0115267085 -0.014382283 -0.016675893 -0.023283597 -0.00641024
-0.094502985 -0.037935063 -0.053136386 0.10411304 -0.050740764 -0.0054366444 0.03250529 -0.02243019
-0.03236464 -0.03106611 0.011123233 -0.024492215 -0.14253421 -0.014796789 -0.036623005 -0.022709081
-0.03722178 -0.044355 -0.00973276 -0.01092068 0.01242044 -0.035605676 0.041941423 -0.035363358
-0.020577885 -0.04290955 -0.019225435 -0.058307044 0.034534242 -0.039425775 -0.032115273 -0.070326254
0.07036476 -0.0091061955 -0.041221965 -0.007724241 -0.0056089945 0.010116587 0.023434453 -0.026334498
-0.029709829 0.017080603 -0.095184565 -0.011095392 -0.042601418 -0.10085705 0.0061441152 -0.029642722
0.0024363068 -0.041472442 -0.01935754 0.03908074 -0.105461635 -0.008598485 -0.08566102 0.035864774
-0.008055272 -0.050610404 -0.03069181 -0.026270553 -0.06670956 -0.04717198 -0.027976058 -0.059537176
-0.045010682 -0.038341496 -0.07693915 -0.036008686 -0.06682067 0.022579605 0.10775277 -0.037957475
-0.06403329 -0.03167927 -0.057829946 0.012461609 -0.08001909 0.033221625 -0.030341389 -0.030936403
-0.030113962 0.024562411 -0.052219767 -0.016422993 -0.09601628 -0.04711463 -0.058440607 0.06383583
0.029524451 -0.06830052 -0.008531835 -0.0925872 -0.03405059 -0.01968641 -0.0011075134 -0.00047995223
-0.030279027 -0.070899285 -0.038183484 -0.034617845 -0.003937128 0.0061988346 -0.059163455 -0.01663774
0.0038021368 0.007176326 -0.00973974 -0.01573252 -0.011013656 -0.007338828 -0.10327846 0.024862181
-0.06441844 0.002353492 0.0066434285 -0.022896102 -0.018482858 0.032667316 -0.09527733 -0.026031107

network_body.linear_encoder.seq_layers.2.weight f4 [128, 128]
00000000: 8f45 25be 05a8 aa3d 535d ce3c 4fe4 1dbb
00000010: 2e2d dcbd 85c7 c8bd ceb3 cabd 3caa 8d3d
00000020: 163f e03d 7ff1 edbd 4635 153d 7e82 2fbd
00000030: d87a 6c3d c591 843c ae90 c2bc bc9a ca3d
00000040: b36e f8bd 2ccc 723b bf41 d5bc 2d99 76bd
00000050: 31df 80bd f20f 873d 2885 e93c 02f4 753d
00000060: f5cc 6bbe 4324 efbd 0ec3 c63d 88a3 0abd
00000070: 50e5 3bbd 5a28 f6bc f570 c93c 3952 91bd
00000080: 6e60 f13c 1ac3 57be 98a7 a3bd 6b1a 5a3c
00000090: a4d2 8dbd 5fb0 88bd 84bb 5cbe f8fd 14be
000000a0: d3af 9ebc 2170 25be 07d2 b43d 3f0d 913b
000000b0: 1ce9 6a3d f13e 11bd 8268 9b3d 9ba0 83bc
000000c0: 06b8 64bd 9131 14bd 0300 e73b 20d3 793b
000000d0: 4b15 8abd e646 213c df29 043d 2c6f 32be
000000e0: 4f4f 89bd 2cb5 a6bc 68f3 0cbe 7d12 68bc
000000f0: bc6c 9db8 a087 49bd 19b6 c5bb a2aa 5e3d
00000100: 0cd6 efbd f4c7 c1bc 172c f1bb 24a6 533e
00000110: a346 f5bd 5727 76bd 45af cebd 7dbc ef3a
00000120: 1231 833c 1013 e03d 15d9 90bd 5393 45bd
00000130: 7af0 0e3c ae95 c5bd b46e 123e cf90 4c3a
00000140: d169 303d 32cd dcbc e7aa bcbd e9a7 f33d
00000150: 39bd 46bd 690d 9f3b a215 1a3d 3314 17be
00000160: 70a4 bcbd 9af7 a2bd 5a5a 1c3d c77a 4f3d
00000170: c623 ae3d 5259 74bd 048b c13d d7d7 3ebd
00000180: af1b 0a3b 5153 d3bb e465 0a3e 2755 883c
00000190: 36c4 cebd eb3f 4dbd 4f14 843d 7181 a33d
000001a0: 76c1 c7bd 742a 26be 6135 4b3b ef70 1cbe
000001b0: 0439 cd3b 82af b9bd ca8a 6abd 3a07 dbbd
000001c0: 80ce 533c 9a30 d33d d858 7d3d ac65 a2bd
000001d0: cb49 16be 662a 8bbd a569 ccbd 6968 08be
000001e0: f36a 973d 8314 ddbd cc55 a43d ca5e 243d
000001f0: 9187 42bd 84e8 34bd cb21 9dbc 3ddf b0bd
00000200: e928 b33d 1d49 713d 9d28 663d 0aea 11be
00000210: 3bef 8bbd f343 1b3e 9912 59be d37c d2bd
00000220: b1d0 8cbd 59be 29bd 3753 21bd c479 19be
00000230: 5a8c 50bd dee0 00be 0a50 32be 3377 c2bd
00000240: cb5c 8bbd 17d0 0ebe eeed 35be 1f36 29bd
00000250: 5883 4f3a cc4b 99bd d2df 8bbe ab00 b53a
00000260: ddd3 cd3c 7d23 eebd 4ab7 8ebe e1f5 523d
00000270: ab83 523e 0738 d5bb 3bcb 54be 58c1 953c
00000280: f22f 72be 146f 003d 7bc5 133e 3a29 10bd
00000290: e9ea a8bd 8aa1 94bd 5a8e 9bbd b37a 62bd
000002a0: a5cf a83b 5136 48be 16eb 283e 4588 a43c
000002b0: 7add 8dbd 0564 18be 9e4e 18bc 7778 163d
000002c0: 4cc8 1b3c 52e5 06be 5656 4cbe af6f 573c
000002d0: 681c 053d 188a d6bd a0bf 84bd 4704 00be
000002e0: 920e fbbc 218f d4bd 8efd 853d d702 943b
000002f0: f341 8dbc e86c dfbd f162 0f3e 51c0 50be
00000300: 4a3d f03d 4463 f93c 9dfc 823d 9761 20be
00000310: 5030 24be a3f7 153c 6196 0ebd 2e03 143e
00000320: 488a 0fbe a251 42bd 9f65 5c3e 479f 1c3c
00000330: 45d4 fcbd 57c7 d5bd b2a4 e6bc b9be 87bd
00000340: 60dc 96bd 7472 5c3c 8dfb d93c cf02 9ebd
00000350: 92fe b4bc 5ad1 83bd 404b fabd 2474 52be
00000360: 299a 75bb 6551 433e b3d8 03be 7466 b1bd
00000370: 0c5a 55be 99bf a2be d5f7 543d 5be2 a03c
00000380: 2675 23be 2dea 8abd a7b5 30be 0a15 14be
00000390: a3af f9bc 6e04 1f3c 0cea 13bd 6bf2 033e
000003a0: ac6d f13b 304d 2e3e 9c01 45be d2a8 9fbe
000003b0: 0e83 a93c 16c0 1dbe b15b e4bd 9478 94bd
000003c0: 51ec 593e 97d5 d6bd ddaa c93d d922 253c
000003d0: d8ef e1bd 5339 95bd 1cb4 833c 9476 ccbc
000003e0: f1c7 9e3d fa41 ef3b fda9 6fbb 163b 95bc
000003f0: 92fc 27be 7c0b f4bd f12e f1bd 5dca e4bc
-0.16139816 0.083328284 0.025190985 -0.0024092381 -0.10750805 -0.0980368 -0.09897576 0.06917235
0.10949533 -0.11618327 0.03642776 -0.042849056 0.05773434 0.01618279 -0.02375063 0.098927945
-0.12130489 0.0037047965 -0.026032327 -0.060204674 -0.062925704 0.06594838 0.028505877 0.060047157
-0.23027404 -0.11676838 0.097051725 -0.03384736 -0.045872986 -0.030048538 0.024589995 -0.07095761
0.029464927 -0.21070519 -0.0799095 0.013311963 -0.06924942 -0.06674265 -0.21555907 -0.14550006
-0.019370949 -0.16156055 0.08829122 0.004426628 0.057351217 -0.035460416 0.07588293 -0.016067794
-0.05583956 -0.036180083 0.007049562 0.0038120225 -0.067423426 0.009843564 0.032266494 -0.17425221
-0.0670458 -0.020350061 -0.13764727 -0.014164564 -7.506597e-05 -0.049201608 -0.0060336706 0.054361947
-0.11710748 -0.023654915 -0.0073599922 0.20668846 -0.119763635 -0.06009611 -0.10092024 0.0018290427
0.01601461 0.10941136 -0.07072655 -0.048236202 0.008724326 -0.0964769 0.14300042 0.00078035606
0.043069664 -0.026953313 -0.092122845 0.11897261 -0.0485203 0.0048538935 0.037618287 -0.14753799
-0.092110515 -0.079573825 0.038172103 0.0506542 0.08502917 -0.059655495 0.09450343 -0.04659256
0.002107363 -0.006449141 0.1351543 0.016642166 -0.10096018 -0.050109785 0.06449186 0.07983673
-0.097536966 -0.16227132 0.0031007158 -0.15277456 0.0062629003 -0.090666786 -0.057261266 -0.10694738
0.012927651 0.103120044 0.061852306 -0.079295486 -0.14676587 -0.06795196 -0.099810876 -0.1332108
0.07393446 -0.10794928 0.08024177 0.04012946 -0.047492567 -0.044167057 -0.019181153 -0.08636329
0.08748037 0.058907617 0.056191076 -0.14249435 -0.06832739 0.1516264 -0.211985 -0.102777146
-0.06875742 -0.041441295 -0.039386 -0.14987856 -0.0509151 -0.1258578 -0.17413345 -0.09495392
-0.06804808 -0.13946567 -0.17766544 -0.04131138 0.0007915995 -0.0748516 -0.273192 0.0013809403
0.025125438 -0.116278626 -0.27874213 0.05150402 0.2055804 -0.006506923 -0.20780651 0.01828067
-0.23651102 0.031355932 0.14430802 -0.035195567 -0.082479306 -0.07257374 -0.07595511 -0.055292796
0.0051517063 -0.1955197 0.16495928 0.02008451 -0.06927009 -0.14881904 -0.009296088 0.036735978
0.009508204 -0.13173416 -0.1995481 0.013149186 0.032497793 -0.10475558 -0.06481862 -0.12501632
-0.030646596 -0.10378862 0.06542502 0.00451694 -0.017243361 -0.10909444 0.14002587 -0.20385863
0.1173044 0.030442841 0.063958384 -0.15662228 -0.16034055 0.0091532795 -0.03481138 0.14454338
-0.14017594 -0.047441132 0.2152314 0.009559459 -0.12345175 -0.10438412 -0.028154705 -0.06628174
-0.07366252 0.013455022 0.026609207 -0.077153794 -0.022094045 -0.06436415 -0.12221384 -0.20552117
-0.003747592 0.19074018 -0.12875633 -0.086621195 -0.20835131 -0.31786802 0.051994164 0.019639185
-0.15962657 -0.06782947 -0.17256795 -0.14461151 -0.030479258 0.009705646 -0.036111876 0.12885444
0.0073678102 0.17021632 -0.19238895 -0.31183487 0.020692375 -0.15405306 -0.11150301 -0.07249561
0.21281554 -0.10489958 0.09847043 0.010079109 -0.11032075 -0.07286324 0.016077094 -0.024958886
0.077529795 0.007301566 -0.0036569827 -0.018216651 -0.16404942 -0.11916253 -0.117765315 -0.027928526
