Oversteek Simulator/Learning/results/Oversteek-K-01/BadCar/BadCar-49983.onnx (onnx, 90288 bytes, 6 tensors)

action_model._discrete_distribution.branches.0.bias f4 [3]
00000000: 07d4 983b 15c6 46bb 2d8d 5aba
0.0046639475 -0.0030330468 -0.0008337077

action_model._discrete_distribution.branches.0.weight f4 [3, 128]
00000000: c395 4e3b 204a 993c 6c7a f53b cada d9bb
00000010: a2eb 513c a3d1 db38 12d2 0dbc b549 1f3c
00000020: b59a 833b 84cc b639 fef4 eeba b23e 383c
00000030: a92f b03b 2300 643c 8077 2a3c 205b 693c
00000040: a192 5fbb 1c0f 463c 9530 fe3a 20ee 6c3b
00000050: 4c13 18b8 802f 49ba 9898 20bc 943a d73b
00000060: f5c5 babb df8b db3a 8eac 92bb 867a ccbc
00000070: 1cc6 48ba 1e8e a1bc de69 dabb f8ad 33bb
00000080: a25e 2dbc 1da2 79bc 6dc6 cdbb 732c b2ba
00000090: c057 e6ba 51a5 cabb 7b88 e8bb bd14 243b
000000a0: 0afe 3c3c 5dd8 8c3b b88a 4bbc f9ba 223c
000000b0: c2a1 ad3b 7eab d83b 5b8b 6c3b a429 443c
000000c0: 10f0 2dbc dff8 353b 04bd 26bc ad94 cabb
000000d0: 4a4d 62bc 0c05 39bc 0d26 433c 4e52 84bb
000000e0: ea1c 4d3b f94b 86bb b1e8 093c dc65 dbba
000000f0: 544c c9bb c31b 43bc 2d2d aabc a197 c6bb
00000100: 3ced 9d3c a600 23bc e108 df3b 0b80 5b3c
00000110: 384a b0bb bed8 3b3c 36e6 3cbb e771 0dbc
00000120: 2ce7 11bc 17db a0ba c4e6 d6bc 9dfd 073c
00000130: c354 adbb 517d 20bc efa0 4f3c eaff c53b
00000140: 8839 aebc f7e3 80bb e002 f3bb b808 fe3c
00000150: 6f2b 9dbb 4d11 353c 01eb e3bb 27a2 83bb
00000160: fe7a fabb 99c2 3f3c e2a4 99bc 4f80 e0bb
00000170: 132a 28bc 2217 263c 4288 65bc 2a64 8039
00000180: 8d0b e63b d9d1 12b9 643c 65bb beb4 e8bb
00000190: 09c3 633c 8b00 d8bb 2a56 b73c fff3 5ebc
000001a0: a143 043c b554 15bc 203e b9b9 340b 113c
000001b0: fa1d bf3c 442c db3a 9d59 cc3a 0b7a 22bb
000001c0: 3743 6dbc 3f43 723c d902 1d3b 5868 8a3b
000001d0: 0bca a13c f774 5bbb 2179 ef3b 15b1 593b
000001e0: b322 b13a 79df 883c 3a5b cbbb dc13 a3bb
000001f0: ffd2 bc3b 3060 28bc fc71 adba d1d2 cd3b
00000200: 7754 073a c211 80bc 911d bdbb b2b3 25bc
00000210: 9a92 473b 3de6 0abb a130 73bb 0c1e a8bb
00000220: ad77 be3b 30b8 2c3c 53fe 683b 12d3 fe3b
00000230: 0a9b ad3b 90bd aabc f614 00bb a432 20bc
00000240: 7771 03bc 1182 343c def2 673c 02bd 5f3c
00000250: e28b 403c 1303 a93b f1f9 2e3b 3967 803c
00000260: 9e1f 523b f361 dd3c b705 00bb abc2 9fbb
00000270: 0023 cdbb 4955 a3bb 3f3f babc 510e f73b
00000280: ae71 8b3b c799 0f3a 1328 ae3c c3dc 1d3c
00000290: 935f 07bd 74f7 4d3c b9d3 f03b ab79 63bb
000002a0: bffe 7d39 a404 253c c067 a93b add3 723a
000002b0: 23bc 3c3b 15f1 89ba bb11 dcbc 06a7 16bc
000002c0: b7c4 483c 2af8 853c 8215 e3bb 55eb e03b
000002d0: 66f1 f0ba 037d 323c ae5c 2fbb c420 29bc
000002e0: adf0 59bc 576e 713b a9c8 a43a 8b5e 663c
000002f0: dc4b 103c 01af 363b c8e8 043d ef58 863c
00000300: e8ea a8ba 88b2 9fbb 9cda 8f3b e1f4 9c3a
00000310: 304b 9abb 08e7 dbbb 32eb ffba 12a0 ba3b
00000320: 8396 513b 86f2 f8bb 17e7 9b3c 1a2d f83b
00000330: bbbe 563c 4598 98bc 2229 d6bc db49 833c
00000340: 5882 f1bb 3ae6 bc3b e18b 613c 9d9a b4bc
00000350: 58cc 2bbc f2bc b0bb 1170 5939 83a0 1bba
00000360: 27ae d43b b158 353b 5cd5 f43b 726c 7aba
00000370: 10e0 7c3b 44d2 883c ccad 23bc 4341 5bbc
00000380: 9a1f 6f3c badb ef3b 40b0 9fbb 2e15 f4ba
00000390: 4ca0 b53b ccc8 cdbb 3e51 173c 0d93 8bb9
000003a0: e3e9 3e3c 410d 9aba 7675 ecbb 94a2 eb3b
000003b0: 20cb 653c 24e8 aa35 3e60 393b 518e 95bb
000003c0: af9c c539 e2ea 5c3a 7080 ef3a 6deb 9a3a
000003d0: 9edc 7fbc 6826 c33b 3180 d03c 8291 ff3c
000003e0: 0f8b 383c 073f c5bb 90b5 d73b 126f 54bc
000003f0: b54f 5c3a 8980 a03c 37cb 6f3c 539c 5f3b
0.003152237 0.018712103 0.0074914005 -0.006648396 0.012812527 0.00010481782 -0.008656042 0.009722163
0.0040162452 0.0003486612 -0.0018230972 0.0112454165 0.0053767753 0.013916048 0.010404468 0.014242917
-0.0034114497 0.012088563 0.0019393141 0.0036152676 -3.6257596e-05 -0.00076746196 -0.009802006 0.0065682624
-0.005699868 0.0016750059 -0.0044761365 -0.024960767 -0.0007658915 -0.019721087 -0.0066654524 -0.0027416926
-0.010581644 -0.015236405 -0.0062797577 -0.0013593569 -0.0017573759 -0.006184258 -0.007096348 0.0025036775
0.011535177 0.0042982535 -0.01242321 0.009932273 0.005298824 0.0066122403 0.0036093805 0.0119728185
-0.010616317 0.0027766747 -0.010176901 -0.0061822743 -0.013812372 -0.011292707 0.0119109275 -0.004038132
0.0031297752 -0.004098412 0.008417294 -0.001673873 -0.006143132 -0.011908474 -0.020773495 -0.006060556
0.019278161 -0.009948885 0.0068064784 0.013397227 -0.0053799413 0.01146525 -0.002882374 -0.0086331135
-0.008905213 -0.0012272325 -0.026233084 0.008300212 -0.0052896454 -0.009795503 0.012672647 0.00604247
-0.021267667 -0.0039334255 -0.007416114 0.031010017 -0.0047964375 0.011051488 -0.006955505 -0.004017133
-0.0076440563 0.011704111 -0.01875538 -0.006851233 -0.0102639375 0.010137351 -0.014009537 0.0002448869
0.00702042 -0.0001400182 -0.0034978623 -0.0071016243 0.0139014805 -0.0065918616 0.022379953 -0.013607978
0.008072765 -0.009114434 -0.00035332236 0.008852769 0.023329724 0.0016721566 0.0015590672 -0.0024791982
-0.014481357 0.0147865405 0.0023957996 0.0042238645 0.019749662 -0.0033486465 0.007308141 0.0033217121
0.001351437 0.016708123 -0.0062059434 -0.0049767327 0.0057624574 -0.010276839 -0.0013232823 0.006281235
0.00051624276 -0.015633468 -0.005771347 -0.0101136435 0.0030452372 -0.0021194362 -0.0037107843 -0.005130535
0.0058126063 0.010541961 0.003555198 0.0077766264 0.005298023 -0.020842344 -0.0019543744 -0.009777699
-0.008022658 0.011017338 0.014157025 0.013655903 0.011752101 0.005157837 0.002669927 0.01567422
0.0032062302 0.027024245 -0.0019534656 -0.004875501 -0.006260276 -0.004984532 -0.022735236 0.0075395484
0.004255495 0.00054779317 0.021259343 0.009635153 -0.03305013 0.012571204 0.007349458 -0.003470997
0.0002422286 0.010071907 0.0051698387 0.00092631095 0.0028798662 -0.0010524119 -0.026863923 -0.009195095
0.012253932 0.016353685 -0.006930054 0.0068639913 -0.0018382489 0.010894063 -0.0026758122 -0.010322753
-0.0133020105 0.003683945 0.0012572008 0.014060627 0.008807149 0.0027875307 0.03244856 0.016399829
-0.001288739 -0.0048735775 0.004390074 0.0011974835 -0.00470867 -0.0067108907 -0.001952505 0.0056953514
0.003198058 -0.0075972704 0.01903109 0.007573736 0.013106997 -0.018627295 -0.02614266 0.016026428
-0.0073702745 0.00576475 0.01376626 -0.022046382 -0.010485731 -0.005393618 0.0002073648 -0.0005936699
0.006490487 0.0027671272 0.0074717235 -0.0009552903 0.00385857 0.016701825 -0.009990167 -0.013382259
0.014594937 0.0073198946 -0.0048733056 -0.0018622035 0.0055427905 -0.0062800404 0.009235678 -0.00026621707
0.011652443 -0.0011753218 -0.007216151 0.0071910117 0.01402548 1.2733549e-06 0.0028286125 -0.0045640846
0.00037691506 0.0008427334 0.001827253 0.001181943 -0.015616564 0.005955506 0.025451751 0.031197313
0.011263623 -0.0060194763 0.0065829232 -0.012965934 0.0008404211 0.01959254 0.014635853 0.0034120276

network_body.linear_encoder.seq_layers.0.bias f4 [128]
00000000: 3d74 e0bc d366 0dbd 21b8 38bc 2869 8cbb
00000010: 046f f93c bfa5 8cbb 3eb0 8aba e158 ae3b
00000020: fe21 64bc 8b29 7eba 2d4e 7ebc 4edc 9abc
00000030: 91d1 603c 6138 3dbc 03a7 7e39 7bba 36bc
00000040: e95d 5abc cb2e ecbc e28a 21bc 79fd 8eba
00000050: 6ce9 51bc ef5b 37bc e5ce d73b 1044 483c
00000060: ec26 00bd c848 8e3c 025d 263c 2d59 0dbc
00000070: 2ac4 26bd 3941 06bd 7127 15bc 1dfc 49bc
00000080: b625 093d c069 f7bc 6052 e93b f3ef 74bc
00000090: a337 0fbd 7d26 92bc 6382 76bb cb5d e73c
000000a0: f754 b3bb f5ed fab9 d581 39bc e69b d9bb
000000b0: a7a2 01bc bf74 29bc 7ed8 6dbc 562e 8fbc
000000c0: 7f42 31bd a351 953c 3065 8c3a 93f2 d5bb
000000d0: f228 83bc c03c 453c 5305 a9bc 938c 4cbb
000000e0: bc5e 3dbc 7849 55bc e5a3 0c3d 6716 08bc
000000f0: 3cb5 d03b 7013 a3bc b970 443c 2d44 55bc
00000100: aee5 c83b e0f8 a0bc c8cc 02bc 2ecd 97bb
00000110: 4f39 10bd 9f9a 36bc 4ede b2bc a747 d7bc
00000120: 7e41 b8bc 7ef1 543c eeb0 c73b c029 0abb
00000130: 580d a3bc 7990 063c e525 b9bb 9940 793c
00000140: 3b1c babc 8899 d33c 697a 2ebc 3aa4 27bb
00000150: 396e f6bb f2d6 403c 1ee4 60bb d4e1 1ebd
00000160: ca7c 0f3c 4e82 2cbb 01e8 8cbc da25 b4bb
00000170: 159f 2ebc 705f b13c 7d4c 823c 1b81 adbb
00000180: e784 73bc 7891 333c 5381 4f3b 23cf 09bd
00000190: a6dd babc df93 f43a 3041 0fbd 789a 53bc
000001a0: acb5 94bb b130 1ebc e4b3 8d3c 133c 703c
000001b0: 3d20 17bc 8764 22bc 2fb8 393c a70c 8fbc
000001c0: ee9b 613b f212 0b39 ec21 1fbc 6090 02bd
000001d0: 8b3e 82bb 08f1 7b3b 39be 0bbd cd77 753c
000001e0: a121 b33b 2579 b3bc 6d0a 803c 8bf3 8ebc
000001f0: fc63 d2bb 79f2 73bc e894 4cbb dc2a 54ba
-0.027399177 -0.03452189 -0.0112743685 -0.0042849965 0.030448444 -0.0042922194 -0.0010581089 0.005320654
-0.01392412 -0.00096955214 -0.015521568 -0.018903878 0.0137218395 -0.011549086 0.00024285544 -0.011152859
-0.013328054 -0.028830906 -0.009859772 -0.0010909281 -0.012812 -0.011191352 0.006585943 0.012223259
-0.03128712 0.01736869 0.010154011 -0.008627218 -0.04071442 -0.032777045 -0.009103642 -0.012328175
0.03348323 -0.030201793 0.0071204156 -0.0149497865 -0.03496517 -0.017840618 -0.0037614338 0.028242966
-0.005472775 -0.00047861008 -0.011322458 -0.006640899 -0.0079123145 -0.010342776 -0.014516948 -0.01747815
-0.043276306 0.018227404 0.0010711309 -0.0065291612 -0.016010735 0.01203841 -0.020632422 -0.0031211718
-0.011558231 -0.013018005 0.03433599 -0.008306122 0.006369261 -0.01990673 0.011989766 -0.013016743
0.0061308956 -0.019649923 -0.007983394 -0.0046326136 -0.035210904 -0.011145263 -0.021834519 -0.026279284
-0.022492167 0.012997029 0.0060940897 -0.0021082014 -0.019903824 0.008213156 -0.0056502693 0.015213155
-0.02271854 0.025830045 -0.010649302 -0.0025580064 -0.007520464 0.011769997 -0.0034315656 -0.038789585
0.008757779 -0.0026322785 -0.017200472 -0.0054976763 -0.010658045 0.021651953 0.015905613 -0.0052949316
-0.014863229 0.010959975 0.0031662777 -0.033644807 -0.022810768 0.0018659792 -0.034974277 -0.012915246
-0.0045382585 -0.009655164 0.017297693 0.01466276 -0.009223995 -0.009911663 0.011335417 -0.017462088
0.0034425217 0.0001326313 -0.009712677 -0.031875968 -0.003974741 0.0038443226 -0.034116957 0.014982176
0.0054666554 -0.021908352 0.015629971 -0.017450115 -0.0064206105 -0.014889353 -0.0031216685 -0.0008093545

network_body.linear_encoder.seq_layers.0.weight f4 [128, 39]
00000000: 0c68 13be 2d20 1d3e 736a 9bbd 0a96 e03b
00000010: 01ff acbe 6c0d b03e 25c2 9abe f914 9a3d
00000020: 4662 323e ef95 0abf 2309 c73b 46fc 96be
00000030: a15e 0c3e b5a5 ec3c 9ff2 3dbe 19fa 553e
00000040: 8207 0f3e 2e83 163e a6ac c3bc 2f58 f1bd
00000050: 3db0 db3d 299b 35be 32fc 943e d45a 1ebe
00000060: e40b 8cbe 9588 8ebd 899b 003d 5685 293e
00000070: d69a 3fbd d867 283d 0ce3 163e 3c02 763b
00000080: 8d30 1ebd 5095 963e b677 66be f8e8 67bc
00000090: d27e a93d 2bb3 01be 40ea 323e 38e6 38bd
000000a0: 7324 a03e d76a b9bd 51f6 00bd a376 09be
000000b0: 518e f33c 12ef 84bd 3218 fbbd b75f 5e3d
000000c0: dd05 c43d a572 73be 4b99 42be db07 00be
000000d0: 4e8b 823e bc04 3bbe 69ea 36be 7912 e63d
000000e0: 6c06 a6bd 15e1 7ebd 5ed0 74bd a9f8 0f3e
000000f0: 741c f4bd 2fff 98bc aad1 a53e e54f 0cbe
00000100: 9d5b 813e e379 0bbe b510 67be 4bee 15bc
00000110: 13c9 6b3d e405 e5bd 5986 003e 08b1 c03d
00000120: eb58 bcbd c51f 6d3e 474a e9bd 5b7b 50bc
00000130: ff71 a73d b0d7 623c 91a0 873e a6af b63d
00000140: 1ad5 9cbd da39 c63c 670e 0e3e 5703 a5ba
00000150: f95a 15be 9e57 143d 9663 783d f2eb 453e
00000160: be84 8dbe 6f30 683e 7778 063e ec25 3bbe
00000170: 31f4 7d3d 9ecf 06be bb5c ad3d 864b ca3d
00000180: b46c 43be f8c4 9fbd 4e7d 8abd ba1f 9e3c
00000190: 831f 31be 9468 e13c 1cd2 9cbe 1b84 1bbe
000001a0: 3645 36be 36a9 39be 143c cfbc da5b ae3d
000001b0: eedd b23e 9a68 2c3e 5001 b03d 5c5e e8bc
000001c0: b240 a53d a4f2 e7bd 4be3 4f3d 2165 4bbe
000001d0: ef7c 963c 7aa8 7a3e 103b d73e 63ba b53e
000001e0: 1013 0cbe 6417 ddbe 554c 513e ff6f 5e3b
000001f0: 7ac5 6dbc 2753 e8bc ca4b e83c e3c9 3d3e
00000200: 33ea f23d 0eee c23c 88bc bb3e 0385 ef3c
00000210: 3677 ec3d dbda 263d 04df f33b f835 1fbd
00000220: 6d76 0bbe 5d21 79be cd04 33bd 8e42 5dbd
00000230: 3bec 2fbe 2d49 abbc 11db 57be cfd2 c63c
00000240: baae 26bc 0c44 643d 47b4 203d 994a dc3e
00000250: 63ec 4cbe 7904 ca3d d050 74bd 5f7c e8bd
00000260: b832 f8bd cdc9 e8bd e4c9 393d 7fe1 02be
00000270: 8fbe 623d 07fa c9bd 7643 b7be 3191 30bc
00000280: 984b fcbc 0f6a ea3c 9941 a4bd b166 4bbd
00000290: 0dc9 1ebe d862 853c bf50 82be 8339 dcbc
000002a0: e4ee 763e 0b7c 123e 8fa0 b4bd bcd0 50bd
000002b0: 895f 7cbe 0a19 8c3d 4681 483d 8f3a bc3c
000002c0: 6090 e4be 71dd 9bbe d86f ebbd 0cc4 edbd
000002d0: 4bce e93d 2ea0 9f3e e752 e1bd 3dad 27be
000002e0: 1c6b 8d3d a9ed ad3d 7fcc 933d ee7d 9fbd
000002f0: 23f6 423e f963 ab3d 2a54 193d fac7 293c
00000300: 4e53 a8bc 2078 ba3e cae5 c9be 8555 633e
00000310: 1a00 3ebe 369f 7bbe 3b48 cfbd f9e1 63bd
00000320: eb98 0fbe b410 163e af17 a2be 5efc 85be
00000330: fc5f f63d 9122 ae3e eb8e 243e 7171 8f3d
00000340: 766d df3d 1678 d43d 8c7f aa3e 80ae a73e
00000350: d474 29be 2c15 653c c21c b1bd fdec ac3e
00000360: 1248 ffbd 3ad8 343e 8890 0abc 2bc3 8fbd
00000370: f704 8538 5273 353e bb77 b7bd 44e6 b33d
00000380: 69a9 de3c bfa0 5d3e 6257 b73d 150f 8c3e
00000390: bbc7 16be 5d6c fbbd 2e7a 043e de96 953d
000003a0: 5141 91bd 6121 233e d0bc 3ebd 5474 223e
000003b0: 6f8a b63d 6b5f 60bd 686a debd ed39 993e
000003c0: dc53 7cbd ad78 61bc bfe5 20be fda9 0fbd
000003d0: dc79 533d 514c 5f3e 7789 47be 835b d63d
000003e0: 96f9 253e 1567 903c c2ee 4d3e 2a57 2c3e
000003f0: ec30 763e aa29 77be 6810 9ebd 309c 95bd
-0.1439516 0.15344305 -0.07588663 0.0068538236 -0.33788303 0.3438524 -0.30226246 0.075235315
0.17420301 -0.5413503 0.006074087 -0.29489344 0.13707973 0.028887609 -0.18549584 0.20896186
0.13967708 0.14698479 -0.023886036 -0.11784398 0.10726974 -0.1773497 0.2909866 -0.15464336
-0.27352822 -0.06959645 0.03139833 0.1655477 -0.046778522 0.041114658 0.14735049 0.0037537953
-0.03862052 0.2941079 -0.22506604 -0.014154665 0.08276142 -0.12666003 0.17472172 -0.04514143
0.3127781 -0.09053581 -0.031484906 -0.13424163 0.029730948 -0.064909115 -0.12260474 0.0542905
0.09571431 -0.23774202 -0.19003789 -0.12502997 0.25496906 -0.18263525 -0.17862858 0.11233992
-0.081066936 -0.062226374 -0.059769027 0.140597 -0.119194895 -0.018676369 0.32386523 -0.13702352
0.25265208 -0.13620715 -0.22564967 -0.009151052 0.057564806 -0.11182764 0.1255125 0.09408766
-0.09196647 0.2315665 -0.113911204 -0.012724723 0.0817604 0.013845369 0.2648969 0.08920221
-0.076578334 0.024197508 0.13872682 -0.0012589496 -0.14585485 0.03621637 0.060641848 0.19328287
-0.27640337 0.22674726 0.13131891 -0.18276185 0.062000457 -0.13165137 0.084649526 0.09877686
-0.19084436 -0.07801241 -0.06762181 0.019302238 -0.17297177 0.027515687 -0.3062905 -0.15187113
-0.1779984 -0.18130955 -0.025297202 0.08513613 0.34934944 0.16836777 0.08594 -0.028365307
0.0806898 -0.11325577 0.050753873 -0.19862796 0.01837012 0.24478331 0.4203725 0.35493764
-0.13679147 -0.43181908 0.20439275 0.0033941267 -0.014512414 -0.028359963 0.028356452 0.18534045
0.11861076 0.023795154 0.36667275 0.02923823 0.11546175 0.04073606 0.007442357 -0.038869828
-0.13619395 -0.24329133 -0.04370575 -0.05401855 -0.17179959 -0.020908916 -0.21079661 0.024270443
-0.010173494 0.055728957 0.039234426 0.43025663 -0.2001205 0.09864134 -0.05964738 -0.11351847
-0.12119049 -0.113666154 0.045358554 -0.12781332 0.055357512 -0.09862142 -0.35793656 -0.010776804
-0.030797765 0.028615026 -0.08020324 -0.04965848 -0.15506382 0.016282484 -0.2545223 -0.026882892
0.24114567 0.14305131 -0.088196866 -0.050980315 -0.24645819 0.06840713 0.04895141 0.022977142
-0.446414 -0.30442384 -0.11495942 -0.116096586 0.114163004 0.31176895 -0.110021405 -0.16374679
0.06905195 0.08492596 0.07216739 -0.07787691 0.19039206 0.08368678 0.03743378 0.0103626195
-0.020547535 0.36419773 -0.39433128 0.22200592 -0.18554726 -0.24572453 -0.10121199 -0.055635426
-0.14023177 0.14654809 -0.31658694 -0.26169103 0.12030026 0.34010747 0.16070144 0.07004059
0.1090955 0.10374467 0.33300436 0.3275032 -0.16548473 0.013982099 -0.08648063 0.33774558
-0.12464918 0.17660609 -0.0084573105 -0.07019647 6.342859e-05 0.17719772 -0.08958384 0.08784154
0.02718039 0.21643351 0.08952214 0.27355257 -0.14724629 -0.12276528 0.12937233 0.07304166
-0.07092536 0.15930702 -0.046566784 0.15864688 0.08913123 -0.054778498 -0.10860139 0.29927006
-0.061603412 -0.0137616815 -0.15712641 -0.035074223 0.051629886 0.21806456 -0.19486032 0.10466673
0.1620849 0.017627278 0.2011061 0.16830125 0.240421 -0.24136987 -0.07717973 -0.07305181

network_body.linear_encoder.seq_layers.2.bias f4 [128]
00000000: 8a80 60bb 7645 9bbb e276 363b 36d8 c8bc
00000010: 9b5b e0bb 3cec a5bc 4bd7 01bd b17a 2cbc
00000020: 5c0f 8abc 7fe9 4cbc eefc 64bc 65b8 09bc
00000030: 13b3 bfbc bae9 72bc f07f a3b9 a4be cdbc
00000040: c9e4 7fbc d51b 24bc b6af d7bc 169e b8bc
00000050: 3804 e6bc 15f1 32bc 0661 89ba 452f 95bc
00000060: 2f6b 04bd 0594 8cbc 598e 553a 2d50 d0bc
00000070: aa58 80bc 6920 96b9 e730 b43b c6c5 79bc
00000080: dadd 94bc cf8b c4bc 43f9 57bc dce7 8cbc
00000090: ff30 ab3b c898 4eba 2e9a a8bc d284 19bc
000000a0: 4bee c53a bfb2 c1bb 9720 b7bb 38e0 92bb
000000b0: d313 0e3c c4d3 b53a b121 d13b 11dc 8cbc
000000c0: 5cc9 553b b7bd 81bc bdf7 1bbd 0050 8ebb
000000d0: b927 a5bc 8084 15bd acbb c738 dcd5 7ebc
000000e0: 1b2f 293c 0225 11bd d610 2abc 27e8 a63a
000000f0: 84df 30bd 10c2 78bc 87cc 1abd 0143 f73b
00000100: 8026 8abb aa7f f6bc ef9c 4bbc ffd7 3fbc
00000110: f15a 1ebd 3e2f 253c 54bd 71bc 088c f2bc
00000120: 1937 dbbc 09e4 9bbc f450 bfbb 687e a7bc
00000130: 9f6c 7a3b 70ef 0f3c ac50 2f3c 2baa 0dbd
00000140: 33df 1dbb 00ef 3abc 30db f4bc b668 1dbc
00000150: ea8d 02bc 36d6 bf3b 427b a4bc bf23 a9bc
00000160: 25d4 44bb 5929 75bb 0a2c 193c 8f5f e1bb
00000170: 0053 bcbc cdf3 18bb ca38 27bd 4488 1f3b
00000180: 98d1 3abc a185 b6bc a003 deba a2cb 6bbc
00000190: 5046 1ebc f32f 84bc 7350 4b3a 6967 1cbc
000001a0: 3782 67bc def3 9ebc 8e80 9dbc ed95 3abc
000001b0: 0f66 97ba 5b8e aa3a 3cf4 24bc 275b 01bb
000001c0: 7236 f83a 9094 e2bb eea8 69bc e21b 19bc
000001d0: a47e 54bc 37b0 fc39 578c 8abc f3e5 503b
000001e0: 1600 61bc 7d83 383c aa0b d4bb 8a45 6bbb
000001f0: 6584 61bc c41e 0bbc b691 21bd 6389 a6bc
-0.0034256303 -0.004738505 0.0027841856 -0.02451716 -0.0068468577 -0.020254247 -0.03169946 -0.010527299
-0.016853027 -0.012506842 -0.013976319 -0.0084057795 -0.023400819 -0.014826233 -0.00031185104 -0.025115319
-0.0156185115 -0.010016401 -0.026328903 -0.022536319 -0.028078184 -0.010921736 -0.0010481186 -0.018211016
-0.03232878 -0.017160425 0.00081465166 -0.025428856 -0.015667278 -0.00028634377 0.0054989937 -0.015244907
-0.018172193 -0.023992447 -0.013181987 -0.017200403 0.0052243466 -0.00078810425 -0.020581331 -0.009370046
0.0015100924 -0.005911201 -0.005588602 -0.0044822954 0.008671719 0.0013872315 0.00638219 -0.01719478
0.003262124 -0.015837533 -0.03807806 -0.004343033 -0.020160543 -0.036503315 9.524016e-05 -0.015553918
0.010326172 -0.035435684 -0.010379991 0.0012733982 -0.04318191 -0.015182987 -0.03779271 0.0075458293
-0.0042160153 -0.030090172 -0.012427553 -0.011709212 -0.038660947 0.010082064 -0.014754612 -0.029607788
-0.026759671 -0.019029634 -0.005838508 -0.020446017 0.0038211716 0.008785114 0.010700386 -0.034586113
-0.0024089336 -0.011409521 -0.029889673 -0.009607485 -0.007968405 0.0058543934 -0.020078305 -0.020646928
-0.0030033675 -0.0037408678 0.009348879 -0.0068778466 -0.022988796 -0.0023338676 -0.040825643 0.0024342695
-0.01140251 -0.022280516 -0.0016938336 -0.014391812 -0.0096603185 -0.016136145 0.00077558233 -0.009546139
-0.014130167 -0.019403394 -0.019226339 -0.011388284 -0.0011550802 0.0013012396 -0.010067996 -0.001973817
0.0018937124 -0.0069146827 -0.014261467 -0.009345027 -0.012969647 0.00048196476 -0.016912622 0.0031875342
-0.013732931 0.011261818 -0.006471117 -0.0035899603 -0.0137644755 -0.008491222 -0.0394456 -0.020329183

network_body.linear_encoder.seq_layers.2.weight f4 [128, 128]
00000000: ecf1 13be f4c4 d23d 42ea 503d 084b c2bb
00000010: 3492 95bd 534c ccbd 22a3 bfbd 73c0 a53d
00000020: 6120 083e 0988 e6bd c3bc 823d 297c fbbc
00000030: c7b3 943d a8c6 223d 5ac8 98bb c7a0 ea3d
00000040: 6dd0 03be 21bf ba3c a601 e5bc e742 9fbc
00000050: 9084 08bd 5065 c63d 8a6f 6d3d 2f4d 803d
00000060: 1c2b 53be 77bb c4bd e51f e33d 5114 41bd
00000070: 7ad9 0dbd a471 943c d934 0b3d 62c0 9abc
00000080: 5af7 4e3d f800 1bbe 907f f5b9 c0b2 ae3c
00000090: 5ea6 d5bc 4dd5 64bd 22d8 61be 5da4 d5bd
000000a0: 628b 94bc e809 0abe 26d0 dc3d 6c60 7f3c
000000b0: b815 233d 32f9 f33a 7c95 c03d 5da0 edb8
000000c0: e190 8bbc 15b5 0cbb b900 0b3d 2d41 df3b
000000d0: b0a8 57bd bdef 963c d969 6d3d 7bd1 2abe
000000e0: 097a 43bd eb11 233c e3cb a3bd 5d79 1bbc
000000f0: e4a7 8e3c e9b7 efbc 8b70 b43a 1bca 8a3d
00000100: 6263 fdbd 4f29 503d d5f8 463d 5046 593e
00000110: e416 cfbd 7710 f0bc 78a2 babd e1d7 093c
00000120: 293f 0b3d 6f71 cf3d b2a8 86bd fe94 2ebd
00000130: 6a0f e63c 54f4 1abd cc3b 1b3e 4476 3d3d
00000140: 54a8 e53c 4d7f a2bc 3ef2 a5bd b733 073e
00000150: 4dcc 28bd 6922 543a 49e2 2f3d ea83 13be
00000160: 13b1 a2bd 3cb3 99bc 324a 573d dd96 843d
00000170: 0c86 bc3d 914e f8bc bb97 f73d b820 66bd
00000180: 7faa 963c ecf3 933c ea73 103e 4deb 363c
00000190: f26d 7fbd f367 20bd a05a c53d 04ef a33d
000001a0: 563e 93bd d785 c1bd 97a9 a43c ff7c 05be
000001b0: 1b03 733c 6fc7 94bd cece cebc 6ac0 debd
000001c0: 49e4 283d a855 c53d abe0 8c3d ceed 8bbd
000001d0: 3593 0ebe 9709 debc 20dd aabd e3c8 f6bd
000001e0: f6e9 9e3d 8235 cebd c08d b73d a649 453d
000001f0: d1f8 14bd 63b5 0fbd f358 fb3c a497 a6bd
00000200: 98b1 9e3d 0d80 5d3d b5fd 293d d855 e8bd
00000210: 3599 dd3c d537 0e3e 296e 1ebe 234f 8bbd
00000220: 9bf4 9ebd c428 5bbd 0c5e 6bbd ade8 c5bd
00000230: a6d6 1a3c 6826 f4bc 1d4b d2bd 5a6f dfbd
00000240: 0451 0bbd 8ee3 abbd 77b7 fabd 5957 5ebd
00000250: c3f2 4dbc 64a6 afbd a22b 2ebe 915c 03bc
00000260: 9ea7 903c 6d1f e4bb dc30 4cbe 1482 b73d
00000270: c4df 683e f451 603d 1842 65be 8b0b ee3b
00000280: b3a0 f2bd 54ae c83c 7fa5 0f3e 71a8 0ebc
00000290: deb6 0dbd 1794 83bd 71a4 aebd 49e2 86bd
000002a0: 943d 833b 6641 11be 4ef5 1e3e fd98 443d
000002b0: 4b6d 31bd 7aed 01be 870d 10bd d29c cd3c
000002c0: a917 d9ba 931e 08bd 848e 59be 62d4 e33a
000002d0: f051 a33c 5540 d6bd 6c90 82bd 7e55 09be
000002e0: 9cb3 e8bc b174 f2bd adeb 583d df1b e5bb
000002f0: b007 9e3d 45f2 d5bd b0df 0d3e 1a25 1fbe
00000300: e8de d83d 8a77 a43c 88aa 123e 062c f2bd
00000310: 469f 2ebe d18c c3ba 093d 20bd 8c97 0d3e
00000320: eefd 25bd fcff 04bd 9337 4e3e feab d63c
00000330: cc05 11bd f4f1 41bd ca0f e2bc 336e 9ebd
00000340: ad56 4ebd 33c1 073c fc87 653d 2639 d4bc
00000350: 037d efbc 1c16 c6bc b4fb 02be fc98 5cbe
00000360: 3714 343d 5f9c 383e 5910 8fbd 4b1c 58bb
00000370: b46a 5dbe 1823 66be de5c 1d3e 5f6e 483d
00000380: f50a b8bd 1139 da3c 0ed8 3bbe 2b6a d7bd
00000390: a005 bd3c 39cb 443d 3a31 42bd 13a6 f53d
000003a0: a435 bcba aa2c 353e 1f30 a1bd 9b8c 60be
000003b0: 9846 7d3c d8fc 2abe 411a 2bbd c1dd b1bd
000003c0: 509b 4c3e e1f4 a5bd 246a c03d 3fa4 433c
000003d0: 544e 70bd 39da acbd 1afe 503d 1cd2 2b3d
000003e0: 3026 8b3d 0bf7 3bbb 974c 0d3d 2a79 f4bc
000003f0: 03cc ebbd 190c 9cbd c6f4 54bd 8c03 14bd
-0.14447755 0.10291472 0.051004656 -0.0059293546 -0.07303277 -0.09975495 -0.09357287 0.080933474
0.13293602 -0.112564154 0.0638366 -0.030698853 0.07260852 0.039740235 -0.0046625556 0.11456447
-0.12872477 0.022796215 -0.027954888 -0.019441081 -0.033329546 0.096872926 0.0579677 0.062647216
-0.20621914 -0.096060686 0.11090068 -0.047138516 -0.03463123 0.018120594 0.033985946 -0.018890563
0.05052886 -0.15137088 -0.00046825083 0.021325469 -0.026080307 -0.055867482 -0.22055104 -0.104317404
-0.01813287 -0.13480341 0.10781889 0.015586954 0.039815634 0.0018613695 0.09403512 -0.00011330911
-0.017036857 -0.0021470238 0.033936236 0.0068131895 -0.052651107 0.018424863 0.057962272 -0.16681473
-0.047723804 0.009953002 -0.07997873 -0.0094893845 0.01741404 -0.0292625 0.001376645 0.0677683
-0.123724714 0.050820645 0.04857715 0.21218228 -0.10111788 -0.029304726 -0.0911302 0.008413286
0.03399578 0.101290576 -0.06575145 -0.04262256 0.028083522 -0.037830666 0.1515953 0.046255365
0.028034367 -0.019836092 -0.08102845 0.13203321 -0.04121046 0.0008092286 0.04294041 -0.1440579
-0.079439305 -0.018762223 0.052560993 0.064740874 0.09205255 -0.0303109 0.12089487 -0.056183547
0.018391846 0.018060647 0.14106718 0.0111644985 -0.06236071 -0.039161634 0.09636426 0.08004573
-0.07189624 -0.09449356 0.020100398 -0.13035963 0.014832283 -0.072646014 -0.025245097 -0.10876544
0.041233335 0.09635478 0.068787895 -0.06832467 -0.13923343 -0.027104182 -0.083429575 -0.12050035
0.07759468 -0.100687996 0.089625835 0.04816594 -0.036370102 -0.035085093 0.030682063 -0.08134392
0.07748717 0.054077197 0.04150172 -0.113444984 0.027050594 0.13888486 -0.1547171 -0.068022035
-0.077614985 -0.053505674 -0.057462737 -0.0966352 0.00945059 -0.02980347 -0.10268233 -0.109099105
-0.03401281 -0.08393012 -0.122420244 -0.05428252 -0.012570086 -0.08576658 -0.17008832 -0.008017675
0.017658051 -0.006961754 -0.19940513 0.08960357 0.2274161 0.054765657 -0.22388494 0.0072645596
-0.11847057 0.024497189 0.14027975 -0.008707152 -0.034598224 -0.0642473 -0.085274585 -0.06586129
0.0040051434 -0.14185104 0.15523264 0.047997463 -0.04331712 -0.12688246 -0.03516915 0.025099192
-0.0016562837 -0.033232283 -0.21245772 0.0017382021 0.019936532 -0.10461489 -0.063752025 -0.13411519
-0.028405957 -0.11838663 0.052959133 -0.006991848 0.0771631 -0.104466 0.13854861 -0.15541497
0.10589391 0.020076532 0.14322865 -0.11824803 -0.17052945 -0.0014919286 -0.039120708 0.13827342
-0.04052537 -0.03247069 0.20138387 0.02620506 -0.03540592 -0.047349885 -0.02759542 -0.077358626
-0.05037563 0.008285808 0.056037888 -0.025906157 -0.029234415 -0.024180464 -0.1279133 -0.21542734
0.04396459 0.18028401 -0.0698554 -0.0032975848 -0.21622735 -0.22474325 0.15367457 0.048933383
-0.08986465 0.02663854 -0.18344137 -0.10518297 0.023073971 0.04804537 -0.047410227 0.11994567
-0.0014359248 0.17692819 -0.078705065 -0.21928637 0.015458725 -0.16698015 -0.041773085 -0.08684874
0.19981122 -0.081033476 0.09395245 0.011941015 -0.05866845 -0.0844006 0.05102358 0.041948423
0.06794393 -0.0028681185 0.03449687 -0.029842932 -0.115135215 -0.07619495 -0.051991247 -0.036136195
