Oversteek Simulator/Learning/results/Oversteek-K-01/BadCar/BadCar-99994.onnx (onnx, 90288 bytes, 6 tensors)

action_model._discrete_distribution.branches.0.bias f4 [3]
00000000: f9eb 293b 4575 37bb 29eb 5d3a
0.0025928004 -0.0027993482 0.00084655226

action_model._discrete_distribution.branches.0.weight f4 [3, 128]
00000000: 8ad3 6bbc 8845 2f3c cc9e bc3c 7d51 ffbb
00000010: 70ee 973c 50b6 4a3c 6e48 a8bb 30eb 073d
00000020: bcc3 4bbc 14f6 ba3b 549c 73bc dae1 df3c
00000030: 6a84 b83b 4f47 c03c 2e6c 093c 88aa c83c
00000040: b111 27bd 8608 b43b 9f5f 9ebb ed9b ee3b
00000050: 2afe c6bb d297 f63b fc28 44bb ad99 d3bc
00000060: e196 c9bb a9d8 13bd 29a6 45bb 8d55 f0bc
00000070: 8f44 2bba ed7a 64bc e8e7 abb9 89b6 e83b
00000080: 45b8 1cbb e0e5 f7bb efed 8fbc aac2 b4bb
00000090: a998 1e3c 4c55 2dbc 3cb8 2ebb 8708 29bd
000000a0: 8147 8f3c 511d 023c ce08 acbc f1df 1f3c
000000b0: 4540 6d3b 7669 7b3c 2b6b d03c 62e8 fe3c
000000c0: fe32 dc39 616a 033c 6585 87bc f6b7 a43c
000000d0: 629d e0bb f931 ddbc 0a8e 4e3c 6100 d0ba
000000e0: 9ba4 e9b9 9b76 f93b 3840 be3b a8d8 4c3a
000000f0: 9fc9 18bc 35bc e13b a603 86bd 44fd 01bc
00000100: 87e4 5a3c 6bb6 eebb ca0c b53b 28a2 473c
00000110: 0d39 b1bb dd61 cab9 5540 1fbb 114e 3abd
00000120: f85f 41bd 8891 fabb 7c5c 17bd 6f39 0c3c
00000130: 9e90 51bc f721 a3bb 599c d93c 01cd 593b
00000140: 6099 cbbc 0440 46bc 5b0f 4ebc 9e89 473d
00000150: 119f e8bc 703a c03c 0482 a8bc 6432 f1bb
00000160: d2a8 e4bc e0c0 833c b186 71bd adfb b6ba
00000170: 9484 e6bc 11a2 9abc dc03 95bb d506 e43b
00000180: 6abf d0bb 19fe 4cbc 47d3 9bbb 45b4 a8bc
00000190: 3130 1d3c c9e0 2dbc d653 e13c 50e1 8fba
000001a0: fddb 4d3c f096 33bc 6827 a5bb 6de7 c23b
000001b0: d47e cb3c f818 473c 7fe9 f2ba 531d 1a3b
000001c0: 2b58 123a 39ee 22bc d6fe a43b 40f4 793a
000001d0: 833f b53c 5aa9 2cbc e103 27bc ad4e a53b
000001e0: f552 99bb 5c60 0e3c 5f89 06bc 3385 ecba
000001f0: 1dd1 a73b 93fb 0abc 6dd8 81bc 0c58 433c
00000200: 89ee 243d 19e1 74bc 4de4 f1bc cfad 20bc
00000210: 57ad 893b 46fe 6bbc 55d3 26bb 6769 34bd
00000220: 60fa cd3b 2584 273c 3719 243d 70ba 84bc
00000230: b53e d43b a252 33bd d679 15bb 7ae5 97bc
00000240: 8b11 d73d fa0e 543c 190b 8b3c ea36 5d3c
00000250: 25bf 4b3c 6963 65bc 5832 2ebc 7121 d23d
00000260: af63 823b d359 e33c c475 6fbb 1e2d 3fbb
00000270: 1aa1 fabb 3562 aabc 12b1 d9bc 59a7 183b
00000280: faed 5d38 b225 81b9 eaa2 3c3d 4eb6 1f3c
00000290: 2091 62bd 8e2c e63c 2026 503b 738b 023e
000002a0: 6208 3ebc 46be 123c 61e7 063d c405 223c
000002b0: 2496 95ba da25 95ba 239f 90bd b436 f6bc
000002c0: 03ec b63c e77a 823c edb5 773c 9bdc c73b
000002d0: 09d4 d3bb 3ff2 353c 4e73 5cbb 7e8c 8dbb
000002e0: 9ac6 f8b9 0585 373b 72a6 ce3b 2c3d c53c
000002f0: 6ee5 163c 0e6a 96bb 2eab 303e bb6b cd3c
00000300: d429 043c f87d 9aba cb47 623b 9b27 bfbb
00000310: 3146 06bc fb3e 9d3c 8476 82bb 6a28 cf3d
00000320: 2fb3 d33d 5edf 84bb 444a 833d dd0d 273c
00000330: 25a2 3b3d 6567 60bc 8da9 4cbd 72f9 833c
00000340: bb7d 7c3c 38ea 123d 6a17 713c 92d3 66bd
00000350: 6863 283d e98f d2bb 715e 093d b74d 2c3c
00000360: f614 8e3d b8ec 94bb ba8c b03d f6d5 58bc
00000370: 441b 913d a7bd 8c3c b627 07bc 15da 99bc
00000380: ba57 a53c 2142 5e3c b6c1 443b 44f0 fe3c
00000390: 129e d33b ea44 2d3c f921 463c 46d0 223a
000003a0: ee6c 553c 84ad 753c 370c 61bc e80a e33b
000003b0: 558d 623c 3f67 28b9 865d 353b 749d 313b
000003c0: 3f8d acbb 786d 693d 9d37 763b c659 083b
000003d0: 1309 b5bc 83af 3f3d ed84 d63c 1af2 033d
000003e0: 8f62 403c f61b 4a3b 4954 b63c 236f c0bc
000003f0: 16a3 f6ba 36ab af3c c78a 813c 3ed0 9039
-0.014393697 0.01069773 0.023024939 -0.0077916966 0.018546313 0.012372568 -0.0051355874 0.033183277
-0.012436803 0.0057056043 -0.0148688145 0.027329374 0.0056310194 0.023471503 0.008387608 0.024495378
-0.040788356 0.00549418 -0.0048331763 0.0072817714 -0.006072779 0.0075254226 -0.0029931655 -0.025830114
-0.0061520194 -0.036095295 -0.0030158854 -0.029337669 -0.00065333484 -0.013945323 -0.00032788445 0.007101838
-0.0023913544 -0.007565245 -0.01756951 -0.00551637 0.009679952 -0.010579418 -0.0026660105 -0.041267898
0.01749015 0.00794156 -0.021000292 0.009757982 0.0036201638 0.015344968 0.025441727 0.031116668
0.00041999662 0.008020968 -0.0165431 0.02010725 -0.006854699 -0.027001368 0.012607107 -0.0015869254
-0.00044563864 0.007613016 0.0058059953 0.0007814267 -0.009325414 0.006888891 -0.06543665 -0.007933918
0.013360149 -0.0072849295 0.005525206 0.012184657 -0.0054084123 -0.00038601356 -0.002429982 -0.045484606
-0.047210664 -0.007646743 -0.036953434 0.008558615 -0.012790827 -0.004978414 0.02656381 0.0033233764
-0.024853408 -0.012100223 -0.012576903 0.048715226 -0.028396161 0.023465365 -0.020569809 -0.0073607434
-0.027912531 0.01608318 -0.058966342 -0.0013960503 -0.02813939 -0.018876107 -0.004547579 0.0069588223
-0.0063704746 -0.0125117535 -0.004755411 -0.020593772 0.009594009 -0.010612675 0.027505796 -0.0010977183
0.012564656 -0.010961279 -0.005040098 0.0059479983 0.02484075 0.012151949 -0.0018532722 0.0023516014
0.0005582596 -0.009944492 0.0050352616 0.0009534992 0.022125011 -0.010538423 -0.010193796 0.0050447793
-0.0046790787 0.008689966 -0.008211463 -0.0018045068 0.005121364 -0.0084828315 -0.01585027 0.0119228475
0.040266547 -0.014946246 -0.029527808 -0.009807064 0.004201572 -0.014403885 -0.0025455554 -0.044045832
0.0062859505 0.010224377 0.04006311 -0.016202182 0.006477202 -0.043779977 -0.0022808216 -0.01854204
0.10501393 0.012943024 0.016973065 0.013501862 0.012435709 -0.014000752 -0.01063212 0.10260285
0.0039791684 0.027752792 -0.00365387 -0.002917118 -0.0076485993 -0.020798782 -0.026573692 0.0023293106
5.291214e-05 -0.00024632883 0.046053804 0.009748055 -0.055314183 0.028097417 0.0031761006 0.12748508
-0.011598678 0.008956498 0.032935504 0.00988907 -0.0011412543 -0.0011379078 -0.07061603 -0.030055381
0.022329336 0.015927745 0.015119058 0.0060992963 -0.0064644855 0.011105119 -0.0033638063 -0.0043197265
-0.00047450216 0.002800287 0.006306463 0.02407702 0.009209974 -0.0045902794 0.172528 0.025075784
0.008066613 -0.0011786809 0.0034527655 -0.0058335788 -0.008195446 0.01919507 -0.0039814133 0.1011513
0.10336911 -0.0040549478 0.064106494 0.010196176 0.04580893 -0.013696526 -0.049966384 0.016110156
0.015410836 0.0358679 0.014715055 -0.056354113 0.041110426 -0.006425847 0.033537332 0.010516576
0.06937592 -0.0045448206 0.086205915 -0.013234606 0.07085279 0.017180277 -0.008249214 -0.018780747
0.020183433 0.013565571 0.0030022687 0.031120427 0.0064580524 0.010575512 0.012093061 0.0006210845
0.013026459 0.014994983 -0.013735822 0.0069287904 0.0138276415 -0.0001606019 0.0027674153 0.0027101906
-0.0052658613 0.056989163 0.003756977 0.0020805462 -0.022099053 0.04679824 0.02618643 0.032213308
0.011742248 0.003083942 0.022256987 -0.023490494 -0.0018816914 0.021443944 0.015813245 0.00027620973

network_body.linear_encoder.seq_layers.0.bias f4 [128]
00000000: 8462 4a39 2e71 1bbd 9bb0 a23b a6ef a4bc
00000010: 90af a63d 5ce7 f0bc ecf3 dfbc 9fed edbc
00000020: a3f5 6fbc 2ab5 103d 041b 05bd 5859 d5bc
00000030: aa91 8a3d 6392 d23b bdc8 413d c1d3 00bd
00000040: 1abf c8ba b0fd 5ebd 538e 70bc 4d00 593c
00000050: 3380 9d3c ab6c 1ebd 87ff 2c3d 8a83 8c3c
00000060: 8126 a8bc 1f35 943d 1684 533d 1ca2 86bc
00000070: 1f32 51bd 8665 d63c c866 6fbd f346 58bc
00000080: 9e6c f13d c4d9 f3bc e360 10bd b9b8 80bd
00000090: 0920 70bc 5df1 39bd 2ca9 bdbc 69e4 753d
000000a0: 2ca8 94bc 9551 85bd 346d 8f3c 9a8e fcbc
000000b0: cb97 2ebc ce6c 523b debe 55bd e085 36bc
000000c0: 051e 70bd b0ab 4c3d 0954 0f3d f541 5fbd
000000d0: 5398 90bc 3106 2c3d a4c8 46bd bcd3 82bc
000000e0: c769 4cbd c706 0bbb 5ddd 743d a1b0 1cbd
000000f0: 752d 2c3d 91fb c2bc 7c9c 2c3d 09ce b7bc
00000100: d3cf 1bbc 2716 60bd 169c 013d dfbc cbbc
00000110: a627 16bd 1f96 9ebc a997 80bb 8b54 33bd
00000120: add4 c7bb b4e8 bdbc 4c06 a938 5aa9 393c
00000130: ffbf d2bc b252 383d 5bbe 2eb9 b467 243d
00000140: c461 08bd 1915 2abb 4202 45bd ebaf 00bd
00000150: 7f24 28bd 4a63 afbc 865c 32bb a282 d8bb
00000160: 18d2 d23c bff0 b73c 1f4a 8abc ff3c 9dbc
00000170: 6e46 11bc 62a9 7c3d b30d 913d 1736 daba
00000180: a81f 6fbd c0f6 923d 7786 1ebc ea87 3bbd
00000190: 6125 52bb ff44 453d c226 85bd 2428 19b9
000001a0: 03b8 b43c ef1e 51bc bb8f a13d 4271 8d3d
000001b0: cf28 c1bb 47cd 27bd eaaf 6a3d 1cf9 59bd
000001c0: e036 b23a df17 6c3c 5f82 dd3c 24d1 9bbd
000001d0: f394 26bc 0469 4e3b 36b3 a6bd 4a0c d53b
000001e0: 2652 3c3d 4a2a 88bd b58e 9e3a 33cc 48bb
000001f0: 58f6 27bd 102f 76bd 29cb 813d 4f2e 80bc
0.00019300921 -0.037949733 0.0049649007 -0.020133805 0.08138955 -0.029407196 -0.02733799 -0.02904397
-0.014645967 0.03532902 -0.032496467 -0.026043579 0.067660645 0.006426142 0.04731058 -0.031451944
-0.0015315742 -0.054441154 -0.01468237 0.013244701 0.01922617 -0.038677853 0.042235877 0.017152566
-0.020526173 0.072366945 0.05163964 -0.016434722 -0.05107319 0.026171457 -0.05844763 -0.013200509
0.11788295 -0.029766925 -0.03524865 -0.06285233 -0.014656075 -0.045396198 -0.023151956 0.060032282
-0.018146597 -0.06509701 0.017508127 -0.030829716 -0.010656307 0.003210831 -0.05218398 -0.011140317
-0.05862238 0.04996842 0.03499225 -0.05450626 -0.017650759 0.041998092 -0.04853119 -0.015970103
-0.049905565 -0.0021213756 0.05978142 -0.038254384 0.04203554 -0.023801597 0.042141423 -0.022437112
-0.009509998 -0.054708626 0.031642996 -0.024870334 -0.036658905 -0.019358693 -0.0039243293 -0.0437818
-0.006098351 -0.02318225 8.059721e-05 0.01133188 -0.025726316 0.04500074 -0.00016664846 0.04013796
-0.03329636 -0.0025952517 -0.048097856 -0.03141777 -0.04105043 -0.02140965 -0.0027215793 -0.0066073695
0.025734946 0.022453664 -0.016881047 -0.019194124 -0.008866889 0.061684974 0.07082691 -0.00166482
-0.0583798 0.0717597 -0.009675614 -0.045783915 -0.0032065737 0.048161503 -0.06501533 -0.0001460617
0.0220604 -0.012763723 0.078887425 0.06906368 -0.0058947573 -0.040967252 0.05729667 -0.053216085
0.0013596676 0.014409988 0.027039705 -0.0760825 -0.010167348 0.00314957 -0.081396505 0.006501709
0.04597678 -0.06648691 0.0012096973 -0.003063929 -0.041006416 -0.060103476 0.06337578 -0.015647082

network_body.linear_encoder.seq_layers.0.weight f4 [128, 39]
00000000: 0c68 13be 5539 023d 736a 9bbd 4e51 df3c
00000010: 330b 9dbe 6c0d b03e 89d3 d7be f914 9a3d
00000020: 2b19 2f3e 6814 02bf 2309 c73b 7a2f babe
00000030: a15e 0c3e c4e8 493d 0cb2 23be 19fa 553e
00000040: cab4 333d 2e83 163e a6ac c3bc b9b9 b7bd
00000050: 3db0 db3d 28cf 56be 32fc 943e f1c8 0abe
00000060: 0791 7dbe 9588 8ebd f622 8ebc 5685 293e
00000070: d69a 3fbd 8a91 843d 0ce3 163e 0f80 5cbc
00000080: 8d30 1ebd 405e a03e e81e 4bbe 6a69 c8bc
00000090: 48f7 de3d 8838 20be f7cb 3b3e 38e6 38bd
000000a0: ef41 b43e d76a b9bd 14f1 5fbd a080 13be
000000b0: 518e f33c 14fc 45bc 3218 fbbd 4dc2 163d
000000c0: 6116 b93d a572 73be 869e 14be db07 00be
000000d0: ff57 6d3e cf1f 39be 69ea 36be 1d3a 303e
000000e0: 6c06 a6bd 15e1 7ebd f2a5 7bbd a9f8 0f3e
000000f0: 0aa3 63bd 2fff 98bc 9063 9e3e eb85 0cbe
00000100: 9d5b 813e df0e 02be b510 67be 4bee 15bc
00000110: 592d 8a3d e405 e5bd 58d1 2e3e 08b1 c03d
00000120: 8e11 dabd 867d 683e fd4e b3bd 9dad 44bc
00000130: 5a80 e13d f1e0 403c 91a0 873e 5009 0a3d
00000140: 1ad5 9cbd 755f 273d c122 1f3e 5703 a5ba
00000150: db7a 1abe 9e57 143d 9d0d 7c3d b667 563e
00000160: be84 8dbe ca87 773e 7778 063e 4a15 2abe
00000170: 967b a63d 9ecf 06be 1e36 583d 864b ca3d
00000180: b46c 43be a860 63bd 4e7d 8abd 0713 f23d
00000190: 831f 31be fe7f 2a3d 8533 93be 1b84 1bbe
000001a0: 5370 6ebe 36a9 39be 143c cfbc a2c2 e13d
000001b0: eedd b23e ded8 3d3e 5001 b03d bc8d 69bc
000001c0: 520b cc3d 36a2 f5bd ec22 5a3d a0ae 57be
000001d0: 2a22 013d 7aa8 7a3e 04f0 fe3e 63ba b53e
000001e0: ea55 07be 13c7 e8be 554c 513e a19c 993d
000001f0: 7ac5 6dbc 46b6 96bc 62ce cc3b e3c9 3d3e
00000200: ddb1 393e 0eee c23c 2a1b be3e f6c1 cf3b
00000210: 3677 ec3d f377 e73d 04df f33b f835 1fbd
00000220: fa09 21be 5d21 79be 90ed c8bb 8e42 5dbd
00000230: e297 30be 90a2 2abd 11db 57be 1a4a d13d
00000240: baae 26bc 0c44 643d a03f b03c 994a dc3e
00000250: 9af8 3ebe 7904 ca3d 89ff 76bd 0763 08be
00000260: b0f5 c5bd 4cce e8bd db53 9c3d 3746 22be
00000270: 8fbe 623d 43be e8bd 7643 b7be 8e15 cabc
00000280: 3246 993c 0f6a ea3c 91fa f7bd b166 4bbd
00000290: 7920 1ebe b962 6c3d bf50 82be 63e0 cfbd
000002a0: e4ee 763e 7142 043e b50e 3abd bcd0 50bd
000002b0: f266 9fbe 0a19 8c3d 4681 483d 47a6 823d
000002c0: 6090 e4be b6b3 76be d86f ebbd 8752 06be
000002d0: 5299 1c3e 2ea0 9f3e 1ffd 30be 3dad 27be
000002e0: 1c6b 8d3d f982 043e 7fcc 933d 00b9 64bb
000002f0: 23f6 423e f382 8c3d dfb1 933d a567 823c
00000300: 5b42 a8bc 3d1f ce3e 28f7 cbbe 8555 633e
00000310: 715f f7bd 369f 7bbe ae11 cfbd 3a2b b8bd
00000320: eb98 0fbe a255 323e af17 a2be 5cfe 85be
00000330: bd32 b83d 9122 ae3e a3ca 543e 7171 8f3d
00000340: 03a4 df3d 760f a03d 8c7f aa3e 6e68 c33e
00000350: d474 29be 2c15 653c 2aee edbd fdec ac3e
00000360: 8fa4 e1bd 3ad8 343e 92d9 08bc dd91 c5bd
00000370: f704 8538 d60d 6c3e bb77 b7bd 44e6 b33d
00000380: 3dc1 813a bfa0 5d3e 0a8b f63d 150f 8c3e
00000390: 59ac 16be 12df 19be 14aa fa3d 8b37 493d
000003a0: 4276 b1bd fe9b 1e3e d0bc 3ebd 2d49 623e
000003b0: 6f8a b63d 013e 13bd a9ba 05be ed39 993e
000003c0: 1dd5 893b ad78 61bc 6133 1ebe bba9 64bd
000003d0: dc79 533d 8487 943e 7789 47be 42ec fc3d
000003e0: 9e2c 0e3e 1567 903c 2096 873e 2a57 2c3e
000003f0: ec30 763e dabe 86be 6810 9ebd 6fa1 62bd
-0.1439516 0.031792957 -0.07588663 0.027260449 -0.30672607 0.3438524 -0.42153576 0.075235315
0.17099445 -0.5081239 0.006074087 -0.36364347 0.13707973 0.04929425 -0.15985888 0.20896186
0.043873586 0.14698479 -0.023886036 -0.08970971 0.10726974 -0.20977461 0.2909866 -0.13553216
-0.24762355 -0.06959645 -0.017350655 0.1655477 -0.046778522 0.06473072 0.14735049 -0.013458266
-0.03862052 0.31321907 -0.19836009 -0.024464328 0.10887009 -0.15646565 0.18339525 -0.04514143
0.35206553 -0.09053581 -0.05467327 -0.14404535 0.029730948 -0.012084026 -0.12260474 0.036806393
0.090374716 -0.23774202 -0.14513597 -0.12502997 0.23178099 -0.1807854 -0.17862858 0.17209668
-0.081066936 -0.062226374 -0.061437555 0.140597 -0.055575408 -0.018676369 0.30935335 -0.1372296
0.25265208 -0.12700985 -0.22564967 -0.009151052 0.06746931 -0.11182764 0.17072046 0.09408766
-0.106478795 0.22704133 -0.087553 -0.012004283 0.11010809 0.01177238 0.2648969 0.033700287
-0.076578334 0.04086252 0.15540601 -0.0012589496 -0.15085928 0.03621637 0.06153642 0.20938
-0.27640337 0.24172893 0.13131891 -0.16609684 0.08129041 -0.13165137 0.052785985 0.09877686
-0.19084436 -0.0555121 -0.06762181 0.118200354 -0.17297177 0.04162597 -0.28750244 -0.15187113
-0.23285036 -0.18130955 -0.025297202 0.110234514 0.34934944 0.1853976 0.08594 -0.0142549835
0.09963097 -0.1199383 0.05325596 -0.21062708 0.031526722 0.24478331 0.49792492 0.35493764
-0.13216367 -0.45464382 0.20439275 0.07500578 -0.014512414 -0.018397462 0.0062501887 0.18534045
0.18134256 0.023795154 0.371301 0.0063402606 0.11546175 0.113021754 0.007442357 -0.038869828
-0.15726462 -0.24329133 -0.0061318353 -0.05401855 -0.17245439 -0.041658938 -0.21079661 0.10219212
-0.010173494 0.055728957 0.021514714 0.43025663 -0.18649521 0.09864134 -0.06030229 -0.13319026
-0.09666002 -0.11367473 0.07633182 -0.15847097 0.055357512 -0.113644145 -0.35793656 -0.024668481
0.01871023 0.028615026 -0.121083386 -0.04965848 -0.15442075 0.057711337 -0.2545223 -0.1015022
0.24114567 0.1291597 -0.045424182 -0.050980315 -0.3113323 0.06840713 0.04895141 0.06379371
-0.446414 -0.24091992 -0.11495942 -0.13117419 0.15292862 0.31176895 -0.17284058 -0.16374679
0.06905195 0.12940587 0.07216739 -0.0034900308 0.19039206 0.06860914 0.072116606 0.015918562
-0.020539453 0.40258208 -0.39837003 0.22200592 -0.12078751 -0.24572453 -0.10110794 -0.0899262
-0.14023177 0.17415479 -0.31658694 -0.26170623 0.089940526 0.34010747 0.20780425 0.07004059
0.10919955 0.07815449 0.33300436 0.3816561 -0.16548473 0.013982099 -0.11617692 0.33774558
-0.11017715 0.17660609 -0.008352654 -0.09646962 6.342859e-05 0.23052153 -0.08958384 0.08784154
0.0009899508 0.21643351 0.12038238 0.27355257 -0.14714183 -0.15026501 0.12239471 0.049125236
-0.08665134 0.15489194 -0.046566784 0.22098227 0.08913123 -0.035947803 -0.13059486 0.29927006
0.0042063133 -0.0137616815 -0.15449287 -0.05582593 0.051629886 0.2900964 -0.19486032 0.1234975
0.13884208 0.017627278 0.26481724 0.16830125 0.240421 -0.26317483 -0.07717973 -0.055329736

network_body.linear_encoder.seq_layers.2.bias f4 [128]
00000000: 8756 4abd c2fa 1d3c 48a8 4f3d e377 573c
00000010: 046f 27bc bfc1 2dbc 997a 2cbd 2458 57bb
00000020: 3f3b 94bd 3578 f3bc a82b 15bd 7ec3 7b3d
00000030: e329 2dbd 13ad 78bb 48fc d73c 91b4 a6bc
00000040: d10a 9abc 1e5c cfbc 801f ec3b bc6c 31bc
00000050: d004 efbd 6f68 c3bb 98d5 96bc c0b0 87bc
00000060: fbac 1cbd da9c 1ebd 83d0 83ba 42a2 16bc
00000070: 635f a23b 5ad3 89bc b71a 2b3d 9879 03bd
00000080: e478 56bc 6f3f 1bbd d8d7 59bc 819e 6cbd
00000090: 3f32 1b3d 33b8 22bc 8795 dcbc d302 6dbd
000000a0: b8e9 223d 89ea 14bc 1509 dbbc 2424 763b
000000b0: 7cf8 08bb 7e7a 3839 ecab df3c 2ca1 95bc
000000c0: 2fc0 66bc d554 3b3c 0b41 9cbd 85ad 50bc
000000d0: d549 e3bc 9215 bcbd 1060 3c3c e8ae c5bc
000000e0: 3866 2d3c 78a9 47bd 504d 0fbc 788c e33c
000000f0: 88f3 acbd 35db 52bc a222 9ebd 0c64 8b3c
00000100: 2bc6 e5bb 1940 33bd 8280 bcbc 14ab a8bc
00000110: 8b65 70bd f39c c5bc a1ea 93bc 5dff 3fbd
00000120: 097c 09bd 6920 12bd 0da4 56bd 3374 12bd
00000130: 8b85 47bd 7b46 a43c b3b5 a43d a8ec 2cbd
00000140: 8ffd 61bd 44ae e1bc 0129 4cbd 487b 943c
00000150: a6ee 8dbd 9372 f23c 5e17 c6bc 3e53 08bd
00000160: 4840 9cbc 3ec0 af3c 2121 0bbd c8c1 40bb
00000170: 9226 9bbd 89c7 17bd 56a6 6bbd 8b22 393d
00000180: 4a10 9b3c 3650 63bd 46ff 19bb d05e 9cbd
00000190: 7bbc c0bc 23ba eebc d1fe b53b bda7 0c39
000001a0: 013f bfbc f5e6 4ebd aaa8 f7bc 3007 debc
000001b0: ba1b d03a da43 08ba 7bd9 37bd dadb 1abc
000001c0: c8e0 023c 94d9 0f3c c054 b9bc 3e57 35bc
000001d0: c128 16bc 8894 68bb 6feb adbd a5aa 053d
000001e0: 97ff 64bd f41c e13b 3403 4c3b 0bba e4bb
000001f0: 214a 87bc 3043 ce3c d43c b2bd 1c64 a8bc
-0.049398925 0.009642305 0.050697595 0.013151142 -0.010219339 -0.010605275 -0.042109106 -0.0032858932
-0.07237863 -0.029720405 -0.036418587 0.061465733 -0.042276274 -0.0037944957 0.026365414 -0.020349773
-0.018803986 -0.02531248 0.0072059035 -0.010829147 -0.1167084 -0.005963377 -0.018412396 -0.016563773
-0.038250905 -0.038723804 -0.0010056648 -0.009193959 0.0049552186 -0.016824413 0.041773524 -0.032098383
-0.013090346 -0.037902292 -0.01329609 -0.05776835 0.037889715 -0.009931612 -0.026926769 -0.05786402
0.039773673 -0.009089121 -0.02673773 0.0037558163 -0.0020900061 0.0001759324 0.027303658 -0.01826533
-0.014083906 0.0114338 -0.076295935 -0.012736683 -0.027745167 -0.09183802 0.011497512 -0.024131253
0.010583453 -0.048745602 -0.00874646 0.027776942 -0.084448874 -0.012869646 -0.077214494 0.01701548
-0.007012149 -0.0437623 -0.023010496 -0.020589389 -0.05869059 -0.02412269 -0.018056216 -0.046874393
-0.033565555 -0.03567544 -0.052402545 -0.035755347 -0.04871134 0.020053139 0.08042469 -0.04221788
-0.055173453 -0.027548917 -0.049843792 0.018125191 -0.06930284 0.029595649 -0.024181064 -0.03328251
-0.01907362 0.021453973 -0.03396714 -0.0029412378 -0.07575716 -0.037055526 -0.057531677 0.04519896
0.018928666 -0.055496417 -0.0023498102 -0.076352715 -0.023527374 -0.029141491 0.005554058 0.00013413928
-0.023345472 -0.050513227 -0.030231792 -0.027103037 0.0015877404 -0.0005198099 -0.04488514 -0.009451831
0.007988162 0.008779902 -0.02262342 -0.011068163 -0.00916499 -0.0035488922 -0.08492171 0.032633442
-0.055907812 0.0068699066 0.003112984 -0.006980186 -0.01651484 0.025178522 -0.08703008 -0.020555548

network_body.linear_encoder.seq_layers.2.weight f4 [128, 128]
00000000: 56d3 31be 7c1d bc3d 4d73 d83c 06c3 8b39
00000010: 7e98 e7bd 887a bdbd 052d c5bd 82b2 9c3d
00000020: 68b9 e63d 18dd eabd f823 2d3d c45f 22bd
00000030: 305a 6f3d 5415 593c e136 aabc 84f2 f13d
00000040: efbd febd d2a4 823c 77a8 f1bc 4fb1 20bd
00000050: e00a 74bd 08c9 8f3d 44af d23c c172 833d
00000060: 8ea9 66be 5e7d fbbd 9a51 cb3d b230 20bd
00000070: 02f7 0cbd ab7c bebb 6817 e33c a9f5 6cbd
00000080: 1c8f cf3c 5db2 3dbe bad3 55bd fa9c 973c
00000090: 37cc 5dbd 6aba 87bd 9cde 57be 686a 17be
000000a0: e8ee aebc 6369 1fbe 7d5a c23d 1f21 013c
000000b0: c34b 4a3d 5f41 1fbd f34b cf3d 71ea d4bb
000000c0: bdfa 3abd 0abc 1abd 8f8e 213c b826 873c
000000d0: 0f40 4fbd cbc6 4b3c 5c40 273d 573e 2fbe
000000e0: 730f 78bd bcbe 77bc 0cdb 00be 4efe d0bb
000000f0: 3a04 563a 7411 42bd 8057 57bb 08a2 6f3d
00000100: eebf e8bd 4b3e 0c3c 64ed 023c e2de 563e
00000110: 659e f3bd 88ac 64bd 500a d2bd 0e70 703b
00000120: c234 833c c41c d33d bc1f 74bd 0db8 3fbd
00000130: 7fb6 4a3c 33f6 b3bd 347b 163e 9e31 133c
00000140: 363c 1a3d 18b4 dcbc 2494 b1bd 7176 003e
00000150: 30d7 38bd 4f1c 823b 6a7c 273d 6380 14be
00000160: 0019 b6bd 4133 6bbd 8f28 393d 99d6 4d3d
00000170: 5405 b63d cdc2 69bd e63a c13d 920a 50bd
00000180: 75e1 e03b 78c2 b2bb cf00 0e3e 4e10 693c
00000190: 63b5 cfbd 749a 46bd 4290 913d 17e3 ac3d
000001a0: 989e c1bd 11cb 02be c8c6 ce3a b0f4 1cbe
000001b0: d4ac 1f3c 5301 b6bd 5f69 84bd 05ba d3bd
000001c0: e5b1 7c3c 34b0 ca3d 61c1 833d 318c a1bd
000001d0: fa9b 14be 763f 78bd 43b6 afbd 8261 07be
000001e0: 7dad 9d3d cda2 c8bd 1df5 a53d cdc1 303d
000001f0: 944b 39bd 42a9 25bd b5e0 acbc 29b6 a9bd
00000200: 3ea5 af3d e991 683d e365 583d b12c 1abe
00000210: e49f 57bd e12d 193e 892e 67be 69a4 d0bd
00000220: bdce 91bd 71b9 30bd 1a43 41bd e9af 05be
00000230: cc90 32bd 502c d1bd a663 41be 0158 c6bd
00000240: c736 9bbd f633 15be 9878 1dbe 3674 30bd
00000250: 9e94 a8ba fdbf 9dbd ed76 8abe 1901 12ba
00000260: b804 c23c 3b40 d2bd dad4 83be b2b9 423d
00000270: 16a7 543e b457 0e3c 2410 55be 8892 853c
00000280: bca5 68be fea7 f93c fcb1 103e e393 f0bc
00000290: 8260 a0bd 1a22 81bd 0a58 a0bd 06db 6bbd
000002a0: 9905 843c a115 34be 1bf9 263e 896f e13c
000002b0: c260 96bd 3c3c 17be b107 1bbc 62cb 153d
000002c0: b8df fd3b d581 cdbd d2be 4ebe fcc7 353c
000002d0: 281b fa3c 8938 bbbd 5929 89bd 6db6 eebd
000002e0: 8e4e 07bd 789c dbbd 721c 813d 49d9 0d3c
000002f0: bee0 243c bc97 cfbd a2c7 183e ca23 48be
00000300: 9f49 ed3d 25ff e83c 2486 9b3d ea39 18be
00000310: ce10 2cbe 4a5e d33b 0b02 e1bc 5966 133e
00000320: dbf8 f4bd f75c 50bd 2a64 5a3e eb2c 123c
00000330: fa65 b4bd 8cec d4bd 3df2 2cbc cf5e 8cbd
00000340: 042c 98bd c90d c23c aab3 ca3c 1539 92bd
00000350: 65a1 0dbc eea8 a4bd 3fe0 f2bd d59d 4ebe
00000360: faa8 483c 6af6 403e e661 fabd 782e 84bd
00000370: 7b7a 4bbe f76f 97be 0c3f 8c3d a3e2 4d38
00000380: a606 1cbe 8e1a 15bd 8b29 32be a393 1bbe
00000390: 1069 84bc df0c 883c addc 20bd eb84 013e
000003a0: ed81 9d3b 07e1 2c3e 6d31 32be dca9 90be
000003b0: 3933 a53c 203a 24be 505e cbbd ebec 99bd
000003c0: 652c 573e 9027 f3bd cb18 e83d 5d6f 303c
000003d0: e45a c7bd b616 9abd 8ce9 003d bad9 73bc
000003e0: 202d 9c3d 178a ca3b fc45 983a 85f3 0ebc
000003f0: 92e9 1fbe 2f98 ecbd 9c1b f2bd f34a b9bc
-0.17365775 0.09185311 0.026422167 0.0002665745 -0.113083825 -0.092518866 -0.096277274 0.07651235
0.11265832 -0.114679515 0.04227063 -0.03964211 0.05843562 0.013249714 -0.020778121 0.11813834
-0.12438571 0.015947733 -0.029499276 -0.039231595 -0.059580684 0.070207655 0.025718339 0.06418372
-0.22525617 -0.12279771 0.09927674 -0.03910894 -0.034415253 -0.0058132014 0.027721122 -0.057851467
0.025336795 -0.18525071 -0.05220387 0.01850747 -0.054149833 -0.066273525 -0.21081012 -0.14786685
-0.021354154 -0.15567546 0.094899155 0.007881432 0.04938866 -0.038880702 0.10121908 -0.006497674
-0.04564928 -0.037776984 0.009860649 0.016497955 -0.0505982 0.012437533 0.040832862 -0.17113625
-0.06056161 -0.015121158 -0.1258356 -0.0063779717 0.0008164082 -0.047379926 -0.003285855 0.058504134
-0.11364733 0.008559774 0.007991169 0.2098346 -0.11895446 -0.0558286 -0.10255873 0.0036687884
0.016016368 0.10308221 -0.059600577 -0.046806384 0.012372612 -0.08787193 0.14695436 0.008983998
0.037655078 -0.026941344 -0.08670834 0.12545182 -0.045127094 0.00397066 0.040890135 -0.145021
-0.08891487 -0.057421926 0.045204695 0.050253484 0.08887735 -0.057070542 0.09435062 -0.05079133
0.006862814 -0.0054553114 0.13867496 0.014225079 -0.10142019 -0.04848714 0.07107593 0.084417515
-0.094540775 -0.12772776 0.0015775794 -0.15327716 0.009745795 -0.08886971 -0.064654104 -0.10338215
0.015423273 0.09896889 0.064333685 -0.078880675 -0.14512625 -0.060607396 -0.085796855 -0.1322079
0.07699106 -0.09796677 0.08103392 0.043153573 -0.045238093 -0.04044462 -0.021103242 -0.082866974
0.08576439 0.056779776 0.05283154 -0.15056111 -0.052642718 0.14958908 -0.22576346 -0.10187609
-0.0711951 -0.0431456 -0.047183134 -0.13055386 -0.04359512 -0.1021353 -0.18885669 -0.09684754
-0.07578807 -0.14570603 -0.15378034 -0.043079577 -0.0012861674 -0.077026345 -0.27043858 -0.00055696216
0.02368389 -0.10266157 -0.2574833 0.047540374 0.20766863 0.008687902 -0.20806938 0.016305223
-0.22719473 0.030475613 0.14130396 -0.029367393 -0.078309074 -0.063053325 -0.07829292 -0.057581924
0.01611595 -0.17586376 0.16305964 0.027519004 -0.07342674 -0.14769071 -0.009462283 0.036570914
0.0077476166 -0.10034529 -0.2018998 0.011095043 0.030530527 -0.091416426 -0.066973396 -0.11655889
-0.0330339 -0.107232034 0.06304254 0.008657762 0.010063348 -0.10136363 0.14919904 -0.19544902
0.11586308 0.028441975 0.07593945 -0.14865842 -0.16803285 0.006450449 -0.027466794 0.14394511
-0.11961528 -0.05086991 0.21327272 0.008921842 -0.08808513 -0.1039668 -0.010555801 -0.06854021
-0.0743027 0.023688214 0.024743874 -0.07139794 -0.0086444365 -0.08040033 -0.11859178 -0.20177396
0.012247318 0.18844 -0.12225704 -0.06454176 -0.19870941 -0.2957761 0.06847963 4.908688e-05
-0.15236911 -0.036402278 -0.1739866 -0.15193038 -0.016163379 0.0166077 -0.039272953 0.1264836
0.004806748 0.16882716 -0.17401667 -0.28254592 0.020166026 -0.16037798 -0.09930098 -0.07515892
0.21013029 -0.1187278 0.11332854 0.010768739 -0.09734133 -0.07523863 0.031472728 -0.014883453
0.076257944 0.0061810124 0.0011617537 -0.008725052 -0.15616444 -0.11552464 -0.11821672 -0.022618746
