Oversteek Simulator/Learning/results/Oversteek-K-02/BadCar/BadCar-1199980.onnx (onnx, 90288 bytes, 6 tensors)

action_model._discrete_distribution.branches.0.bias f4 [3]
0	0xbdab10aa	-0.08352788
1	0xbdea5e7e	-0.11443804
2	0x3e095aed	0.13413592

action_model._discrete_distribution.branches.0.weight f4 [3, 128]
0	0x3cb7db43	0.02244342
1	0x3c0d7fb2	0.008636402
2	0xbd1f8f87	-0.038955238
3	0x3c5e698c	0.013574969
4	0x3952fb3a	0.0002012075
5	0x3cf50fc3	0.029914742
6	0x3cf9d6ba	0.030497897
7	0xbb4890bf	-0.0030603854
8	0x3c3d02b8	0.011536293
9	0xbc1569f8	-0.009119503
10	0xbc72a9e9	-0.014811018
11	0x3c0b6ca6	0.0085097905
12	0x3a3af4ae	0.0007131797
13	0xbd324552	-0.04352314
14	0xbc01f83d	-0.00793272
15	0x3b8ccd07	0.004296902
16	0xbcf43f36	-0.029815298
17	0x3d1a78aa	0.03771273
18	0x3d615225	0.05500998
19	0x3d1b9d64	0.037991896
20	0x3c1e0027	0.009643591
21	0x3cb56e04	0.022147186
22	0xbd243164	-0.040086165
23	0xbb358232	-0.002769601
24	0x3c5d7030	0.013515517
25	0x3c57b723	0.013166222
26	0x3d1bfcba	0.038082816
27	0x3ce096ff	0.02741575
28	0x3d2b2ac3	0.041788828
29	0x3cec45b1	0.028841825
30	0xbd6c0588	-0.057622463
31	0x3cca80ea	0.024719674
32	0x3d983c5e	0.07433389
33	0x3d02609d	0.03183042
34	0x3d0d28b6	0.034462653
35	0x3ce9ca5b	0.028538873
36	0x3ce1d411	0.027566941
37	0x3c036591	0.008019821
38	0xbd913fdc	-0.07092258
39	0x3d146e64	0.03623809
40	0x3c19f3ef	0.009396537
41	0x3c628567	0.013825751
42	0x3c56b265	0.013104056
43	0x3c06aa90	0.008219376
44	0x3c4350e4	0.011921141
45	0x3ccc5ddc	0.0249471
46	0x3bc0d5c0	0.005884856
47	0xbd5227ac	-0.051307365
48	0xbc59c501	-0.013291598
49	0x3c65c779	0.014024609
50	0xbc6814f8	-0.014165156
51	0x3c8fa30d	0.017533803
52	0xbc42b2ec	-0.011883479
53	0x3affa3d8	0.0019503785
54	0xbd7b608a	-0.061371364
55	0x3cb95050	0.022621304
56	0xbbc3a4fd	-0.005970596
57	0x3cce1a44	0.025159009
58	0x3c40f399	0.011776828
59	0x3c80ac35	0.015707115
60	0x3d132ba0	0.035930276
61	0x3d087977	0.033318963
62	0x3d29969b	0.041403394
63	0xbd53eb43	-0.051738035
64	0x3d1cbb41	0.038264517
65	0x3ce91c65	0.028455922
66	0x3cb7e074	0.022445895
67	0x3cb9c3ea	0.022676427
68	0x3cadbcf6	0.021208268
69	0xbcda644e	-0.026659157
70	0x3c886db8	0.01665388
71	0xbd47a5a2	-0.048741944
72	0x3acf501b	0.001581672
73	0xbde50ba8	-0.11183864
74	0x3c80e20a	0.015732784
75	0xbc32dbf1	-0.010916696
76	0x3d244a7c	0.040110096
77	0x3cb02605	0.021502504
78	0x3cba62dd	0.02275222
79	0x3b15a1c7	0.0022832023
80	0xbd47635c	-0.04867874
81	0xbccde519	-0.025133656
82	0x3cd19a3b	0.025586238
83	0x3d492d3d	0.04911541
84	0xbd5b3eff	-0.053526875
85	0x3d4afc9d	0.049557317
86	0xbd4b8774	-0.049689725
87	0xbbc98928	-0.0061503835
88	0xbd46c197	-0.048524465
89	0x3af6ebf1	0.0018838627
90	0x3d0cc098	0.03436336
91	0x3ace0d53	0.0015720524
92	0x3d27cca3	0.04096664
93	0x3d953107	0.07284742
94	0x3ceb8d67	0.02875395
95	0xbda8d264	-0.08243254
96	0xbd6068f6	-0.0547876
97	0x3d4532a6	0.048144005
98	0x3cf89c54	0.03034798
99	0x3cfa68bd	0.030567521
100	0x3d2aaee9	0.041670714
101	0x3c14c5e1	0.009080381
102	0x3b022514	0.0019858526
103	0x3d2a4dfd	0.04157828
104	0xbd911bdf	-0.07085394
105	0x3c5efc1c	0.013609912
106	0x3c8af8e0	0.016964376
107	0x3cb80ca9	0.022466974
108	0x3b4ac9a5	0.0030942943
109	0x3cb1dfc3	0.021713143
110	0xbd33ca59	-0.043894146
111	0x3d060136	0.032716
112	0xbd66971d	-0.056296457
113	0x3c225857	0.009908757
114	0xbd0befe4	-0.034164324
115	0x3d243128	0.04008594
116	0x3d1c00b4	0.038086608
117	0xbc0f345f	-0.008740514
118	0x3c9c4789	0.01907708
119	0xbb312cf9	-0.0027034862
120	0x3bd15d24	0.006389277
121	0x3cf37a0c	0.029721282
122	0x3c7039c3	0.014662209
123	0x3cebaf75	0.028770188
124	0x3d1adcd1	0.037808243
125	0xbd815f17	-0.06316965
126	0x3d1c79f1	0.03820223
127	0x3d41e9c7	0.047342088
128	0xbda24c38	-0.07924694
129	0xbe0b37fd	-0.13595577
130	0xbca5b5f7	-0.02022837
131	0x3d2e564c	0.042562768
132	0x3c9dde13	0.019270932
133	0xbdf5a419	-0.1199419
134	0xbe690421	-0.22755481
135	0x3d11e03f	0.03561425
136	0xbe069f34	-0.13146669
137	0x3d5b7002	0.053573616
138	0xbc4533b8	-0.0120362565
139	0xbd9d6bc5	-0.07686571
140	0xbe0d5886	-0.138033
141	0x3ceaf9a5	0.028683493
142	0xbcb38b82	-0.021917108
143	0x3ac2c2c8	0.0014859075
144	0x3cd32c86	0.025778066
145	0xbe1d2016	-0.15344271
146	0xbe6b4152	-0.22974136
147	0xbdfa4f16	-0.12222116
148	0x3d03a1b9	0.032136653
149	0xbd0effc9	-0.034911904
150	0x3c9e7678	0.0193436
151	0x3c647b46	0.013945406
152	0xbde9caca	-0.11415632
153	0xbe0552ac	-0.13019818
154	0xbe2a41e1	-0.16626693
155	0xbd303b91	-0.043025557
156	0xbdef08a9	-0.11671574
157	0x3d26ae5b	0.040693622
158	0x3af296d4	0.0018508085
159	0xbe007e12	-0.12548092
160	0xbdf31116	-0.11868493
161	0xbd658802	-0.05603791
162	0xbe0e6a7b	-0.13907807
163	0xbe02dd98	-0.12779844
164	0xbd6c137d	-0.057635773
165	0xbdff89c0	-0.124774456
166	0xbcc29043	-0.02375043
167	0xbdd6d947	-0.10490661
168	0x3d05c1c8	0.032655507
169	0xbca08833	-0.019596195
170	0xbe0c6122	-0.13708928
171	0xbccd02d4	-0.025025763
172	0xbc511a85	-0.01276267
173	0xbdc41366	-0.095740125
174	0xbde26e14	-0.11056152
175	0xbc4b30da	-0.012401784
176	0x3d2e8766	0.042609595
177	0x3bf089b1	0.007340633
178	0x3d016d53	0.0315984
179	0xbdb854bc	-0.09000537
180	0xbd07c986	-0.033151172
181	0xbc3956af	-0.011312171
182	0x3b306115	0.0026913334
183	0xbc899b92	-0.016797815
184	0x3cd9af56	0.026572865
185	0xbdcc71a8	-0.09982616
186	0xbdd4c3a4	-0.10388878
187	0xbdfe1ba1	-0.124076135
188	0xbdd5c1f5	-0.10437385
189	0xbe51563e	-0.20443055
190	0xbd39f31e	-0.04539787
191	0x3a08f438	0.000522438
192	0xbd2f3cba	-0.042782523
193	0xbd937e41	-0.072018154
194	0xbd5e135b	-0.054217678
195	0xbd5f7986	-0.054559253
196	0xbe1ad3a9	-0.15119804
197	0x3cfcd200	0.030861855
198	0xbcd2e56f	-0.025744168
199	0x3bca6e71	0.0061777164
200	0xbd440fc9	-0.047866616
201	0x3b12e48c	0.0022414057
202	0xbdca9dcf	-0.09893381
203	0xbcce7de8	-0.025206521
204	0xbe26b036	-0.16278157
205	0xbe0f776f	-0.14010404
206	0xbda8b1ad	-0.08237014
207	0x3b355867	0.00276711
208	0x3a93c633	0.0011274278
209	0x3cf06326	0.029344153
210	0xbdad5845	-0.08464102
211	0xbe3145f1	-0.17311837
212	0x3d5e2843	0.054237615
213	0xbde8f351	-0.11374534
214	0xbcc4c3f6	-0.024019223
215	0x3c5b1a75	0.013373007
216	0x3c932c4c	0.017965458
217	0x3cef735c	0.029229812
218	0xbdf1bf94	-0.11804119
219	0xbe0df529	-0.13863052
220	0xbd9eb339	-0.07749028
221	0xbe1ae881	-0.15127756
222	0xbda6996a	-0.0813473
223	0x3c01c25b	0.007919873
224	0x3d468b55	0.04847272
225	0xbd3fbdbb	-0.0468118
226	0xbdddb372	-0.10825242
227	0x3c3ac357	0.011399112
228	0xbe3f8a26	-0.18705043
229	0xbd0b1413	-0.03395469
230	0xbc18a7c6	-0.009317344
231	0xbdc0e892	-0.09419359
232	0x3b2e7767	0.0026621462
233	0xbdcd2768	-0.10017282
234	0xbd1f24db	-0.038853507
235	0xbe16ecc6	-0.1473876
236	0xbadd7045	-0.0016894421
237	0xbe1ef523	-0.155232
238	0x3cd3b8c7	0.025844945
239	0xbd97ac6b	-0.07405933
240	0x3bbd9469	0.005785514
241	0xbdaa7dcd	-0.08324776
242	0x3d50a151	0.050935093
243	0xbe1e2660	-0.15444326
244	0xbd168272	-0.036745496
245	0xbccc7c3e	-0.024961587
246	0xbe114bb4	-0.14189035
247	0x3c58bf27	0.013229168
248	0xbd933356	-0.07187526
249	0xbd3f5237	-0.046709266
250	0xbe079a69	-0.13242497
251	0xbd5412db	-0.051775794
252	0xbe21525c	-0.15754074
253	0x3c4aa86a	0.012369255
254	0xbdc2b2a5	-0.0950673
255	0xbe574ae3	-0.21024661

network_body.linear_encoder.seq_layers.0.bias f4 [128]
0	0xbda07215	-0.078342594
1	0x3d24fc85	0.040279884
2	0xbc94a943	-0.018147117
3	0xbb82aafc	-0.003987668
4	0xbe00511f	-0.12530945
5	0xbde1856c	-0.11011776
6	0xbd7f228e	-0.062288813
7	0xbdc8ac96	-0.09798543
8	0xbdadd9f3	-0.08488836
9	0xbe12c3b0	-0.14332461
10	0xbda07395	-0.078345455
11	0xbe72c853	-0.2370923
12	0xbd95a060	-0.0730598
13	0xbde7b293	-0.11313357
14	0xbd20b31f	-0.039233323
15	0xbdd3126c	-0.10306248
16	0xbd94e3d7	-0.072700195
17	0x3c4bd263	0.012440297
18	0xbdbb1158	-0.091341674
19	0xbd304220	-0.04303181
20	0xbdd20ac5	-0.102559604
21	0xbc8b6b71	-0.017019005
22	0x3c86057c	0.016360037
23	0xbcd8a735	-0.026446918
24	0xbc30246a	-0.010750869
25	0xbd83c00d	-0.06433115
26	0x3cd77437	0.026300533
27	0xbd3ca1f0	-0.046052873
28	0xbdffbcc8	-0.12487179
29	0xbd2969bb	-0.041360598
30	0x3d10b3de	0.035327785
31	0xbd75b1a5	-0.05998387
32	0xbe296762	-0.16543344
33	0xbd8831ae	-0.06650101
34	0x3c346e81	0.011012674
35	0xbdd1f68b	-0.102521025
36	0xbd9a7aae	-0.075429305
37	0xbdb2c44a	-0.087288454
38	0xbdfb6031	-0.122742064
39	0xbd91be2b	-0.0711635
40	0xbd9c58bb	-0.076341115
41	0xbcc31dcc	-0.02381792
42	0xbdcfe809	-0.10151679
43	0xbc2fec2e	-0.010737462
44	0xbe39b584	-0.18135649
45	0xbd1185f7	-0.03552815
46	0xbdc2b9a5	-0.09508065
47	0xbd3d94f0	-0.046284616
48	0x3d11269a	0.035437204
49	0xb9cb60b0	-0.00038791215
50	0xbceadf72	-0.028671
51	0xbd824ae1	-0.06361938
52	0xbdf1f993	-0.11815181
53	0xbbddb499	-0.0067659137
54	0xbdf73a3b	-0.120716535
55	0xbb59cbd2	-0.0033233059
56	0xbe014f36	-0.12627873
57	0xbd083609	-0.033254657
58	0xbda76f27	-0.081754975
59	0xbe45d816	-0.19320711
60	0xbbe620a4	-0.007022934
61	0xbe3240a4	-0.17407471
62	0xbdc28169	-0.09497339
63	0xbdfa3cec	-0.12218651
64	0xbdf71f5b	-0.120665275
65	0xbe0eeccd	-0.1395752
66	0xbdea343c	-0.11435744
67	0xbdeb9252	-0.11502518
68	0xbd6b147f	-0.057392593
69	0xbda7f007	-0.082000785
70	0xbda1817a	-0.07886024
71	0xbdaf415d	-0.08557389
72	0xbde50bec	-0.111839145
73	0xbcb554ba	-0.022135127
74	0xbc4e32c6	-0.0125853475
75	0xbc8e989f	-0.01740676
76	0xbd84d931	-0.064867385
77	0xbc1a6f2c	-0.0094259195
78	0xbd12b7c6	-0.03581979
79	0xbe05e19e	-0.13074347
80	0x3d04a235	0.032381255
81	0xbc456995	-0.0120490985
82	0xbe041c11	-0.12901331
83	0xbe0d0d05	-0.13774498
84	0xbdcc8a24	-0.09987286
85	0xbddf99d8	-0.10918015
86	0xbea0c03f	-0.31396672
87	0xbc7f4416	-0.015580198
88	0x3d21cf22	0.039504178
89	0xbd24cf32	-0.04023666
90	0xbd529110	-0.051407874
91	0xbdac8d1b	-0.08425351
92	0xbd4c29d4	-0.049844578
93	0xbc768652	-0.015046673
94	0xbdd8a234	-0.10577813
95	0xbdb090f0	-0.08621395
96	0xbd856e05	-0.06515125
97	0xbded750d	-0.11594591
98	0xbcd8aef0	-0.026450604
99	0xbd790f06	-0.060805343
100	0xbe59d1a4	-0.21271378
101	0xbe12b3b1	-0.1432636
102	0xbcdcdcfa	-0.026960839
103	0xbdbfe520	-0.09369874
104	0xbd435470	-0.047687948
105	0xbcfc369e	-0.030787762
106	0xbe4e7520	-0.20161867
107	0xbd9a753e	-0.075418934
108	0xbe69111b	-0.22760431
109	0xbddfce21	-0.10927988
110	0xbe416d43	-0.18889336
111	0xbd867f3a	-0.06567235
112	0xbdc5e985	-0.09663681
113	0xbea5eda7	-0.32407877
114	0xbd4f26f4	-0.050574258
115	0xba1c609d	-0.0005965324
116	0xbdfc9aae	-0.1233419
117	0xbcd234bf	-0.025659917
118	0x3d10aca1	0.03532088
119	0xbe4019aa	-0.1875979
120	0xbe22c899	-0.15896834
121	0xbdd939ad	-0.10606704
122	0xbdb81b4c	-0.089895815
123	0x3ba05d24	0.0048939157
124	0xbd9f0db9	-0.07766289
125	0xbd39d15c	-0.045365676
126	0xbc1e1d2e	-0.009650512
127	0xbe0824bf	-0.13295268

network_body.linear_encoder.seq_layers.0.weight f4 [128, 39]
0	0xbeebf62e	-0.46086258
1	0x3eb77378	0.35830283
2	0xbe1a0824	-0.15042168
3	0x3daa4313	0.08313575
4	0xbe292f62	-0.16521981
5	0xbd90805e	-0.07055734
6	0x3ad6f868	0.0016400935
7	0x3e22b71a	0.1589016
8	0x3cd62e99	0.026145266
9	0xbeb41748	-0.35174012
10	0xbd896540	-0.06708765
11	0xbdfde968	-0.12398034
12	0xbe133428	-0.14375365
13	0xbd56cffb	-0.05244444
14	0xbe91771e	-0.28411192
15	0x3e16db57	0.14732109
16	0xbed94555	-0.4243571
17	0x3b13b4de	0.0022538225
18	0x3e6f0ffc	0.23345941
19	0xbed53553	-0.41642246
20	0x3d0229b9	0.03177807
21	0xbe8c315c	-0.27381408
22	0xbea6fadd	-0.32613268
23	0x3bd693a6	0.006548363
24	0xbdbd7ae9	-0.09251959
25	0x3d401dbb	0.046903353
26	0x3da13da5	0.07873086
27	0xbd78834b	-0.060672086
28	0x3d80405b	0.06262275
29	0xbe4610cf	-0.1934235
30	0x3e374e74	0.17901021
31	0x3cb6a1cc	0.022293948
32	0x3e6a2b5f	0.22868107
33	0x3ea97910	0.33100176
34	0x3e176c6e	0.14787456
35	0xbe1ccca2	-0.15312436
36	0xbe834cb8	-0.2564447
37	0xbd056789	-0.032569442
38	0x3df42252	0.119206086
39	0xbe20f997	-0.15720211
40	0x3e7c3919	0.24631156
41	0x3c2590ee	0.010105355
42	0xbd3bf557	-0.04588827
43	0x3df8a9bf	0.121417515
44	0x3d4397de	0.047752254
45	0x3daa0f86	0.08303742
46	0x3d1588dd	0.036507476
47	0xbe84e3eb	-0.25955138
48	0xbe489b51	-0.19590499
49	0x3e016b22	0.12638524
50	0x3c85af48	0.016318932
51	0xbe4cbd26	-0.1999403
52	0xbd025a3a	-0.031824328
53	0xbe4aa71f	-0.19790314
54	0x3e07b4bf	0.13252543
55	0xbdaeea3f	-0.08540773
56	0xbe2f1fdc	-0.17101997
57	0x3dfe9ad3	0.12431874
58	0xbd6c5029	-0.057693634
59	0x3e2b0fd1	0.16705252
60	0x3e6d373b	0.231656
61	0xbe5c25c8	-0.21498787
62	0xbbd5ae29	-0.0065210056
63	0x3d17b398	0.03703651
64	0x3e7a88bd	0.24466224
65	0x3e9154b2	0.2838493
66	0x3e3f8f1a	0.18706933
67	0x3e459bd4	0.19297725
68	0x3d57d91b	0.052697282
69	0x3e8583dd	0.26077166
70	0xbd7b8eb1	-0.061415378
71	0xbd47a6b6	-0.048742972
72	0xbeb0190a	-0.34394103
73	0x3d953d45	0.07287077
74	0xbe827d72	-0.25486332
75	0x3e90b716	0.28264683
76	0xbd98eaaa	-0.074666336
77	0x3e573956	0.21017966
78	0x3bb873dc	0.005629046
79	0x3e145ed6	0.14489302
80	0xbe8e4df0	-0.27793837
81	0xbe2e7f69	-0.1704079
82	0x3d8cb5ac	0.06870589
83	0x3cae8cec	0.021307431
84	0x3e7431e4	0.23847157
85	0xbcc8d886	-0.024517309
86	0x3b70696e	0.0036683935
87	0xbcc6f485	-0.024286518
88	0xbd9e239e	-0.07721637
89	0x3e129287	0.14313708
90	0xbe5ea810	-0.21743798
91	0xbe383f09	-0.17992796
92	0x3e032eee	0.12810871
93	0x3c8e8f2e	0.017402258
94	0xbeb7a064	-0.35864556
95	0xbcf79923	-0.030224388
96	0xbd474746	-0.048651956
97	0xbdb20535	-0.086923994
98	0xbd99b9e9	-0.07506163
99	0xbd8f3094	-0.069916874
100	0xbe2dd79a	-0.16976777
101	0xbe6576c1	-0.22408582
102	0xbe43aef2	-0.19109705
103	0xbcf247be	-0.029575225
104	0xbc22e97b	-0.009943361
105	0xbcc96b37	-0.024587257
106	0x3e553d41	0.20824148
107	0x3e93db8f	0.28878447
108	0x3e188240	0.14893436
109	0xbd80310a	-0.062593535
110	0x3ec72b6f	0.38900325
111	0x3cfa1302	0.030526642
112	0x3df05456	0.11734836
113	0xbe4f9add	-0.2027392
114	0xbe65fccb	-0.22459714
115	0x3d8f8caa	0.070092514
116	0x3d8e3f97	0.069457226
117	0xbe7b2d06	-0.24528894
118	0x3de50b17	0.11183756
119	0x3e5d3904	0.21603781
120	0x3d99dba8	0.07512599
121	0xbd55b14f	-0.052171048
122	0xbde92493	-0.11383929
123	0x3dc4fa41	0.09618045
124	0xbd66b7e6	-0.056327723
125	0xbcfe9fac	-0.031081997
126	0xbda0cab2	-0.07851161
127	0x3e5a8cb6	0.2134274
128	0x3e3e8c07	0.18608104
129	0x3dd91d3f	0.106012814
130	0x3d5b4451	0.05353195
131	0x3e4d9241	0.20075323
132	0x3c87035c	0.016481094
133	0x3d6bd262	0.057573684
134	0xbe39c77f	-0.18142508
135	0xbdd6212a	-0.10455544
136	0xbdd2d161	-0.10293842
137	0xbd2ad1bc	-0.041703925
138	0x3f1af7f2	0.60534585
139	0xbe26b8e7	-0.16281472
140	0xbe16145b	-0.14656202
141	0x3dcab67a	0.09898086
142	0x3e0ffbe1	0.14060928
143	0xbd66c632	-0.056341358
144	0x3e4ca65f	0.1998534
145	0x3ced6e7e	0.02898335
146	0x3d81f63d	0.06345794
147	0x3e9b699b	0.30354008
148	0x3f036574	0.5132668
149	0xbc04d051	-0.008106307
150	0xbe5a55b2	-0.21321753
151	0xbd21ed31	-0.039532844
152	0x3e65d73b	0.22445385
153	0xbe84166f	-0.25798365
154	0x3e07cf5d	0.13262697
155	0xbe80dd91	-0.25169042
156	0xbc726bdb	-0.014796223
157	0xbecbd2b4	-0.3980919
158	0xbe1ff8a3	-0.15622191
159	0xbdd6073e	-0.104506
160	0x3db6c391	0.0892402
161	0x3e5022ad	0.20325728
162	0xbd30afd5	-0.043136436
163	0x3d9d8a9a	0.07692452
164	0xbe77e8ee	-0.2420995
165	0x3d205fb7	0.03915378
166	0x3cd92139	0.0265051
167	0x3e28a839	0.16470422
168	0x3df96961	0.121783026
169	0xbd791c4f	-0.060818013
170	0xbe45ddfd	-0.19322963
171	0x3e62e4c6	0.22157583
172	0xbd5bb6fe	-0.05364131
173	0x3b240ede	0.0025033276
174	0x3bb87c0e	0.005630023
175	0xbe66574a	-0.22494236
176	0x3e041f28	0.1290251
177	0x3d4257b6	0.04744693
178	0xbeb80e1f	-0.35948274
179	0x3d683391	0.056689803
180	0xbe60eb08	-0.21964657
181	0x3e444575	0.19167121
182	0x3e32cd21	0.17461063
183	0x3d5dcd8a	0.054151095
184	0x3e40a899	0.18814315
185	0xbe24d358	-0.16096246
186	0x3dd4d2bb	0.10391756
187	0xbd1c1ca0	-0.038113236
188	0x3be2abfd	0.0069174753
189	0x3dbd8239	0.092533536
190	0xbeb01f87	-0.34399053
191	0xbddf87cc	-0.10914573
192	0xbc95ef75	-0.018302659
193	0x3d5b5070	0.053543508
194	0xbd1c465a	-0.03815303
195	0xbea319d8	-0.31855655
196	0x3d762d72	0.060101934
197	0x3ecf54e0	0.40494442
198	0x3b1a9b93	0.0023591265
199	0xbeb0f194	-0.3455931
200	0x3de437dd	0.111434676
201	0xbbca9c1e	-0.0061831614
202	0xbe250ef6	-0.16118988
203	0x3e52cac3	0.2058516
204	0xbdfc1213	-0.12308135
205	0x3d2d100c	0.04225163
206	0xbdc2fa6b	-0.0952042
207	0x3e2da315	0.16956742
208	0x3d803de9	0.062618084
209	0x3e4cc8a3	0.19998412
210	0xbe51ce06	-0.20488748
211	0xbeb4cc17	-0.35311958
212	0xbe5ba74c	-0.21450537
213	0x3dcd429e	0.10022472
214	0xbed422ea	-0.41432887
215	0xbe1e33d2	-0.15449455
216	0xbdd461bc	-0.10370204
217	0xbe205404	-0.1565705
218	0xbdacebab	-0.084433876
219	0xbe97548b	-0.2955669
220	0x3ce014d5	0.027353683
221	0x3e4b2b11	0.19840647
222	0x3e5289cc	0.20560378
223	0xbe4ea482	-0.20179942
224	0xbe81f596	-0.2538268
225	0xbe1af423	-0.15132193
226	0xbd86a4ff	-0.06574439
227	0xbc816d62	-0.015799228
228	0xbe26ade9	-0.16277279
229	0x3ad746d6	0.0016424309
230	0xbe3d7c33	-0.1850441
231	0xbe6c8b5a	-0.23100033
232	0xbdb763ac	-0.08954558
233	0x3e9aed29	0.30259064
234	0x3eafee62	0.3436156
235	0x3e3c5af0	0.18394065
236	0xbe030d0a	-0.12797943
237	0xbc8550cd	-0.01627388
238	0x3d930679	0.07178969
239	0x3d7f5469	0.06233636
240	0xbdedf466	-0.11618881
241	0xbdf3688a	-0.118851736
242	0xbdc05d6d	-0.093928196
243	0x3e82738d	0.25478783
244	0x3d1f24a6	0.03885331
245	0xbd94d97f	-0.072680466
246	0xbea6a004	-0.32543957
247	0xbeed9a81	-0.4640694
248	0xbed9f452	-0.42569214
249	0xbe29889d	-0.1655602
250	0x3e1bdfca	0.15222088
251	0xbcb3ef77	-0.021964772
252	0x3e4dda0b	0.20102708
253	0xbe5e3225	-0.21698816
254	0xbd017e3e	-0.031614535
255	0x3e217b0b	0.15769593

network_body.linear_encoder.seq_layers.2.bias f4 [128]
0	0xbd97f209	-0.074192114
1	0xbcbb65d0	-0.022875696
2	0x3c8ee93e	0.017445203
3	0xbd342d0f	-0.043988284
4	0xbd6f05c3	-0.058355104
5	0xbc81ff3c	-0.015868776
6	0x3cb6ded5	0.022323051
7	0xbca77d4e	-0.020445492
8	0xbd23515b	-0.03987251
9	0xbcc3b8ff	-0.023891924
10	0xbc989da0	-0.018629849
11	0xbd081d61	-0.033231143
12	0x3a46cc50	0.00075835455
13	0xbd1bcbfe	-0.03803634
14	0xbd8262a5	-0.06366471
15	0xbd651639	-0.055929396
16	0xb9e03c01	-0.00042769316
17	0xbd0c4bb8	-0.0342519
18	0xbced87e4	-0.028995462
19	0xbc9bd8b0	-0.019024223
20	0xbd54d7a9	-0.051963482
21	0x3be422a3	0.006962137
22	0x3babe6d3	0.0052460223
23	0xbd7edef7	-0.062224355
24	0xbc1e4589	-0.009660133
25	0xbcd8883a	-0.026432145
26	0xbc966335	-0.018357852
27	0xbdb1e143	-0.086855434
28	0xbc6c906e	-0.014438732
29	0xbced26cf	-0.02894917
30	0xbce5f8b0	-0.028072685
31	0xbc51f689	-0.012815126
32	0x3c160883	0.009157303
33	0xbd9907b4	-0.074721724
34	0x3ad2f67e	0.0016095189
35	0xbc0008d7	-0.007814608
36	0x3b8491d3	0.004045704
37	0xbcd93124	-0.02651269
38	0xbc9043e8	-0.017610505
39	0xbda67d78	-0.081294
40	0xbccffbbb	-0.02538859
41	0xbde01613	-0.1094171
42	0xbd1c1700	-0.038107872
43	0xbdd87973	-0.105700396
44	0xbd002bc1	-0.031291727
45	0xbcfcc3b1	-0.030855032
46	0xbd8a6e91	-0.0675937
47	0xbd057994	-0.03258665
48	0xbd5c6a61	-0.05381239
49	0xbc5eac38	-0.013590865
50	0xbd85a4ec	-0.06525597
51	0xbd236ab6	-0.03989669
52	0xbd19604b	-0.037445348
53	0xbdf9eecf	-0.12203752
54	0xbd26fbb6	-0.040767394
55	0xbd947b12	-0.07250036
56	0xbd6d3002	-0.057907112
57	0xbd2fa9e3	-0.042886626
58	0xbde14424	-0.10999325
59	0xbc6a1f0e	-0.014289631
60	0x3c3beb8a	0.011469731
61	0xbd8a2aad	-0.06746421
62	0xbb0b25b7	-0.0021232197
63	0xbd7ac1b6	-0.061219893
64	0xbb4ebe71	-0.0031546617
65	0xbc1a079c	-0.009401228
66	0xbd7f55f9	-0.06233785
67	0xbd014eae	-0.031569175
68	0xbd1e62a3	-0.038668286
69	0xbbe55710	-0.006998904
70	0xbd5cd818	-0.05391702
71	0xbced4bf6	-0.028966885
72	0xbd2af562	-0.04173792
73	0x3d079cf7	0.033108678
74	0xbd061b69	-0.032740984
75	0xba5637ba	-0.0008171756
76	0xbc475001	-0.0121650705
77	0xbcbbc005	-0.02291871
78	0xbcb0b3ec	-0.021570168
79	0xbcf9569c	-0.030436806
80	0xbd393956	-0.045220695
81	0xbd04c985	-0.032418747
82	0xbdb611cd	-0.08890114
83	0xbc9af34d	-0.018914843
84	0xbd215f3d	-0.039397467
85	0x3c86b83c	0.016445272
86	0xbc4434a5	-0.011975442
87	0xbcd2a437	-0.02571307
88	0xbd501a84	-0.050806537
89	0xbd58adf2	-0.052900262
90	0xbd58cd8b	-0.052930396
91	0xbd11276c	-0.035437986
92	0xbd2af5b9	-0.041738246
93	0x3c1d59f2	0.009603964
94	0x3cd2ff8b	0.025756618
95	0x3cdb62a4	0.026780434
96	0xbc318336	-0.010834506
97	0x3bd9c2cb	0.0066455356
98	0xbdb900e9	-0.09033377
99	0xbc373e87	-0.011184341
100	0xbc90e025	-0.017685005
101	0xbd82a8c3	-0.06379845
102	0xbd9e92ed	-0.077428676
103	0xbcfd399c	-0.03091126
104	0xbd035d41	-0.032071356
105	0xbcc60fdb	-0.024177482
106	0xbc6b1741	-0.014348806
107	0x3cd3e180	0.025864363
108	0xbd86f778	-0.0659017
109	0x3cb2cc60	0.02182597
110	0xbcfced93	-0.030875003
111	0xbc6f89e0	-0.014620274
112	0xbd525a5f	-0.051355716
113	0xbd9743c5	-0.07385973
114	0xbd1713cc	-0.036884114
115	0xbd363dbf	-0.04449248
116	0xbc7dd019	-0.015491509
117	0xbcda34cc	-0.026636504
118	0xbd88ecd1	-0.06685794
119	0xbd7eb01b	-0.062179666
120	0xbd1a5db7	-0.03768703
121	0xbd87d657	-0.06632679
122	0xbd6cea46	-0.057840608
123	0xbd9d7d9b	-0.07689973
124	0xbd170396	-0.036868654
125	0x3ca44be7	0.020055724
126	0x3d0424b4	0.032261565
127	0x3d1ad8ee	0.037804537

network_body.linear_encoder.seq_layers.2.weight f4 [128, 128]
0	0xbdae1ab2	-0.085011855
1	0xbd9f7ec9	-0.07787854
2	0x3d006f87	0.03135636
3	0xbcdf1815	-0.027233163
4	0xbe66accc	-0.22526854
5	0x3d5d329c	0.054003343
6	0x3c15c632	0.009141492
7	0x3d69138a	0.0569034
8	0xbc9269b6	-0.017872673
9	0xbe2621d1	-0.16223837
10	0x3c114e6a	0.008868793
11	0xbd107f12	-0.035277434
12	0xbe0472ff	-0.12934493
13	0xbe3c0c76	-0.18364128
14	0xbdfb74c6	-0.12278132
15	0xbe2a6c33	-0.16642837
16	0x3de244dd	0.11048291
17	0x3d024f01	0.031813625
18	0x3e028551	0.12746169
19	0xbdc23baa	-0.09484036
20	0xbdd0b21b	-0.10190221
21	0xbd193c49	-0.037411008
22	0xbc2918be	-0.01032084
23	0xbe1ef021	-0.1552129
24	0x3c2c5d24	0.010520253
25	0xbe32340e	-0.1740267
26	0x3de7785e	0.11302255
27	0xbcbd8169	-0.023132997
28	0xbe0a9096	-0.13531718
29	0xbd84dfdc	-0.0648801
30	0xbe5b7389	-0.21430792
31	0xbe1b6580	-0.15175438
32	0xbce3d1c3	-0.027809983
33	0xbcc2ac43	-0.023763781
34	0xbd85fd7e	-0.065424904
35	0xbccee2cd	-0.025254631
36	0xbe87ffc7	-0.2656233
37	0xbd098142	-0.033570535
38	0x3df35d4c	0.11883029
39	0x3c818fab	0.015815577
40	0x3c50b1f4	0.01273774
41	0x3d364109	0.044495616
42	0x3e1f9413	0.1558383
43	0x3d1527d3	0.036414932
44	0xbd8783ca	-0.06616934
45	0xbc4e91ab	-0.012607972
46	0xbe2a6b73	-0.16642551
47	0xbe16e922	-0.1473737
48	0x3d964fd3	0.07339444
49	0xbe1baf0e	-0.15203497
50	0xbd0d0f0d	-0.03443818
51	0x3d73d728	0.05953136
52	0x3dc82a8d	0.09773741
53	0xbd02ccb8	-0.031933516
54	0xbdc19089	-0.09451396
55	0xbc869506	-0.016428482
56	0x3df3e684	0.11909202
57	0xbd46cdc1	-0.048536066
58	0x3d057193	0.032579016
59	0x3d1eb5f4	0.038747743
60	0xbe256792	-0.1615279
61	0xbe251be4	-0.1612392
62	0x3d3087d4	0.043098286
63	0xbe4f62b8	-0.20252502
64	0xbc9e4ec3	-0.019324666
65	0xbe2cd5b0	-0.1687839
66	0xbd9d7150	-0.07687628
67	0xbde5078e	-0.111830816
68	0xbd857784	-0.065169364
69	0xbd1f1526	-0.038838528
70	0xba4a854e	-0.00077255524
71	0xbd04f03d	-0.03245567
72	0xbe4f0bb5	-0.2021931
73	0xbd275988	-0.040856868
74	0xbd07624d	-0.03305273
75	0x3e059cd7	0.13048111
76	0xbdca580d	-0.098800756
77	0xbd7b52f4	-0.061358407
78	0xbd9b7b28	-0.075918496
79	0xbd9dd412	-0.07706465
80	0xbdc82958	-0.09773511
81	0xbcb281ab	-0.021790346
82	0xbc3338f1	-0.010938869
83	0xbd0cd37d	-0.03438138
84	0x3d8815c7	0.06644779
85	0xbdc607e9	-0.096694775
86	0xbd1e98c0	-0.038719893
87	0x3ced481b	0.028965047
88	0x3e7d03fb	0.2470855
89	0xbe10ed8a	-0.14153114
90	0x3e0f8bca	0.14018169
91	0xbe2d0a5d	-0.16898485
92	0x3db5300e	0.08847056
93	0x3b917ed9	0.0044401702
94	0x3da202a9	0.07910664
95	0xbd85b23b	-0.065281354
96	0xbe814644	-0.2524892
97	0xbcfda245	-0.030961165
98	0xbd9fda74	-0.078053385
99	0x3e0f35d3	0.13985376
100	0xbd442e25	-0.04789557
101	0xbe1bd092	-0.15216282
102	0xbe4c40a5	-0.19946535
103	0x3d218724	0.03943552
104	0x3c855af4	0.016278721
105	0x3dd7c8d6	0.10536353
106	0xbd119c38	-0.035549372
107	0xbd9bf73f	-0.07615518
108	0xbd06d965	-0.032922167
109	0xbe167045	-0.14691265
110	0xbe6651e3	-0.22492175
111	0xbd859737	-0.065229826
112	0xbd0c72ea	-0.034289278
113	0xbd8aeffc	-0.06784055
114	0xbd2792f5	-0.040911634
115	0xbdf870e8	-0.1213091
116	0xbbe79377	-0.0070671397
117	0xbd21cf5f	-0.039504405
118	0xbe39f12a	-0.18158403
119	0xbd9c28f1	-0.076249965
120	0xbe1aa69b	-0.15102617
121	0xbda46d6d	-0.08028684
122	0x3db491b3	0.088168524
123	0xbe042db6	-0.12908062
124	0xbe56dbc9	-0.20982279
125	0xbe06cabf	-0.13163279
126	0x3e1e5b5d	0.1546454
127	0xbe338a8a	-0.17533317
128	0x3d57682b	0.052589577
129	0xbcb574c9	-0.022150414
130	0x3d9b2c54	0.07576814
131	0x3c868b27	0.016423775
132	0xbb0e446a	-0.0021708258
133	0xbcb39ee9	-0.02192636
134	0xbdfbf8a8	-0.12303287
135	0xbe9a3890	-0.3012128
136	0xbe6e9f73	-0.23303013
137	0xbd2be2ae	-0.041964225
138	0xbe59d030	-0.21270823
139	0x3ceb4ed1	0.028724106
140	0xbe017efe	-0.126461
141	0xbdac1bac	-0.084037155
142	0xbe648291	-0.22315432
143	0xbe6cb8ea	-0.23117414
144	0x3d03af0a	0.032149352
145	0xbb9aaeea	-0.0047205584
146	0xbe41f225	-0.18940027
147	0xbe0f30b7	-0.13983427
148	0x3e102cbc	0.14079565
149	0xbea1624c	-0.31520307
150	0xbd9bd652	-0.07609238
151	0xbd563270	-0.052294195
152	0xbd8dc6f5	-0.06922714
153	0xbd6c52dd	-0.057696212
154	0xbc9733cd	-0.018457318
155	0xbd6c4ea5	-0.05769219
156	0xbd563466	-0.052296065
157	0x3c0d8577	0.0086377775
158	0xbdd4b16e	-0.103854045
159	0xbd32e848	-0.043678552
160	0xbe058b42	-0.13041404
161	0x3d162745	0.036658544
162	0xbd9ff5e2	-0.0781057
163	0x3d16bfad	0.03680389
164	0x3a8551a5	0.0010171427
165	0x3dfcc8fc	0.12343022
166	0xbdba51ac	-0.09097609
167	0xbe2dc626	-0.16970119
168	0x3dfffe3e	0.12499665
169	0xbe28ba30	-0.16477275
170	0xbdbdd12e	-0.092684135
171	0xbd163560	-0.036671996
172	0x3dc6430c	0.09680757
173	0xbc397afd	-0.011320827
174	0xbd3c5b4d	-0.04598551
175	0x3d401fca	0.046905316
176	0xbdd62785	-0.104567565
177	0xbcd836e9	-0.02639337
178	0x3d409e60	0.04702604
179	0x3a75f180	0.00093819946
180	0xbdadcf78	-0.08486837
181	0xbda33e08	-0.07970816
182	0xbe0c2159	-0.13684596
183	0xbd8b7e00	-0.06811142
184	0xba9a1081	-0.0011754186
185	0x3dc66e9e	0.09689067
186	0x3d455bcf	0.04818326
187	0xbc73d49a	-0.014882231
188	0x3c9a741f	0.018854199
189	0x3dafab29	0.08577568
190	0xbd81284c	-0.06306514
191	0xbdbf822b	-0.093509994
192	0xbe347d3d	-0.176259
193	0xbcd82d72	-0.026388858
194	0x3da9fd99	0.08300323
195	0x3d029307	0.031878497
196	0xbdb47a50	-0.08812392
197	0x3cf6bbbd	0.030118817
198	0xbab484f5	-0.0013772534
199	0x3dd40a80	0.10353565
200	0xbd981b6b	-0.074271046
201	0xbe1fef2a	-0.15618578
202	0x3cad9a82	0.02119184
203	0xbe092a9d	-0.13395162
204	0xbd2f8ec4	-0.04286076
205	0xbc2d45c0	-0.010575712
206	0xbdbc1867	-0.09184342
207	0xbdaa6f61	-0.08322025
208	0xbdbd22fa	-0.09235187
209	0xbe1081d0	-0.1411202
210	0x3d960fd0	0.07327235
211	0xbc2fd8f7	-0.010732881
212	0x3d1c6ebf	0.038191553
213	0xbd491e13	-0.049100947
214	0xbda66c52	-0.08126129
215	0xbd218a6b	-0.039438646
216	0xbe0cfec6	-0.13769063
217	0xbceed5d8	-0.029154703
218	0xbdddc6f7	-0.10828965
219	0xbe035b53	-0.12827806
220	0x3d888cea	0.06667502
221	0xbe0e6489	-0.13905539
222	0x3c78953f	0.015172302
223	0x3e103ac3	0.14084916
224	0xbc5c10c5	-0.013431733
225	0xbc94c742	-0.01816142
226	0xbc31f4db	-0.010861601
227	0xbd2c7549	-0.04210404
228	0xbd06c47d	-0.03290223
229	0x3d84eab1	0.06490076
230	0xbe254485	-0.1613942
231	0x3c315dda	0.010825599
232	0x3df51470	0.11966789
233	0xbdf25c26	-0.11833982
234	0x3d5fe307	0.05465987
235	0xbe22ab8c	-0.15885752
236	0x3d823714	0.063581616
237	0xbd354daf	-0.044263538
238	0xbd83e252	-0.064396515
239	0xbdd8d76e	-0.10587965
240	0xbdfe8894	-0.12428394
241	0xbe15f294	-0.14643317
242	0x3d7f9b25	0.062403817
243	0x3e212891	0.15738131
244	0xbdde7338	-0.1086182
245	0x3d11c805	0.035591144
246	0x3c2e0f5b	0.010623778
247	0x3e20ca2f	0.15702127
248	0xbdae67b5	-0.08515874
249	0xbcad885f	-0.02118319
250	0xbe55d3f0	-0.20881629
251	0x3dfd20ee	0.123597965
252	0x3d75e83f	0.06003594
253	0xbe089ada	-0.13340321
254	0x3dd10617	0.1020624
255	0xbd9c522b	-0.0763286
