Oversteek Simulator/Learning/results/Oversteek-K-02/BadCar/BadCar-1149974.onnx (onnx, 90288 bytes, 6 tensors)

action_model._discrete_distribution.branches.0.bias f4 [3]
-0.08076862 -0.09630874 0.12795366
00000000: 056a a5bd 843d c5bd 4906 033e

action_model._discrete_distribution.branches.0.weight f4 [3, 128]
0.02353635 0.008152123 -0.040748876 0.0114458725 0.0016896399 0.029811846 0.03014463 -0.0035982342
0.012497209 -0.009127152 -0.015929613 0.007289525 0.0025435966 -0.043527793 -0.010808818 0.0034232528
-0.033454493 0.036827713 0.05372486 0.037066087 0.0091480445 0.01688629 -0.046500992 -0.004135664
0.013634172 0.013806182 0.03718995 0.02660772 0.042120192 0.028841823 -0.059048075 0.024872389
0.073393136 0.032212164 0.033386793 0.030102538 0.02911472 0.008238184 -0.07220708 0.034997486
0.0063694357 0.008983438 0.011982484 0.0047583533 0.00856715 0.024789331 0.0064406637 -0.05301757
-0.013932607 0.009050543 -0.018252622 0.020007892 -0.01614558 0.0025738592 -0.06173246 0.01830406
-0.0060702306 0.026279112 0.012200493 0.014653226 0.034973584 0.032071102 0.03675604 -0.05341073
0.03777752 0.028288381 0.02395438 0.02284055 0.021576209 -0.03034152 0.016920492 -0.048765916
-0.00078624627 -0.113430366 0.015088719 -0.013566432 0.03959835 0.020730494 0.022125276 0.0016785002
-0.051172942 -0.025135228 0.025666077 0.04920062 -0.05352983 0.05088891 -0.051563915 -0.008600232
-0.04944948 0.00023900114 0.03350256 0.00026333143 0.040503196 0.07119247 0.029432483 -0.08273856
-0.05483442 0.0462542 0.030331371 0.03056646 0.04137639 0.0095378375 -0.0029236882 0.04320372
-0.07307613 0.014276005 0.01909087 0.021381896 -0.00036895313 0.022068119 -0.044086847 0.031606946
-0.057379387 0.010385862 -0.034170303 0.038878486 0.032105476 -0.010233196 0.019500643 -0.00260674
0.008573066 0.029361859 0.013682522 0.028972914 0.037686758 -0.06334219 0.03989914 0.04595907
-0.09235475 -0.14812115 -0.020475633 0.0387459 0.011075765 -0.13111545 -0.24032022 0.031275142
-0.14331228 0.053572144 -0.012198934 -0.089678735 -0.15271665 0.028682731 -0.02255684 -0.0046895375
0.024774292 -0.16848561 -0.24421416 -0.13689457 0.024800893 -0.0364164 0.01783426 0.005561948
-0.12882437 -0.14377756 -0.17990242 -0.051952448 -0.13083673 0.040693622 0.0015853575 -0.13709474
-0.13224648 -0.0696048 -0.15103658 -0.14353831 -0.06529523 -0.13794333 -0.023917763 -0.11880488
0.028763438 -0.023992447 -0.15060736 -0.03025598 -0.016404333 -0.1078664 -0.122612834 -0.012618671
0.042517506 0.0058369986 0.03043842 -0.103066005 -0.033970714 -0.02085152 0.0026445095 -0.018566115
0.016656097 -0.11497145 -0.116772346 -0.13318928 -0.1132714 -0.21833111 -0.046663027 0.0002804383
-0.048903946 -0.08463065 -0.06472521 -0.06618558 -0.16624683 0.03031372 -0.035782754 0.006175017
-0.048413202 0.0020622888 -0.112078816 -0.025589114 -0.1751979 -0.15387298 -0.095123865 -0.0045492738
0.00074366824 0.029343916 -0.096715406 -0.18966784 0.054237217 -0.12777622 -0.024299197 0.012841664
0.017852243 0.024503 -0.13420759 -0.14866589 -0.08948967 -0.16381225 -0.0938843 0.007875334
0.04846402 -0.051461935 -0.123306036 0.006135118 -0.20149949 -0.039840586 -0.011023115 -0.10636505
0.002277779 -0.11213195 -0.047751825 -0.16105378 -0.0026705086 -0.13795795 0.025814122 -0.0868469
0.005639535 -0.09861413 0.050933935 -0.16607568 -0.038623948 -0.032278843 -0.15559213 0.0011830522
-0.084898524 -0.059964094 -0.14459981 -0.06191992 -0.17129554 0.012347766 -0.104719594 -0.2240394
00000000: 4ecf c03c 7b90 053c 4be8 26bd 7887 3b3c
00000010: e876 dd3a f937 f43c dff1 f63c 5ad0 6bbb
00000020: 18c1 4c3c 0d8a 15bc d27e 82bc f8dc ee3b
00000030: 78b2 263b 334a 32bd 7817 31bc a758 603b
00000040: 9407 09bd a8d8 163d 990e 5c3d 9cd2 173d
00000050: aee1 153c 1e55 8a3c d377 3ebd 7784 87bb
00000060: dd61 5f3c 5333 623c 7d54 183d 6ff8 d93c
00000070: 3986 2c3d b045 ec3c 65dc 71bd 2ec1 cb3c
00000080: 244f 963d e7f0 033d 97c0 083d 9999 f63c
00000090: fe81 ee3c 73f9 063c 4ee1 93bd 8659 0f3d
000000a0: b3b6 d03b 452f 133c 2e52 443c f6eb 9b3b
000000b0: 3b5d 0c3c ff12 cb3c 340c d33b f428 59bd
000000c0: 9745 64bc bb48 143c 8686 95bc 97e7 a33c
000000d0: bc43 84bc 31ae 283b 2ddb 7cbd 65f2 953c
000000e0: c9e8 c6bb 4b47 d73c 94e4 473c 1614 703c
000000f0: 7640 0f3d fd5c 033d 808d 163d 36c5 5abd
00000100: 9abc 1a3d 09bd e73c fa3b c43c 1b1c bb3c
00000110: 97c0 b03c c88e f8bc d89c 8a3c c5be 47bd
00000120: 181c 4eba 2e4e e8bd ad36 773c bd45 5ebc
00000130: e131 223d ffd2 a93c 1140 b53c 1f01 dc3a
00000140: b89a 51bd 65e8 cdbc aa41 d23c 9786 493d
00000150: 1842 5bbd e470 503d af34 53bd fde7 0cbc
00000160: 8a8b 4abd 619c 7a39 fb39 093d bf0f 8a39
00000170: aee6 253d 5ccd 913d 641c f13c d672 a9bd
00000180: 0f9a 60bd 0b75 3d3d 7f79 f83c 8366 fa3c
00000190: 4a7a 293d 9744 1c3c 599b 3fbb 62f6 303d
000001a0: f0a8 95bd e8e5 693c 7564 9c3c 1629 af3c
000001b0: 0d70 c1b9 33c8 b43c 6994 34bd 4976 013d
000001c0: a606 6bbd 7629 2a3c 29f6 0bbd 0c3f 1f3d
000001d0: 0881 033d 23a9 27bc d0bf 9f3c d7d5 2abb
000001e0: 0c76 0c3c 4888 f03c a82c 603c 9b58 ed3c
000001f0: 6e5d 1a3d 8db9 81bd 486d 233d 943f 3c3d
00000200: 7d24 bdbd 12ad 17be 84bc a7bc 05b4 1e3d
00000210: 2077 353c 2143 06be 8116 76be 5d1a 003d
00000220: 74c0 12be 776e 5b3d 0ade 47bc 7ca9 b7bd
00000230: c161 1cbe 0cf8 ea3c 1fc9 b8bc b1aa 99bb
00000240: 75f3 ca3c 7e87 2cbe 4713 7abe 172e 0cbe
00000250: 3e2b cb3c 5d29 15bd 2719 923c 0041 b63b
00000260: 89ea 03be 6d3a 13be 5738 38be 17cc 54bd
00000270: 10fa 05be 5bae 263d c5cb cf3a 9062 0cbe
00000280: 9f6b 07be f68c 8ebd 55a9 1abe b5fb 12be
00000290: 81b9 85bd 0441 0dbe 2fef c3bc f94f f3bd
000002a0: 4da1 eb3c cf8b c4bc d138 1abe 64db f7bc
000002b0: 6162 86bc 0fe9 dcbd 701c fbbd 8bbe 4ebc
000002c0: d626 2e3d 4b44 bf3b fe59 f93c 4514 d3bd
000002d0: e024 0bbd cfd0 aabc 824f 2d3b f717 98bc
000002e0: 5e72 883c 2776 ebbd 5726 efbd c562 08be
000002f0: d6fa e7bd 3192 5fbe bb21 3fbd cb07 9339
00000300: 814f 48bd d652 adbd a78e 84bd 4e8c 87bd
00000310: 9c3c 2abe 7b54 f83c f090 12bd cc57 ca3b
00000320: ec4c 46bd 7727 073b 9489 e5bd 43a0 d1bc
00000330: 1467 33be e190 1dbe 4dd0 c2bd 1312 95bb
00000340: bbf2 423a a762 f03c ba12 c6bd 4938 42be
00000350: d827 5e3d c5d7 02be 1c0f c7bc d865 523c
00000360: de3e 923c 84ba c83c b76d 09be df3b 18be
00000370: 5c46 b7bd 66be 27be 6946 c0bd 8b07 013c
00000380: 3582 463d c0c9 52bd e087 fcbd 1a09 c93b
00000390: e255 4ebe e22f 23bd 4c9a 34bc ebd5 d9bd
000003a0: ca46 153b 70a5 e5bd 6b97 43bd 48eb 24be
000003b0: b303 2fbb d944 0dbe 2378 d33c cadc b1bd
000003c0: d9cb b83b 34f6 c9bd 1aa0 503d be0f 2abe
000003d0: 2534 1ebd d236 04bd 8b53 1fbe a510 9b3a
000003e0: 47df adbd e99c 75bd f911 14be be9f 7dbd
000003f0: 1968 2fbe 494e 4a3c 3a77 d6bd 966a 65be

network_body.linear_encoder.seq_layers.0.bias f4 [128]
-0.07790344 0.040279523 -0.017924454 -0.010992165 -0.11654321 -0.11001849 -0.06562866 -0.101085894
-0.084629 -0.14091049 -0.078345455 -0.23056741 -0.07229319 -0.09286631 -0.038356755 -0.093666315
-0.07271927 0.012439585 -0.09125272 -0.049686406 -0.10140529 -0.007108418 0.017096786 -0.0262894
-0.0031920006 -0.06304725 0.026300533 -0.052018493 -0.12559226 -0.038317494 0.037045192 -0.06668885
-0.15650553 -0.064481206 0.015223945 -0.10191394 -0.061208114 -0.09291799 -0.12251278 -0.055114966
-0.07463185 -0.031004729 -0.10145248 -0.0107134245 -0.18083313 -0.035527106 -0.09548565 -0.04627927
0.036282424 -0.006944241 -0.028671 -0.05351664 -0.11718915 -0.00672245 -0.118907064 -0.0033233059
-0.12621348 -0.032146987 -0.087933965 -0.19311024 -0.0035695392 -0.17389195 -0.091240436 -0.1268575
-0.10969976 -0.13838089 -0.11395743 -0.11472903 -0.06346734 -0.08069338 -0.07849334 -0.08322631
-0.10703741 -0.028885191 -0.019477662 -0.011361847 -0.06436775 0.0054823547 -0.024028597 -0.1216686
0.035098307 -0.018749546 -0.13275746 -0.1377458 -0.09178587 -0.102446795 -0.31116146 -0.014306822
0.039503675 -0.046713233 -0.04876231 -0.0900805 -0.048276592 -0.012125672 -0.09980392 -0.085864894
-0.06346079 -0.11571792 -0.024264148 -0.06078803 -0.20390065 -0.14325354 -0.022226628 -0.0934678
-0.04747496 -0.037519313 -0.20027348 -0.06807249 -0.22857974 -0.10273794 -0.18806507 -0.070781
-0.09246398 -0.32356247 -0.050574258 -0.0005964984 -0.11922928 -0.032414105 0.03757982 -0.18647777
-0.15556042 -0.1052985 -0.08462571 0.0054108156 -0.074068844 -0.029639108 -0.009650427 -0.1329561
00000000: d78b 9fbd 24fc 243d 4ed6 92bc 7b18 34bc
00000010: 35ae eebd 6051 e1bd 5268 86bd 1f06 cfbd
00000020: f851 adbd d74a 10be 9573 a0bd dd19 6cbe
00000030: 740e 94bd b130 bebd f91b 1dbd 20d4 bfbd
00000040: d7ed 94bd 67cf 4b3c b5e2 babd f983 4bbd
00000050: 94ad cfbd bbed e8bb 8f0e 8c3c de5c d7bc
00000060: e230 51bb eb1e 81bd 3774 d73c 5811 55bd
00000070: 429b 00be cef2 1cbd b3bc 173d 2a94 88bd
00000080: fc42 20be b90e 84bd da6d 793c 41b8 d0bd
00000090: 5cb5 7abd ca4b bebd fbe7 fabd 3bc0 61bd
000000a0: 95d8 98bd a1fd fdbc 51c6 cfbd 5c87 2fbc
000000b0: 522c 39be df84 11bd fb8d c3bd 558f 3dbd
000000c0: e19c 143d 848c e3bb 72df eabc 4434 5bbd
000000d0: dd00 f0bd ff47 dcbb 8c85 f3bd d2cb 59bb
000000e0: 1b3e 01be 8fac 03bd b916 b4bd b1be 45be
000000f0: eeee 69bb bb10 32be 44dc babd efe6 01be
00000100: 45aa e0bd b8b3 0dbe 8362 e9bd 0ef7 eabd
00000110: 2afb 81bd 9242 a5bd 1ec1 a0bd 8e72 aabd
00000120: 6e36 dbbd a3a0 ecbc 9e8f 9fbc 0a27 3abc
00000130: 3dd3 83bd 53a5 b33b 9fd7 c4bc 632d f9bd
00000140: 3ec3 0f3d a698 99bc 92f1 07be 3c0d 0dbe
00000150: 3bfa bbbd a0cf d1bd 8e50 9fbe 2967 6abc
00000160: 9bce 213d 6056 3fbd fdba 47bd 207c b8bd
00000170: adbd 45bd c1aa 46bc ff65 ccbd efd9 afbd
00000180: bbf7 81bd 84fd ecbd 9bc5 c6bc dffc 78bd
00000190: 55cb 50be 0eb1 12be 9e14 b6bc 0c6c bfbd
000001a0: 1b75 42bd daad 19bd 7e14 4dbe 9769 8bbd
000001b0: cf10 6abe 4568 d2bd 2194 40be a1f5 90bd
000001c0: c15d bdbd fba9 a5be f426 4fbd 545e 1cba
000001d0: 7b2e f4bd a7c4 04bd 4ced 193d 07f4 3ebe
000001e0: 3b4b 1fbe bda6 d7bd 3f50 adbd 364d b13b
000001f0: 68b1 97bd b7cd f2bc d31c 1ebc a525 08be

network_body.linear_encoder.seq_layers.0.weight f4 [128, 39]
-0.46086258 0.35830283 -0.15042168 0.08313575 -0.16492109 -0.07055734 0.0016400935 0.1589016
0.026145266 -0.35140964 -0.06708765 -0.12398034 -0.14375365 -0.05244444 -0.28381407 0.14732109
-0.4243571 0.0022538225 0.23345941 -0.41610652 0.03177807 -0.27380618 -0.32613268 0.006548363
-0.09222123 0.046903353 0.07873086 -0.060672086 0.06262275 -0.19316912 0.17901021 0.022317857
0.22868107 0.33100176 0.14816791 -0.14317584 -0.25642484 -0.031094924 0.11910475 -0.15720211
0.24631156 0.010105355 -0.04588827 0.12141699 0.047752254 0.08303742 0.036507476 -0.25955138
-0.19590518 0.12638524 0.016318932 -0.1999403 -0.031824328 -0.19790329 0.13252543 -0.08540773
-0.17101997 0.12431874 -0.057693996 0.16705252 0.231656 -0.21498787 -0.0065210056 0.037036184
0.24466224 0.2838493 0.18706933 0.19297725 0.05269693 0.26077166 -0.061415378 -0.048742972
-0.34394103 0.07287023 -0.25488362 0.28264683 -0.07466702 0.21017966 0.005629046 0.14489302
-0.27793837 -0.1704079 0.06885407 0.021307431 0.23847157 -0.024517309 0.0036683935 -0.024126481
-0.07721637 0.14313708 -0.21743798 -0.17992796 0.12825672 0.017402258 -0.35864556 -0.030224388
-0.048651956 -0.08676316 -0.07506163 -0.06990875 -0.16976777 -0.22408582 -0.19095017 -0.029575225
-0.009943361 -0.024587257 0.20824148 0.28890985 0.14893436 -0.06256256 0.38900325 0.030526642
0.11748916 -0.19603957 -0.22458898 0.07086896 0.06934834 -0.24528894 0.11183756 0.21603781
0.07512599 -0.058678806 -0.11383929 0.09618045 -0.056327723 -0.031081997 -0.084315605 0.2134274
0.18608104 0.106012814 0.05353195 0.19424425 0.016481094 0.057573684 -0.18142508 -0.10455544
-0.109904006 -0.041703925 0.59112346 -0.16281472 -0.14656202 0.09263952 0.14060928 -0.056341358
0.1998534 0.02898335 0.05703966 0.30354008 0.45875815 -0.008106307 -0.21321753 -0.045016743
0.21739107 -0.2582472 0.12564419 -0.2303133 -0.014796223 -0.3980919 -0.15622191 -0.104506
0.09653078 0.20325728 -0.043136436 0.07692452 -0.2420995 0.047058932 0.0265051 0.16470422
0.121783026 -0.060818013 -0.18593986 0.22157583 -0.05364131 0.0025033276 0.005630023 -0.21751367
0.1290251 0.04726002 -0.35948274 0.056689803 -0.21233435 0.19167121 0.17461063 0.054151095
0.18814315 -0.1543111 0.10391756 -0.039333332 0.0069174753 0.092533536 -0.3365292 -0.09220568
-0.017159188 0.06700254 -0.034963094 -0.31855655 0.060101934 0.40494442 0.0023591265 -0.34552702
0.111434676 -0.0061831614 -0.16118988 0.2058516 -0.123011656 0.04225163 -0.0952042 0.16956742
0.062618084 0.20004918 -0.20488748 -0.35311958 -0.21450537 0.10022472 -0.41425833 -0.15449455
-0.103698544 -0.1565705 -0.084433876 -0.29550123 0.027353683 0.19840647 0.20560378 -0.20179942
-0.25377133 -0.15132193 -0.06572807 -0.015799228 -0.16277279 0.0017036763 -0.18051025 -0.2309978
-0.08918944 0.30257034 0.3436156 0.18394065 -0.12797943 -0.01627388 0.068946145 0.06233636
-0.11618881 -0.118851736 -0.093928196 0.2526489 0.03885331 -0.072680466 -0.32543957 -0.4640694
-0.42853612 -0.1655602 0.15222088 -0.021964772 0.20102708 -0.22028938 -0.031614535 0.1443752
00000000: 2ef6 ebbe 7873 b73e 2408 1abe 1343 aa3d
00000010: 13e1 28be 5e80 90bd 68f8 d63a 1ab7 223e
00000020: 992e d63c f7eb b3be 4065 89bd 68e9 fdbd
00000030: 2834 13be fbcf 56bd 1450 91be 57db 163e
00000040: 5545 d9be deb4 133b fc0f 6f3e ea0b d5be
00000050: b929 023d 5330 8cbe ddfa a6be a693 d63b
00000060: 7cde bcbd bb1d 403d a53d a13d 4b83 78bd
00000070: 5b40 803d 20ce 45be 744e 373e f0d3 b63c
00000080: 5f2b 6a3e 1079 a93e 54b9 173e b09c 12be
00000090: 1e4a 83be c8ba febc 31ed f33d 97f9 20be
000000a0: 1939 7c3e ee90 253c 57f5 3bbd 79a9 f83d
000000b0: de97 433d 860f aa3d dd88 153d ebe3 84be
000000c0: 5e9b 48be 226b 013e 48af 853c 26bd 4cbe
000000d0: 3a5a 02bd 29a7 4abe bfb4 073e 3fea aebd
000000e0: dc1f 2fbe d39a fe3d 8a50 6cbd d10f 2b3e
000000f0: 3b37 6d3e c825 5cbe 29ae d5bb 41b3 173d
00000100: bd88 7a3e b254 913e 1a8f 3f3e d49b 453e
00000110: bcd8 573d dd83 853e b18e 7bbd b6a6 47bd
00000120: 0a19 b0be fd3c 953d 1b80 82be 16b7 903e
00000130: 06eb 98bd 5639 573e dc73 b83b d65e 143e
00000140: f04d 8ebe 697f 2ebe 5d03 8d3d ec8c ae3c
00000150: e431 743e 86d8 c8bc 6e69 703b e6a4 c5bc
00000160: 9e23 9ebd 8792 123e 10a8 5ebe 093f 38be
00000170: bb55 033e 2e8f 8e3c 64a0 b7be 2399 f7bc
00000180: 4647 47bd e2b0 b1bd e9b9 99bd 522c 8fbd
00000190: 9ad7 2dbe c176 65be 7188 43be be47 f2bc
000001a0: 7be9 22bc 376b c9bc 413d 553e feeb 933e
000001b0: 4082 183e cd20 80bd 6f2b c73e 0213 fa3c
000001c0: 289e f03d 99be 48be a7fa 65be bf23 913d
000001d0: 8106 8e3d 062d 7bbe 170b e53d 0439 5d3e
000001e0: a8db 993d 3059 70bd 9324 e9bd 41fa c43d
000001f0: e6b7 66bd ac9f febc a9ad acbd b68c 5a3e
00000200: 078c 3e3e 3f1d d93d 5144 5b3d f7e7 463e
00000210: 5c03 873c 62d2 6b3d 7fc7 39be 2a21 d6bd
00000220: 5a15 e1bd bcd1 2abd de53 173f e7b8 26be
00000230: 5b14 16be cab9 bd3d e1fb 0f3e 32c6 66bd
00000240: 5fa6 4c3e 7e6e ed3c 6ba2 693d 9b69 9b3e
00000250: 59e2 ea3e 51d0 04bc b255 5abe 7a63 38bd
00000260: c49b 5e3e fa38 84be dfa8 003e 40d7 6bbe
00000270: db6b 72bc b4d2 cbbe a3f8 1fbe 3e07 d6bd
00000280: eeb1 c53d ad22 503e d5af 30bd 9a8a 9d3d
00000290: eee8 77be dec0 403d 3921 d93c 39a8 283e
000002a0: 6169 f93d 4f1c 79bd 0567 3ebe c6e4 623e
000002b0: feb6 5bbd de0e 243b 0e7c b83b e7bb 5ebe
000002c0: 281f 043e b993 413d 1f0e b8be 9133 683d
000002d0: 2d6e 59be 7545 443e 21cd 323e 8acd 5d3d
000002e0: 99a8 403e bb03 1ebe bbd2 d43d fd1b 21bd
000002f0: fdab e23b 3982 bd3d 8e4d acbe 55d6 bcbd
00000300: 6d91 8cbc a138 893d 7635 0fbd d819 a3be
00000310: 722d 763d e054 cf3e 939b 1a3b ebe8 b0be
00000320: dd37 e43d 1e9c cabb f60e 25be c3ca 523e
00000330: 89ed fbbd 0c10 2d3d 6bfa c2bd 15a3 2d3e
00000340: e93d 803d b1d9 4c3e 06ce 51be 17cc b4be
00000350: 4ca7 5bbe 9e42 cd3d ab19 d4be d233 1ebe
00000360: e75f d4bd 0454 20be abeb acbd f04b 97be
00000370: d514 e03c 112b 4b3e cc89 523e 82a4 4ebe
00000380: 51ee 81be 23f4 1abe 709c 86bd 626d 81bc
00000390: e9ad 26be e44d df3a aed7 38be b08a 6cbe
000003a0: f4a8 b6bd 80ea 9a3e 62ee af3e f05a 3c3e
000003b0: 0a0d 03be cd50 85bc a333 8d3d 6954 7f3d
000003c0: 66f4 edbd 8a68 f3bd 6d5d c0bd 325b 813e
000003d0: a624 1f3d 7fd9 94bd 04a0 a6be 819a edbe
000003e0: 1669 dbbe 9d88 29be cadf 1b3e 77ef b3bc
000003f0: 0bda 4d3e 8a93 61be 3e7e 01bd 18d7 133e

network_body.linear_encoder.seq_layers.2.bias f4 [128]
-0.066492096 -0.015797526 0.017573697 -0.0443366 -0.057257812 -0.0057092304 0.030000964 -0.020497331
-0.03360684 -0.02389217 -0.018586673 -0.027235737 0.011032266 -0.038036272 -0.06355387 -0.055952534
-0.00038727882 -0.027828613 -0.01958483 -0.015337323 -0.0520374 0.007193333 0.005152735 -0.062159933
-0.0031798957 -0.020265575 -0.01083066 -0.08584933 -0.008851967 -0.02894917 -0.027942989 -0.006062365
0.011176096 -0.06931202 0.011285773 0.004579181 0.006068232 -0.019748524 -0.017459543 -0.07670922
-0.025527904 -0.10971772 -0.031193534 -0.10576489 -0.031586852 -0.01953739 -0.061497238 -0.03240782
-0.053801846 -0.013568199 -0.065161444 -0.032646935 -0.03719895 -0.12072716 -0.040741593 -0.07273362
-0.057852764 -0.034970112 -0.10313103 -0.010266486 0.021176677 -0.05824557 -0.002114268 -0.06110674
-0.0024263766 -0.0068533113 -0.058778565 -0.026625602 -0.028240822 -0.006930476 -0.05258002 -0.028966302
-0.04166688 0.033392347 -0.028956208 -0.00065877667 -0.004424721 -0.01338018 -0.01875688 -0.030533606
-0.04502209 -0.032418747 -0.083718404 -0.010664614 -0.039397426 0.025435572 -0.011786877 -0.025741737
-0.05074717 -0.053247582 -0.049382787 -0.028509412 -0.036857747 0.018295437 0.03627332 0.02681662
-0.010832435 0.0069491626 -0.08571301 -0.010856655 -0.008915758 -0.0630363 -0.077494465 -0.02483549
-0.031863667 -0.018780721 -0.011151787 0.033912376 -0.065880984 0.014115625 -0.030869026 -0.012927115
-0.05128118 -0.066465564 -0.03688404 -0.039355364 -0.015383545 -0.026735121 -0.059547156 -0.062081203
-0.030732311 -0.06513397 -0.052329082 -0.075260326 -0.029680334 0.020070521 0.03559958 0.04709692
00000000: 022d 88bd d069 81bc b7f6 8f3c 4b9a 35bd
00000010: 2b87 6abd 7f14 bbbb 95c4 f53c 05ea a7bc
00000020: 53a7 09bd 83b9 c3bc 1443 98bc 7b1d dfbc
00000030: adc0 343c eccb 1bbd 8828 82bd 7c2e 65bd
00000040: af0b cbb9 d5f8 e3bc 5e70 a0bc 6549 7bbc
00000050: 2b25 55bd 0db6 eb3b 46d8 a83b 6a9b 7ebd
00000060: cc65 50bb fe03 a6bc 1573 31bc c6d1 afbd
00000070: d707 11bc cf26 edbc b2e8 e4bc cea6 c6bb
00000080: f21b 373c 76f3 8dbd f6e7 383c f40c 963b
00000090: 05d8 c63b a8c7 a1bc 5107 8fbc b919 9dbd
000000a0: e51f d1bc afb3 e0bd 9589 ffbc 439b d8bd
000000b0: 3761 01bd e00c a0bc 87e4 7bbd 10be 04bd
000000c0: 535f 5cbd 274d 5ebc 5d73 85bd cbb8 05bd
000000d0: ed5d 18bd cd3f f7bd a8e0 26bd 5df5 94bd
000000e0: 05f7 6cbd d23c 0fbd 5d36 d3bd c334 28bc
000000f0: b67a ad3c e892 6ebd 888f 0abb 104b 7abd
00000100: d803 1fbb be91 e0bb cbc1 70bd ef1d dabc
00000110: 4c59 e7bc 0c19 e3bb 265e 57bd bd4a edbc
00000120: e4aa 2abd 6ac6 083d 9235 edbc c1b1 2cba
00000130: 40fd 90bb 8b38 5bbc 07a8 99bc 9d21 fabc
00000140: 1569 38bd 85c9 04bd 8e74 abbd a2ba 2ebc
00000150: 325f 21bd 435e d03c bf1d 41bc 56e0 d2bc
00000160: 44dc 4fbd 231a 5abd 9b45 4abd 928c e9bc
00000170: 26f8 16bd 50e0 953c 5593 143d 87ae db3c
00000180: 877a 31bc cdb5 e33b 4d8a afbd 1de0 31bc
00000190: 6613 12bc 2d19 81bd 6bb5 9ebd cc73 cbbc
000001a0: 7a83 02bd 07da 99bc fcb5 36bc b4e7 0a3d
000001b0: 9cec 86bd 3945 673c 0ae1 fcbc 40cc 53bc
000001c0: 370c 52bd 191f 88bd b813 17bd 1733 21bd
000001d0: 440b 7cbc 9d03 dbbc b8e7 73bd dc48 7ebd
000001e0: 54c2 fbbc f564 85bd 0557 56bd 1622 9abd
000001f0: 2c24 f3bc ef6a a43c ddd0 113d b3e8 403d

network_body.linear_encoder.seq_layers.2.weight f4 [128, 128]
-0.08501211 -0.07787854 0.031356324 -0.018221846 -0.22534883 0.054003336 0.01916455 0.06741708
-0.017873367 -0.16224915 0.008868793 -0.03532492 -0.13529454 -0.17552713 -0.12266975 -0.16475315
0.11048291 0.031813625 0.12746172 -0.08570255 -0.10190223 -0.028391985 -0.010320847 -0.1552129
0.010519832 -0.17402667 0.11302255 -0.013301672 -0.12628275 -0.06510343 -0.2143079 -0.1425898
-0.027939685 -0.023763843 -0.065424874 -0.02525486 -0.26204377 -0.024228713 0.118829995 0.021890443
0.012737504 0.054371756 0.1558383 0.036414932 -0.06467786 -0.012607972 -0.16679193 -0.1473737
0.073394485 -0.14277807 -0.03443818 0.059510253 0.09693597 -0.031933554 -0.09815045 -0.016428482
0.11909204 -0.05309276 0.04161212 0.03874739 -0.16152766 -0.1612397 0.043098286 -0.193234
-0.012300968 -0.16843596 -0.076876745 -0.11450173 -0.05586382 -0.03883857 -0.000773296 -0.032455787
-0.2024491 -0.031382628 -0.023791745 0.13048129 -0.098801 -0.053045157 -0.073599644 -0.07706601
-0.097735144 -0.012485815 -0.0015506506 -0.034381468 0.06644347 -0.09669749 -0.04380421 0.028965008
0.2470855 -0.1317054 0.14018153 -0.15962832 0.08847061 0.0044392287 0.07891894 -0.06528215
-0.2524892 -0.030961169 -0.0780533 0.13985376 -0.047981184 -0.15216282 -0.19946556 0.039434914
0.016278373 0.11457124 -0.035934348 -0.07582824 -0.03128739 -0.13909338 -0.22492333 -0.056013037
-0.03407285 -0.06784239 -0.040911634 -0.1213091 -0.0070688645 -0.029943492 -0.1815839 -0.07725799
-0.1526165 -0.08585262 0.088167995 -0.1290807 -0.2005077 -0.1284837 0.1546454 -0.17915751
0.052589115 -0.022150414 0.07576814 0.024567014 -0.0022432322 -0.02192635 -0.11397805 -0.29116502
-0.23303065 -0.041969504 -0.21270823 0.028683446 -0.13535605 -0.076522656 -0.2235066 -0.22921057
0.032149345 -0.0047206176 -0.1894004 -0.13157192 0.14079604 -0.30681646 -0.076092385 -0.05229419
-0.069227435 -0.057696212 -0.018457318 -0.04881585 -0.044003278 0.009374402 -0.103854164 -0.035520397
-0.13046052 0.03665846 -0.07810572 0.036803637 0.0031864387 0.13168012 -0.09097639 -0.16389404
0.12499677 -0.15596817 -0.09268428 -0.036671996 0.09999673 -0.011320827 -0.049501386 0.04690524
-0.10456769 -0.018022824 0.04702604 0.0009104136 -0.08340016 -0.07970828 -0.1393827 -0.06811142
-0.0011756304 0.09408601 0.056394197 -0.014882615 0.018854126 0.08577535 -0.06306557 -0.08512847
-0.16950496 -0.028235309 0.083002776 0.026909497 -0.07978317 0.030118441 -0.0013780341 0.10353586
-0.07450834 -0.14760345 0.029580262 -0.13395156 -0.042861104 -0.0029638705 -0.09044166 -0.08322158
-0.09235196 -0.13266191 0.08147026 -0.010732975 0.038185738 -0.049103674 -0.091188 -0.039438643
-0.13769063 -0.02029714 -0.10829003 -0.12006119 0.066674985 -0.13905701 0.01502156 0.1408486
-0.013431763 -0.01816137 -0.010861596 -0.04210404 -0.032991163 0.06490076 -0.16139424 0.0108249765
0.11966757 -0.10990202 0.054202944 -0.15786748 0.06089147 -0.03756697 -0.06439753 -0.09750044
-0.12303805 -0.14643453 0.062403817 0.15738131 -0.108619966 0.044402845 0.010623816 0.15677088
-0.08585004 -0.029342374 -0.20881684 0.12359802 0.06574519 -0.13130319 0.1020624 -0.0824032
00000000: d41a aebd c97e 9fbd 7d6f 003d fb45 95bc
00000010: d8c1 66be 9a32 5d3d f9fe 9c3c f711 8a3d
00000020: 2b6b 92bc a424 26be 6a4e 113c ddb0 10bd
00000030: a78a 0abe 62bd 33be 473a fbbd 0db5 28be
00000040: dd44 e23d 014f 023d 5385 023e d284 afbd
00000050: 1eb2 d0bd 4f96 e8bc c518 29bc 21f0 1ebe
00000060: 605b 2c3c 0c34 32be 5e78 e73d 42ef 59bc
00000070: 4450 01be f254 85bd 8873 5bbe 0f03 12be
00000080: c4e1 e4bc 64ac c2bc 7afd 85bd 48e3 cebc
00000090: 9a2a 86be 4b7b c6bc 245d f33d 9653 b33c
000000a0: f7b0 503c ebb4 5e3d 1394 1f3e d327 153d
000000b0: d375 84bd ab91 4ebc 81cb 2abe 22e9 16be
000000c0: d94f 963d 6a34 12be 0d0f 0dbd 06c1 733d
000000d0: 5e86 c63d c2cc 02bd 1a03 c9bd 0695 86bc
000000e0: 87e6 f33d cb77 59bd 7871 2a3d 95b5 1e3d
000000f0: 8267 25be 051c 25be d487 303d 22df 45be
00000100: 008a 49bc 7a7a 2cbe 8e71 9dbd e27f eabd
00000110: 76d1 64bd 3115 1fbd 04b7 4aba 5cf0 04bd
00000120: d14e 4fbe 128b 00bd e8e6 c2bc e39c 053e
00000130: 2e58 cabd e145 59bd 69bb 96bd c9d4 9dbd
00000140: 5d29 c8bd 4e91 4cbc 333f cbba 95d3 0cbd
00000150: 8413 883d 5509 c6bd 0b6c 33bd 0648 ed3c
00000160: fb03 7d3e c8dd 06be bf8b 0f3e 9b75 23be
00000170: 1430 b53d f376 913b 41a0 a13d a6b2 85bd
00000180: 4446 81be 47a2 fdbc 69da 9fbd d335 0f3e
00000190: eb87 44bd 92d0 1bbe b340 4cbe 8186 213d
000001a0: 395a 853c 54a4 ea3d e52f 13bd d64b 9bbd
000001b0: 3527 00bd 7f6e 0ebe 4d52 66be ed6d 65bd
000001c0: f98f 0bbd f3f0 8abd f592 27bd e870 f8bd
000001d0: efa1 e7bb 0e4c f5bc 21f1 39be 7039 9ebd
000001e0: 8047 1cbe 80d3 afbd 6c91 b43d bb2d 04be
000001f0: e451 4dbe 3b91 03be 5d5b 1e3e 1175 37be
00000200: af67 573d c974 b5bc 542c 9b3d c340 c93c
00000210: 3103 13bb e49e b3bc 536d e9bd 9513 95be
00000220: 969f 6ebe 37e8 2bbd 30d0 59be 8cf9 ea3c
00000230: c79a 0abe e9b7 9cbd eade 64be 2db6 6abe
00000240: 08af 033d 69af 9abb 2ef2 41be caba 06be
00000250: d62c 103e 0c17 9dbe 53d6 9bbd 6f32 56bd
00000260: 1dc7 8dbd dd52 6cbd cd33 97bc 21f3 47bd
00000270: c83c 34bd 1897 193c 7eb1 d4bd d67d 11bd
00000280: 7197 05be 2e27 163d e4f5 9fbd 69bf 163d
00000290: 92d3 503b 27d7 063e d451 babd d7d3 27be
000002a0: 4efe ff3d 1fb6 1fbe 41d1 bdbd 6035 16bd
000002b0: 16cb cc3d fd7a 39bc f7c1 4abd b51f 403d
000002c0: 9627 d6bd 9aa4 93bc 609e 403d d3a8 6e3a
000002d0: b4cd aabd 183e a3bd 57ba 0ebe 007e 8bbd
000002e0: 9c17 9aba 2ab0 c03d 9afd 663d 36d6 73bc
000002f0: f873 9a3c fdaa af3d 8628 81bd d657 aebd
00000300: b592 2dbe bc4d e7bc 5cfd a93d 4e71 dc3c
00000310: 5c65 a3bd f3ba f63c 279f b4ba 9c0a d43d
00000320: d497 98bd 5c25 17be 4e52 f23c 992a 09be
00000330: 208f 2fbd 7f3d 42bb 7a39 b9bd 1370 aabd
00000340: 0623 bdbd 86d8 07be e1d9 a63d 5cd9 2fbc
00000350: a668 1c3d ef20 49bd c6c0 babd 6a8a 21bd
00000360: c6fe 0cbe 3046 a6bc 2ac7 ddbd a4e2 f5bd
00000370: e58c 883d f664 0ebe fd1c 763c 9e3a 103e
00000380: e610 5cbc 27c7 94bc d6f4 31bc 4975 2cbd
00000390: be21 07bd b1ea 843d 8844 25be 3e5b 313c
000003a0: 4514 f53d 4f14 e1bd e803 5e3d 03a8 21be
000003b0: 5669 793d d3df 19bd dae2 83bd 50ae c7bd
000003c0: 60fb fbbd eff2 15be 259b 7f3d 9128 213e
000003d0: 2574 debd c2df 353d 840f 2e3c 8c88 203e
000003e0: 25d2 afbd 6b5f f0bc 15d4 55be f520 fd3d
000003f0: 6aa5 863d 5874 06be 1706 d13d 02c3 a8bd
