Oversteek Simulator/Learning/results/Oversteek-K-02/BadCar/BadCar-1249946.onnx (onnx, 90288 bytes, 6 tensors)

action_model._discrete_distribution.branches.0.bias f4 [3]
000000 d6 9c 97 bd d1 9b f9 bd 86 a1 01 3e
       -0.07402961 -0.12187923 0.12659273

action_model._discrete_distribution.branches.0.weight f4 [3, 128]
000000 e5 09 7f 3c 8e 64 2f 3a f7 8c 13 bd c8 5f ec 3b
       0.015566324 0.0006690704 -0.036023106 0.0072135665
000010 4c 62 14 bc 38 91 d2 3c 05 87 ba 3c fd 29 36 bc
       -0.009056639 0.025704011 0.02276946 -0.011118409
000020 d0 8b 8d 3b 04 87 14 bc d3 ed 5c bc 49 66 38 3b
       0.0043196455 -0.009065393 -0.013484436 0.0028137139
000030 67 ca 01 bc 1d 22 32 bd 00 2b 76 bb 8a 14 68 bb
       -0.007921792 -0.043489564 -0.003756225 -0.0035412633
000040 78 d2 e8 bc 09 5f f2 3c 9a 88 47 3d c2 ff f0 3c
       -0.028420672 0.029586332 0.048714258 0.02941883
000050 99 db 44 3b bd 6b b8 3c 58 c2 1c bd 31 38 36 bc
       0.0030038117 0.022512311 -0.03827128 -0.0111217955
000060 61 45 90 3b 92 13 be 3b e9 41 f9 3c ff bc a7 3c
       0.004402802 0.005800673 0.030426936 0.020475863
000070 87 4d fd 3c 64 46 ec 3c 97 14 6a bd 06 9e 93 3c
       0.030920757 0.028842159 -0.057148542 0.018019687
000080 2f 43 84 3d 0b 48 bc 3c d3 84 f3 3c ed aa ad 3c
       0.06458127 0.022983572 0.029726421 0.021199668
000090 a4 d5 89 3c 23 45 af 3a ed 61 8d bd 5f e6 ec 3c
       0.016825505 0.0013372045 -0.069034435 0.028918443
0000a0 4d 39 b2 3b 69 f6 05 3c 95 3f d0 3b bf 73 41 3b
       0.0054389597 0.008176425 0.006355236 0.0029518453
0000b0 c0 38 0e 3c 6e d4 a0 3c 4b 46 21 bb 7c ae 4b bd
       0.008680522 0.019632544 -0.0024608548 -0.04972695
0000c0 bf 0a 4c bc a9 03 5d 3c c3 da 73 bc dc f3 03 3c
       -0.012453734 0.013489642 -0.0148837 0.008053746
0000d0 5c 3c bb bb 6f a1 b9 bb 4a c3 77 bd 45 6b 9f 3c
       -0.0057139825 -0.0056649963 -0.060488977 0.01946033
0000e0 30 95 87 bc 7c b8 7c 3c f5 0e 87 3b b8 d1 28 3c
       -0.01655063 0.015424844 0.004121656 0.010303907
0000f0 12 a2 04 3d ad 5b e5 3c a5 3b 2c 3d bf 88 4b bd
       0.032381125 0.027997816 0.04204907 -0.049690958
000100 77 aa eb 3c 7e ce 9b 3c f8 1c 6b 3c 1b 15 8c 3c
       0.028767807 0.019019362 0.014350168 0.017099908
000110 d7 08 57 3c cf 79 ac bc 60 e6 04 3c 62 41 47 bd
       0.013124666 -0.021054177 0.008111566 -0.04864634
000120 ef dc 7b 3b 9e d7 e0 bd 30 67 ff 3b e0 a4 c6 bb
       0.0038431247 -0.10978626 0.0077942833 -0.006062135
000130 0c 15 0c 3d cb 58 82 3c ec 37 75 3c d2 11 fd bb
       0.03419976 0.01591148 0.014966946 -0.0077230716
000140 66 4c 3c bd dd d8 cd bc ec ae 9c 3c c6 37 24 3d
       -0.045971297 -0.025127823 0.019126378 0.040092252
000150 4f 35 5b bd 9e 80 26 3d 0e 17 42 bd 75 c0 9b bb
       -0.053517636 0.040650003 -0.047385268 -0.0047531673
000160 b5 07 40 bd f0 86 b1 bb 2b 9a d3 3c 1a 99 2b bb
       -0.04688235 -0.005417697 0.025830349 -0.0026183785
000170 a1 d1 0d 3d 80 ad 8a 3d 57 8e b5 3c a8 70 a7 bd
       0.034623746 0.06771374 0.0221626 -0.08175784
000180 ea 25 60 bd 62 30 25 3d c0 ac ab 3c 6e a2 a3 3c
       -0.054723658 0.040329345 0.020956397 0.019974913
000190 23 37 0a 3d 02 34 30 ba b7 93 3e 3a af 00 02 3d
       0.03374399 -0.0006721617 0.0007269936 0.031738933
0001a0 a0 a2 8c bd 65 c7 cb 3b a2 58 e2 3b 6a 13 84 3c
       -0.06866956 0.006218838 0.0069075385 0.016122539
0001b0 d8 0b a2 3b 49 7e 07 3d bf d2 31 bd b8 d6 c5 3c
       0.0049452595 0.03307942 -0.043413874 0.024150237
0001c0 46 ee 5e bd 9a bb 4e 3a 3e d9 0b bd 7f 91 0d 3d
       -0.054426454 0.0007886231 -0.034142725 0.034562584
0001d0 59 14 26 3d 51 07 69 bc 9b b9 45 3c 30 59 2d bc
       0.04054675 -0.014222936 0.012068178 -0.010580346
0001e0 b3 98 06 bb aa 1d a4 3c 14 50 cf 3b 86 01 a0 3c
       -0.0020537793 0.020033676 0.0063266847 0.019531976
0001f0 5c 24 ef 3c 41 c7 80 bd 10 39 ec 3c be bc 2b 3d
       0.029192142 -0.06288005 0.028835803 0.041928045
000200 bf f2 85 bd b0 d9 f3 bd 95 37 95 bc 5a 4a 46 3d
       -0.06540441 -0.11906755 -0.01821498 0.04841075
000210 d6 af cf 3c 28 f3 d2 bd ba 3a 55 be dd ef 24 3d
       0.0253524 -0.103002846 -0.20823184 0.040267814
000220 cd 50 ed bd 0c 98 5b 3d 1e a5 39 bc d8 29 79 bd
       -0.11587677 0.0536118 -0.011330871 -0.06083092
000230 96 dc fa bd 7b 30 eb 3c eb 45 9a bc 76 4b 15 3c
       -0.12249105 0.02870964 -0.018832168 0.00911223
000240 49 36 e5 3c d8 91 08 be fb 0b 56 be 8c d9 d5 bd
       0.027979987 -0.13336885 -0.20903008 -0.104418844
000250 bf 25 21 3d 6a 39 fa bc 48 9b ce 3c 38 80 ac 3c
       0.039342638 -0.030544955 0.025220528 0.021057233
000260 49 68 c8 bd a4 af e8 bd fe 31 17 be d8 48 02 bd
       -0.09785516 -0.11361626 -0.14765164 -0.03180775
000270 05 a6 d0 bd 86 ae 26 3d a2 79 25 3b f4 ac e1 bd
       -0.10187916 0.040693782 0.00252495 -0.11019316
000280 2d 0f d1 bd 20 3a 29 bd 95 1d f7 bd fa 17 e3 bd
       -0.10207973 -0.041315198 -0.12066189 -0.110885575
000290 da 7d 4c bd 6c 67 e0 bd e2 2e bb bc 65 ef b3 bd
       -0.04992471 -0.10957226 -0.022849504 -0.08785895
0002a0 71 4e 1a 3d 0f a8 4a bc 69 d7 f1 bd 63 49 92 bc
       0.037672464 -0.01236917 -0.11808664 -0.01785726
0002b0 c7 ab d7 bb 26 c7 a2 bd 89 5d c3 bd 39 f4 39 bc
       -0.0065817568 -0.07948141 -0.09539325 -0.011349731
0002c0 68 93 31 3d 45 05 37 3c ac fe 0b 3d 43 68 9e bd
       0.04335347 0.01117069 0.03417842 -0.0773473
0002d0 f9 2f f1 bc 4a 0d 50 bb 58 7d 60 3b d7 24 3c bc
       -0.02944182 -0.0031746202 0.0034254398 -0.011483393
0002e0 31 db 0d 3d e8 ee ac bd b8 a7 b5 bd 4f 9b df bd
       0.034632865 -0.08444005 -0.088698804 -0.10918295
0002f0 05 60 b3 bd 65 8d 3b be f1 8f 22 bd b5 44 f7 3a
       -0.08758549 -0.18315656 -0.039688054 0.0018865081
000300 48 56 10 bd 98 ae 65 bd 13 47 36 bd 9a be 26 bd
       -0.035238534 -0.05607471 -0.044501375 -0.040709116
000310 29 52 07 be ec 71 0e 3d ce 6c 70 bc 79 f8 cd 3b
       -0.13214935 0.034776613 -0.014674379 0.0062857238
000320 d4 0b 3b bd e2 0b 54 3b 1c 0a a8 bd 9d c4 bb bc
       -0.045665577 0.0032355716 -0.08205053 -0.022920901
000330 c2 da 14 be e0 77 f6 bd f6 bc 86 bd 8d 65 33 3c
       -0.14536574 -0.12034583 -0.0657901 0.010949505
000340 a6 60 25 3b ff 73 f0 3c f9 d2 90 bd d2 f1 1d be
       0.002523461 0.029352186 -0.0707149 -0.15424278
000350 ba 2e 5e 3d e8 42 c6 bd 9f fe b9 bc 29 84 8c 3c
       0.05424378 -0.0968073 -0.02270442 0.017152863
000360 5d df 98 3c 73 ff 0f 3d a5 ba cb bd da b9 fb bd
       0.018661195 0.035155725 -0.09947709 -0.12291308
000370 d6 e2 7e bd 0e 9e 04 be 4c 56 88 bd d3 07 07 3c
       -0.062228046 -0.12950918 -0.06657085 0.0082416115
000380 c5 df 46 3d 76 db 21 bd 23 b2 be bd 2e 89 90 3c
       0.048553247 -0.039515935 -0.09311321 0.017643537
000390 33 79 2a be 9a 4f e8 bc 8a 1e 82 bb 7f 26 a6 bd
       -0.16647796 -0.02835827 -0.0039709257 -0.08112811
0003a0 55 32 85 3b 58 41 af bd f2 4b 01 bd f9 12 03 be
       0.004064838 -0.08557385 -0.031566568 -0.12800206
0003b0 0f ff f3 3a 79 9a 23 be aa b9 d5 3c f3 57 6d bd
       0.0018615442 -0.15976895 0.026089508 -0.057945203
0003c0 e5 d0 db 3b 86 24 8b bd ce b3 50 3d a2 40 0c be
       0.006708252 -0.06794076 0.050952725 -0.1369653
0003d0 45 51 f6 bc 9c 75 7d bc a6 0a 00 be 3e 46 c3 3c
       -0.03006805 -0.015469935 -0.12504062 0.023837205
0003e0 30 d5 75 bd 10 9c 09 bd 63 7d eb bd 39 f0 24 bd
       -0.060017765 -0.0335961 -0.11498525 -0.040268157
0003f0 b5 70 0e be aa 36 4d 3c 6b 53 af bd f8 2d 41 be
       -0.13910182 0.01252524 -0.085608326 -0.18865192

network_body.linear_encoder.seq_layers.0.bias f4 [128]
000000 b5 bf a0 bd 4d fc 24 3d ba 1c 95 bc 23 77 59 bc
       -0.07849065 0.040279675 -0.018202174 -0.013273033
000010 94 60 04 be dd 8f e1 bd 2d 9c 9b bd 1b 6d e6 bd
       -0.12927467 -0.11013768 -0.075981475 -0.11251279
000020 35 20 ae bd 55 c8 13 be 92 73 a0 bd 1a fd 75 be
       -0.08502237 -0.1443189 -0.07834543 -0.24022332
000030 a3 1c af bd 98 14 f2 bd f2 4a 1e bd 3a ae e4 bd
       -0.08550384 -0.11820334 -0.038645692 -0.111660436
000040 92 fa 94 bd d5 b9 4a 3c fb 35 bb bd 77 bb 57 bd
       -0.07274355 0.012373407 -0.09141155 -0.052669015
000050 a5 6c d2 bd ee 3d 43 bd 99 3b 84 3c 6c d4 d8 bc
       -0.102746285 -0.047666483 0.0161417 -0.026468478
000060 2f 7c 59 bc d8 59 84 bd 37 74 d7 3c 45 5a 66 bd
       -0.013274237 -0.06462449 0.026300533 -0.05623843
000070 fa 26 11 be 43 9a 55 bd 90 cd 0e 3d b9 81 8e bd
       -0.14175025 -0.05214907 0.03486401 -0.069583364
000080 71 b9 30 be 2e 58 89 bd 84 78 1d 3c a4 4b d2 bd
       -0.1725824 -0.06706272 0.009611253 -0.102683336
000090 77 0f a5 bd e6 a6 c8 bd 96 47 fc bd 41 b2 a6 bd
       -0.0805959 -0.09797458 -0.123183414 -0.08139468
0000a0 e7 15 9d bd fa b9 05 bd 66 07 d0 bd 04 e6 2f bc
       -0.07670193 -0.032648064 -0.10157661 -0.010735992
0000b0 e1 49 46 be 82 85 11 bd 22 2f cd bd a0 46 3e bd
       -0.1936412 -0.035527714 -0.100187555 -0.046454072
0000c0 ca 55 10 3d 2b 0a 26 bc 72 df ea bc 77 6f 8f bd
       0.035238065 -0.01013426 -0.028671 -0.07003682
0000d0 90 3c 06 be 1a c7 e1 bb ba 42 ee bd d2 cb 59 bb
       -0.1310904 -0.00689019 -0.11633821 -0.0033233059
0000e0 45 5c 01 be 4b ea 50 bd 8a 4d bc bd 6a 06 46 be
       -0.12632854 -0.05100469 -0.09194477 -0.19338384
0000f0 e7 3f 05 bc 6f 5d 32 be 58 b6 c4 bd d7 24 09 be
       -0.008132911 -0.17418455 -0.09605092 -0.1339296
000100 c7 5d ef bd b7 6b 1a be 7d 85 ea bd e3 ec f5 bd
       -0.116878085 -0.15080152 -0.11451242 -0.12008073
000110 85 b2 8a bd 41 a8 a8 bd 4e d7 a1 bd 6f 6e b0 bd
       -0.06772331 -0.08235217 -0.07902394 -0.086148135
000120 65 5a 00 be b1 90 01 bd b7 7c b3 bc a5 17 a0 bc
       -0.12534483 -0.03163213 -0.021910055 -0.019542525
000130 c7 84 86 bd 5b 57 ec bc 84 a5 2c bd dd 02 0a be
       -0.06568294 -0.028850248 -0.042150036 -0.13477655
000140 48 8a 01 3d d9 53 b1 bc 12 39 11 be 80 24 0d be
       0.031626016 -0.021646427 -0.14181927 -0.13783455
000150 0d f8 d4 bd b1 12 e5 bd 34 b6 a9 be 5e 02 82 bc
       -0.103988744 -0.11185206 -0.33146822 -0.01587027
000160 e5 ce 21 3d 22 2b 4c bd 75 5a 55 bd d9 1b c2 bd
       0.03950395 -0.049845822 -0.05208822 -0.09477968
000170 46 ab 4d bd 14 08 83 bc d4 ae ef bd df f2 b0 bd
       -0.050212167 -0.015995063 -0.11703268 -0.08640074
000180 3e 74 86 bd 37 85 ed bd cf 23 dd bc 8b 0b 79 bd
       -0.0656514 -0.11597674 -0.026994614 -0.060802024
000190 88 bc 5e be 49 b3 12 be e3 be e9 bc 9b 29 c0 bd
       -0.21751606 -0.14326204 -0.028533405 -0.093829356
0001a0 fb d0 43 bd 15 5e 25 bd a9 a8 5a be 9b a5 b3 bd
       -0.04780672 -0.040372927 -0.21353401 -0.08771821
0001b0 d9 8c 7e be fc d2 f2 bd 3b b6 41 be 34 cc 9d bd
       -0.24858417 -0.11856648 -0.18917172 -0.07704964
0001c0 04 2b dc bd e3 13 a6 be f4 26 4f bd e2 5f 1c ba
       -0.10750392 -0.32437047 -0.050574258 -0.00059652154
0001d0 df 74 ff bd 4a c6 0f bd 14 36 0e 3d e7 3a 4d be
       -0.12473463 -0.035101213 0.03471954 -0.20042
0001e0 aa f2 2e be f7 4a f3 bd f6 bf bb bd d1 8d 9c 3b
       -0.17084756 -0.11879533 -0.09167473 0.004777648
0001f0 5e 62 aa bd 34 46 4e bd fb 1c 1e bc d7 7d 0d be
       -0.08319543 -0.05035992 -0.009650464 -0.13817535

network_body.linear_encoder.seq_layers.0.weight f4 [128, 39]
000000 2e f6 eb be 78 73 b7 3e 24 08 1a be 13 43 aa 3d
       -0.46086258 0.35830283 -0.15042168 0.08313575
000010 1b 4a 29 be 5e 80 90 bd 68 f8 d6 3a 1a b7 22 3e
       -0.16532175 -0.07055734 0.0016400935 0.1589016
000020 99 2e d6 3c 8d 26 b4 be 40 65 89 bd 68 e9 fd bd
       0.026145266 -0.35185662 -0.06708765 -0.12398034
000030 28 34 13 be fb cf 56 bd 7c 84 91 be 57 db 16 3e
       -0.14375365 -0.05244444 -0.2842139 0.14732109
000040 55 45 d9 be de b4 13 3b fc 0f 6f 3e 3f 43 d5 be
       -0.4243571 0.0022538225 0.23345941 -0.41652867
000050 b9 29 02 3d 3b 31 8c be dd fa a6 be a6 93 d6 3b
       0.03177807 -0.2738131 -0.32613268 0.006548363
000060 3c b0 bd bd bb 1d 40 3d a5 3d a1 3d 4b 83 78 bd
       -0.0926213 0.046903353 0.07873086 -0.060672086
000070 5b 40 80 3d 75 27 46 be 74 4e 37 3e 7e ac b6 3c
       0.06262275 -0.19350989 0.17901021 0.022299048
000080 5f 2b 6a 3e 10 79 a9 3e 66 51 17 3e ca db 24 be
       0.22868107 0.33100176 0.14777145 -0.16099468
000090 ed 4d 83 be 7e 9c 07 bd b1 1c f4 3d 97 f9 20 be
       -0.2564539 -0.033108227 0.11919535 -0.15720211
0000a0 19 39 7c 3e ee 90 25 3c 57 f5 3b bd f7 a9 f8 3d
       0.24631156 0.010105355 -0.04588827 0.12141793
0000b0 de 97 43 3d 86 0f aa 3d dd 88 15 3d eb e3 84 be
       0.047752254 0.08303742 0.036507476 -0.25955138
0000c0 28 9b 48 be 22 6b 01 3e 48 af 85 3c 26 bd 4c be
       -0.19590437 0.12638524 0.016318932 -0.1999403
0000d0 3a 5a 02 bd 03 a7 4a be bf b4 07 3e 3f ea ae bd
       -0.031824328 -0.19790272 0.13252543 -0.08540773
0000e0 dc 1f 2f be d3 9a fe 3d 49 50 6c bd d1 0f 2b 3e
       -0.17101997 0.12431874 -0.057693753 0.16705252
0000f0 3b 37 6d 3e c8 25 5c be 29 ae d5 bb 9b b3 17 3d
       0.231656 -0.21498787 -0.0065210056 0.03703652
000100 bd 88 7a 3e b2 54 91 3e 1a 8f 3f 3e d4 9b 45 3e
       0.24466224 0.2838493 0.18706933 0.19297725
000110 3d d9 57 3d dd 83 85 3e b1 8e 7b bd b6 a6 47 bd
       0.05269741 0.26077166 -0.061415378 -0.048742972
000120 0a 19 b0 be 7d 3d 95 3d 64 7e 82 be 16 b7 90 3e
       -0.34394103 0.072871186 -0.25487053 0.28264683
000130 d5 ea 98 bd 56 39 57 3e dc 73 b8 3b d6 5e 14 3e
       -0.07466666 0.21017966 0.005629046 0.14489302
000140 f0 4d 8e be 69 7f 2e be b9 a0 8c 3d ec 8c ae 3c
       -0.27793837 -0.1704079 0.06866593 0.021307431
000150 e4 31 74 3e 86 d8 c8 bc 6e 69 70 3b 04 59 c7 bc
       0.23847157 -0.024517309 0.0036683935 -0.024334438
000160 9e 23 9e bd 87 92 12 3e 10 a8 5e be 09 3f 38 be
       -0.07721637 0.14313708 -0.21743798 -0.17992796
000170 a0 24 03 3e 2e 8f 8e 3c 64 a0 b7 be 23 99 f7 bc
       0.1280694 0.017402258 -0.35864556 -0.030224388
000180 46 47 47 bd 15 1a b2 bd e9 b9 99 bd c9 31 8f bd
       -0.048651956 -0.08696381 -0.07506163 -0.06991918
000190 9a d7 2d be c1 76 65 be 43 b9 43 be be 47 f2 bc
       -0.16976777 -0.22408582 -0.1911364 -0.029575225
0001a0 7b e9 22 bc 37 6b c9 bc 41 3d 55 3e 22 d7 93 3e
       -0.009943361 -0.024587257 0.20824148 0.2887507
0001b0 40 82 18 3e 86 2b 80 bd 6f 2b c7 3e 02 13 fa 3c
       0.14893436 -0.062583014 0.38900325 0.030526642
0001c0 55 3e f0 3d ac 20 51 be 14 fe 65 be f9 25 8f 3d
       0.11730639 -0.2042262 -0.22460204 0.069896646
0001d0 9e 26 8e 3d 06 2d 7b be 17 0b e5 3d 04 39 5d 3e
       0.069409594 -0.24528894 0.11183756 0.21603781
0001e0 a8 db 99 3d 0d 97 7a bd 93 24 e9 bd 41 fa c4 3d
       0.07512599 -0.06117921 -0.11383929 0.09618045
0001f0 e6 b7 66 bd ac 9f fe bc 92 75 b2 bd b6 8c 5a 3e
       -0.056327723 -0.031081997 -0.08713831 0.2134274
000200 07 8c 3e 3e 3f 1d d9 3d 51 44 5b 3d 8f 58 44 3e
       0.18608104 0.106012814 0.05353195 0.19174407
000210 5c 03 87 3c 62 d2 6b 3d 7f c7 39 be 2a 21 d6 bd
       0.016481094 0.057573684 -0.18142508 -0.10455544
000220 50 cc e5 bd bc d1 2a bd a8 77 18 3f e7 b8 26 be
       -0.1122061 -0.041703925 0.5955758 -0.16281472
000230 5b 14 16 be 53 2c b8 3d e1 fb 0f 3e 32 c6 66 bd
       -0.14656202 0.08992829 0.14060928 -0.056341358
000240 5f a6 4c 3e 7e 6e ed 3c 37 3a 5f 3d 9b 69 9b 3e
       0.1998534 0.02898335 0.054498877 0.30354008
000250 87 06 f5 3e 51 d0 04 bc b2 55 5a be fb 60 45 bd
       0.47856542 -0.008106307 -0.21321753 -0.04818819
000260 70 3a 5c 3e bd ee 86 be a8 ad fc 3d 97 f1 81 be
       0.21506667 -0.26354018 0.1233781 -0.2537963
000270 db 6b 72 bc b4 d2 cb be a3 f8 1f be 3e 07 d6 bd
       -0.014796223 -0.3980919 -0.15622191 -0.104506
000280 06 dc b0 3d ad 22 50 3e d5 af 30 bd 9a 8a 9d 3d
       0.08635716 0.20325728 -0.043136436 0.07692452
000290 ee e8 77 be 0e 4e 13 3d 39 21 d9 3c 39 a8 28 3e
       -0.2420995 0.03596311 0.0265051 0.16470422
0002a0 61 69 f9 3d 4f 1c 79 bd af d1 48 be c6 e4 62 3e
       0.121783026 -0.060818013 -0.19611238 0.22157583
0002b0 fe b6 5b bd de 0e 24 3b 0e 7c b8 3b 86 6e 69 be
       -0.05364131 0.0025033276 0.005630023 -0.22796068
0002c0 28 1f 04 3e 05 92 42 3d 1f 0e b8 be 91 33 68 3d
       0.1290251 0.047502536 -0.35948274 0.056689803
0002d0 06 e0 63 be 75 45 44 3e 21 cd 32 3e 8a cd 5d 3d
       -0.22253427 0.19167121 0.17461063 0.054151095
0002e0 99 a8 40 3e 54 63 27 be bb d2 d4 3d 3f 05 1c bd
       0.18814315 -0.16346484 0.10391756 -0.03809094
0002f0 fd ab e2 3b 39 82 bd 3d 47 99 b1 be 14 4f 07 be
       0.0069174753 0.092533536 -0.34687254 -0.1321376
000300 6c 1a 98 bc 28 63 33 3d 1e 18 1c bd d8 19 a3 be
       -0.018567286 0.043795735 -0.038108937 -0.31855655
000310 72 2d 76 3d e0 54 cf 3e 93 9b 1a 3b 8e f3 b0 be
       0.060101934 0.40494442 0.0023591265 -0.34560817
000320 dd 37 e4 3d 1e 9c ca bb f6 0e 25 be c3 ca 52 3e
       0.111434676 -0.0061831614 -0.16118988 0.2058516
000330 f6 1b fc bd 0c 10 2d 3d 6b fa c2 bd 15 a3 2d 3e
       -0.123100206 0.04225163 -0.0952042 0.16956742
000340 e9 3d 80 3d c4 c4 4c 3e 06 ce 51 be 17 cc b4 be
       0.062618084 0.19996935 -0.20488748 -0.35311958
000350 4c a7 5b be 9e 42 cd 3d d9 24 d4 be d2 33 1e be
       -0.21450537 0.10022472 -0.41434363 -0.15449455
000360 d0 62 d4 bd 04 54 20 be ab eb ac bd 96 56 97 be
       -0.103704095 -0.1565705 -0.084433876 -0.29558247
000370 d5 14 e0 3c 11 2b 4b 3e cc 89 52 3e 82 a4 4e be
       0.027353683 0.19840647 0.20560378 -0.20179942
000380 3a f7 81 be 23 f4 1a be 37 a2 86 bd 62 6d 81 bc
       -0.2538393 -0.15132193 -0.06573909 -0.015799228
000390 e9 ad 26 be 2a 2c d5 3a 23 1f 3e be e1 8b 6c be
       -0.16277279 0.0016263772 -0.18566565 -0.23100235
0003a0 23 8a b7 bd 15 ea 9a 3e 62 ee af 3e f0 5a 3c 3e
       -0.08961894 0.30256715 0.3436156 0.18394065
0003b0 0a 0d 03 be cd 50 85 bc 45 f8 6e 3d 69 54 7f 3d
       -0.12797943 -0.01627388 0.058342237 0.06233636
0003c0 66 f4 ed bd 8a 68 f3 bd 6d 5d c0 bd 31 7a 77 3e
       -0.11618881 -0.118851736 -0.093928196 0.24167706
0003d0 a6 24 1f 3d 7f d9 94 bd 04 a0 a6 be 81 9a ed be
       0.03885331 -0.072680466 -0.32543957 -0.4640694
0003e0 0d d7 e0 be 9d 88 29 be ca df 1b 3e 77 ef b3 bc
       -0.4391407 -0.1655602 0.15222088 -0.021964772
0003f0 0b da 4d 3e 8d 33 6c be 3e 7e 01 bd a1 7c 1b 3e
       0.20102708 -0.2306654 -0.031614535 0.15184261

network_body.linear_encoder.seq_layers.2.bias f4 [128]
000000 38 56 b1 bd f8 d3 1e bd ff 75 8c 3c b8 65 38 bd
       -0.08659023 -0.038776368 0.017146109 -0.04501888
000010 95 2a 79 bd 7c c2 0e bd 52 01 96 3b 28 a6 b0 bc
       -0.060831625 -0.034853444 0.004577794 -0.021563604
000020 26 d0 59 bd b9 af c3 bc c0 1f 99 bc 68 73 45 bd
       -0.05317702 -0.023887502 -0.018691897 -0.048205763
000030 4f 1c 92 bc ab cc 1b bd 65 ff 82 bd 42 87 6e bd
       -0.017835764 -0.038036983 -0.06396369 -0.05823446
000040 c6 f4 cc b9 41 75 53 bd 7e 9b 43 bd 3d b2 06 bd
       -0.00039092283 -0.051625494 -0.04775571 -0.032884825
000050 39 ff 5b bd d2 32 d2 3b 30 f4 af 3b 3f d5 85 bd
       -0.053710196 0.0064147497 0.0053696856 -0.06534814
000060 87 13 d6 bc 3d 41 21 bd 32 8c 13 bd 31 5e ba bd
       -0.026132358 -0.039368857 -0.036022373 -0.09099997
000070 e4 58 fa bc cf 26 ed bc 5c 72 e6 bc 08 6d db bc
       -0.030559964 -0.02894917 -0.028130703 -0.026785389
000080 a7 d0 4f bb c7 ca b7 bd 66 18 96 bc cb 7b ea bc
       -0.003171006 -0.089742236 -0.018322181 -0.028623482
000090 5a fb 28 ba e3 9b 26 bd a4 6e 92 bc 9c a6 c2 bd
       -0.00064461457 -0.04067601 -0.017875023 -0.095044345
0000a0 f5 e2 d3 bc b7 7c e3 bd 3b 07 61 bd 37 56 db bd
       -0.025865057 -0.11107772 -0.054938536 -0.107098036
0000b0 95 f8 02 bd d6 72 4b bd 32 6f a9 bd 57 62 06 bd
       -0.031975348 -0.049670063 -0.08273162 -0.032808628
0000c0 a8 66 5c bd cf bf 61 bc 6f d8 85 bd 00 9e 58 bd
       -0.053808838 -0.013778641 -0.06535422 -0.052885056
0000d0 72 88 1b bd c4 9c 00 be 18 46 27 bd f6 ee 95 bd
       -0.03797192 -0.12559801 -0.04083833 -0.07320969
0000e0 f5 ee 7f bd 86 d0 75 bd 2e ad 00 be e6 d8 bd bc
       -0.062483747 -0.060013317 -0.12566063 -0.023174714
0000f0 d3 f9 28 bc 56 30 b4 bd be 09 39 bb df 79 7b bd
       -0.010313469 -0.08798282 -0.0028234567 -0.061395522
000100 1a 7f dd bb d9 3d ac bc 89 4f 8b bd 00 b4 29 bd
       -0.0067595365 -0.021025585 -0.068022795 -0.041431427
000110 28 b4 79 bd 02 b7 e4 bb 29 f6 74 bd 7b 4b ed bc
       -0.060962826 -0.006979824 -0.05980507 -0.028966656
000120 dd b7 2b bd 0d db 05 3d c9 e1 3f bd 16 86 99 ba
       -0.041923393 0.032679606 -0.046846185 -0.0011712934
000130 1c 73 d7 bc ba c2 32 bd c9 37 06 bd fb 23 09 bd
       -0.026300006 -0.043642737 -0.032768045 -0.03348158
000140 73 41 3a bd f9 c8 04 bd 75 b0 cb bd b1 5f 18 bd
       -0.045472573 -0.032418225 -0.09945766 -0.037200633
000150 80 5f 21 bd 17 39 d1 ba e7 41 49 bc 04 93 d2 bc
       -0.039397717 -0.0015962449 -0.012283779 -0.025704868
000160 d4 89 50 bd 2e 0c 5d bd d4 b0 88 bd 67 3b 46 bd
       -0.050912693 -0.053966694 -0.06674352 -0.048396494
000170 67 19 5d bd 31 dc 45 bc 71 07 0a 3c 52 b1 da 3c
       -0.053979304 -0.0120764235 0.008424626 0.026695881
000180 80 81 31 bc 3c 1c 8a 3b ed b0 d6 bd e8 21 61 bc
       -0.010834098 0.0042147916 -0.10482965 -0.013740994
000190 6c b6 1b bd 60 6c 87 bd 72 57 9f bd e6 ed 36 bd
       -0.038015768 -0.06612468 -0.07780351 -0.04466047
0001a0 ab 60 04 bd 35 06 13 bd d3 9c 92 bc 1f a6 de 3b
       -0.032318752 -0.03589459 -0.017897045 0.0067947055
0001b0 3c 46 87 bd 8e 18 5a 3c de 02 fd bc ee 9a da bc
       -0.06605193 0.013311518 -0.030885156 -0.026685204
0001c0 fc ec 52 bd 32 be b9 bd a5 13 17 bd 23 16 6c bd
       -0.051495537 -0.0906948 -0.03688397 -0.0576383
0001d0 c6 e8 84 bc c7 99 e9 bc 2c a5 a9 bd ad 10 8b bd
       -0.016224276 -0.02851571 -0.08283457 -0.0679029
0001e0 72 02 52 bd 57 83 9d bd d0 24 97 bd f1 28 aa bd
       -0.051271863 -0.07691067 -0.07380068 -0.0830859
0001f0 c3 47 61 bd 2f 15 a4 3c 71 db d5 3c 0b 18 8c 3c
       -0.055000078 0.020029632 0.026105614 0.017101308

network_body.linear_encoder.seq_layers.2.weight f4 [128, 128]
000000 af 1a ae bd c9 7e 9f bd 87 6f 00 3d 5d 61 36 bd
       -0.08501183 -0.07787854 0.03135636 -0.044526447
000010 e6 a9 66 be 9c 32 5d 3d 18 bc cf bb e6 f7 2f 3d
       -0.22525749 0.054003343 -0.006339561 0.042961024
000020 0c 69 92 bc 34 21 26 be 6a 4e 11 3c ad 77 10 bd
       -0.017872356 -0.16223603 0.008868793 -0.03527038
000030 42 c6 00 be 7d 42 4c be ed 37 fd bd 53 f6 29 be
       -0.1257563 -0.19947238 -0.123641826 -0.16597871
000040 dd 44 e2 3d 01 4f 02 3d 51 85 02 3e 47 78 e5 bd
       0.11048291 0.031813625 0.12746169 -0.11204582
000050 1b b2 d0 bd 76 41 38 bd 9b 18 29 bc 21 f0 1e be
       -0.10190221 -0.044984303 -0.010320808 -0.1552129
000060 ba 5f 2c 3c 0e 34 32 be 5e 78 e7 3d 1b da 22 bd
       0.01052087 -0.1740267 0.11302255 -0.039758783
000070 15 a2 1b be 47 ed 6a bd 89 73 5b be db 10 2d be
       -0.15198548 -0.05735519 -0.21430792 -0.16900961
000080 8d a3 e3 bc 2b ac c2 bc 7c fd 85 bd 13 e2 ce bc
       -0.027787948 -0.023763737 -0.06542489 -0.025254285
000090 a7 be 88 be 29 61 4f bd 4c 5d f3 3d e6 48 d9 3b
       -0.26707956 -0.05062977 0.11883029 0.0066310046
0000a0 41 b3 50 3c 32 09 e2 3c 13 94 1f 3e d3 27 15 3d
       0.01273805 0.027592275 0.1558383 0.036414932
0000b0 26 9d 80 bd ab 91 4e bc b2 73 29 be 22 e9 16 be
       -0.06279974 -0.012607972 -0.1654804 -0.1473737
0000c0 d3 4f 96 3d ac 35 2d be 0d 0f 0d bd d4 e1 73 3d
       0.07339444 -0.16915005 -0.03443818 0.05954154
0000d0 2f 19 cf 3d b8 cc 02 bd d2 da ba bd 06 95 86 bc
       0.10112225 -0.031933516 -0.09123768 -0.016428482
0000e0 84 e6 f3 3d a4 69 38 bd ea 8e 7b 3c fb b5 1e 3d
       0.11909202 -0.04502262 0.015353898 0.03874777
0000f0 92 67 25 be e4 1b 25 be 35 88 30 3d 1d ad 60 be
       -0.1615279 -0.1612392 0.043098647 -0.21941037
000100 ce d5 07 bd 84 e7 2a be 4b 71 9d bd ef 13 e5 bd
       -0.033162884 -0.16689879 -0.076876245 -0.11185443
000110 2c 6e a8 bd cc 14 1f bd d5 6f 4a ba 0a f0 04 bd
       -0.082241386 -0.038838193 -0.0007722353 -0.03245548
000120 fe fc 4e be 0a 08 6d bd 11 5c 4d bd d9 9c 05 3e
       -0.20213696 -0.057868995 -0.05013663 0.13048114
000130 0d 58 ca bd b1 7e 85 bd a1 2b 9c bd 2c d3 9d bd
       -0.098800756 -0.06518305 -0.07625509 -0.077062935
000140 58 29 c8 bd 75 36 1f bd 53 ce e1 bc 7d d3 0c bd
       -0.09773511 -0.038870294 -0.027564203 -0.03438138
000150 44 17 88 3d de 06 c6 bd b3 bd 13 bd a3 48 ed 3c
       0.066450626 -0.096692786 -0.036069583 0.0289653
000160 fb 03 7d 3e 95 03 22 be ca 8b 0f 3e d2 7f 3e be
       0.2470855 -0.15821679 0.14018169 -0.18603447
000170 0e 30 b5 3d fe 84 91 3b 28 17 a2 3d 2e b2 85 bd
       0.08847056 0.0044409027 0.07914573 -0.06528126
000180 44 46 81 be 39 a2 fd bc 74 da 9f bd d3 35 0f 3e
       -0.2524892 -0.030961143 -0.078053385 0.13985376
000190 de 21 44 bd 92 d0 1b be a5 40 4c be 56 87 21 3d
       -0.04788386 -0.15216282 -0.19946535 0.039435707
0001a0 6b 5b 85 3c a0 be b4 3d c2 22 0c bd 19 46 95 bd
       0.016278943 0.08825421 -0.034212835 -0.07288761
0001b0 01 80 ee bc 43 f8 15 be e0 51 66 be c7 56 a8 bd
       -0.029113771 -0.14645486 -0.2249217 -0.082196765
0001c0 5e 41 e9 bc c4 ef 8a bd f5 92 27 bd e8 70 f8 bd
       -0.028473552 -0.06784013 -0.040911634 -0.1213091
0001d0 58 88 e7 bb 70 76 66 bd 2a f1 39 be c8 c2 94 bd
       -0.007065814 -0.056265295 -0.18158403 -0.07263714
0001e0 30 0f 17 be f2 bf 9c bd ee 91 b4 3d b6 2d 04 be
       -0.14751887 -0.07653798 0.088168964 -0.12908062
0001f0 3e 99 59 be 41 93 06 be 5d 5b 1e 3e 90 ca 2f be
       -0.21249864 -0.1314211 0.1546454 -0.17167115
000200 b2 68 57 3d c9 74 b5 bc 54 2c 9b 3d 03 be 80 bb
       0.05259008 -0.022150414 0.07576814 -0.003928901
000210 2d 37 0d bb e9 9e b3 bc 7b 4f 11 be ab e6 a2 be
       -0.002154778 -0.02192636 -0.14190476 -0.3181661
000220 73 9f 6e be 10 df 2b bd 30 d0 59 be f8 63 eb 3c
       -0.23303013 -0.041960776 -0.21270823 0.028734192
000230 e5 a1 f6 bd 70 b4 d2 bd a2 54 66 be 6c ee 6a be
       -0.12042598 -0.10288322 -0.22493222 -0.22942513
000240 0a af 03 3d 31 ae 9a bb 25 f2 41 be da f7 23 be
       0.032149352 -0.0047204723 -0.18940027 -0.16012517
000250 bc 2c 10 3e 25 60 a6 be 52 d6 9b bd 70 32 56 bd
       0.14079565 -0.32495227 -0.07609238 -0.052294195
000260 4d c6 8d bd dd 52 6c bd cd 33 97 bc 5b f2 9e bd
       -0.069225885 -0.057696212 -0.018457318 -0.077610694
000270 d6 80 93 bd 2a df 9c 3c 6e b1 d4 bd bb 48 83 bd
       -0.07202308 0.019149382 -0.103854045 -0.064103566
000280 79 82 05 be 4f 27 16 3d ce f5 9f bd 30 c0 16 3d
       -0.13038053 0.03665858 -0.078105554 0.036804378
000290 09 4e 97 ba 32 26 d3 3d ac 51 ba bd db 37 3a be
       -0.0011543642 0.103100196 -0.09097609 -0.1818537
0002a0 5e fe ff 3d 84 71 3d be 2e d1 bd bd 60 35 16 bd
       0.124996886 -0.18500334 -0.092684135 -0.036671996
0002b0 7f 10 d1 3d fd 7a 39 bc 05 ac 3c bd ca 1f 40 3d
       0.102082245 -0.011320827 -0.046062488 0.046905316
0002c0 85 27 d6 bd 17 fd 3e bd 60 9e 40 3d f7 3a 7a 3a
       -0.104567565 -0.046628084 0.04702604 0.00095455296
0002d0 f7 62 a3 bd 08 3e a3 bd 56 6b 06 be 00 7e 8b bd
       -0.079778604 -0.07970816 -0.13126883 -0.06811142
0002e0 a7 0a 9a ba 11 75 d1 3d ef b8 e4 3c 67 d3 73 bc
       -0.0011752442 0.10227407 0.027920214 -0.014881945
0002f0 ab 74 9a 3c 36 ab af 3d 18 28 81 bd ad 93 e8 bd
       0.01885446 0.08577578 -0.063064754 -0.11356292
000300 86 c3 45 be 8d e6 b3 bc bb fd a9 3d 8c f0 02 3d
       -0.19312868 -0.021960521 0.08300348 0.031967685
000310 16 f6 dd bd 17 bd f6 3c ba 74 b4 ba 9e 0a d4 3d
       -0.10837953 0.030119462 -0.0013767697 0.103535876
000320 6b f1 97 bd 46 96 34 be 98 3d 7e 3a 88 2a 09 be
       -0.07419094 -0.1763545 0.0009698509 -0.1339513
000330 aa 8e 2f bd 72 28 7a bc fe a5 bc bd 0c 6e aa bd
       -0.042860664 -0.015268432 -0.09211348 -0.08321771
000340 f8 22 bd bd dc 2b 25 be 31 f9 59 3d 3d d8 2f bc
       -0.092351854 -0.16130012 0.053216163 -0.010732708
000350 82 73 1c 3d 7d 1a 49 bd dc 19 9b bd 26 8a 21 bd
       0.038196094 -0.049097527 -0.07573292 -0.03943839
000360 c6 fe 0c be 51 47 49 bd d7 c6 dd bd b3 35 18 be
       -0.13769063 -0.04914028 -0.10828941 -0.14864235
000370 ea 8c 88 3d 55 64 0e be 57 88 79 3c c5 3a 10 3e
       0.06667502 -0.13905461 0.01523026 0.14084919
000380 9c 10 5c bc 1b c7 94 bc 72 f3 31 bc 49 75 2c bd
       -0.013431694 -0.018161347 -0.010861265 -0.04210404
000390 fe b2 06 bd b1 ea 84 3d 85 44 25 be 9c 5f 31 3c
       -0.032885544 0.06490076 -0.1613942 0.010826018
0003a0 7d 14 f5 3d b9 cf 0d be ce ea 6c 3d 73 5b 1d be
       0.119667985 -0.13848771 0.057841115 -0.15366916
0003b0 f0 53 8f 3d 01 57 31 bd e3 e1 83 bd f6 f9 00 be
       0.06998432 -0.043295864 -0.06439569 -0.12595353
0003c0 3b 94 ed bd 7f f2 15 be 25 9b 7f 3d 91 28 21 3e
       -0.11600538 -0.14643286 0.062403817 0.15738131
0003d0 0a 72 de bd 52 80 80 3c 33 10 2e 3c c2 ad 26 3e
       -0.10861595 0.015686188 0.010623979 0.16277221
0003e0 e9 2b a3 bd 38 82 76 bc d0 d3 55 be ee 20 fd 3d
       -0.079673596 -0.015045695 -0.20881581 0.123597965
0003f0 61 bb 62 3d 2f f3 07 be 17 06 d1 3d 0b 4b 94 bd
       0.05535448 -0.13276361 0.1020624 -0.07240876
