Oversteek Simulator/Learning/results/Oversteek-K-02/BadCar/BadCar-1299978.onnx (onnx, 90288 bytes, 6 tensors)

action_model._discrete_distribution.branches.0.bias f4 [3]
0	0xbdac849d	-0.084237315
1	0xbe05679b	-0.13027804
2	0x3e0e0cb2	0.1387203

action_model._discrete_distribution.branches.0.weight f4 [3, 128]
0	0x3cb6a20d	0.022294069
1	0x3bdf136f	0.0068077366
2	0xbce23bd2	-0.027616415
3	0x3c756156	0.01497682
4	0xbb2e55cd	-0.0026601434
5	0x3d0109ff	0.031503674
6	0x3cf9cf94	0.030494489
7	0xbb8be6f5	-0.0042694756
8	0x3c30a530	0.010781571
9	0xbc0f0789	-0.008729824
10	0xbc256e57	-0.010097108
11	0x3c27387c	0.010206338
12	0xbb143f2c	-0.0022620661
13	0xbd3112d8	-0.04323086
14	0x3be4ae2f	0.006978772
15	0x3b80c08d	0.003929204
16	0xbc9f0370	-0.019410819
17	0x3d1c4120	0.038148046
18	0x3d68c806	0.056831382
19	0x3d15ad51	0.03654224
20	0x3c34f6ca	0.011045167
21	0x3d01eea1	0.031721715
22	0xbcddef2a	-0.027091581
23	0xbb8e68fb	-0.0043460107
24	0x3c266b75	0.010157456
25	0x3c55d827	0.013052023
26	0x3d185c06	0.037197135
27	0x3cf17a12	0.029477153
28	0x3d10b9fd	0.035333622
29	0x3cec4998	0.028843686
30	0xbd5cf864	-0.05394782
31	0x3ccb3766	0.02480669
32	0x3d92c4f9	0.07166476
33	0x3cf3dc9b	0.029768279
34	0x3d13221a	0.035921194
35	0x3ce12747	0.02748455
36	0x3cad0ab5	0.02112327
37	0x3bfe48b7	0.007760133
38	0xbd847caf	-0.06469094
39	0x3d1120f6	0.035431825
40	0x3c661b4d	0.014044595
41	0x3c867e79	0.016417729
42	0x3c76ba0b	0.015059005
43	0x3c24f7bd	0.010068831
44	0x3c87b6c1	0.016566636
45	0x3ccd4380	0.0250566
46	0x3b654a38	0.0034986865
47	0xbd352d9a	-0.044232942
48	0xbbdc68b8	-0.0067263506
49	0x3cb817d9	0.022472309
50	0xbb8ee16b	-0.004360368
51	0x3c5d193a	0.013494784
52	0x3bb09e30	0.005389951
53	0x3a3c5845	0.0007184784
54	0xbd61e511	-0.055150095
55	0x3cda0504	0.02661372
56	0xbc312dd6	-0.010814151
57	0x3cb183df	0.021669326
58	0x3c34cd43	0.011035266
59	0x3c94897b	0.018131962
60	0x3d20aeaf	0.03922909
61	0x3d167c94	0.0367399
62	0x3d55aadd	0.0521649
63	0xbd2f2e83	-0.042768966
64	0x3d0b7b8d	0.034053374
65	0x3cdb0a47	0.026738299
66	0x3cb2f865	0.02184696
67	0x3cc6a3fc	0.024248116
68	0x3ca74df5	0.020422915
69	0xbbb173c9	-0.005415414
70	0x3c7ec71d	0.015550402
71	0xbd42cd77	-0.047559228
72	0x3c444747	0.0119798845
73	0xbdd7116c	-0.1050137
74	0x3c810e73	0.01575396
75	0x3aa2fca6	0.0012434914
76	0x3d28b578	0.041188687
77	0x3cc12519	0.02357726
78	0x3cbe48e1	0.02322811
79	0xbb00a4f5	-0.0019629572
80	0xbd23b4df	-0.039967414
81	0xbccd2309	-0.02504112
82	0x3cd91de7	0.026503516
83	0x3d431080	0.047623158
84	0xbd5b039c	-0.05347024
85	0x3d449b6b	0.04799978
86	0xbd2ac396	-0.04169043
87	0x3bb0f6bd	0.0054005072
88	0xbd33df50	-0.04391414
89	0x3a8dacc6	0.0010808937
90	0x3d0b05a0	0.03394091
91	0x3b8b99b5	0.0042602667
92	0x3d2a899d	0.041635145
93	0x3d9a2a6d	0.07527623
94	0x3ce0c2fc	0.027436726
95	0xbda429e8	-0.080158055
96	0xbd5d966d	-0.054098535
97	0x3d401a5a	0.04690013
98	0x3cdcfc72	0.026975844
99	0x3ccaa5ef	0.024737326
100	0x3d2c96ff	0.04213619
101	0x3b902285	0.0043986463
102	0x3c2273e5	0.009915327
103	0x3d1671b3	0.036729526
104	0xbd7ea336	-0.06216737
105	0x3c756192	0.014976876
106	0x3c606e7d	0.013698217
107	0x3cc22e18	0.02370362
108	0x3c816af4	0.01579807
109	0x3ccdc3ba	0.025117744
110	0xbd2bc7e0	-0.041938663
111	0x3d03592a	0.032067455
112	0xbd4c3aed	-0.049860884
113	0x3c01bf87	0.007919199
114	0xbd0b4153	-0.033997845
115	0x3d30f572	0.043202825
116	0x3d534d43	0.051587354
117	0xbbb51f0e	-0.0055273836
118	0x3ca0c2cb	0.019624135
119	0xbb87632d	-0.0041316957
120	0x3b97aa53	0.0046284585
121	0x3cda72fd	0.026666159
122	0x3c5e0f57	0.013553462
123	0x3cdd31ca	0.02700128
124	0x3d17d11b	0.037064653
125	0xbd7da2b1	-0.061922733
126	0x3d0e912b	0.03480641
127	0x3d4d0bff	0.05006027
128	0xbd5c6542	-0.053807504
129	0xbdd936c4	-0.10606149
130	0xbc8b70d8	-0.017021582
131	0x3d60e61f	0.05490696
132	0x3d016391	0.031589095
133	0xbdb9c3d3	-0.09070554
134	0xbe4857ab	-0.19564693
135	0x3d3a5b9b	0.045497518
136	0xbdd18b8b	-0.10231694
137	0x3d5bcd83	0.053662788
138	0xbc3321e5	-0.010933374
139	0xbd401882	-0.046898372
140	0xbde098a7	-0.10966616
141	0x3ceac02e	0.028656092
142	0xbc86423d	-0.016389007
143	0x3c94a081	0.01814294
144	0x3cf57d11	0.029966863
145	0xbdef4c80	-0.11684513
146	0xbe4a2dc5	-0.19744022
147	0xbdb52608	-0.088451445
148	0x3d41d5e7	0.047323134
149	0xbcdf2f5d	-0.027244264
150	0x3cffc679	0.031222569
151	0x3cf4db09	0.0298896
152	0xbdabbfbc	-0.0838618
153	0xbdcbb89e	-0.09947322
154	0xbe095bb3	-0.13413887
155	0xbcac30aa	-0.021019299
156	0xbdb4f36d	-0.08835492
157	0x3d26aa2a	0.040689625
158	0x3b44b599	0.0030015467
159	0xbdc902e2	-0.09815003
160	0xbdaf2d44	-0.085535556
161	0xbcdee2bd	-0.027207727
162	0xbdde6ce5	-0.10860614
163	0xbdc95633	-0.09830894
164	0xbd2f9473	-0.04286618
165	0xbdc4b9e9	-0.09605772
166	0xbcb7e546	-0.022448193
167	0xbd956ea6	-0.07296495
168	0x3d3261cf	0.04355031
169	0xbb87fc97	-0.004149984
170	0xbdd3ee90	-0.103482366
171	0xbc3cf6b8	-0.011533432
172	0xba918ee9	-0.0011105213
173	0xbd8d2613	-0.06892028
174	0xbda94ab4	-0.082662016
175	0xbc31b507	-0.010846383
176	0x3d35578e	0.04427295
177	0x3c6f717f	0.014614462
178	0x3d16a003	0.036773693
179	0xbd858ec7	-0.06521373
180	0xbcde5fad	-0.027145231
181	0x3bba2493	0.0056806295
182	0x3b8a1652	0.0042140866
183	0xbbc7c2bc	-0.006096212
184	0x3d3748d7	0.0447472
185	0xbd8fccde	-0.07021497
186	0xbd972714	-0.073805004
187	0xbdcb6486	-0.09931283
188	0xbd99f263	-0.07516935
189	0xbe2d3f8f	-0.16918777
190	0xbd0e2f61	-0.034713153
191	0x3b3e52ba	0.0029041008
192	0xbceb445d	-0.028719122
193	0xbd28dd9a	-0.04122696
194	0xbd101215	-0.035173494
195	0xbcefa052	-0.029251251
196	0xbdf1b0a2	-0.11801268
197	0x3d21169a	0.039328195
198	0xbaed1bed	-0.0018089988
199	0x3bcf57b3	0.0063275932
200	0xbd33cb33	-0.043894958
201	0x3b5d4f5d	0.0033769228
202	0xbd856d1b	-0.06514951
203	0xbcb3aed4	-0.02193395
204	0xbe0b2105	-0.13586815
205	0xbddae17c	-0.10687539
206	0xbd501a79	-0.050806496
207	0x3c9b2471	0.018938275
208	0x3b5d7c70	0.0033796094
209	0x3cf0255d	0.029314691
210	0xbd7056e0	-0.0586766
211	0xbe0dea73	-0.13858967
212	0x3d5e3847	0.05425289
213	0xbda9f6ed	-0.082990505
214	0xbcb52d6c	-0.022116385
215	0x3cb19f31	0.021682354
216	0x3c9c0849	0.01904692
217	0x3d2740bf	0.04083323
218	0xbdaaae16	-0.083339855
219	0xbde7bce5	-0.11315326
220	0xbd488d51	-0.048962895
221	0xbdec76db	-0.115461074
222	0xbd61bb11	-0.05511004
223	0x3c090222	0.008362325
224	0x3d471842	0.04860712
225	0xbd065e91	-0.03280503
226	0xbd9ec8f2	-0.07753171
227	0x3cc2bca6	0.023771595
228	0xbe1b9e71	-0.1519716
229	0xbcbf870a	-0.023379821
230	0x3b187ec8	0.0023268927
231	0xbd8df615	-0.06931702
232	0x3ba86a0c	0.005139595
233	0xbd9267cb	-0.07148703
234	0xbccec326	-0.025239538
235	0xbde6d97a	-0.11271949
236	0x3bcb9724	0.0062130857
237	0xbe2a1ccb	-0.16612546
238	0x3cd78b99	0.026311683
239	0xbd2906d0	-0.041266263
240	0x3bef31dc	0.007299645
241	0xbd58559d	-0.052816022
242	0x3d50bc07	0.050960567
243	0xbdfce6a5	-0.123486795
244	0xbcc6cf6d	-0.02426883
245	0xbbe01a58	-0.006839078
246	0xbde027ba	-0.10945077
247	0x3d13753f	0.036000486
248	0xbd407463	-0.046985995
249	0xbc91bb8f	-0.01778963
250	0xbdce18e5	-0.10063342
251	0xbcedc10d	-0.029022718
252	0xbdfeb354	-0.12436548
253	0x3c4eeb54	0.012629349
254	0xbd9e4dd1	-0.07729686
255	0xbe336772	-0.1751993

network_body.linear_encoder.seq_layers.0.bias f4 [128]
0	0xbda0e020	-0.078552485
1	0x3d24fca4	0.04028
2	0xbc95ef03	-0.018302446
3	0xbbfc0b9a	-0.0076918127
4	0xbe04ffba	-0.12988177
5	0xbde1b03b	-0.110199414
6	0xbda022f1	-0.078191645
7	0xbdf28dde	-0.11843465
8	0xbdae375b	-0.08506652
9	0xbe13ff2c	-0.14452809
10	0xbda0738f	-0.07834541
11	0xbe767ab1	-0.2407024
12	0xbde4b49b	-0.1116726
13	0xbe0b310f	-0.13592933
14	0xbd1e762e	-0.038686924
15	0xbdd00378	-0.101569116
16	0xbd94f6ee	-0.072736606
17	0x3c4ad4c5	0.01237983
18	0xbdbb43b5	-0.091437735
19	0xbd425220	-0.0474416
20	0xbdd2cae6	-0.10292606
21	0xbd4947e7	-0.049140837
22	0x3c824e43	0.015906459
23	0xbcd95f7a	-0.026534785
24	0xbc81e246	-0.015854966
25	0xbd850ad0	-0.06496203
26	0x3cd77437	0.026300533
27	0xbd54e418	-0.05197534
28	0xbe140a08	-0.14456952
29	0xbd523147	-0.051316526
30	0x3d0cfb8c	0.03441958
31	0xbd83c752	-0.06434502
32	0xbe323628	-0.17403471
33	0xbd8a7c16	-0.06761949
34	0x3c08c4c5	0.008347695
35	0xbdd277a7	-0.10276728
36	0xbd9c1c3b	-0.07622572
37	0xbdc071fe	-0.09396742
38	0xbdfc5d31	-0.12322462
39	0xbdbe234c	-0.09284076
40	0xbd9da8b7	-0.076981954
41	0xbcdb12a3	-0.026742285
42	0xbdd012fb	-0.1015987
43	0xbc30359e	-0.010754971
44	0xbe46a117	-0.19397388
45	0xbd118630	-0.03552836
46	0xbdffe50a	-0.124948576
47	0xbd3e515d	-0.046464313
48	0x3d0f61f8	0.03500554
49	0xbba59511	-0.0050531705
50	0xbceadf72	-0.028671
51	0xbda0dc0a	-0.07854469
52	0xbe05e0e7	-0.13074075
53	0xbbe1a831	-0.006886505
54	0xbdf2ab90	-0.11849129
55	0xbb59c8e8	-0.0033231322
56	0xbe01618c	-0.12634867
57	0xbd9bf912	-0.07615866
58	0xbdb2adc2	-0.08724548
59	0xbe460eed	-0.19341631
60	0xbc1583b4	-0.009125639
61	0xbe3267ef	-0.1742246
62	0xbdc68cd4	-0.096948296
63	0xbe06275f	-0.13100956
64	0xbe028849	-0.12747301
65	0xbe33b135	-0.17548068
66	0xbdeaa2f8	-0.11456865
67	0xbdea82f0	-0.114507556
68	0xbd81b067	-0.06332474
69	0xbda90793	-0.08253398
70	0xbda1f433	-0.079079054
71	0xbdb16597	-0.08661955
72	0xbe060e79	-0.13091458
73	0xbcd7f997	-0.02636413
74	0xbc863442	-0.01638234
75	0xbcb067e1	-0.021533908
76	0xbd86a882	-0.06575109
77	0xbcea4968	-0.028599456
78	0xbd116c45	-0.035503644
79	0xbe0ebbef	-0.13938878
80	0x3cfd661a	0.030932475
81	0xbc8682a0	-0.016419709
82	0xbe102562	-0.1407676
83	0xbe0d2897	-0.13785015
84	0xbddc3c6c	-0.10753712
85	0xbde8d305	-0.11368374
86	0xbeba40b3	-0.36377487
87	0xbc83e3a7	-0.016099764
88	0x3d21cf47	0.039504316
89	0xbd375ff4	-0.044769242
90	0xbd579ed8	-0.05264172
91	0xbdb9a8a6	-0.0906537
92	0xbd4f2eeb	-0.050581854
93	0xbc86d688	-0.016459718
94	0xbdf88b88	-0.121359885
95	0xbdb1132d	-0.086462356
96	0xbd87746b	-0.06614002
97	0xbded9f17	-0.116026096
98	0xbce11c6c	-0.027479373
99	0xbd79158c	-0.060811564
100	0xbe5f7870	-0.21823287
101	0xbe12b4a6	-0.14326724
102	0xbcf555db	-0.029948166
103	0xbdc04263	-0.09387662
104	0xbd43fdb7	-0.047849383
105	0xbd0fdb83	-0.035121452
106	0xbe5ae525	-0.21376474
107	0xbde1c67f	-0.11024188
108	0xbe8ca07d	-0.27466193
109	0xbde15d77	-0.11004155
110	0xbe41cb24	-0.18925148
111	0xbd96f215	-0.07370392
112	0xbdc0e847	-0.094193034
113	0xbea61e6c	-0.32445085
114	0xbd4f26f4	-0.050574258
115	0xba1c5897	-0.00059641286
116	0xbe00576a	-0.12533346
117	0xbcf44919	-0.029820012
118	0x3d0bec7e	0.034161083
119	0xbe63b8ba	-0.22238436
120	0xbe46ba34	-0.19406968
121	0xbe13699b	-0.14395754
122	0xbdbee005	-0.09320072
123	0x3b9840f9	0.004646417
124	0xbdabf552	-0.083964005
125	0xbd35c88f	-0.04438072
126	0xbc1e1ce5	-0.009650444
127	0xbe07f66a	-0.13277593

network_body.linear_encoder.seq_layers.0.weight f4 [128, 39]
0	0xbeebf62e	-0.46086258
1	0x3eb77378	0.35830283
2	0xbe1a0824	-0.15042168
3	0x3daa4313	0.08313575
4	0xbe295516	-0.16536364
5	0xbd90805e	-0.07055734
6	0x3ad6f868	0.0016400935
7	0x3e22b71a	0.1589016
8	0x3cd62e99	0.026145266
9	0xbeb42cd4	-0.3519045
10	0xbd896540	-0.06708765
11	0xbdfde968	-0.12398034
12	0xbe133428	-0.14375365
13	0xbd56cffb	-0.05244444
14	0xbe918a0a	-0.28425628
15	0x3e16db57	0.14732109
16	0xbed94555	-0.4243571
17	0x3b13b4de	0.0022538225
18	0x3e6f0ffc	0.23345941
19	0xbed54905	-0.41657272
20	0x3d0229b9	0.03177807
21	0xbe8c314d	-0.27381364
22	0xbea6fadd	-0.32613268
23	0x3bd693a6	0.006548363
24	0xbdbdc67f	-0.09266376
25	0x3d401dbb	0.046903353
26	0x3da13da5	0.07873086
27	0xbd78834b	-0.060672086
28	0x3d80405b	0.06262275
29	0xbe4630b8	-0.19354522
30	0x3e374e74	0.17901021
31	0x3cb6b305	0.02230216
32	0x3e6a2b5f	0.22868107
33	0x3ea97910	0.33100176
34	0x3e174623	0.14772849
35	0xbe29675e	-0.16543338
36	0xbe834e4b	-0.2564567
37	0xbd088c21	-0.033336762
38	0x3df4166e	0.119183406
39	0xbe20f997	-0.15720211
40	0x3e7c3919	0.24631156
41	0x3c2590ee	0.010105355
42	0xbd3bf557	-0.04588827
43	0x3df8aa42	0.12141849
44	0x3d4397de	0.047752254
45	0x3daa0f86	0.08303742
46	0x3d1588dd	0.036507476
47	0xbe84e3eb	-0.25955138
48	0xbe489b0e	-0.19590399
49	0x3e016b22	0.12638524
50	0x3c85af48	0.016318932
51	0xbe4cbd26	-0.1999403
52	0xbd025a3a	-0.031824328
53	0xbe4aa6f1	-0.19790246
54	0x3e07b4bf	0.13252543
55	0xbdaeea3f	-0.08540773
56	0xbe2f1fdc	-0.17101997
57	0x3dfe9ad3	0.12431874
58	0xbd6c4fcd	-0.05769329
59	0x3e2b0fd1	0.16705252
60	0x3e6d373b	0.231656
61	0xbe5c25c8	-0.21498787
62	0xbbd5ae29	-0.0065210056
63	0x3d17b41b	0.037036996
64	0x3e7a88bd	0.24466224
65	0x3e9154b2	0.2838493
66	0x3e3f8f1a	0.18706933
67	0x3e459bd4	0.19297725
68	0x3d57d9a6	0.0526978
69	0x3e8583dd	0.26077166
70	0xbd7b8eb1	-0.061415378
71	0xbd47a6b6	-0.048742972
72	0xbeb0190a	-0.34394103
73	0x3d953dc9	0.07287175
74	0xbe827a57	-0.25483963
75	0x3e90b716	0.28264683
76	0xbd98ea34	-0.07466546
77	0x3e573956	0.21017966
78	0x3bb873dc	0.005629046
79	0x3e145ed6	0.14489302
80	0xbe8e4df0	-0.27793837
81	0xbe2e7f69	-0.1704079
82	0x3d8c7be5	0.068595685
83	0x3cae8cec	0.021307431
84	0x3e7431e4	0.23847157
85	0xbcc8d886	-0.024517309
86	0x3b70696e	0.0036683935
87	0xbcc803e4	-0.024415918
88	0xbd9e239e	-0.07721637
89	0x3e129287	0.14313708
90	0xbe5ea810	-0.21743798
91	0xbe383f09	-0.17992796
92	0x3e03124a	0.12799945
93	0x3c8e8f2e	0.017402258
94	0xbeb7a064	-0.35864556
95	0xbcf79923	-0.030224388
96	0xbd474746	-0.048651956
97	0xbdb23feb	-0.08703598
98	0xbd99b9e9	-0.07506163
99	0xbd8f2c74	-0.06990901
100	0xbe2dd79a	-0.16976777
101	0xbe6576c1	-0.22408582
102	0xbe43cc33	-0.19120865
103	0xbcf247be	-0.029575225
104	0xbc22e97b	-0.009943361
105	0xbcc96b37	-0.024587257
106	0x3e553d41	0.20824148
107	0x3e93cf56	0.28869122
108	0x3e188240	0.14893436
109	0xbd802189	-0.06256396
110	0x3ec72b6f	0.38900325
111	0x3cfa1302	0.030526642
112	0x3df0170f	0.11723148
113	0xbe55d759	-0.2088293
114	0xbe65ffdd	-0.22460885
115	0x3d8e690f	0.06953632
116	0x3d8e01ab	0.06933912
117	0xbe7b2d06	-0.24528894
118	0x3de50b17	0.11183756
119	0x3e5d3904	0.21603781
120	0x3d99dba8	0.07512599
121	0xbd624b99	-0.055247877
122	0xbde92493	-0.11383929
123	0x3dc4fa41	0.09618045
124	0xbd66b7e6	-0.056327723
125	0xbcfe9fac	-0.031081997
126	0xbda55c3d	-0.08074234
127	0x3e5a8cb6	0.2134274
128	0x3e3e8c07	0.18608104
129	0x3dd91d3f	0.106012814
130	0x3d5b4451	0.05353195
131	0x3e4a6ad8	0.1976732
132	0x3c87035c	0.016481094
133	0x3d6bd262	0.057573684
134	0xbe39c77f	-0.18142508
135	0xbdd6212a	-0.10455544
136	0xbdda57e7	-0.10661297
137	0xbd2ad1bc	-0.041703925
138	0x3f0c2134	0.54738164
139	0xbe26b8e7	-0.16281472
140	0xbe16145b	-0.14656202
141	0x3dc55cf8	0.09636873
142	0x3e0ffbe1	0.14060928
143	0xbd66c632	-0.056341358
144	0x3e4ca65f	0.1998534
145	0x3ced6e7e	0.02898335
146	0x3d77c643	0.06049181
147	0x3e9b699b	0.30354008
148	0x3edb25de	0.42802328
149	0xbc04d051	-0.008106307
150	0xbe5a55b2	-0.21321753
151	0xbd292344	-0.041293398
152	0x3e62133f	0.22077654
153	0xbe81c998	-0.25349116
154	0x3e040381	0.12891962
155	0xbe612767	-0.21987687
156	0xbc726bdb	-0.014796223
157	0xbecbd2b4	-0.3980919
158	0xbe1ff8a3	-0.15622191
159	0xbdd6073e	-0.104506
160	0x3db001ed	0.08594117
161	0x3e5022ad	0.20325728
162	0xbd30afd5	-0.043136436
163	0x3d9d8a9a	0.07692452
164	0xbe77e8ee	-0.2420995
165	0x3d11643b	0.035495978
166	0x3cd92139	0.0265051
167	0x3e28a839	0.16470422
168	0x3df96961	0.121783026
169	0xbd791c4f	-0.060818013
170	0xbe493ebf	-0.19652842
171	0x3e62e4c6	0.22157583
172	0xbd5bb6fe	-0.05364131
173	0x3b240ede	0.0025033276
174	0x3bb87c0e	0.005630023
175	0xbe69e1b1	-0.2284
176	0x3e041f28	0.1290251
177	0x3d428586	0.04749062
178	0xbeb80e1f	-0.35948274
179	0x3d683391	0.056689803
180	0xbe644cb2	-0.22294882
181	0x3e444575	0.19167121
182	0x3e32cd21	0.17461063
183	0x3d5dcd8a	0.054151095
184	0x3e40a899	0.18814315
185	0xbe27bfe6	-0.16381797
186	0x3dd4d2bb	0.10391756
187	0xbd1c0164	-0.038087264
188	0x3be2abfd	0.0069174753
189	0x3dbd8239	0.092533536
190	0xbeb1d09b	-0.34729466
191	0xbe1902b6	-0.1494244
192	0xbc985f9a	-0.018600274
193	0x3d2aca0e	0.0416966
194	0xbd1c1d38	-0.038113803
195	0xbea319d8	-0.31855655
196	0x3d762d72	0.060101934
197	0x3ecf54e0	0.40494442
198	0x3b1a9b93	0.0023591265
199	0xbeb0f92d	-0.34565106
200	0x3de437dd	0.111434676
201	0xbbca9c1e	-0.0061831614
202	0xbe250ef6	-0.16118988
203	0x3e52cac3	0.2058516
204	0xbdfc3620	-0.12315011
205	0x3d2d100c	0.04225163
206	0xbdc2fa6b	-0.0952042
207	0x3e2da315	0.16956742
208	0x3d803de9	0.062618084
209	0x3e4cb978	0.19992626
210	0xbe51ce06	-0.20488748
211	0xbeb4cc17	-0.35311958
212	0xbe5ba74c	-0.21450537
213	0x3dcd429e	0.10022472
214	0xbed42aa0	-0.4143877
215	0xbe1e33d2	-0.15449455
216	0xbdd45fcf	-0.103698365
217	0xbe205404	-0.1565705
218	0xbdacebab	-0.084433876
219	0xbe975c5b	-0.2956265
220	0x3ce014d5	0.027353683
221	0x3e4b2b11	0.19840647
222	0x3e5289cc	0.20560378
223	0xbe4ea482	-0.20179942
224	0xbe81fbf8	-0.2538755
225	0xbe1af423	-0.15132193
226	0xbd869b5c	-0.06572601
227	0xbc816d62	-0.015799228
228	0xbe26ade9	-0.16277279
229	0x3acf174d	0.0015799791
230	0xbe41b6ac	-0.1891734
231	0xbe6c8d18	-0.23100698
232	0xbdb7ff6e	-0.08984266
233	0x3e9ae73e	0.3025455
234	0x3eafee62	0.3436156
235	0x3e3c5af0	0.18394065
236	0xbe030d0a	-0.12797943
237	0xbc8550cd	-0.01627388
238	0x3d6737b3	0.056449603
239	0x3d7f5469	0.06233636
240	0xbdedf466	-0.11618881
241	0xbdf3688a	-0.118851736
242	0xbdc05d6d	-0.093928196
243	0x3e75f855	0.24020512
244	0x3d1f24a6	0.03885331
245	0xbd94d97f	-0.072680466
246	0xbea6a004	-0.32543957
247	0xbeed9a81	-0.4640694
248	0xbee1cf76	-0.44103593
249	0xbe29889d	-0.1655602
250	0x3e1bdfca	0.15222088
251	0xbcb3ef77	-0.021964772
252	0x3e4dda0b	0.20102708
253	0xbe6e7422	-0.23286489
254	0xbd017e3e	-0.031614535
255	0x3dd9ad86	0.106288

network_body.linear_encoder.seq_layers.2.bias f4 [128]
0	0xbdb3b74e	-0.08775197
1	0xbd2b73e0	-0.041858554
2	0x3c87de83	0.016585594
3	0xbd32b7ec	-0.043632433
4	0xbd77d594	-0.06050642
5	0xbd25c846	-0.0404742
6	0x3abde495	0.0014487678
7	0xbcaa617f	-0.020798443
8	0xbd5fe068	-0.05465737
9	0xbcc3970e	-0.02387574
10	0xbc99fbec	-0.018796884
11	0xbd473962	-0.04863871
12	0xbcb2b05c	-0.02181261
13	0xbd1bd760	-0.038047194
14	0xbd835441	-0.064125545
15	0xbd68db2e	-0.05684965
16	0xb99d4c16	-0.00030002062
17	0xbd54a220	-0.051912427
18	0xbd514462	-0.051090606
19	0xbcfedc6c	-0.031110965
20	0xbd5453be	-0.051837675
21	0x3bc9223b	0.006138114
22	0x3bd3ba1c	0.006461395
23	0xbd830863	-0.06398084
24	0xbce06ef7	-0.027396662
25	0xbd218458	-0.039432853
26	0xbd1fa0b5	-0.03897162
27	0xbdb6ee53	-0.089321755
28	0xbd05548e	-0.03255134
29	0xbced26c0	-0.028949142
30	0xbce8a7d1	-0.028400334
31	0xbceae638	-0.02867423
32	0xba10fe77	-0.0005531082
33	0xbdb7ceef	-0.08975016
34	0xbcbd866d	-0.023135388
35	0xbd0a3f4b	-0.033751767
36	0xba3ef59f	-0.0007284525
37	0xbd2c60cd	-0.042084504
38	0xbc968ec4	-0.018378623
39	0xbdc28640	-0.094982624
40	0xbccc9fd4	-0.024978556
41	0xbde0e814	-0.109817654
42	0xbd671855	-0.05641969
43	0xbdd9fef6	-0.10644333
44	0xbcfd3cc6	-0.030912768
45	0xbd5c96a6	-0.053854607
46	0xbdad2a58	-0.08455342
47	0xbd08afe2	-0.03337086
48	0xbd5cad9c	-0.053876504
49	0xbc5e4318	-0.013565801
50	0xbd86394f	-0.065538995
51	0xbd5dbf91	-0.05413777
52	0xbd1c7239	-0.03819487
53	0xbdff5054	-0.12466493
54	0xbd28efe2	-0.041244395
55	0xbd948626	-0.07252149
56	0xbd79e80e	-0.06101232
57	0xbd7c6cc8	-0.06162718
58	0xbe030ee5	-0.1279865
59	0xbcc349ca	-0.023838896
60	0xbc8eb229	-0.017418938
61	0xbdbb9e24	-0.09161022
62	0xbb1d0314	-0.0023958134
63	0xbd7d616f	-0.061860498
64	0xbbd7f29d	-0.006590201
65	0xbc9700e2	-0.018433038
66	0xbd8ad325	-0.06778554
67	0xbd293403	-0.041309368
68	0xbd8738c6	-0.066026255
69	0xbbd06874	-0.006360108
70	0xbd6bbdff	-0.05755424
71	0xbced7f0c	-0.028991245
72	0xbd2c0a5e	-0.042002074
73	0x3d024f50	0.03181392
74	0xbd38fd5b	-0.045163494
75	0xbabc9bd3	-0.0014389701
76	0xbce623ea	-0.028093297
77	0xbd417f54	-0.04724057
78	0xbcf76857	-0.03020112
79	0xbd039946	-0.032128595
80	0xbd3bfe95	-0.045897085
81	0xbd04c8cc	-0.032418057
82	0xbdcbccbd	-0.0995116
83	0xbd1e4d20	-0.03864777
84	0xbd21622b	-0.03940026
85	0xbb9a0ce6	-0.0047012446
86	0xbc51f523	-0.012814793
87	0xbcce4177	-0.0251777
88	0xbd5145cc	-0.051091954
89	0xbd5957cb	-0.05306224
90	0xbd805881	-0.06266881
91	0xbd4c8dd4	-0.049939945
92	0xbd5e17d3	-0.05422194
93	0xbc8fc335	-0.017549137
94	0x3b86bad0	0.0041116253
95	0x3cd92829	0.026508408
96	0xbc31f868	-0.010862447
97	0x3b92e6e3	0.0044830902
98	0xbdd5411a	-0.10412808
99	0xbc5ad83a	-0.0133572165
100	0xbd2952db	-0.041338783
101	0xbd876727	-0.066114716
102	0xbd9e4bc4	-0.07729295
103	0xbd3c4fbd	-0.04597448
104	0xbd06e156	-0.03292974
105	0xbd14dacf	-0.036341485
106	0xbc96fc1c	-0.018430762
107	0x3b575062	0.0032854308
108	0xbd869eaa	-0.065732315
109	0x3ca0c9de	0.019627508
110	0xbcfd618d	-0.030930305
111	0xbcbb2ae8	-0.022847608
112	0xbd542ca4	-0.051800385
113	0xbdbbdc15	-0.09172837
114	0xbd17182a	-0.03688828
115	0xbd6f58d7	-0.058434334
116	0xbc82144a	-0.015878815
117	0xbcdb00ea	-0.026733834
118	0xbdad6108	-0.08465773
119	0xbd82e759	-0.06391782
120	0xbd550841	-0.052009825
121	0xbd955ef2	-0.072935
122	0xbd9b7764	-0.07591131
123	0xbda700a9	-0.08154423
124	0xbd6a518e	-0.057206683
125	0x3ca36978	0.019947752
126	0x3cd5af68	0.026084617
127	0x3c4fc90f	0.012682213

network_body.linear_encoder.seq_layers.2.weight f4 [128, 128]
0	0xbdae1aaf	-0.08501183
1	0xbd9f7ec9	-0.07787854
2	0x3d006f87	0.03135636
3	0xbd40a7a9	-0.047034893
4	0xbe66a9e5	-0.22525747
5	0x3d5d329c	0.054003343
6	0xbc158bc0	-0.009127557
7	0x3d26e142	0.040742166
8	0xbc92690c	-0.017872356
9	0xbe262134	-0.16223603
10	0x3c114e6a	0.008868793
11	0xbd107794	-0.03527029
12	0xbe006042	-0.1253672
13	0xbe4dfb53	-0.20115404
14	0xbdfc11f6	-0.12308113
15	0xbe29d316	-0.16584429
16	0x3de244dd	0.11048291
17	0x3d024f01	0.031813625
18	0x3e028551	0.12746169
19	0xbdeaa569	-0.11457331
20	0xbdd0b21b	-0.10190221
21	0xbd3678eb	-0.04454891
22	0xbc29189b	-0.010320808
23	0xbe1ef021	-0.1552129
24	0x3c2c5fc8	0.010520883
25	0xbe32340e	-0.1740267
26	0x3de7785e	0.11302255
27	0xbd2e63cb	-0.04257564
28	0xbe1e2818	-0.15444982
29	0xbd690dc7	-0.056897905
30	0xbe5b7389	-0.21430792
31	0xbe2fc6b1	-0.17165639
32	0xbce3a26a	-0.027787406
33	0xbcc2ac2b	-0.023763737
34	0xbd85fd7c	-0.06542489
35	0xbccee213	-0.025254285
36	0xbe88a324	-0.26686966
37	0xbd5add85	-0.053433914
38	0x3df35d4c	0.11883029
39	0x3bd3abd7	0.006459694
40	0x3c50b34b	0.012738059
41	0x3ccb2195	0.024796287
42	0x3e1f9413	0.1558383
43	0x3d1527d3	0.036414932
44	0xbd7f486c	-0.062324926
45	0xbc4e91ab	-0.012607972
46	0xbe297fc1	-0.1655264
47	0xbe16e922	-0.1473737
48	0x3d964fd3	0.07339444
49	0xbe2fd067	-0.17169343
50	0xbd0d0f0d	-0.03443818
51	0x3d73e1db	0.059541564
52	0x3dcfe1a0	0.101504564
53	0xbd02ccb8	-0.031933516
54	0xbdbc3ccc	-0.091912836
55	0xbc869506	-0.016428482
56	0x3df3e684	0.11909202
57	0xbd3750f7	-0.04475495
58	0x3c533ab0	0.01289241
59	0x3d1eb5fb	0.03874777
60	0xbe256792	-0.1615279
61	0xbe251be4	-0.1612392
62	0x3d308835	0.043098647
63	0xbe635a60	-0.22202444
64	0xbd097a2f	-0.03356379
65	0xbe2a7e22	-0.16649678
66	0xbd9d714b	-0.076876245
67	0xbde47999	-0.111560054
68	0xbdade00b	-0.084899984
69	0xbd1f14cc	-0.038838193
70	0xba4a6f07	-0.0007722233
71	0xbd04f00a	-0.03245548
72	0xbe4efc77	-0.20213495
73	0xbd77c4b3	-0.06049032
74	0xbd580c12	-0.052745886
75	0x3e059cd9	0.13048114
76	0xbdca580d	-0.098800756
77	0xbd85cc9f	-0.06533169
78	0xbd9a8c5d	-0.075463034
79	0xbd9dd32b	-0.07706293
80	0xbdc82958	-0.09773511
81	0xbd297cd5	-0.041378815
82	0xbcfa854e	-0.030581143
83	0xbd0cd37d	-0.03438138
84	0x3d881748	0.066450655
85	0xbdc606d9	-0.09669275
86	0xbd1241cb	-0.035707276
87	0x3ced48a3	0.0289653
88	0x3e7d03fb	0.2470855
89	0xbe24c0fa	-0.1608924
90	0x3e0f8bca	0.14018169
91	0xbe41616c	-0.1888482
92	0x3db5300e	0.08847056
93	0x3b918505	0.004440906
94	0x3da217c3	0.079146884
95	0xbd85b22e	-0.06528126
96	0xbe814644	-0.2524892
97	0xbcfda239	-0.030961143
98	0xbd9fda74	-0.078053385
99	0x3e0f35d3	0.13985376
100	0xbd4421bb	-0.04788373
101	0xbe1bd092	-0.15216282
102	0xbe4c40a5	-0.19946535
103	0x3d218756	0.039435707
104	0x3c855b6b	0.016278943
105	0x3dafc667	0.08582764
106	0xbd0a39c5	-0.0337465
107	0xbd949c5e	-0.07256387
108	0xbcebd550	-0.028788239
109	0xbe158ee4	-0.1460529
110	0xbe6651e0	-0.2249217
111	0xbdad98f1	-0.08476437
112	0xbce67453	-0.02813164
113	0xbd8aefc4	-0.06784013
114	0xbd2792f5	-0.040911634
115	0xbdf870e8	-0.1213091
116	0xbbe78834	-0.007065797
117	0xbd713247	-0.05888584
118	0xbe39f12a	-0.18158403
119	0xbd93e9e1	-0.07222343
120	0xbe16b8d2	-0.14718941
121	0xbd9bf2ce	-0.07614671
122	0x3db491ee	0.088168964
123	0xbe042db6	-0.12908062
124	0xbe5a753a	-0.21333781
125	0xbe06d337	-0.1316651
126	0x3e1e5b5d	0.1546454
127	0xbe2fc3f7	-0.17164598
128	0x3d5768b2	0.05259008
129	0xbcb574c9	-0.022150414
130	0x3d9b2c54	0.07576814
131	0xbc1e7afb	-0.0096728755
132	0xbb0d304f	-0.0021543687
133	0xbcb39ee9	-0.02192636
134	0xbe160b8f	-0.14652847
135	0xbea465c1	-0.32108882
136	0xbe6e9f73	-0.23303013
137	0xbd2bdeee	-0.04196065
138	0xbe59d030	-0.21270823
139	0x3ceb648b	0.028734466
140	0xbdf3fa53	-0.1191298
141	0xbddc7f3d	-0.10766456
142	0xbe657fc0	-0.22412014
143	0xbe69d847	-0.2283641
144	0x3d03af0a	0.032149352
145	0xbb9aae29	-0.0047204685
146	0xbe41f225	-0.18940027
147	0xbe29c60e	-0.16579458
148	0x3e102cbc	0.14079565
149	0xbea601e6	-0.32423323
150	0xbd9bd652	-0.07609238
151	0xbd563270	-0.052294195
152	0xbd8dc64c	-0.06922588
153	0xbd6c52dd	-0.057696212
154	0xbc9733cd	-0.018457318
155	0xbda9e60e	-0.082958326
156	0xbd9e6aa2	-0.07735182
157	0x3ca82fd3	0.020530617
158	0xbdd4b16e	-0.103854045
159	0xbd8f3380	-0.06992245
160	0xbe058233	-0.13037948
161	0x3d16274f	0.03665858
162	0xbd9ff5ce	-0.078105554
163	0x3d16c030	0.036804378
164	0xba421930	-0.0007404266
165	0x3dc74ff0	0.09732044
166	0xbdba51ac	-0.09097609
167	0xbe3ae209	-0.18250288
168	0x3dfffe5e	0.124996886
169	0xbe431bef	-0.19053625
170	0xbdbdd12e	-0.092684135
171	0xbd163560	-0.036671996
172	0x3dd3eba0	0.10347676
173	0xbc397afd	-0.011320827
174	0xbd3a6955	-0.04551061
175	0x3d401fca	0.046905316
176	0xbdd62785	-0.104567565
177	0xbd55f094	-0.052231386
178	0x3d409e60	0.04702604
179	0x3a7a6432	0.00095516734
180	0xbda0dd5a	-0.078547195
181	0xbda33e08	-0.07970816
182	0xbe0751c3	-0.13214783
183	0xbd8b7e00	-0.06811142
184	0xba9a0a59	-0.0011752351
185	0x3dd346ed	0.103162624
186	0x3cb66269	0.022263722
187	0xbc73d358	-0.014881931
188	0x3c9a74ab	0.01885446
189	0x3dafab36	0.08577578
190	0xbd812818	-0.063064754
191	0xbdf3e7d2	-0.119094506
192	0xbe49010b	-0.19629304
193	0xbca90c2e	-0.02063569
194	0x3da9fdbb	0.08300348
195	0x3d055e74	0.03256078
196	0xbde98c70	-0.114037395
197	0x3cf6bd2e	0.030119505
198	0xbab473b7	-0.0013767396
199	0x3dd40a9e	0.103535876
200	0xbd97ef24	-0.07418659
201	0xbe3a38ef	-0.18185781
202	0xbb979d87	-0.004626933
203	0xbe092a88	-0.1339513
204	0xbd2f8eaa	-0.042860664
205	0xbc79940d	-0.015233052
206	0xbdba2dab	-0.09090742
207	0xbdaa6df9	-0.08321757
208	0xbdbd22f8	-0.092351854
209	0xbe2ad525	-0.1668287
210	0x3d427d3e	0.04748272
211	0xbc2fd83c	-0.010732707
212	0x3d1c73b0	0.038196266
213	0xbd491a57	-0.049097385
214	0xbd993231	-0.074802764
215	0xbd218a26	-0.03943839
216	0xbe0cfec6	-0.13769063
217	0xbd5f3c6d	-0.054500986
218	0xbdddc6d7	-0.10828941
219	0xbe1e2b8b	-0.15446298
220	0x3d888cea	0.06667502
221	0xbe0e6455	-0.13905461
222	0x3c799494	0.015233178
223	0x3e103ac5	0.14084919
224	0xbc5c109c	-0.013431694
225	0xbc94c71b	-0.018161347
226	0xbc31f35b	-0.010861243
227	0xbd2c7549	-0.04210404
228	0xbd06b295	-0.032885153
229	0x3d84eab1	0.06490076
230	0xbe254485	-0.1613942
231	0x3c315fc0	0.010826051
232	0x3df5147d	0.119667985
233	0xbe136e95	-0.14397652
234	0x3d72a715	0.059241373
235	0xbe1c2c8e	-0.15251371
236	0x3d914fd4	0.07095304
237	0xbd2d9f19	-0.042388055
238	0xbd83e1e3	-0.06439569
239	0xbe06a141	-0.13147451
240	0xbdeb0326	-0.1147521
241	0xbe15f27f	-0.14643286
242	0x3d7f9b25	0.062403817
243	0x3e212891	0.15738131
244	0xbdde71ff	-0.10861587
245	0x3c2a744d	0.010403705
246	0x3c2e103d	0.010623989
247	0x3e28040d	0.16407795
248	0xbda0c6b2	-0.07850398
249	0xbc6126f6	-0.013742199
250	0xbe55d3d0	-0.20881581
251	0x3dfd20ee	0.123597965
252	0x3d5a6292	0.05331666
253	0xbe080d95	-0.13286431
254	0x3dd10617	0.1020624
255	0xbd942aa8	-0.072346985
