Oversteek Simulator/Learning/results/Oversteek-K-01/GoodCar/GoodCar-549980.onnx (onnx, 90288 bytes, 6 tensors)

action_model._discrete_distribution.branches.0.bias f4 [3]
0	0xbcfd5340	-0.030923486
1	0x3d621c97	0.055203047
2	0xbbb63061	-0.0055599664

action_model._discrete_distribution.branches.0.weight f4 [3, 128]
0	0x3c844de3	0.01615042
1	0xbd435006	-0.04768374
2	0xbd923e3c	-0.071407765
3	0xbd0bb963	-0.034112345
4	0xbcf682f5	-0.030091742
5	0x3d175d36	0.036954127
6	0x3c3bfe79	0.011474245
7	0x3cdb1ffb	0.026748648
8	0x3d805dca	0.06267889
9	0xbbd147a6	-0.006386715
10	0x3c90f367	0.017694188
11	0xbd718072	-0.058960386
12	0x3c4d7f26	0.012542522
13	0xbce3962f	-0.027781574
14	0x3cf48d3f	0.029852508
15	0xbb94e4f3	-0.0045438944
16	0xbc6930aa	-0.014232794
17	0xbc9bb90d	-0.019009138
18	0x3cb8db63	0.02256555
19	0xbc844a9e	-0.016148861
20	0x3d34c44e	0.044132523
21	0xbd66185e	-0.056175582
22	0xbcbeda37	-0.023297412
23	0xbd29454a	-0.041325845
24	0x3d86d654	0.065838486
25	0x3d1f10c5	0.038834352
26	0x3cd2a04b	0.0257112
27	0xbd26d031	-0.04072589
28	0xbd374cb2	-0.044750877
29	0xbd48ff98	-0.04907188
30	0xbd456c54	-0.048199013
31	0xbd616b2f	-0.05503386
32	0xbd395320	-0.04524529
33	0xbd39e4cc	-0.045384213
34	0xbdc22053	-0.094788216
35	0xbc532edc	-0.01288959
36	0x3cbbee34	0.022940733
37	0xbd7e89f5	-0.062143285
38	0xbd18301f	-0.037155267
39	0xbc58a8f3	-0.013223874
40	0xbd3f2417	-0.046665277
41	0x3cafda88	0.021466509
42	0xbc05e4da	-0.008172238
43	0x3cbd5cd9	0.023115562
44	0x3b4f7d5c	0.0031660413
45	0x3d41fe6a	0.04736177
46	0xbcd75d81	-0.026289703
47	0xbb2e0eba	-0.002655907
48	0xbd05b513	-0.03264339
49	0xbd103c42	-0.035213716
50	0xbcc15d4e	-0.023604061
51	0xbd1d13b8	-0.038348883
52	0xbd050d78	-0.032483548
53	0x3cde9d5c	0.027174644
54	0xbc6daff5	-0.014507283
55	0xbd13f56c	-0.036122724
56	0xbca840c5	-0.020538697
57	0xbcaba35d	-0.020951921
58	0xbcfdfc7e	-0.031004187
59	0xbd317d56	-0.04333242
60	0xbcc62e2a	-0.024191935
61	0xbcb4ad61	-0.02205533
62	0x3d43bf40	0.047789812
63	0xbcd84879	-0.026401745
64	0x3c8e47a3	0.017368143
65	0xbd2fd259	-0.042925213
66	0xbc31b963	-0.010847422
67	0x3c371447	0.011174268
68	0xbd1b7c1a	-0.03796015
69	0x3b31ecf2	0.0027149287
70	0xbd40024b	-0.046877187
71	0xbd6ebac1	-0.05828357
72	0x3d377913	0.0447932
73	0x3d01b6e2	0.03166855
74	0x3d412df0	0.04716295
75	0xbd18475d	-0.037177432
76	0xbd81c5d5	-0.063365616
77	0xbd780361	-0.060550097
78	0xbcfb4031	-0.030670257
79	0xbd3461c6	-0.044038557
80	0xbd04c5ef	-0.032415327
81	0xbd1f351b	-0.038869005
82	0xbd11ee75	-0.0356278
83	0x3cd6efc1	0.02623737
84	0x3cb08129	0.021545963
85	0xbaf49cae	-0.0018662417
86	0xbd5e7cb3	-0.05431814
87	0x3d258cd0	0.040417492
88	0xbcb97acf	-0.022641568
89	0xbcfd698f	-0.030934123
90	0xbd639347	-0.055560376
91	0xbcf67000	-0.030082703
92	0xbd85b005	-0.06527714
93	0x3c599463	0.013280007
94	0xbc602598	-0.013680838
95	0xbd3fc2e6	-0.04681673
96	0xbd800ac4	-0.062520534
97	0xbbb64fe2	-0.005563722
98	0xbd160f86	-0.036635898
99	0xbd18394a	-0.03716401
100	0xbd079c73	-0.033108186
101	0xbd0b993e	-0.03408169
102	0xbd05c2b2	-0.03265638
103	0xbd921f62	-0.07134892
104	0xbd074045	-0.033020277
105	0x3d33eae9	0.0439252
106	0x3d95eb4c	0.0732027
107	0xbcb2ec66	-0.02184124
108	0x3da0a97e	0.07844828
109	0xbb549d52	-0.0032442403
110	0xbd9ae03a	-0.07562299
111	0x3c309ea9	0.010780015
112	0xba4bb601	-0.0007770956
113	0xbd96af04	-0.073576
114	0xbd4e5b96	-0.050380312
115	0x3d86b46e	0.06577383
116	0x3ba0b897	0.0049048173
117	0xbd40b10f	-0.047043856
118	0xbd85c8cb	-0.06532439
119	0x3c4588b5	0.012056519
120	0xbd41666e	-0.047216825
121	0xbcedcf07	-0.029029382
122	0x3d24c060	0.040222526
123	0x3d12e576	0.035863362
124	0x3d63f2bd	0.055651415
125	0x3d7a2a9b	0.061075788
126	0xbcd9d5ea	-0.02659126
127	0xbd1fdc0b	-0.03902821
128	0xbd4114ee	-0.0471391
129	0x3e287e20	0.16454363
130	0x3e50b5cf	0.20381854
131	0x3d34b200	0.044115067
132	0x3d98a00a	0.074524
133	0x3c97b9d8	0.018521234
134	0xbd09bdd2	-0.033628292
135	0xbca86fe2	-0.020561162
136	0xbe34ee80	-0.17669106
137	0x3dbcb575	0.09214298
138	0xbe1df007	-0.15423594
139	0x3e5c0e1c	0.21489757
140	0x3cd623a6	0.026140045
141	0x3e0e5e58	0.13903177
142	0xbc09380d	-0.00837518
143	0x3dac4e90	0.08413422
144	0x3dd29f28	0.10284263
145	0x3dc8579e	0.09782337
146	0x3ce8e4ef	0.028429477
147	0x3c7453fe	0.014912603
148	0xbdd4d1fc	-0.10391614
149	0x3e17209d	0.14758535
150	0x3def4ff9	0.116851754
151	0x3e0d3fbf	0.13793848
152	0xbdf2fa86	-0.1186419
153	0xbd88b0e7	-0.066743664
154	0xbcea1fdc	-0.028579645
155	0x3e213b09	0.15745176
156	0x3e2d0322	0.16895726
157	0x3df28c52	0.1184317
158	0x3e5acf7b	0.2136821
159	0x3e1495dd	0.14510293
160	0x3e1c55f5	0.15267165
161	0x3e388342	0.18018821
162	0x3e52834c	0.20557898
163	0x3d3a1ce6	0.045437716
164	0xbdc0eb76	-0.094199106
165	0x3e4d863a	0.20070735
166	0x3dcd2241	0.10016299
167	0x3b6af678	0.0035852473
168	0x3e2ecc9c	0.1707024
169	0xbcfce4de	-0.030870851
170	0x3ceefd47	0.029173506
171	0x3e2784a4	0.16359192
172	0x3cc47bde	0.023984846
173	0x3c619658	0.013768755
174	0x3d94ce0e	0.07265864
175	0x3d5870a7	0.05284181
176	0x3e2af441	0.16694738
177	0x3dcf79e7	0.10130673
178	0x3e06ef8b	0.13177316
179	0x3de5a32f	0.112127654
180	0x3e0a4289	0.13501944
181	0xbe0ef2de	-0.13959834
182	0x3da8080c	0.0820466
183	0x3e3e34ea	0.18574873
184	0x3db5c290	0.088750005
185	0x3dd95a3f	0.10612916
186	0x3e1c29e4	0.15250355
187	0x3e3045df	0.17214154
188	0x3dc352a1	0.095372446
189	0x3dc0a5e5	0.09406642
190	0xbdca7724	-0.098860055
191	0x3d8318a8	0.06401187
192	0x3da8954b	0.082316004
193	0x3e103293	0.14081793
194	0x3ded3f85	0.11584381
195	0x3d1ed37b	0.038775902
196	0x3d1544e5	0.036442656
197	0x3cdab670	0.026698321
198	0x3e476687	0.19472705
199	0x3e4db6c1	0.20089246
200	0xbce41f07	-0.027846826
201	0xbd9a1fd7	-0.07525604
202	0xbdd3acb0	-0.10335672
203	0x3e2dbab3	0.16965751
204	0x3e340719	0.17580833
205	0x3e253701	0.16134264
206	0x3dbe66eb	0.09296974
207	0x3de90ad7	0.11379021
208	0x3de83143	0.11337521
209	0x3db1d170	0.08682525
210	0x3dfdb6c1	0.12388373
211	0xbc9add14	-0.018904246
212	0xbcf510e0	-0.029915273
213	0x3de2cd12	0.1107427
214	0x3e31c2b1	0.17359425
215	0xbd7beae5	-0.06150331
216	0x3e338e8c	0.17534846
217	0x3dc08f22	0.094023004
218	0x3e46f52d	0.19429465
219	0x3e353bd3	0.17698602
220	0x3e507633	0.2035759
221	0x3d7dc84e	0.061958604
222	0x3d9c7a5d	0.076405264
223	0x3e61e075	0.2205828
224	0x3e509f68	0.20373309
225	0x3cdfd4cd	0.027323151
226	0x3e14d296	0.14533457
227	0x3d767222	0.06016744
228	0x3de72cef	0.11287867
229	0x3dbba413	0.09162154
230	0x3e4237fc	0.18966669
231	0x3e7a8a3a	0.24466792
232	0x3d7829fc	0.060586914
233	0xbdbd38e1	-0.092393644
234	0xbe03b7f2	-0.12863138
235	0x3e06839f	0.13136147
236	0xbdb95076	-0.0904855
237	0x3d395b4b	0.04525308
238	0x3e5c4e06	0.21514139
239	0xbc4d696d	-0.0125373425
240	0x3d0712c8	0.032976896
241	0x3e5d97c6	0.21639928
242	0x3e13a812	0.14419582
243	0xbc5ecba7	-0.013598359
244	0x3dd82e96	0.105557606
245	0x3e277299	0.1635231
246	0x3e551d5a	0.20811978
247	0xbc880046	-0.016601693
248	0x3e0d28e9	0.13785137
249	0x3d8e26f0	0.069410205
250	0xbd398365	-0.045291323
251	0xbe6dbae8	-0.2321583
252	0xbd3861d9	-0.04501519
253	0x3c4518da	0.012029851
254	0x3e0705f1	0.1318586
255	0x3ddb6ce1	0.107141264

network_body.linear_encoder.seq_layers.0.bias f4 [128]
0	0xbd560aa1	-0.05225623
1	0x3da04fbc	0.07827708
2	0xbd851857	-0.06498783
3	0xbe19d2e3	-0.15021853
4	0xbd6a3e27	-0.05718818
5	0x3bf57f93	0.0074920147
6	0xbd824eb0	-0.06362665
7	0xbc6697e5	-0.0140743
8	0xbc26997b	-0.0101684285
9	0xbd527035	-0.05137654
10	0xbd8061db	-0.062686644
11	0xbd128d5b	-0.03577934
12	0xbe050f57	-0.12994133
13	0xbd2105b6	-0.039312087
14	0xbdd40646	-0.10352759
15	0xbd652db4	-0.05595179
16	0x3e30b970	0.17258239
17	0xbd8c1254	-0.06839433
18	0xbc70ab92	-0.014689343
19	0xbd10c0fc	-0.035340294
20	0xbe57a7a5	-0.21060045
21	0xbdad9288	-0.08475214
22	0xbd8e8d3a	-0.069605306
23	0xbda2c179	-0.07947058
24	0xbd6ecfc6	-0.058303617
25	0xbd97047b	-0.073739015
26	0xbe6483f4	-0.22315961
27	0xbde00a58	-0.10939473
28	0xbda29cdb	-0.07940074
29	0xbd9e8b01	-0.07741357
30	0xbd1b72ca	-0.03795127
31	0xbe3e3c27	-0.18577634
32	0x3cdb0ce9	0.026739554
33	0xbe1983af	-0.1499164
34	0x3b89359e	0.0041873
35	0xbe3060e3	-0.1722446
36	0xbe16a3a6	-0.14710864
37	0xbb53192b	-0.0032211046
38	0xbd35e995	-0.044412214
39	0xbe17bce1	-0.14818145
40	0xbd1df34d	-0.038562108
41	0xbe316255	-0.17322667
42	0x3daf99fa	0.085742906
43	0x3d5651f4	0.05232425
44	0xbcd70304	-0.026246555
45	0xbe546c07	-0.20744334
46	0xbe059436	-0.13044819
47	0xbe24eac9	-0.16105188
48	0xbded7eb6	-0.11596434
49	0xbe0f1be6	-0.13975486
50	0xbd897c89	-0.06713206
51	0x3cd081fe	0.02545261
52	0xbdcff170	-0.101534724
53	0xba903682	-0.0011002573
54	0x3d5852fa	0.052813508
55	0xbda95be4	-0.0826948
56	0xbcd5507e	-0.026039358
57	0xbb3fc072	-0.0029258993
58	0xbe01eea0	-0.12688684
59	0xbe356849	-0.17715563
60	0xbd623bdd	-0.05523287
61	0x3da71694	0.08158603
62	0x3d4caff2	0.049972482
63	0xbdd1cc2c	-0.10244021
64	0xbe21513b	-0.15753643
65	0xbd8f6cfb	-0.07003208
66	0xbd52debc	-0.051481947
67	0xbddb3bbb	-0.10704752
68	0xbbee9e8b	-0.0072820834
69	0xbda375a2	-0.07981421
70	0xbc91d771	-0.017802926
71	0xbdbadcc5	-0.0912414
72	0xbc255320	-0.010090619
73	0xbd9271c7	-0.071506076
74	0x3d9c06d8	0.07618493
75	0xbc567f52	-0.013091879
76	0xbd1c7f55	-0.03820737
77	0xbcad1f5e	-0.021133121
78	0x3da72187	0.08160692
79	0xbdf78cc6	-0.12087397
80	0x3d9e4ee0	0.07729888
81	0xbe463bbd	-0.19358726
82	0xbdf2c76a	-0.118544415
83	0xbd9e61fb	-0.07733532
84	0xbc15e006	-0.00914765
85	0xbd10d9de	-0.035364024
86	0x3e02e525	0.12782724
87	0xbd916778	-0.07099813
88	0xbe0feb17	-0.14054523
89	0xbc5f49c2	-0.013628425
90	0xbe4abe07	-0.19799052
91	0xbe4cbc09	-0.19993605
92	0xbe32bac6	-0.17454061
93	0x3c7feab1	0.01561992
94	0xbe5e2aa0	-0.21695948
95	0x3db82a57	0.08992451
96	0xbe3cbdc7	-0.1843177
97	0xbe1b25ee	-0.15151188
98	0x3c3b9a1c	0.011450317
99	0xbd95bb33	-0.07311096
100	0xbdc58c9a	-0.09645958
101	0xbda6abfb	-0.081382714
102	0xbd8e220e	-0.06940089
103	0xbd1e522f	-0.038652595
104	0xbe00333c	-0.12519544
105	0xbddf6e85	-0.10909752
106	0xbd24e1cd	-0.040254403
107	0xbcd17a66	-0.02557106
108	0xbd5f60ef	-0.054535802
109	0xbd88db54	-0.066824585
110	0x3d606817	0.054786768
111	0x3cc09f1f	0.023513375
112	0x3e03a37e	0.12855336
113	0xbdfe2b30	-0.12410581
114	0x3de05b28	0.10954887
115	0xbd92180c	-0.07133493
116	0xbe10605b	-0.14099257
117	0xbd499e82	-0.04922343
118	0xbc042268	-0.008064844
119	0x3d5412ef	0.05177587
120	0x3db45457	0.08805149
121	0xbdb938f5	-0.09044067
122	0xbd35ed00	-0.044415474
123	0x3d948a6f	0.072529666
124	0x3d3d7eec	0.04626362
125	0x3cb5d7a4	0.022197552
126	0xbda728f2	-0.081621066
127	0xbe21391d	-0.15744443

network_body.linear_encoder.seq_layers.0.weight f4 [128, 39]
0	0x3d9f3b79	0.077750154
1	0xbd9c47ca	-0.0763088
2	0x3e6da1fd	0.23206325
3	0x3cc218d2	0.023693476
4	0x3dfbda62	0.122975126
5	0xbc6b1c35	-0.014349987
6	0xbe14e1a2	-0.14539197
7	0x3bf740d4	0.00754557
8	0xbbea7cb0	-0.007155977
9	0x3e83bcde	0.25730032
10	0xbd17efd8	-0.037093967
11	0xbe7d45a5	-0.24733599
12	0x3e5a02a4	0.2129007
13	0x3e7512c3	0.23932938
14	0x3da20cb6	0.07912581
15	0x3d7f9297	0.06239566
16	0xbcd9c4b0	-0.026583046
17	0xbe007a72	-0.12546709
18	0xbdb422e8	-0.0879572
19	0xbe5c61af	-0.21521638
20	0x3e352e1a	0.17693368
21	0x3e2d2c86	0.16911516
22	0xbe3f1da6	-0.18663654
23	0x3d830d02	0.063989654
24	0xbd797027	-0.060897972
25	0x3d380262	0.044924147
26	0xbe956751	-0.29180387
27	0xbe77c44d	-0.24195977
28	0x3db93a75	0.09044353
29	0xbd8136b1	-0.0630926
30	0xbe26c5b0	-0.1628635
31	0xbc23fc8b	-0.010008941
32	0xbe28b17a	-0.16473952
33	0xbcac7879	-0.02105354
34	0xbeda2ffc	-0.42614734
35	0x3dd8fe4e	0.1059538
36	0x3d8ee98f	0.069781415
37	0xbdab40de	-0.08361982
38	0xbe0b69e4	-0.13614613
39	0x3d187f5b	0.03723083
40	0x3e97a7ca	0.296202
41	0xbe163d5c	-0.14671844
42	0x3d09b5bd	0.033620585
43	0x3d77f6b1	0.060537998
44	0xbdeccfbf	-0.11563062
45	0x3db9d909	0.09074599
46	0x3c9c5194	0.019081868
47	0xbe6e5d09	-0.23277678
48	0x3d40196b	0.04689924
49	0xbd8504c7	-0.06495052
50	0x3e9e9c1b	0.30978474
51	0x3c81af37	0.01583062
52	0x3d74cc4d	0.05976515
53	0xbc8e7bb4	-0.01739297
54	0x3ec53b35	0.38521734
55	0x3e87fe5c	0.26561248
56	0xbe6d326f	-0.2316377
57	0x3d354e6a	0.044264235
58	0xbc9b7568	-0.018976882
59	0xbd92d451	-0.071694024
60	0x3d2880e8	0.04113856
61	0x3d6e8e8f	0.058241423
62	0x3bd5ba8f	0.0065224837
63	0x3d9d67e7	0.076858334
64	0x3d9e66fc	0.077344865
65	0xbd1aa26f	-0.037752565
66	0x3d0d10cc	0.034439847
67	0x3de0edf5	0.10982887
68	0x3ea373e8	0.31924367
69	0xbe0ff8aa	-0.14059702
70	0x3d9898be	0.07451008
71	0xbe83f5b8	-0.25773406
72	0x3e8dd9e3	0.27705297
73	0x3e845ed4	0.25853598
74	0x3c45ced6	0.012073239
75	0xbcf80387	-0.03027512
76	0xbe9b3b0c	-0.30318487
77	0x3d69dc57	0.057094898
78	0xbd6a8101	-0.057251934
79	0xbe85f1d8	-0.26161075
80	0x3dd17d48	0.102289736
81	0x3dba1f59	0.0908801
82	0xbea54562	-0.32279497
83	0x3da0df4a	0.07855089
84	0x3ee9b0ea	0.45642787
85	0xbc9f5b7b	-0.019452801
86	0x3c7c07b2	0.015382694
87	0xbddacb0f	-0.106832616
88	0xbe127e21	-0.14305927
89	0x3db1190e	0.08647357
90	0x3cb0b16d	0.021568978
91	0x3e41c00e	0.1892092
92	0xbe9a38b1	-0.30121377
93	0x3da3d2df	0.07999205
94	0x3df90fcd	0.12161217
95	0x3d914f31	0.07095183
96	0xbc4761fd	-0.012169358
97	0xbcf62936	-0.030048948
98	0xbde6afbe	-0.11263989
99	0x3e9069fd	0.28205863
100	0x3cb51fb9	0.022109853
101	0xbe8c7e7b	-0.27440247
102	0xbed9aea4	-0.42516053
103	0xbe9c11c9	-0.3048232
104	0x3d8f2b8e	0.06990729
105	0x3e37edb1	0.17961766
106	0xbdef5e36	-0.11687891
107	0xbd102f3f	-0.035201307
108	0xbdd717c5	-0.105025806
109	0x3e97252d	0.2952055
110	0xbd333ff4	-0.043762162
111	0xbdc96dad	-0.09835372
112	0xbdc4eaaa	-0.09615071
113	0x3d79b771	0.06096596
114	0xbdfca962	-0.12336995
115	0xbda99d4c	-0.08281955
116	0x3ecf60e5	0.40503612
117	0xbdcab9da	-0.098987296
118	0xbed9f67c	-0.42570865
119	0x3dc38021	0.09545923
120	0xbe00441f	-0.12525986
121	0xbea09ef0	-0.3137126
122	0x3e824c71	0.25448945
123	0xbe614342	-0.21998313
124	0x3ebc4872	0.3677402
125	0xbdc0efa7	-0.0942071
126	0xbe06b230	-0.1315391
127	0xbe2157a2	-0.15756086
128	0xbea73aa9	-0.32661942
129	0x3e91e231	0.28492883
130	0x3df1d469	0.11808092
131	0xbe1b19d4	-0.15146571
132	0x3e3aac0f	0.18229698
133	0xbdbbc9db	-0.0916936
134	0xbea7033e	-0.3261966
135	0x3dfc8da0	0.123317
136	0x3ed27ca5	0.4111072
137	0xbd546dda	-0.051862575
138	0x3e1d8fff	0.15386961
139	0xbd0e66fb	-0.03476618
140	0xbe730c49	-0.23735155
141	0x3c864565	0.016390512
142	0xbcd4ebc5	-0.02599133
143	0xbe4be994	-0.19913322
144	0xbe2912d1	-0.16511084
145	0x3e58e0ad	0.21179457
146	0xbe68aa4f	-0.22721218
147	0xbdd5319b	-0.10409852
148	0x3e186a8e	0.14884397
149	0x3be48737	0.0069741267
150	0x3d60ee46	0.054914735
151	0xbedc922d	-0.43080273
152	0xbd818d3c	-0.063257664
153	0x3e3e2409	0.18568434
154	0x3d8896aa	0.06669362
155	0xbd914330	-0.07092893
156	0x3db40e11	0.087917455
157	0x3e43015d	0.19043489
158	0xbd9e8750	-0.077406526
159	0x3e28a04b	0.16467397
160	0xbe786e5c	-0.24260849
161	0x3e35dd75	0.1776026
162	0xbdf3d158	-0.119051635
163	0x3dcbb547	0.09946685
164	0x3d2387f0	0.039924562
165	0x3de92070	0.1138314
166	0xbdef74a6	-0.11692171
167	0xbc4adfef	-0.0123824915
168	0x3d9c8bb4	0.07643834
169	0xbe8b9281	-0.2726021
170	0xbda003e3	-0.07813241
171	0x3dd4af97	0.103850536
172	0x3e26eb69	0.1630074
173	0xbebf2815	-0.37335268
174	0xbe6399bd	-0.22226615
175	0x3da777c5	0.08177141
176	0xbe6c871d	-0.23098417
177	0x3ce3c663	0.02780456
178	0x3e79dee5	0.24401434
179	0xbe401599	-0.18758239
180	0x3ca7ad8b	0.020468494
181	0x3d2b1f82	0.041778095
182	0xbea6af2c	-0.3255552
183	0x3d23332a	0.039843716
184	0x3ce59dc7	0.028029336
185	0x3e377b4d	0.1791813
186	0x3d729ee5	0.059233565
187	0x3e017563	0.12642436
188	0xbc17876e	-0.009248598
189	0xbd897a05	-0.067127265
190	0xbe47e418	-0.19520605
191	0xbd37b46a	-0.04484979
192	0x3e065ec1	0.13122083
193	0x3e0064a7	0.12538396
194	0x3d3610ff	0.044449802
195	0xbe31b21d	-0.17353101
196	0xbcf6d5f3	-0.030131316
197	0x3e3aee9a	0.18255082
198	0xbe973b55	-0.29537454
199	0xbe340055	-0.17578252
200	0xbd35a4b7	-0.044346537
201	0x3e18bf53	0.14916734
202	0x3d771032	0.06031818
203	0x3d1df03a	0.038559176
204	0x3dbe713c	0.092989415
205	0x3a8c18d4	0.0010688552
206	0x3d155cda	0.036465503
207	0xbde582cc	-0.11206588
208	0xbe0e94bc	-0.13923925
209	0xbdb2225d	-0.086979605
210	0x3d9bc7cc	0.076064676
211	0x3e832be2	0.25619417
212	0x3e11ace6	0.14226112
213	0xbded4339	-0.11585087
214	0xbcff7dad	-0.031187857
215	0x3c6256a1	0.013814599
216	0xbe52dbdc	-0.20591682
217	0xbd65df38	-0.05612108
218	0x3d91b854	0.07115236
219	0x3dadeb99	0.08492202
220	0x3e0d5dc4	0.138053
221	0x3ca010ec	0.019539319
222	0x3dec8d96	0.11550443
223	0x3ddc9b1f	0.107717745
224	0x3b5e31f4	0.0033904286
225	0x3e95f79a	0.29290468
226	0x3de9ffa9	0.114257164
227	0x3dfd63df	0.123725645
228	0x3e5f4ca6	0.21806583
229	0x3e31c2f5	0.17359526
230	0xbd515401	-0.051105503
231	0xbc3a05f9	-0.011353963
232	0xbd9e1370	-0.07718551
233	0x3e2f3b1c	0.17112392
234	0x3da504d5	0.08057562
235	0xbf29852b	-0.66218823
236	0xbe71b34d	-0.23603554
237	0x3e3ef36d	0.18647547
238	0xbe04dc16	-0.12974581
239	0xbd507850	-0.05089599
240	0x3cd59f54	0.02607695
241	0x3e7c2252	0.24622467
242	0x3e813f9a	0.25243837
243	0xbd7fecd9	-0.062481735
244	0xbe76b68a	-0.2409307
245	0x3e8fa8a5	0.28058353
246	0xbd61490f	-0.055001315
247	0xbdd6e6cc	-0.1049324
248	0xbe0cf772	-0.13766268
249	0x3c722948	0.01478035
250	0xbd96995a	-0.07353468
251	0x3e2ad0d6	0.16681227
252	0x3d349264	0.04408492
253	0xbed5dc2f	-0.4176955
254	0x3de5921a	0.11209507
255	0xbe5aeed7	-0.21380173

network_body.linear_encoder.seq_layers.2.bias f4 [128]
0	0xbd99c8e4	-0.0750902
1	0xbd75d2b0	-0.06001538
2	0xbdace981	-0.08442975
3	0xbd287b67	-0.04113331
4	0x3b0660ff	0.0020504592
5	0xbc620d58	-0.013797127
6	0xbc0572df	-0.008145063
7	0x3c80c909	0.015720861
8	0x3d51e97c	0.05124806
9	0xbe11f835	-0.1425484
10	0x3dcc97fa	0.09989925
11	0xbd9255d5	-0.071452774
12	0xbd5df6f4	-0.05419059
13	0xbd1a83cb	-0.037723344
14	0xbc67707b	-0.0141259385
15	0xbd8f7306	-0.07004361
16	0x3d3dd4b8	0.046345443
17	0xbdc63aeb	-0.096792065
18	0xbe379b0b	-0.17930238
19	0xbc3504af	-0.01104848
20	0x3e08349f	0.13301323
21	0xbddba097	-0.107239895
22	0xbde2b756	-0.11070125
23	0xbd8a2c02	-0.06746675
24	0x3d48f0f9	0.049057934
25	0x3d9bb4d3	0.07602849
26	0xbd2ceffa	-0.042221047
27	0xbd056c70	-0.032574117
28	0xbd04da75	-0.0324349
29	0xbdd245ea	-0.10267241
30	0xbd260553	-0.04053242
31	0xbd8ec10f	-0.06970417
32	0xbd0d8552	-0.034550972
33	0xbd80b3eb	-0.06284317
34	0xbd98c605	-0.07459644
35	0xbd3eafc4	-0.046554342
36	0xbcb73dd8	-0.022368357
37	0xbd48c2a0	-0.049013734
38	0xbd96af03	-0.073575996
39	0xbe5c5fdf	-0.21520947
40	0xbd7b3c9f	-0.06133711
41	0xbd88acd0	-0.06673586
42	0xbcc0246b	-0.023454865
43	0x3c9e2ae8	0.019307569
44	0xbe3a1649	-0.18172564
45	0xbd5de4ce	-0.054173283
46	0xbdb40c7e	-0.08791445
47	0xbdea1a8b	-0.11430844
48	0xbd96ecef	-0.0736941
49	0xbd6a0574	-0.057134107
50	0x3d6547da	0.055976726
51	0xbdd34f7e	-0.10317896
52	0xbda02b79	-0.07820792
53	0x3dabe78e	0.08393775
54	0xbd76a4b8	-0.06021568
55	0xbdd07294	-0.10178104
56	0x3c2693d7	0.010167084
57	0xbd77ceca	-0.060499944
58	0xbdb4d018	-0.08828753
59	0xbd7eb7af	-0.062186893
60	0xbcec5d01	-0.028852941
61	0xbd016d25	-0.03159823
62	0x3e452a0a	0.19254318
63	0xbdb2b76f	-0.087263934
64	0xbd008b84	-0.031383052
65	0xbd93ee66	-0.07223205
66	0xbd5a99ee	-0.053369455
67	0x3c790908	0.015199907
68	0x3c1153b8	0.008870058
69	0xbe02d7a6	-0.12777576
70	0xbc95db23	-0.01829297
71	0xbc8519bc	-0.016247623
72	0xbd56364c	-0.052297875
73	0xbe00867f	-0.12551306
74	0xbd1d450f	-0.038395938
75	0xbc3c8929	-0.011507311
76	0xbcb5e63f	-0.022204516
77	0xbd62e95f	-0.05539834
78	0xbde227f5	-0.110427774
79	0xbd990d21	-0.07473207
80	0xbd5f9353	-0.05458386
81	0xbd6fa15a	-0.058503486
82	0xbcc971cd	-0.024590397
83	0xbd5e493e	-0.054269068
84	0xbda0c9f8	-0.078510225
85	0xbd5e0a67	-0.05420914
86	0xbd7ff8b6	-0.06249305
87	0xbd825207	-0.06363302
88	0xbd90dce5	-0.07073382
89	0xbd182918	-0.037148565
90	0xbd8d1f78	-0.06890768
91	0xbd814e00	-0.063137054
92	0xbd3d62fa	-0.04623697
93	0xbe111ffc	-0.14172357
94	0xbd929f24	-0.0715926
95	0xbd76a35f	-0.060214397
96	0xbd041c3b	-0.032253485
97	0xbd9a2f88	-0.07528597
98	0xbd2cf431	-0.042225067
99	0xbdb88a67	-0.09010773
100	0xbda1b4a9	-0.07895786
101	0xbda1261d	-0.07868598
102	0xbd8ea148	-0.06964356
103	0xbd6f5e93	-0.058439802
104	0xbddf3977	-0.108996324
105	0x3d8bd112	0.06826986
106	0x3c34ac48	0.011027403
107	0xbd8ab903	-0.067735694
108	0x3d1273d8	0.03575501
109	0x3c7e041a	0.015503908
110	0xbdfd3ae6	-0.123647496
111	0xbcef9454	-0.029245533
112	0xbde4e979	-0.11177344
113	0xbcb18105	-0.021667967
114	0xbd2396cf	-0.039938744
115	0xbd3062f8	-0.043063134
116	0xbd691bec	-0.056911394
117	0xbd056588	-0.03256753
118	0xbda0e054	-0.07855287
119	0xbd85610c	-0.06512651
120	0xbd840436	-0.06446116
121	0xbda39046	-0.07986502
122	0xba25dcc2	-0.0006327146
123	0x3d7b8a7e	0.061411373
124	0xbd0e2b4f	-0.03470927
125	0x3d16acc7	0.036785867
126	0xbcf9e11e	-0.030502852
127	0xbd9e3435	-0.077248015

network_body.linear_encoder.seq_layers.2.weight f4 [128, 128]
0	0xbc9ee9a6	-0.019398522
1	0xbe266b2c	-0.1625182
2	0xbd5f4c58	-0.054516166
3	0x3da7653e	0.08173607
4	0xbe6d1627	-0.23152982
5	0xbdca970e	-0.09892093
6	0x3dd5ed5c	0.10445663
7	0xbd58424f	-0.05279761
8	0x3da022e6	0.07819156
9	0xbe0f7f18	-0.14013326
10	0x3d5fef81	0.054671768
11	0xbdbf3973	-0.093371294
12	0xbd5aa9a4	-0.05338444
13	0xbceb81d0	-0.028748423
14	0x3e1dfcc5	0.15428455
15	0xbde2af11	-0.110685475
16	0x3d35c1fd	0.044374455
17	0xbd962f4c	-0.0733324
18	0xbcb8b105	-0.022545347
19	0xbe6d6fb6	-0.23187146
20	0xbcd72b07	-0.026265634
21	0xbbc24a19	-0.0059292433
22	0x3c11fb75	0.00891005
23	0xbd9ea551	-0.07746375
24	0xbca6a72a	-0.020343382
25	0xbdb23c2c	-0.08702883
26	0x3e110fb2	0.14166144
27	0x3dbbb2ec	0.09164986
28	0x3e34e933	0.17667083
29	0x3d26a77e	0.040687077
30	0xbe11718c	-0.14203471
31	0x3cb78e34	0.022406675
32	0xbe77f92f	-0.2421615
33	0xbe06a793	-0.13149862
34	0xbe6a0384	-0.22852904
35	0xbd445245	-0.04793002
36	0xbd81d44a	-0.06339319
37	0x3e0f875d	0.1401648
38	0xbe1ebe85	-0.15502365
39	0xbceb4c79	-0.028722988
40	0x3d695a66	0.056970976
41	0x3db852b6	0.09000151
42	0xbe38de71	-0.18053605
43	0xbe0f6ce4	-0.14006382
44	0x3d416c20	0.047222257
45	0xbd55a647	-0.052160528
46	0x3d470853	0.048591923
47	0x3d813fec	0.0631102
48	0xbe50f60b	-0.20406358
49	0x3c937eb5	0.018004755
50	0xbd34b9c0	-0.044122458
51	0xbe421fb6	-0.1895741
52	0x3d0711a3	0.032975804
53	0x3c5dab9b	0.013529683
54	0x3cf66b0e	0.030080345
55	0x3c45fb3b	0.012083824
56	0xbe2b8f15	-0.167538
57	0xbc91aaf9	-0.017781721
58	0x3c995763	0.018718427
59	0x3cfbe176	0.030747157
60	0xbe568d6a	-0.20952383
61	0xbc9dff3b	-0.019286742
62	0x3dee8d70	0.11648071
63	0xbd4980c4	-0.049195066
64	0xbd7b0d7d	-0.06129216
65	0xbe1c1ece	-0.15246126
66	0xba344e08	-0.00068780826
67	0x3ce7908e	0.028267171
68	0xbe530a7b	-0.20609467
69	0xbde7f8d6	-0.113267586
70	0x3d1d29fb	0.038370114
71	0x3db66320	0.08905625
72	0x3d1af5cf	0.037832078
73	0xbdd53f44	-0.104124576
74	0xbd6a0b2f	-0.05713957
75	0xbd832bf0	-0.06404865
76	0xbe6d556b	-0.23177116
77	0xbb23822b	-0.0024949412
78	0xbd497c22	-0.049190648
79	0xbdfa47ce	-0.12220727
80	0xbbd11b0a	-0.006381397
81	0x3d3f8ec7	0.046767022
82	0x3dad7cdd	0.084710814
83	0x3def954e	0.116983995
84	0xbd939b35	-0.07207338
85	0x3da29c88	0.07940012
86	0xbe97bb3c	-0.29635036
87	0xbda004a4	-0.07813385
88	0x3ddcec1c	0.10787222
89	0xbdc0a083	-0.09405615
90	0xbdc3c7c3	-0.09559586
91	0x3d0e4f1c	0.034743413
92	0xbdc1856c	-0.09449276
93	0xbd99419f	-0.07483219
94	0xbde16f3b	-0.11007544
95	0xbd7daeb8	-0.061934203
96	0x3c973004	0.018455513
97	0x3cd8e426	0.026475977
98	0xbcffeb51	-0.031240137
99	0x3cce81e8	0.025208429
100	0xbdcb81d2	-0.09936871
101	0xbd676b82	-0.05649901
102	0xbd51fe4e	-0.051267914
103	0x3cb6f9f1	0.022335978
104	0x3b9e9058	0.0048389845
105	0xbd27d017	-0.040969934
106	0xbd2a1540	-0.04152417
107	0xbd8336e4	-0.06406954
108	0xbd359c68	-0.044338614
109	0x3cf58453	0.029970324
110	0xbe151c9f	-0.145617
111	0xbe2172ff	-0.15766524
112	0xbde3542a	-0.111000374
113	0x3d4dca48	0.05024174
114	0xbe515b4c	-0.20444983
115	0xbd41624e	-0.04721289
116	0x3c0383a8	0.008026995
117	0xbd9e01ef	-0.077152126
118	0x3dc6c728	0.09705955
119	0xbdf67626	-0.12034254
120	0x3d523ab5	0.05132552
121	0x3da0090f	0.07814228
122	0xbde1140a	-0.1099015
123	0xbd35fb84	-0.044429317
124	0xbe5bb250	-0.2145474
125	0xbdbc770b	-0.09202393
126	0xbd81eedb	-0.06344386
127	0xbde6c47f	-0.112679474
128	0xbdbb0b6c	-0.09133038
129	0x3cadd278	0.021218523
130	0xbe29e243	-0.16590218
131	0xbd86e171	-0.06585968
132	0xbd193275	-0.037401635
133	0x3d7713aa	0.060321487
134	0x3d887b32	0.06664123
135	0xbd7e1e48	-0.062040597
136	0xbe052098	-0.13000715
137	0xbe103239	-0.14081658
138	0xb50654a0	-5.0042036e-07
139	0xba2138b4	-0.0006150112
140	0xbd8d085c	-0.0688636
141	0x3d295086	0.04133656
142	0xbdd9f565	-0.106425084
143	0xbd8aee01	-0.06783677
144	0xbc173635	-0.009229233
145	0xbe043b5e	-0.12913272
146	0xbc15757a	-0.009122247
147	0x3b7bd36b	0.0038425575
148	0xbc48abdf	-0.0122480085
149	0xbdcc6289	-0.099797316
150	0xbde2c85b	-0.11073371
151	0xbdacb5b9	-0.08433098
152	0x3db7440e	0.08948527
153	0xbcfe85ea	-0.031069715
154	0xbd31c793	-0.04340322
155	0xbd040238	-0.03222868
156	0xbd15cb53	-0.03657086
157	0xbd13bc5e	-0.036068313
158	0xbbc2fe0b	-0.0059506944
159	0xbe0db35b	-0.1383795
160	0x3c5a888b	0.013338218
161	0xbd8462e6	-0.06464176
162	0x3d1d49e3	0.038400542
163	0x3d707af4	0.058711007
164	0xbe64632d	-0.22303458
165	0xbd8a34ca	-0.0674835
166	0xbdc4a844	-0.096024066
167	0xbbf51122	-0.007478849
168	0xbde1f599	-0.11033172
169	0x3dacaeaf	0.08431756
170	0x3dc0a17e	0.09405802
171	0x3cc3489e	0.023838338
172	0xbd3f548a	-0.046711482
173	0xbd5300a1	-0.05151427
174	0xbdd3a406	-0.10334019
175	0xbd8fbeb4	-0.070187956
176	0xbdbbd7ee	-0.09172045
177	0xbd403428	-0.04692474
178	0xbdf9310a	-0.121675566
179	0xbe0f6e24	-0.14006859
180	0xbdb38b90	-0.08766854
181	0xba34c4cd	-0.00068957807
182	0xbdbb34c2	-0.09140922
183	0xbdd80efb	-0.10549732
184	0x3df06c0c	0.11739358
185	0xbdee13ca	-0.11624868
186	0x3d87932b	0.06619867
187	0x3c857233	0.016289806
188	0xbd937a93	-0.072011136
189	0xbd093fb5	-0.03350802
190	0xbe2c51b1	-0.16828038
191	0xbdbc3822	-0.09190394
192	0xbe027de8	-0.12743342
193	0xbe0fd132	-0.14044645
194	0xbcc0f6f3	-0.023555255
195	0xbc4ae407	-0.0123834675
196	0xbe00d9aa	-0.12583032
197	0xbe1886dd	-0.14895196
198	0x3d13630e	0.035983138
199	0xbd4a0221	-0.049318437
200	0xbe26431a	-0.16236535
201	0xbe212bdb	-0.15739386
202	0xbe5e9838	-0.21737754
203	0xbbbd7d6f	-0.005782775
204	0x3d889aff	0.06670188
205	0xbda8ced6	-0.08242576
206	0xbe2f71e8	-0.17133296
207	0x3d9498ff	0.07255744
208	0xbe0daf51	-0.13836409
209	0xbd3bf7d4	-0.045890644
210	0x3d168294	0.036745623
211	0xbe574760	-0.21023321
212	0x3d1666f1	0.036719266
213	0xbb78ab72	-0.0037943986
214	0xbd0671ef	-0.0328235
215	0xbd9a6f56	-0.07540767
216	0xbe329e64	-0.17443234
217	0xbe0884fb	-0.13331978
218	0x3da6863c	0.08131072
219	0xbdafcf88	-0.08584505
220	0xbe8426aa	-0.25810748
221	0xbdd6cbf8	-0.10488123
222	0xbdcdb60f	-0.100444905
223	0xbcf427b2	-0.029804084
224	0x3c8fc242	0.017548684
225	0x3deea455	0.116524376
226	0x3e03b6b4	0.12862664
227	0xbdb2c724	-0.08729389
228	0xbdb1afe9	-0.0867613
229	0x3dbf0cfd	0.09328649
230	0x3c53f916	0.012937805
231	0xbd4be0d4	-0.04977496
232	0x3d8d6057	0.06903141
233	0xbd6644f0	-0.056218088
234	0xbe73422c	-0.23755711
235	0xbd99ca7e	-0.075093254
236	0x3c3e5a1b	0.0116181625
237	0xbd9383c9	-0.072028704
238	0x3a4a6eb7	0.0007722186
239	0x3d9836ad	0.074323036
240	0xbd6d47ec	-0.05792992
241	0xbe89780e	-0.26849407
242	0xbd99f1e7	-0.07516842
243	0xbe06a9f8	-0.13150775
244	0x3d08231c	0.033236608
245	0xbd5f11e9	-0.05446044
246	0xbd0caa28	-0.03434196
247	0xbe2a57b8	-0.16635025
248	0xbe02415a	-0.12720242
249	0x3c55aae5	0.013041233
250	0xbe06dcae	-0.1317012
251	0xbcb94048	-0.02261366
252	0xbd7dede9	-0.061994467
253	0xbd441b2b	-0.047877472
254	0xbd9a266f	-0.07526862
255	0x3cbcd90a	0.023052711
