Oversteek Simulator/Learning/results/Oversteek-K-01/GoodCar/GoodCar-449996.onnx (onnx, 90288 bytes, 6 tensors)

action_model._discrete_distribution.branches.0.bias f4 [3]
000000 c7 0a 1d bd 17 c5 6c 3d 15 c9 de b9
       -0.038340356 0.057805147 -0.00042492957

action_model._discrete_distribution.branches.0.weight f4 [3, 128]
000000 14 17 c9 3c 50 54 24 bd 42 0b 88 bd e9 b8 2d bd
       0.024547137 -0.04011947 -0.06642772 -0.042412672
000010 c4 f4 34 bc b0 fa 02 3d 46 78 6c 3c a6 85 09 3d
       -0.011044685 0.031977355 0.014432972 0.033574723
000020 d7 b5 89 3d 48 a7 80 bc 4d f8 df 3c 05 62 42 bd
       0.06724136 -0.015704766 0.027340079 -0.04745676
000030 35 47 f5 3c 1b fc a4 bc 99 ff ba 3c b6 22 dd 3b
       0.02994118 -0.020139745 0.022826957 0.0067485226
000040 a5 3d ca bc f5 c4 37 bc f3 96 92 3c ab 27 2d 3b
       -0.024687598 -0.011216392 0.017894244 0.002642135
000050 50 62 1c 3d 70 cf 39 bd 72 73 87 bc 90 29 06 bd
       0.038179696 -0.045363843 -0.01653454 -0.03275448
000060 81 3b 94 3d 69 59 e1 3c 77 54 85 3b b8 4f 04 bd
       0.07237912 0.027508454 0.004068907 -0.03230259
000070 fe 37 16 bd f9 87 29 bd 55 83 12 bd a7 c0 3b bd
       -0.036674492 -0.04138944 -0.03576978 -0.045838024
000080 3b a5 0b bd e9 ec 23 bd a3 24 aa bd 46 4c 03 bb
       -0.034093123 -0.040020857 -0.08307769 -0.0020034476
000090 35 95 13 3d b2 51 40 bd 43 5b be bc 03 52 88 bc
       0.036030967 -0.04695291 -0.023236876 -0.016640669
0000a0 9b 97 0b bd 4e da 0c 3d bc b1 00 3c b6 1a d7 3c
       -0.03408013 0.03438788 0.007854875 0.026257854
0000b0 0c d8 38 3b 26 72 5c 3d 80 27 74 bc 05 44 35 bc
       0.0028204946 0.053819798 -0.014901996 -0.01106358
0000c0 eb 3b d2 bc c0 3d 95 bc cc ce 26 bc 53 0c dc bc
       -0.025663337 -0.018217921 -0.01018114 -0.026861345
0000d0 9b 1b ca bc 3c 96 24 3d 37 38 88 bb 7e f6 ec bc
       -0.024671366 0.040182337 -0.004157092 -0.02892613
0000e0 aa 3a 05 bc c2 df c0 bc 67 bd bc bc 61 1e 05 bd
       -0.008131662 -0.023544196 -0.023039533 -0.032499675
0000f0 ef 9b 57 bc 15 f9 91 bc db ff 2b 3d e2 65 86 bc
       -0.013159736 -0.017818967 0.04199205 -0.016406003
000100 53 4b 40 3b 5b cc 0d bd 49 ce 19 3b 18 a9 05 3c
       0.0029341772 -0.034618717 0.0023468903 0.008157991
000110 7f 50 88 bc 4d 8d 24 3c 42 d5 19 bd 7c 4d 50 bd
       -0.016639946 0.010043454 -0.037556894 -0.050855145
000120 67 66 5b 3d 80 09 09 3d f5 88 56 3d 98 81 d3 bc
       0.053564455 0.033456326 0.052376706 -0.025818631
000130 c6 78 58 bd e6 2d 54 bd 82 c9 2e bd ae 23 27 bd
       -0.052849554 -0.051801585 -0.04267264 -0.04080551
000140 29 1a be bc c4 b7 d7 bc 29 cb 32 bd 9e 1d 39 3d
       -0.023205834 -0.026332743 -0.04365078 0.04519426
000150 8b d3 0f 3d 31 c4 cc bb 65 4f 2d bd 20 75 4c 3d
       0.035113852 -0.006248974 -0.042312045 0.049916387
000160 ab 36 03 bd 7f 4c 82 bc ff af 42 bd de 8e c7 bc
       -0.032034557 -0.015905617 -0.047531124 -0.024360117
000170 e9 bf 6c bd 85 33 07 bb 56 8b cf bb 90 16 33 bd
       -0.057800207 -0.0020630073 -0.006333749 -0.04372269
000180 02 19 59 bd 12 2c b9 bb 70 7c e0 bc a3 17 e7 bc
       -0.053002365 -0.0056510055 -0.027403086 -0.028209513
000190 a1 17 a9 bc ec 60 c7 bc c9 a6 d2 bc a8 33 74 bd
       -0.02064115 -0.024338208 -0.025714295 -0.059619576
0001a0 3c 5d d3 bc 94 f0 3f 3d a5 c4 84 3d f1 b6 f3 bc
       -0.025801294 0.046860293 0.064828195 -0.02975032
0001b0 bf 4e a1 3d 9d 36 73 3c 9a ba 91 bd 15 a4 4f 3c
       0.07876348 0.014844564 -0.071156695 0.012673398
0001c0 3a 45 07 ba d7 d6 7f bd 47 f4 24 bd ed 3c a7 3d
       -0.0005160157 -0.062460747 -0.040272024 0.081659175
0001d0 99 18 8a 3b 7c 22 0f bd dc bc 5f bd 2d cf df 3c
       0.004214358 -0.034944996 -0.05462347 0.027320469
0001e0 05 dc 1a bd 6d 11 a4 bc 37 a8 4f 3d 5c ca 29 3d
       -0.037807483 -0.02002784 0.05069753 0.04145275
0001f0 27 3a 7a 3d 09 43 66 3d 2a 9c 97 bc a1 42 c7 bc
       0.061090615 0.056216273 -0.018507082 -0.024323763
000200 5a cb 4d bd 7f d5 2d 3e 86 5e 54 3e a6 ce 4d 3d
       -0.05024276 0.16975974 0.20739183 0.050245903
000210 da a5 b3 3d a2 bd 1a 3d e1 4d 87 bc 81 b4 bd bc
       0.08771868 0.037778504 -0.016516628 -0.02315736
000220 87 0d 39 be 10 0a e7 3d 01 6b 27 be c4 f0 5f 3e
       -0.18071567 0.11281216 -0.16349413 0.21869189
000230 a0 ad 39 3d 44 a1 11 3e d1 e0 91 bc 8c 5e b3 3d
       0.045331597 0.14221674 -0.017807396 0.08758268
000240 9e cd da 3d 3c f6 f2 3d ea d3 f0 3c 34 6e e9 3c
       0.106837496 0.11863372 0.029397923 0.028494932
000250 4d e3 ce bd b5 12 18 3e a5 ea fb 3d 59 13 13 3e
       -0.10101948 0.14850886 0.12300614 0.1436285
000260 7a 80 18 be 90 23 aa bd 6d 85 08 bd a6 82 25 3e
       -0.1489276 -0.08307564 -0.03333037 0.1616312
000270 90 23 30 3e b0 74 e6 3d fb 33 5d 3e 5f e1 1c 3e
       0.17201066 0.11252725 0.2160186 0.15320347
000280 60 c9 26 3e 25 1a 3a 3e 05 ba 53 3e 74 e5 8d 3d
       0.16287756 0.18174036 0.2067643 0.0692853
000290 fb c2 c4 bd 0c 10 4f 3e d6 66 d8 3d fd fd 3d bc
       -0.09607502 0.20220965 0.105664894 -0.0115962
0002a0 fd 99 32 3e e7 0c 12 bd df 0c e5 3b 97 08 2b 3e
       0.17441554 -0.035656836 0.0069900597 0.16702496
0002b0 de b1 60 3c 94 47 56 3c d8 45 9c 3d 23 18 89 3d
       0.013714282 0.013078589 0.07630509 0.06694057
0002c0 5f 9b 30 3e 69 db d0 3d a8 08 0c 3e 5b 03 ef 3d
       0.1724677 0.10198099 0.13675177 0.11670562
0002d0 bf 30 10 3e 9d 2e 22 be 90 e3 b0 3d 39 65 39 3e
       0.14081095 -0.15838094 0.08637154 0.1810502
0002e0 b9 b9 bd 3d 48 1f e9 3d b9 b2 23 3e 85 9c 36 3e
       0.092639394 0.113829195 0.15986146 0.17833145
0002f0 c3 21 c8 3d c9 94 c5 3d 3a 6e 9d bd d3 09 ab 3d
       0.097720645 0.09647519 -0.0768704 0.08351483
000300 6f 73 d5 3d 22 2d 14 3e 39 15 f3 3d 0e ad 39 3d
       0.10422408 0.14470342 0.11869282 0.045331053
000310 59 ec d3 3c 0d 3b c7 3c 11 96 4c 3e 20 f8 53 3e
       0.025869535 0.02432015 0.19979121 0.20700121
000320 5c ce da bc ad e2 b3 bd 62 78 fb bd c4 5b 31 3e
       -0.026709728 -0.08783469 -0.122788206 0.17320162
000330 e6 b5 37 3e 7e 6e 2d 3e 7e 04 d0 3d 02 d1 05 3e
       0.17940482 0.1693668 0.10157107 0.13068011
000340 4f de f7 3d 87 c5 bf 3d cf bf 04 3e 41 47 f0 bc
       0.12102949 0.09363847 0.12963794 -0.029330852
000350 0b 83 39 bd dc 88 fd 3d c9 d9 33 3e af 46 94 bd
       -0.045290988 0.123796195 0.17563547 -0.07240044
000360 97 df 41 3e 5f 07 d8 3d 40 d4 4f 3e aa 73 3c 3e
       0.18932949 0.10548281 0.2029581 0.18403497
000370 1e 28 5c 3e 1f 8c 98 3d 24 18 9a 3d bd 97 63 3e
       0.21499678 0.07448601 0.07524136 0.22225852
000380 56 8d 56 3e 0a 1c e7 3c ea ed 14 3e 09 d1 89 3d
       0.20952353 0.028211612 0.14543882 0.067293234
000390 8e 42 ef 3d c5 b1 c2 3d 23 f1 46 3e e9 44 80 3e
       0.11682616 0.09506563 0.19427924 0.25052574
0003a0 27 b4 a4 3d 7a 02 cf bd 53 12 11 be f7 f5 17 3e
       0.08042174 -0.10107894 -0.14167146 0.14839922
0003b0 d1 da c7 bd f7 ac 16 3d 30 e5 62 3e 38 15 10 3c
       -0.09758533 0.036786046 0.2215774 0.008794121
0003c0 05 08 1a 3d 88 ad 63 3e 78 a1 1b 3e 3a 0b 01 bc
       0.037605304 0.22234166 0.15198314 -0.007876212
0003d0 54 a0 e1 3d 8f b1 27 3e c5 08 5e 3e be 72 70 bc
       0.11016908 0.16376327 0.21683033 -0.014675794
0003e0 bc e6 ef 3d 6a 68 98 3d 60 90 2f bd fa 0c 70 be
       0.11713931 0.074417904 -0.042862296 -0.2344245
0003f0 e4 8e 6b bd cf b3 f8 b9 0b 67 0a 3e 50 d7 d5 3d
       -0.057509318 -0.00047436214 0.1351587 0.10441458

network_body.linear_encoder.seq_layers.0.bias f4 [128]
000000 ad c6 4f bd 77 cc 8b 3d 60 99 a7 bd 23 da 07 be
       -0.05072658 0.06826108 -0.08183551 -0.13266806
000010 52 fc 78 bd 63 81 2b 3c 28 0a 9d bd 69 8a 80 bc
       -0.060787506 0.01046786 -0.07667953 -0.015691
000020 63 bc 84 3a 2a a6 16 bd f9 87 61 bd e0 d7 dc bc
       0.0010126944 -0.03677956 -0.055061314 -0.026958406
000030 75 15 e4 bd 70 d7 39 bd 7c 78 ba bd 7a 63 a2 bd
       -0.11136905 -0.045371473 -0.09105012 -0.0792913
000040 16 c2 2d 3e e8 df 5d bd f5 f2 d9 bb ba 26 0f bd
       0.16968569 -0.05416861 -0.006651277 -0.034949042
000050 bf 1d 53 be 3c 7b 9d bd 4e 64 96 bd 28 aa 8c bd
       -0.20616816 -0.07689521 -0.0734335 -0.06868392
000060 e2 77 81 bd 50 f5 75 bd e4 24 3b be e7 13 d9 bd
       -0.06321694 -0.0600484 -0.18275791 -0.10599499
000070 c4 bf c2 bd e4 37 96 bd fe 2e a5 bc 5c c2 28 be
       -0.09509233 -0.07334879 -0.02016401 -0.16480392
000080 c0 d3 9c 3c b8 fe 12 be 39 f6 42 3c fe b3 2b be
       0.019143939 -0.1435498 0.011899524 -0.1676788
000090 8a ca 13 be c6 b5 fc bb b1 cb 34 bd 63 ad 0b be
       -0.14432731 -0.007712099 -0.044139568 -0.1364036
0000a0 00 9a c8 bc e5 99 2c be 6d db c3 3d aa 33 70 3d
       -0.024487495 -0.16855581 0.095633365 0.05864302
0000b0 2a d5 e1 bc 44 fd 55 be 2d a4 05 be e6 3f 11 be
       -0.027567465 -0.20897394 -0.1305091 -0.14184532
0000c0 d1 b8 dc bd 16 f8 08 be 50 43 5c bd cf 94 08 3d
       -0.107774384 -0.13375887 -0.05377513 0.03334504
0000d0 4a 8b c2 bd 83 8f 77 bc 5a 2e 57 3d e9 3f a6 bd
       -0.094992235 -0.015109899 0.05253444 -0.08117659
0000e0 46 d3 4f bc 0f 28 09 ba aa 2b ff bd 3c 45 20 be
       -0.012684649 -0.00052321044 -0.124595 -0.15651411
0000f0 ed d6 4d bd 59 a9 b2 3d 2f 97 38 3d 4a de ea bd
       -0.050253797 0.08723707 0.045066055 -0.114681795
000100 5b 55 18 be f1 44 a0 bd a5 93 5b bd 16 f3 dc bd
       -0.1487631 -0.078256495 -0.0536076 -0.107885525
000110 0a bc a3 bc db 8a a0 bd c3 df c0 bc 64 b1 c2 bd
       -0.019987125 -0.078389846 -0.023544198 -0.09506491
000120 f8 e0 ad bb 28 e8 a3 bd 43 ae a0 3d c1 9b 8a 39
       -0.0053063594 -0.08003265 0.07845738 0.00026437457
000130 d6 e1 1d bd 93 e2 b3 bc c6 b7 a0 3d bb 82 05 be
       -0.038545452 -0.021958625 0.07847552 -0.13038151
000140 8a 3d 89 3d 11 23 46 be a7 8d 00 be ec d0 b9 bd
       0.06701191 -0.19349314 -0.12554036 -0.09073052
000150 f7 03 0a 3a ef 68 02 bd 8e b6 04 3e 64 15 87 bd
       0.0005264873 -0.031838354 0.12960264 -0.06595877
000160 93 d6 0c be 0b 8a c9 bc 82 18 49 be fb e0 40 be
       -0.13753729 -0.024601957 -0.19638255 -0.18835823
000170 dd e0 12 be f5 29 ad 3c 45 77 54 be 0c eb a6 3d
       -0.14343591 0.02113817 -0.20748623 0.081503004
000180 2e f3 23 be b0 28 0f be 89 4c 13 3d 09 ba b7 bd
       -0.16010734 -0.13980365 0.03596166 -0.0897103
000190 ad f4 c7 bd a9 ce a1 bd b1 c0 8b bd 0b 21 2e bd
       -0.09763465 -0.079007454 -0.06823862 -0.04251198
0001a0 f9 df e3 bd 70 72 bf bd 13 1e 1b bd 59 bd 8a bc
       -0.11126704 -0.09347999 -0.037870478 -0.016935991
0001b0 10 df 09 bd 82 47 5a bd 05 7f 72 3d 3f 7a ad 3c
       -0.033659995 -0.05329085 0.059203167 0.021176456
0001c0 67 d1 e1 3d 5e 4d 00 be 1b 5c a8 3d 95 3d b3 bd
       0.110262685 -0.12529513 0.08220693 -0.0875198
0001d0 4e ba 09 be e2 3c 71 bd a0 44 1b bc e1 f0 25 3d
       -0.13449976 -0.058895953 -0.009476811 0.040512923
0001e0 e0 e9 99 3d 81 6d d0 bd 91 6b 3d bd 6b 2b 4e 3d
       0.07515311 -0.10177136 -0.04624516 0.050334375
0001f0 b0 8c 5f bb 77 c5 59 3c e2 8a a0 bd 81 c3 1a be
       -0.0034110956 0.013291708 -0.0783899 -0.15113641

network_body.linear_encoder.seq_layers.0.weight f4 [128, 39]
000000 79 3b 9f 3d f9 18 93 be fd a1 6d 3e d2 18 c2 3c
       0.077750154 -0.2872999 0.23206325 0.023693476
000010 41 aa 0b 3e 35 1c 6b bc 94 d0 93 be d4 40 f7 3b
       0.13639165 -0.014349987 -0.2887007 0.00754557
000020 b0 7c ea bb 14 84 88 3e d8 ef 17 bd 01 fe c7 be
       -0.007155977 0.26663268 -0.037093967 -0.39060977
000030 a4 02 5a 3e c3 12 75 3e 4a ad b1 3d 97 92 7f 3d
       0.2129007 0.23932938 0.086756304 0.06239566
000040 98 df 65 bd 72 7a 00 be e8 22 b4 bd 9e b6 68 be
       -0.05612144 -0.12546709 -0.0879572 -0.22725913
000050 1a 2e 35 3e 9d 8d 0b 3e a6 1d 3f be 02 0d 83 3d
       0.17693368 0.1362824 -0.18663654 0.063989654
000060 8f bb 8d bd 62 02 38 3d f8 86 85 be 4d c4 77 be
       -0.069205396 0.044924147 -0.26079535 -0.24195977
000070 75 3a b9 3d f8 1d 9c bd b0 c5 26 be 2a 95 a8 bd
       0.09044353 -0.076229036 -0.1628635 -0.08231576
000080 7a b1 28 be 79 78 ac bc d9 96 de be e0 d6 e0 3d
       -0.16473952 -0.02105354 -0.43474463 0.10978484
000090 3e 64 99 3d e3 72 a8 bd be cc 11 be 5b 7f 18 3d
       0.07489823 -0.08225038 -0.14238259 0.03723083
0000a0 cc eb 20 3e 5c 3d 16 be bd b5 09 3d 09 d6 91 3d
       0.1571495 -0.14671844 0.033620585 0.07120902
0000b0 bf cf ec bd b1 6b 11 bb 94 51 9c 3c 09 5d 6e be
       -0.11563062 -0.0022189433 0.019081868 -0.23277678
0000c0 49 ea 4e 3d c7 04 85 bd b0 5b 5e 3e 37 af 81 3c
       0.0505164 -0.06495052 0.21714664 0.01583062
0000d0 4d cc 74 3d 98 b9 84 bc 35 3b c5 3e a6 97 80 3e
       0.05976515 -0.01620178 0.38521734 0.251157
0000e0 6f 32 6d be 6a 4e 35 3d c9 d3 1c bd 51 d4 92 bd
       -0.2316377 0.044264235 -0.03828791 -0.071694024
0000f0 38 f0 b2 3c 8f 8e 6e 3d 8f ba d5 3b 77 da 71 3d
       0.02184306 0.058241423 0.0065224837 0.059046235
000100 fc 66 9e 3d 3b b2 36 bc cc 10 0d 3d f5 ed e0 3d
       0.077344865 -0.011150892 0.034439847 0.10982887
000110 31 19 97 3e aa f8 0f be 46 9a 76 3d b8 f5 83 be
       0.29511407 -0.14059702 0.06020572 -0.25773406
000120 e3 d9 8d 3e cf 50 74 3e 0c 91 2e 3c 61 4c 2b bd
       0.27705297 0.23858951 0.010654699 -0.041820887
000130 54 87 9d be 32 3d 99 3d 01 81 6a bd ea 83 27 be
       -0.3076731 0.07482375 -0.057251934 -0.16358915
000140 48 7d d1 3d 59 1f ba 3d 5f 3c b1 be 4a df a0 3d
       0.102289736 0.0908801 -0.34616372 0.07855089
000150 28 1f f7 3e 7b 5b 9f bc b2 07 7c 3c 43 46 fb bd
       0.48265958 -0.019452801 0.015382694 -0.12269261
000160 21 7e 12 be 03 bd e6 3d 6d b1 b0 3c 0e c0 41 3e
       -0.14305927 0.1126652 0.021568978 0.1892092
000170 1d 2e a1 be df d2 a3 3d 58 5a ff 3d 31 4f 91 3d
       -0.31480494 0.07999205 0.124684036 0.07095183
000180 fd 61 47 bc a4 fd 1b bd be af e6 bd a5 b3 98 3e
       -0.012169358 -0.038083687 -0.11263989 0.29824558
000190 b9 1f b5 3c 7b 7e 8c be b0 70 df be c9 11 9c be
       0.022109853 -0.27440247 -0.4364066 -0.3048232
0001a0 b0 3c 16 3d b1 ed 37 3e 36 5e ef bd f7 aa 1e bd
       0.03667897 0.17961766 -0.11687891 -0.038737264
0001b0 c5 17 d7 bd 3e 13 8d 3e f4 3f 33 bd ad 6d c9 bd
       -0.105025806 0.27553743 -0.043762162 -0.09835372
0001c0 6e b7 d3 bd af d6 27 3d b7 03 11 be c0 17 be bd
       -0.10337721 0.040976223 -0.14161573 -0.09281874
0001d0 b6 c0 d4 3e da b9 ca bd a5 99 c1 be 21 80 c3 3d
       0.41553277 -0.098987296 -0.37812534 0.09545923
0001e0 1f 44 00 be ef 02 9f be 71 4c 82 3e 87 01 40 be
       -0.12525986 -0.31056926 0.25448945 -0.18750583
0001f0 72 48 bc 3e a7 ef c0 bd 89 e8 fd bd a2 57 21 be
       0.3677402 -0.0942071 -0.12397868 -0.15756086
000200 1a a0 96 be 31 e2 91 3e 69 d4 f1 3d c4 9e 16 be
       -0.29419023 0.28492883 0.11808092 -0.14709002
000210 0f ac 3a 3e 3c 73 d0 bd 3e 03 a7 be a0 8d fc 3d
       0.18229698 -0.10178229 -0.3261966 0.123317
000220 6a 50 d9 3e da 6d 54 bd db 40 18 3e fb 66 0e bd
       0.42444164 -0.051862575 0.1486849 -0.03476618
000230 49 0c 73 be 41 95 ec 3c c5 eb d4 bc 1b 0a 4b be
       -0.23735155 0.028879764 -0.02599133 -0.19828074
000240 d1 12 29 be ad e0 58 3e 70 0e 5b be 9b 31 d5 bd
       -0.16511084 0.21179457 -0.21392226 -0.10409852
000250 77 6e 16 3e 37 87 e4 3b 46 ee 60 3d fb 64 d6 be
       0.14690576 0.0069741267 0.054914735 -0.41873917
000260 c6 6f 74 bd 11 2d 50 3e 72 5c a1 3d ef 0e c4 bd
       -0.059676908 0.20329691 0.07878961 -0.09573161
000270 11 0e b4 3d b9 ae 0f 3e 50 87 9e bd 4b a0 28 3e
       0.087917455 0.14031495 -0.077406526 0.16467397
000280 24 a5 7e be 75 dd 35 3e c2 b3 31 be 47 b5 cb 3d
       -0.24867684 0.1776026 -0.17353728 0.09946685
000290 f0 87 23 3d 0d d0 dd 3d a6 74 ef bd 86 21 89 bd
       0.039924562 0.10830698 -0.11692171 -0.06695847
0002a0 b4 8b 9c 3d 81 92 8b be 0e b8 ab bd 97 af d4 3d
       0.07643834 -0.2726021 -0.08384715 0.103850536
0002b0 45 46 e9 3d 15 28 bf be bd 99 63 be 3a 86 91 3d
       0.11390356 -0.37335268 -0.22226615 0.0710568
0002c0 1d 87 6c be 11 02 2a 3a e5 de 79 3e 99 15 40 be
       -0.23098417 0.0006485293 0.24401434 -0.18758239
0002d0 f7 8b 0c 3c 82 1f 2b 3d e0 40 b4 be 2a 33 23 3d
       0.008578292 0.041778095 -0.35205746 0.039843716
0002e0 c7 9d e5 3c bb e8 25 3e e5 9e 72 3d 9b a5 c1 3d
       0.028029336 0.16202061 0.059233565 0.09455415
0002f0 6e 87 17 bc 05 7a 89 bd d4 27 52 be cb 62 2f bd
       -0.009248598 -0.067127265 -0.20523006 -0.042818826
000300 24 39 02 3e 47 e1 08 3e c8 f7 2c 3d 1d b2 31 be
       0.1271711 0.13367186 0.04222849 -0.17353101
000310 31 89 23 bd 9a ee 3a 3e 55 3b 97 be 8f 5c 2d be
       -0.039925758 0.18255082 -0.29537454 -0.1692984
000320 b7 a4 35 bd 44 77 b7 3d 32 10 77 3d 3a f0 1d 3d
       -0.044346537 0.08958295 0.06031818 0.038559176
000330 06 46 cb 3d d4 18 8c 3a 20 01 b9 bc cc 82 e5 bd
       0.09925465 0.0010688552 -0.022583544 -0.11206588
000340 bc 94 0e be 72 51 a4 bd cc c7 9b 3d 1b 64 6e 3e
       -0.13923925 -0.08023347 0.076064676 0.23280375
000350 e6 ac 11 3e 39 43 ed bd 26 39 f8 bc a1 56 62 3c
       0.14226112 -0.11585087 -0.030300688 0.013814599
000360 36 12 6a be 38 df 65 bd 54 b8 91 3d 2c 82 b2 3d
       -0.2285851 -0.05612108 0.07115236 0.087162346
000370 c4 5d 0d 3e 0f 13 66 3d 96 8d ec 3d 1f 9b dc 3d
       0.138053 0.05617052 0.11550443 0.107717745
000380 c2 09 0f bb 9a f7 95 3e a9 c1 de 3d df 63 fd 3d
       -0.0021825884 0.29290468 0.108767815 0.123725645
000390 a6 4c 5f 3e 51 40 2e 3e e9 c1 59 bd 9b 65 08 bc
       0.21806583 0.17016722 -0.053163443 -0.008325006
0003a0 c2 ff a3 bd d3 2a 38 3e d5 04 a5 3d 04 35 13 bf
       -0.08007766 0.17985086 0.08057562 -0.5750277
0003b0 4d b3 71 be 6d f3 3e 3e 73 6b 17 be 50 78 50 bd
       -0.23603554 0.18647547 -0.14787082 -0.05089599
0003c0 aa bc 8e 3d 52 22 7c 3e 9a 3f 81 3e b9 a4 9f bd
       0.069695786 0.24622467 0.25243837 -0.0779509
0003d0 8a b6 76 be 79 02 a6 3e 0f 49 61 bd cc e6 d6 bd
       -0.2409307 0.3242376 -0.055001315 -0.1049324
0003e0 3c 17 1a be 48 29 72 3c 43 18 d4 bc d6 d0 2a 3e
       -0.15047926 0.01478035 -0.025890475 0.16681227
0003f0 64 92 34 3d 24 0f db be 1a 92 e5 3d e7 53 29 be
       0.04408492 -0.4278499 0.11209507 -0.16535912

network_body.linear_encoder.seq_layers.2.bias f4 [128]
000000 c0 00 51 bd 2b 35 6d bd a4 16 ac bd 3d 8c f8 bc
       -0.051026106 -0.057912033 -0.08402756 -0.030340308
000010 21 b6 42 3c f9 5c 47 bb af 52 69 bc b5 2e 56 3c
       0.011884243 -0.0030420406 -0.014240905 0.013072659
000020 85 94 78 3d f5 98 0c be f8 02 e1 3d 10 54 9d bd
       0.060688514 -0.13730223 0.10986894 -0.07682049
000030 b7 4e 3e bd e0 21 c8 bc 32 88 34 bc 40 f2 61 bd
       -0.046461787 -0.024430215 -0.0110188 -0.05516267
000040 7c 66 4b 3d 70 ee 95 bd 83 52 19 be 9d f0 6a bc
       0.049658284 -0.07320869 -0.14972882 -0.014339593
000050 c4 ed 00 3e b5 33 e4 bd 7c d2 d7 bd 7a 94 6a bd
       0.125907 -0.11142675 -0.105381936 -0.057270505
000060 f9 59 73 3d 4c 61 97 3d 27 f7 21 bd ba 0c df bc
       0.059411976 0.07391605 -0.039542343 -0.027227748
000070 5f 7d 04 bd ef 2d c8 bd 9e 10 10 bd b4 c5 6d bd
       -0.032346126 -0.09774386 -0.035172097 -0.058049873
000080 f7 6c 06 bd 20 24 6c bd 46 81 99 bd 9d 22 04 bd
       -0.03281876 -0.05765164 -0.0749536 -0.032259572
000090 87 65 8e bc 99 9d 45 bd 0c b8 92 bd 3f 36 43 be
       -0.017382396 -0.048246 -0.071640104 -0.19063662
0000a0 c4 27 66 bd 33 f9 49 bd d3 7c a6 bc c8 87 9d 3c
       -0.056190267 -0.04930992 -0.020323193 0.019229785
0000b0 e2 d5 32 be 11 96 66 bd 6e 5c 93 bd 4f fa db bd
       -0.17464402 -0.05629546 -0.07195364 -0.10741102
0000c0 75 92 88 bd 94 4a 5c bd 7a d6 6a 3d 80 31 c8 bd
       -0.066685595 -0.05378206 0.057333447 -0.097750664
0000d0 bc 01 8f bd e8 5e cc 3d 56 90 6f bd a7 1e c9 bd
       -0.06982753 0.099790394 -0.05848726 -0.098202996
0000e0 43 2d 94 3c 8c 2d 89 bd a6 5a 9a bd 65 eb 26 bd
       0.018087989 -0.066981405 -0.07536821 -0.040751833
0000f0 a4 45 d9 bc 50 90 f8 bc 32 f8 37 3e d8 77 9f bd
       -0.026522465 -0.030342251 0.17965773 -0.0778653
000100 7b 1f 68 bc df df 84 bd a1 73 4b bd c1 f0 d9 3c
       -0.014167662 -0.064880125 -0.04967082 0.026604058
000110 c4 11 64 3c d4 58 f9 bd a1 6c 99 bc a1 49 8e bc
       0.013920251 -0.12175146 -0.018728556 -0.017369093
000120 a9 3b 30 bd a8 be cd bd 77 f6 e2 bc a0 f4 0c bc
       -0.043025646 -0.100461304 -0.027705414 -0.008603245
000130 9d 3d 08 bd a4 e1 5c bd 5a 24 da bd 80 ec 7b bd
       -0.033261884 -0.053926125 -0.10651465 -0.06150484
000140 60 e2 2e bd 36 75 72 bd f1 c6 7d bc 63 24 b1 bc
       -0.042696357 -0.059193812 -0.015489326 -0.021623796
000150 d6 a2 63 bd ac 8f 2f bd 99 f1 8e bd a5 61 19 bd
       -0.055575214 -0.042861626 -0.06979675 -0.037446637
000160 b6 27 89 bd 86 83 e0 bc 22 37 7a bd 23 a5 85 bd
       -0.066970274 -0.027406465 -0.061087735 -0.06525638
000170 25 70 dd bc 99 d3 04 be 43 57 54 bd c0 4e 54 bd
       -0.027031014 -0.12971343 -0.05184103 -0.051832914
000180 c8 9c f0 bc 95 8a 90 bd ef 65 3d bd 8c 99 9a bd
       -0.029371634 -0.070576824 -0.04623979 -0.07548818
000190 a6 1e 8b bd ed 6a 74 bd 74 82 9e bd 1e a5 70 bd
       -0.06792955 -0.059672285 -0.07739726 -0.058751218
0001a0 cc 35 c6 bd 93 cb a5 3d c2 34 9b 3c da 29 69 bd
       -0.0967823 0.08095469 0.018946055 -0.05692468
0001b0 ca b4 11 3d dd f7 96 3c 32 44 e5 bd 15 26 d8 bc
       0.035572805 0.018428737 -0.11194648 -0.026385346
0001c0 c3 67 cb bd ab 29 d1 bc fc 95 e3 bc 12 1a 33 bd
       -0.099319 -0.025532564 -0.027781479 -0.043726034
0001d0 f3 18 3b bd 69 39 01 bd fc 0e a4 bd 3e 2a 33 bd
       -0.04567809 -0.03154889 -0.080106705 -0.043741457
0001e0 0e d7 6a bd 73 a2 87 bd 61 2f 23 bb f4 42 86 3d
       -0.057334 -0.066227816 -0.0024900066 0.06555739
0001f0 ab c5 d9 bc e5 ac dd 3c 9d fc fd bc 42 dc a0 bd
       -0.026583513 0.027059982 -0.031004244 -0.07854511

network_body.linear_encoder.seq_layers.2.weight f4 [128, 128]
000000 ed 8e 2f bc e7 ca 33 be a8 8e 73 bd f0 25 20 3d
       -0.0107152285 -0.1755787 -0.05946222 0.03909868
000010 18 5e 80 be e9 4e e7 bd cd 1c ce 3d 35 eb 74 bd
       -0.25071788 -0.11294348 0.10064087 -0.059794623
000020 55 b4 ae 3d 30 9c f8 bd 60 72 59 3d d4 cd c4 bd
       0.08530489 -0.121391654 0.053087592 -0.09609571
000030 43 1f 17 bd 22 51 49 bc a1 3f 1a 3e ff c0 d6 bd
       -0.036895048 -0.01228741 0.15063335 -0.1048603
000040 20 58 c8 3c 98 bd a7 bd ba 0d 17 bd ea e1 81 be
       0.024456084 -0.08190459 -0.036878325 -0.2536767
000050 e9 8b 25 3c ed 16 81 3b 95 f4 d5 bc b3 60 5f bd
       0.010104158 0.0039395005 -0.026117602 -0.05453558
000060 bb 79 b4 bb 27 b1 a6 bd dd a2 31 3e 36 2d 8f 3d
       -0.0055076755 -0.08139258 0.17347284 0.06991045
000070 fa b2 2e 3e ee 03 93 3c 3e 43 e5 bd fc 04 2d 3d
       0.17060462 0.01794621 -0.11194466 0.04224108
000080 a5 b0 7a be b1 00 06 be a3 f2 6e be dc e3 9f bc
       -0.24481447 -0.13086201 -0.23334746 -0.019517832
000090 da 67 48 bd 28 86 07 3e 3a ba 05 be b4 29 16 bd
       -0.048927166 0.1323477 -0.13059321 -0.036660865
0000a0 42 51 3d 3d 44 fe aa 3d 57 b0 2c be 87 6c 0c be
       0.04622007 0.083492786 -0.16864143 -0.13713275
0000b0 d7 43 01 3d da d0 a3 bc 0b 51 46 3d 36 dd b9 3d
       0.031558838 -0.01999705 0.048417132 0.09075396
0000c0 6c 1e 50 be 9c 1a ab 3a d1 11 0f bd d1 b5 3e be
       -0.20324105 0.0013054195 -0.0349291 -0.18624045
0000d0 1b 72 19 3c aa 53 55 bc cf f4 6f 3d 3e 41 83 3c
       0.009365584 -0.013020435 0.058583077 0.01602232
0000e0 f0 5e 44 be 04 b6 2f bd d0 70 09 bc cd b6 95 3b
       -0.19176841 -0.042898193 -0.008388713 0.0045689107
0000f0 81 19 35 be ff e9 43 bd 15 e6 c1 3d 92 28 99 bd
       -0.1768551 -0.047830578 0.09467713 -0.07478441
000100 c6 f3 f1 bc 75 f0 1a be 94 98 8e bb f9 6c d9 3c
       -0.029535186 -0.1513079 -0.004351685 0.02654122
000110 3e 20 54 be d9 4a ec bd 1a d7 db 3c 74 50 f6 3d
       -0.20715424 -0.115377136 0.026835967 0.12027064
000120 13 7e ff ba 11 93 c1 bd 59 c4 27 bd 43 3b 3c bd
       -0.0019492529 -0.09451879 -0.040958736 -0.045954954
000130 1e c3 6b be bb ed cc bc 86 34 5d bd ac b4 e4 bd
       -0.2302365 -0.025015702 -0.05400517 -0.11167273
000140 24 88 44 bd 87 08 5f 3d ff 13 af 3d 23 38 5d 3d
       -0.047981396 0.05445149 0.08548736 0.054008614
000150 fa 34 5c bd 89 29 99 3d 17 67 9f be 3f 5b 52 bd
       -0.05376146 0.07478625 -0.3113334 -0.05135655
000160 41 a7 de 3d d0 4d 1d be ba 29 82 bd e2 b4 60 3d
       0.10871745 -0.15361714 -0.06355615 0.054860003
000170 62 50 88 bd 2e 3f b3 bd fb a6 96 bd 27 83 ae bd
       -0.06655957 -0.08752285 -0.07356068 -0.08521109
000180 25 36 93 bc b9 85 94 3b bd ff 11 bd 30 3a f8 3b
       -0.017970154 0.0045325425 -0.03564428 0.007575296
000190 bc 56 cf bd 8c b0 2d bd b5 32 4f bd 21 90 58 ba
       -0.10123965 -0.042404696 -0.050585467 -0.0008261223
0001a0 00 aa 9f bc f2 8d 9c bd 7d 38 1d bd de 26 2d bd
       -0.019490242 -0.076442614 -0.03838395 -0.042273395
0001b0 7e f8 06 bd b1 7c 2a 3d 82 8b 11 be 2f 8d 27 be
       -0.032951824 0.04162282 -0.14213374 -0.16362451
0001c0 78 eb f5 bd bb 8f 94 3d 8f 6c 51 be 9a 13 5d bd
       -0.12007803 0.07253977 -0.20451568 -0.05397377
0001d0 17 41 b1 bc 9e b6 d0 bd d5 34 10 3d 4e 92 06 be
       -0.021637483 -0.101910815 0.035206635 -0.13141748
0001e0 35 11 44 3d 2e cb 3f 3c 8b e3 28 be 8d de 65 bd
       0.047867972 0.011706157 -0.16493051 -0.056120444
0001f0 33 89 85 be c6 5a e1 bd a1 26 0c be 9a d1 e9 bd
       -0.26081237 -0.11003642 -0.13686611 -0.114169315
000200 31 de b5 bd b2 bb 1e 3d c3 01 20 be f9 35 8e bd
       -0.0888027 0.03875322 -0.15625672 -0.06943888
000210 24 9c 09 bd 14 d3 96 3d 67 b1 b2 3d a7 cf 79 bd
       -0.033596173 0.07364479 0.08725243 -0.06098905
000220 d6 a6 fd bd af 6e 1b be a1 f3 52 3c e9 8c d5 3c
       -0.12385337 -0.15178941 0.0128754685 0.026068168
000230 13 4c 82 bd cc 16 58 3d 62 57 b1 bd f0 cb 91 bd
       -0.06362166 0.052756116 -0.08659245 -0.07118976
000240 b0 49 16 3b 8f 94 ea bd ee 01 cc bc 27 b0 ac 3c
       0.0022932105 -0.114541166 -0.024903264 0.02108009
000250 4e ce 46 3b 91 ab cd bd 0a e1 09 be b1 b6 ae bd
       0.003033537 -0.10042489 -0.13464752 -0.08530939
000260 c6 b3 e2 3d 16 4a ed bc 54 27 0d bd 4c cf e0 bc
       0.11069445 -0.028965991 -0.034461334 -0.027442597
000270 50 aa 1a bd 98 a1 73 bd 4b 6a 0d bc 4b bb fd bd
       -0.03776008 -0.05948028 -0.008631299 -0.12389239
000280 5f 4e d1 3c 91 4a 5c bd bc 62 46 3d 9e a9 91 3d
       0.025550066 -0.05378205 0.048434004 0.0711243
000290 80 1e 60 be 9a e3 a6 bd 77 d3 b5 bd 96 b9 60 bb
       -0.21886635 -0.0814888 -0.08878224 -0.0034290305
0002a0 bd 4a ea bd e1 5f d6 3d 8a 47 dc 3d 58 5f f9 3c
       -0.114400364 0.10467506 0.107558325 0.030440971
0002b0 32 bb 34 bd 71 44 2b bd c2 aa b2 bd 17 e4 8f bd
       -0.044123836 -0.041813318 -0.08723976 -0.070259266
0002c0 38 2f 96 bd a0 e3 0d bd c1 50 fb bd 41 c5 07 be
       -0.07333225 -0.03464091 -0.12271262 -0.1325884
0002d0 d8 ce c2 bd 47 28 0e 3c cd 17 aa bd de ac e2 bd
       -0.095121086 0.008676595 -0.08305321 -0.11068128
0002e0 71 f4 08 3e 62 b0 e2 bd 36 45 79 3d 13 f7 24 3d
       0.13374497 -0.110687986 0.06085702 0.04027469
0002f0 ae 04 85 bd 4d 1c da bc 9c 6a 30 be fe 58 aa bd
       -0.06495033 -0.026624823 -0.17228168 -0.08317755
000300 68 bb 06 be cc d9 0c be 94 81 28 bc 5b 50 40 bb
       -0.13157427 -0.13754958 -0.0102848 -0.002934477
000310 f1 44 01 be fe e9 1a be ea 26 2b 3d e5 e5 d3 bc
       -0.12623955 -0.15128323 0.04178516 -0.025866458
000320 5b 9b 13 be 72 e6 2b be cd 3e 4f be 88 21 48 bb
       -0.14414732 -0.16787127 -0.202388 -0.0030537564
000330 fa 1d 9c 3d b7 82 87 bd 51 4f 26 be d3 5d bb 3d
       0.07622905 -0.06616729 -0.16241194 0.09148755
000340 81 37 08 be a0 9b 54 bd 55 eb 0b 3d 19 d2 47 be
       -0.13302423 -0.051906228 0.034159977 -0.1951374
000350 80 ac 1d 3d c5 37 32 bb 57 6c 80 bc d1 79 8f bd
       0.038494587 -0.0027193886 -0.01567666 -0.070056565
000360 9b bd 18 be 73 bd f5 bd cb 5d e6 3d 15 11 93 bd
       -0.14916079 -0.11999025 0.11248358 -0.071809925
000370 e8 ae 78 be a7 16 d1 bd 73 c3 cc bd 9a cd 81 bc
       -0.24285471 -0.10209399 -0.099982165 -0.015845109
000380 96 e5 d8 3c 48 17 c3 3d 96 7c 15 3e 4a d4 98 bd
       0.026476663 0.09525925 0.14598307 -0.07462366
000390 0a d8 b5 bd 9e 22 d1 3d 91 bc 41 3c 83 03 86 bd
       -0.08879097 0.10211681 0.011824743 -0.065436386
0003a0 d9 5d 1a 3d 01 64 8f bd 3f f1 6b be e9 fe 78 bd
       0.037687156 -0.07001496 -0.23041247 -0.060789976
0003b0 9e 94 92 3c 13 7a 83 bd 59 b4 94 3c cc c9 c2 3d
       0.017893132 -0.06419768 0.018152403 0.09511146
0003c0 fd 3f 32 bd 69 53 7e be a4 22 69 bd d0 26 05 be
       -0.043518055 -0.24836506 -0.0569178 -0.13003087
0003d0 48 a3 0b 3d d1 b7 5f bd c9 9f c5 bc 39 a7 1e be
       0.034091264 -0.05461866 -0.024124043 -0.15493478
0003e0 77 a7 f3 bd 62 7b 65 3c 13 ab d1 bd 01 09 8c bc
       -0.11897176 0.014006468 -0.10237708 -0.017094137
0003f0 6e 89 13 bd ff 57 68 bd 62 b9 9e bd f9 f0 1a 3d
       -0.036019735 -0.056724545 -0.07750203 0.037827466
