Oversteek Simulator/Learning/results/Oversteek-K-02/GoodCar/GoodCar-949994.onnx (onnx, 90288 bytes, 6 tensors)

action_model._discrete_distribution.branches.0.bias f4 [3]
00000000: 63b8 3abe 95ea 9e3e 5830 25be
-0.182344 0.31038347 -0.16131723

action_model._discrete_distribution.branches.0.weight f4 [3, 128]
00000000: 14dc e0bc 673f 94bc 778d 703d 77f8 463d
00000010: 6c65 9dbc b471 403d 0537 073e 780c aabc
00000020: 02a2 c03c e443 1d3e f0d4 fb3d 8a0e 2e3d
00000030: 8ca9 a5bd 9e7f ec3d 3f65 aa3c d065 973d
00000040: 60e4 0c3d 9d58 093e 4bd6 f03d af18 fd3b
00000050: ffc2 513d 6838 853d 7a95 b13d 4ffd 153e
00000060: e8b2 423e 0c17 1dbd ae01 0d3d 2552 f9bb
00000070: 18d9 883d b5c1 99bc 665c 9fbd 40f2 193c
00000080: d70e 133c 4b81 393d c2e1 313d ca39 163d
00000090: bdf4 0a3c dea8 733c 9553 a43c 1651 8d3c
000000a0: 55ab 3dbc 47bd 6bbc d2c9 903d 7a32 2ebd
000000b0: 3844 bebd 5f76 8cbe 71d8 0e3a 6505 c0bc
000000c0: c6f9 0d3e 46b7 783c 194e 32bc d6b3 d63c
000000d0: 9b99 32bd 4dee 78bc e11d a2bc 8f87 c33b
000000e0: abb8 8dbc 055a fe3c 6490 f83c 84f8 36bb
000000f0: eccf 0e3d 1861 173d de26 f73d e461 ba3b
00000100: c35a 953c 8085 193d e1a0 6e3d d99b 5c3e
00000110: 53b9 833d 9a32 2a3d d297 6dbc 0be0 933c
00000120: b2b7 c93c a9e4 4c3d 6291 2e3d 7526 333d
00000130: 20e2 323e b7c8 e0bb 5e62 b83c 70d1 c6bd
00000140: 01c6 6a3b fdcb 313d 7451 e63c 10a9 c13c
00000150: c114 93bd a629 7b3d 1f92 633c c92f df3c
00000160: 36e8 2e3c f8d6 b93d 0b49 b8bc a611 483d
00000170: 8a14 a4bd f5c0 993d 25a4 f5bd ffca 13be
00000180: 9424 033d feb2 ad3d 3541 5abd 9f13 903d
00000190: c3dc 6b3c d93a 643c e0cc 883d 3251 333d
000001a0: dfff 62ba 41b3 c13c 30db a13d 3c99 0e3e
000001b0: 9c86 8b3a 5d9d b63d c58b 74bc cd3b eabc
000001c0: ade4 cb3d b68f 183d 52eb 563b b10b bf3c
000001d0: 37c6 df3b e830 033d 505f 9f3c 2153 13b8
000001e0: 6ceb b2bc 2283 8d3d 3a11 27be 51d7 5abd
000001f0: 1185 303e ef9d 5b3d 3923 843d c5cf 9f3a
00000200: e6be 95bc ec55 31bc 13c3 04be 8989 b9bb
00000210: 0dde 38bd 5c50 1c3d 4648 febd 1b5a 943c
00000220: 9877 00be 8c3d c0bd 7d91 913d 5402 043b
00000230: 3602 89bd fc53 2abd 0283 f03c bd36 343c
00000240: 0f73 66bd 073e ef3c 54b4 23bc 95f3 3d3d
00000250: 28d0 e63c cea4 443d 93c6 a2bd 6030 e3bd
00000260: cce4 04be 9c95 22bd 37d0 8abd 659d 5dbb
00000270: b6b0 c0bd 71a2 adbc 3ad9 05be a955 ab3c
00000280: 944b 85ba 2184 f83c c210 333d 1682 d6bd
00000290: b482 5dbd ba85 bb3c 411e 9abd 6dfc 373d
000002a0: 581b 03bd a207 47bc df04 57bd 2fbf 26bd
000002b0: 8125 f8bc 7627 66bc f892 28ba d8d3 86bb
000002c0: ed86 603d 7e2d f9bb 8740 97ba 0cf0 e3bd
000002d0: dd37 d5bd 902b 6c3b 583e eabc b4f9 8fbd
000002e0: 4f09 5cbd 4445 9bbc 5f1b 8bbd db5c 903a
000002f0: 4e21 67bc 3e85 5dbd 84a6 46bd 6c94 2abd
00000300: 01cf 143d 3ead 13be 35f7 dbbc 7a33 23bc
00000310: baba 1fbe 631a ebbd 3e2c 53bd 7272 063d
00000320: 96a8 bd3c f298 24bb c338 dd3c 4217 343c
00000330: f7d6 763d c028 16bd 97b9 673c c661 f9bd
00000340: d702 ce3a 5aa8 fabd 4982 c73c ab3b 0c3d
00000350: e37d eabd 5471 53bd 7b68 f63c 0260 5dbd
00000360: 0d13 9b3c 7ef0 feba 11c1 8a3d 3f97 ccbd
00000370: 40cb 1c3d 708d 2ebb d9f7 b3bd 004a 0f3c
00000380: 6cc3 9c3c c94b 2dbe 2b44 b6bd e7ea 0dbd
00000390: 55f8 c03c 8d7d 1dbd a565 8b3c e466 d4bc
000003a0: d76f 823c 55c7 273b 8005 bfbd 2882 f5bd
000003b0: bd8e 1a3c e3f6 a83c ab85 9c3d 99ae b03d
000003c0: 80ff 683d a540 3abd c3f7 83bb 1392 9a3d
000003d0: 4ec7 07bd 2e73 9bba d0e5 313c 812f 43bb
000003e0: ce03 67bc 4043 35bd 0b97 c4bd cad1 e5bc
000003f0: 0f30 3dbd 97b6 6ebd c52b d8bb 28a1 873c
-0.027448691 -0.018096639 0.05872866 0.0485768 -0.0192134 0.046983436 0.13204582 -0.020757899
0.023514751 0.1535793 0.12296474 0.042494334 -0.08088979 0.115477785 0.020800231 0.07392466
0.034397483 0.1341271 0.11759623 0.00772389 0.051211353 0.06504899 0.086710885 0.14647411
0.1901356 -0.038352057 0.03442543 -0.0076086693 0.06682032 -0.018769125 -0.077812955 0.009396136
0.008975706 0.04528932 0.04342819 0.036676206 0.008481202 0.014871804 0.020059386 0.017250579
-0.011576493 -0.014388389 0.07069744 -0.042528607 -0.092903554 -0.2743406 0.00054491224 -0.023440072
0.13864812 0.015180415 -0.010882878 0.0262088 -0.04360352 -0.015193534 -0.019789638 0.0059670876
-0.01729997 0.031048784 0.030342288 -0.0027919123 0.03486626 0.03695783 0.1206796 0.005687939
0.018231755 0.03748083 0.058258895 0.21543826 0.06431832 0.041552164 -0.014501529 0.018051168
0.024623726 0.050022755 0.042619117 0.043737847 0.17469072 -0.0068598646 0.022507843 -0.09707916
0.0035823586 0.04340743 0.028115012 0.023640186 -0.07181693 0.061319016 0.013889818 0.027244465
0.010675481 0.09074205 -0.022495767 0.048844956 -0.0801173 0.07507507 -0.11994199 -0.14432906
0.032017305 0.08481406 -0.053284843 0.070349924 0.014395895 0.013930046 0.06679702 0.043778606
-0.00086593436 0.023645045 0.07903135 0.13925642 0.0010644975 0.089167334 -0.014925902 -0.028592968
0.09955726 0.03724643 0.003279407 0.023321005 0.006829049 0.032029063 0.019454628 -3.512495e-05
-0.021840774 0.06909777 -0.16315165 -0.053427998 0.17238261 0.053617414 0.06452031 0.0012192657
-0.018279504 -0.010823708 -0.1296504 -0.0056621474 -0.04513364 0.038162574 -0.12416129 0.018109372
-0.12545621 -0.09386739 0.07107828 0.002014299 -0.06689875 -0.041584 0.029359344 0.010999379
-0.056262072 0.029204382 -0.009991724 0.046374876 0.028175429 0.048008732 -0.07948031 -0.11093211
-0.12977904 -0.03969346 -0.06777995 -0.0033815738 -0.09408705 -0.021195622 -0.13071147 0.02091487
-0.0010169619 0.030336441 0.043717153 -0.10474031 -0.054079726 0.022890914 -0.07525302 0.044918466
-0.0320085 -0.012147816 -0.05249488 -0.04070967 -0.03029132 -0.014047494 -0.00064305915 -0.004114609
0.054816175 -0.0076043 -0.0011539616 -0.1112977 -0.10411046 0.0036036707 -0.028594181 -0.07030049
-0.053719815 -0.018953927 -0.0679233 0.0011014001 -0.014107062 -0.054082148 -0.048498645 -0.041645452
0.036330227 -0.14421555 -0.026851276 -0.009961003 -0.15598574 -0.11479642 -0.051555865 0.032823987
0.023151677 -0.0025115577 0.027004605 0.010991873 0.0602636 -0.036659956 0.014143369 -0.12176852
0.0015717399 -0.12239142 0.024354117 0.03423659 -0.11449792 -0.05162175 0.030079117 -0.05404664
0.018929983 -0.0019450334 0.06775106 -0.099897854 0.03827977 -0.0026634596 -0.087875076 0.00874567
0.019136153 -0.16923441 -0.08899721 -0.03464785 0.023555914 -0.038449813 0.017016241 -0.025927968
0.01592247 0.002560099 -0.09327221 -0.11987716 0.0094334455 0.020625537 0.07642683 0.08627052
0.05688429 -0.045471806 -0.0040273382 0.07547393 -0.033149056 -0.0011859888 0.010858014 -0.0029782953
-0.014100028 -0.044253588 -0.09599122 -0.028054137 -0.04618841 -0.0582796 -0.0065970146 0.016556337

network_body.linear_encoder.seq_layers.0.bias f4 [128]
00000000: c2c9 0cbd e5e0 38bd c2d3 c93c a047 f23d
00000010: 0739 1ebd f3d9 30be cde5 31be 8f2f 7dbe
00000020: 984b f5bd ad5a 1fbe 692c 12be f843 60be
00000030: 164f 25be 2514 a0bd b00b 72be 674d afbc
00000040: c758 02be a6c9 febd 2bd6 19be e6e2 7d3d
00000050: 5579 653c af82 50be 440c fdbd f43f b5bd
00000060: a8ea 73be 7af9 96bd 6868 a1bd 6682 9bbe
00000070: d793 7bbe 28b0 9abe ee15 27be dfa0 84be
00000080: cc97 4bbe 4b80 7fbe aeac 82be b9f7 1dbe
00000090: d757 343a e14d e5bd eaf4 28bd 770d 9cbd
000000a0: b0d4 e9bd 930c a9bd 8ad1 79be 518e adbd
000000b0: e9a0 c3bd 616e b1bd dfd5 63be d59d 31be
000000c0: 10ec 93be 882c 69be f770 d6bd 9b28 27be
000000d0: aa04 3dbe 0a83 f2bd 5eae acbe 0351 98bd
000000e0: 449e 893d b5c1 b7bd 5c86 4fbe 4891 97bd
000000f0: 18ef 86be 9946 a0be 4577 b4bd 71da f3bd
00000100: 6714 91be 5be8 13be 1b80 3dbe 5424 8ebe
00000110: 38cb 78be 086e 2fbd 8012 303d 59ef 4bbe
00000120: c7c1 53be 074d 2e3d 476a 2ebe d27c 43bd
00000130: ce4f 50be 0879 c83c dcd9 4cbe ee56 42be
00000140: e0e6 57be 3e07 bebd cffa 2cbb 695c 04be
00000150: 4ddd 9d3d 311f d43c 9777 3cbe c39a f9bd
00000160: 09b8 abbe 4ae1 7d3d 5094 b6bd 61cf 55be
00000170: 922a 5dbe 59f5 5dbe e6cb 69be 2c4b fcbd
00000180: e62b 2fbe 6d99 2abe 86f2 1abe 4fd4 1cbe
00000190: b121 88be 38b4 40be 5a87 42be c7ba 4cbc
000001a0: 42bc 13be 88a7 44be 8dd7 99bd 082a 89be
000001b0: b820 75be 3699 27bd b571 33be bf68 bdbd
000001c0: 6d45 29be d854 30be 455d 60be db4f 6dbe
000001d0: 9d3a bbbd e3b4 32be 3261 74be 3272 18bd
000001e0: 9a11 78be 64eb 19bd e303 ebbd 41d9 b0bd
000001f0: 1d47 33be 1cde 1fbe e761 47be b6f8 49be
-0.0343721 -0.04513635 0.024637107 0.11830068 -0.038628604 -0.17270641 -0.17372818 -0.24725173
-0.11977309 -0.15561934 -0.14274754 -0.21900928 -0.1614345 -0.07816342 -0.23637271 -0.021399213
-0.12729178 -0.12440805 -0.15023105 0.061983965 0.014005979 -0.20362352 -0.12355855 -0.08850089
-0.23819983 -0.07371803 -0.07881242 -0.30372924 -0.24568115 -0.30212522 -0.1631696 -0.25903985
-0.19882125 -0.24951284 -0.2552237 -0.1542653 0.0006879544 -0.11196495 -0.041249193 -0.07619756
-0.1141752 -0.082543515 -0.24396339 -0.0847441 -0.095521756 -0.08663631 -0.22249554 -0.17345364
-0.2889104 -0.22770894 -0.10470765 -0.16324084 -0.1845881 -0.118414 -0.33726782 -0.07437327
0.0671964 -0.089724936 -0.20266098 -0.07400757 -0.2635429 -0.31303862 -0.08811811 -0.11906899
-0.28335878 -0.14444105 -0.185059 -0.2776209 -0.24296272 -0.042829543 0.042986393 -0.19915523
-0.20679389 0.042553928 -0.17032729 -0.04772646 -0.20342943 0.024471775 -0.20004982 -0.18978474
-0.21084166 -0.09278725 -0.002639461 -0.12925877 0.077082254 0.02589378 -0.18404995 -0.121877216
-0.33538845 0.06198243 -0.08915007 -0.2087989 -0.2159827 -0.21675624 -0.22831687 -0.123190254
-0.1710659 -0.1666009 -0.15131578 -0.15315364 -0.26588205 -0.18818748 -0.18996945 -0.012495703
-0.14427283 -0.19204533 -0.07511816 -0.2678988 -0.23938262 -0.040917598 -0.17523845 -0.09248494
-0.1653039 -0.17219865 -0.2191058 -0.23174994 -0.09142039 -0.17451815 -0.23865202 -0.03721828
-0.24225464 -0.037578 -0.11475351 -0.08635188 -0.17507596 -0.15612072 -0.1947094 -0.19723782

network_body.linear_encoder.seq_layers.0.weight f4 [128, 39]
00000000: fe94 b5bc 62e5 1abd cb53 783d 2a30 e6bd
00000010: 2e10 cc3e b769 c6bd 1e23 e9bd 80f1 f2bc
00000020: 6d3d 143d 1f34 c03e 3759 0c3e 8382 a0be
00000030: bf2f 02bd 0209 b2be 8c91 a5bc e33b bdbd
00000040: d611 173e d0e6 2f3d a9a1 fdbd 7d55 82bb
00000050: 61b9 133b acb3 afbe 4ee7 b7bc aa8d 333e
00000060: 2c9d 833e 8b52 10be f58f 833e 1549 a2bd
00000070: 6ea8 15be 1db4 35be 0de5 82bb 426c 11bf
00000080: 32ed 1b3d 0f1e 183e 467b 9bbd 4c9b dfbd
00000090: 3c1a b4bd bb94 7dbe 81f0 fd3d 6af3 27bb
000000a0: 9e74 023e ab41 3a3e d18a 3f3e 86fe 37be
000000b0: 6a41 babb 01a7 fbbd b1e5 133d ead1 b5be
000000c0: f038 1b3d 5b0d 9d3e f060 45be 3247 87bd
000000d0: b56d 2ebe d009 a73e b1fc 13be 909e 543e
000000e0: c18d f13d d065 ae3c 3f66 333e 9fbf d6bd
000000f0: 5644 2abf 46cf ac3c 338f 44bc 37f6 b43d
00000100: edba d33d 8680 4f3e 7b0a bb3c 38ca 513e
00000110: eb29 a5be 7526 bb3d 0b39 29bf 3f44 663e
00000120: a4ab c2bd 1f02 54be 6194 04bc a25b 9d3e
00000130: 08c1 7b3e 4cd5 d93d 1bb7 a5be 4ec6 84be
00000140: b9d2 413e f51a 01bd 588f a23e 8e41 30be
00000150: 0c94 c4be 1999 f0bc d65a ecbd 06aa bf3d
00000160: c3ef 4abe 6e5f cfbe 0441 97bd bd45 49bd
00000170: 2df0 783e 0971 37bd eb9f b1be 1624 b93d
00000180: ae46 68bd e9d9 8d3e ab83 133d 1613 a4bd
00000190: f7e9 513e 72bc 023d b911 873e 604a 563d
000001a0: 6439 04be 0065 3f3e 79ed 2d3d d58c b03d
000001b0: 54a5 463e feb9 b93d 2bf7 3fbe e6ef 033e
000001c0: ce74 373e df78 6d3c bedd a53e 9d15 503d
000001d0: 0f66 72bd 0a89 19be 15af 99be 6a59 a13e
000001e0: 4dc9 8b3d a0cc 653e 5b04 383e 7620 76bc
000001f0: 3135 41bd 9f1b b03e c9dd 713e a2ec 83bd
00000200: 9500 20be 110c 303e 8fd4 903d f19f c23e
00000210: 7fab bb3c 9ce2 3e3e dc6f 013c 2a5d 0bbe
00000220: 8502 053e 3cee 6c3e 3a9a e4bd a936 603e
00000230: 94db 733e c24b 883d 615d 6cbe 378b 32be
00000240: 205e 5fbc cfc2 503d 194c ad3e a8c0 febd
00000250: 112e 0ebf 3ddd 86bc cdde 16bc a034 253e
00000260: f4a0 bbbd 01e9 f03e 94ef c33d 7913 753e
00000270: f353 64be c9eb ef3d f502 ca3d 36c6 4b3d
00000280: 40e0 8b3e 1fbe 31be ecf0 c63e 48b0 3b3e
00000290: aa2b 1abc 8729 2c3e 63d6 a63e 7cc6 d4bd
000002a0: 01ec b8bd 6eb8 ccbe 370c a6bb 608d b73d
000002b0: 637c 02bc d459 1e3e f628 4c3c f388 b93d
000002c0: 78e6 bcbb 1410 483e a5a7 123d 6e06 89bc
000002d0: 883c d13d 1e67 e1bd 6a41 993e 6dfd 23bd
000002e0: 113c 4fbc 9749 453e 6097 40bd 56e8 71bd
000002f0: c18a 42be 5eb7 133e c6df a83c 5239 37be
00000300: 3672 533d 5c4c 1bbe 4ec9 543e 7f9e 383e
00000310: de2e b63d 16c2 e83c 43bc 0d3e e2c7 6ebe
00000320: de23 043d 477e ac3e 372f 5c3d 88ab d23d
00000330: 9dd8 72be 6edf 573e f301 9e3d 03b5 3fbd
00000340: 41cf 493e 6ddf 33be 871f 2cbe 30de 343e
00000350: a457 023e 92e8 9bbe 7372 5dbe 8181 41be
00000360: 1c87 8abd 8dd4 bc3a 0eb1 493e 5da2 b4be
00000370: e0d7 d83c 8845 743d 0cf7 133e 3cd7 d4be
00000380: 85b7 f9bd 4dc5 b13e b9d4 c43c 69df 2bbe
00000390: 43a1 923d f400 25be 35c7 61bd 2b86 90be
000003a0: 11ef 5c3d 6639 1bbd 116d 15be ce0e 41be
000003b0: 2535 adbe bae7 163c 6e4e 943d 8080 7b3d
000003c0: db53 e1bd 57d7 333d c709 273e 7688 d3be
000003d0: ac2a 00be aee2 2ebe 7727 c93e a42d 17bc
000003e0: 3053 23be d55d ac3d be44 e5be 9130 62be
000003f0: fc6f 0a3e 64e4 2abe 0d21 28be fc63 853e
-0.022165772 -0.037816413 0.060626786 -0.11239655 0.39856094 -0.09688132 -0.11383651 -0.029656172
0.036191393 0.37539765 0.13705908 -0.31349573 -0.031783815 -0.34772497 -0.020211004 -0.09239938
0.14752898 0.04294473 -0.1238435 -0.003977476 0.0022540914 -0.34316766 -0.022449162 0.1753451
0.2570585 -0.14093988 0.25695768 -0.079240955 -0.14615032 -0.17744489 -0.00399459 -0.56805813
0.038068004 0.14855216 -0.07591872 -0.109182924 -0.08794066 -0.24763767 0.12399388 -0.0025627264
0.12739798 0.18189113 0.18705298 -0.17968187 -0.0056840675 -0.12287713 0.036107723 -0.35511714
0.037896097 0.30674252 -0.1927526 -0.06605376 -0.17034037 0.32624674 -0.14451863 0.20763612
0.117946155 0.021288782 0.17519473 -0.104857676 -0.6651052 0.02109493 -0.011997032 0.08836024
0.10338388 0.20263872 0.022832146 0.20487297 -0.32258543 0.091381945 -0.66102666 0.22486971
-0.09505394 -0.20703934 -0.008092017 0.30733973 0.24585354 0.10636386 -0.3236626 -0.25932544
0.1892804 -0.03151985 0.31749988 -0.17212507 -0.383942 -0.029369878 -0.11540763 0.09358601
-0.19818024 -0.40502495 -0.073854476 -0.049138773 0.2431037 -0.044785533 -0.3469232 0.09040086
-0.05670803 0.27705315 0.03601424 -0.08011453 0.20499407 0.031917997 0.2638071 0.052317023
-0.12912518 0.18690872 0.0424628 0.086206116 0.19399005 0.09068678 -0.18746631 0.12884483
0.17915651 0.01449415 0.32395738 0.050801862 -0.059179362 -0.14993683 -0.3001639 0.3151353
0.068255045 0.2244134 0.17970411 -0.015022388 -0.047169868 0.34396073 0.2361976 -0.064416185
-0.15625222 0.17192103 0.07071792 0.3801265 0.022908924 0.18641132 0.0079002045 -0.13609758
0.12989242 0.23137754 -0.11162229 0.21895851 0.23814231 0.06655075 -0.23082496 -0.17435919
-0.013633281 0.050967034 0.3384712 -0.1243909 -0.5553904 -0.016462917 -0.009208393 0.16133356
-0.09161559 0.47052768 0.0956718 0.2393321 -0.22297649 0.11714894 0.09863845 0.049749576
0.27319527 -0.17357682 0.38855684 0.18328965 -0.009409824 0.16812716 0.3258544 -0.103894204
-0.09029389 -0.3998446 -0.005067374 0.08962512 -0.007964226 0.15463954 0.012460938 0.09059324
-0.0057647787 0.19537383 0.03580441 -0.016726699 0.102166235 -0.11005996 0.2993272 -0.040036608
-0.012648598 0.19266354 -0.047019362 -0.059059463 -0.18998243 0.14425418 0.020614516 -0.1789296
0.051622592 -0.15165848 0.20779917 0.18029211 0.08895658 0.02841286 0.13841347 -0.23318437
0.032260768 0.33690092 0.053755965 0.10286623 -0.23715444 0.21081325 0.077152155 -0.046803486
0.19707967 -0.17565699 -0.16808902 0.17662883 0.12728745 -0.30450875 -0.2162569 -0.18897058
-0.06764051 0.0014406607 0.19696447 -0.35280123 0.026470125 0.059636623 0.1444971 -0.4157046
-0.12193207 0.3472084 0.024027215 -0.16784443 0.071596645 -0.16113645 -0.05512162 -0.28227362
0.05393893 -0.037896536 -0.14592387 -0.18853304 -0.3382961 0.009210521 0.07241522 0.061401844
-0.11002322 0.043906536 0.16312324 -0.4131505 -0.12516278 -0.17078659 0.39287922 -0.00922719
-0.15949702 0.084163345 -0.4477901 -0.22088839 0.13519281 -0.16688687 -0.16418858 0.26052845

network_body.linear_encoder.seq_layers.2.bias f4 [128]
00000000: babc 4abd 52fa 4fbd 2c42 9abd 781e b2bd
00000010: 2c88 2fbe 8e2b 00be c7d2 9dbc 76af 05be
00000020: 0f84 acbc 3e27 973d 75df 1eba c0e7 cfbd
00000030: 198d 9bbd 40c4 913b 5e1b 75bd 8438 c9bd
00000040: eab8 aebd a3d2 47bd be70 0d3c 53f0 acbd
00000050: bca2 42be 9f75 93bd 1b1d 8abc c86a 323d
00000060: c5b4 6ebd 906a 6cbd 403c 033d e9a1 92bd
00000070: efbf 20bd d5e7 f1bd c1b1 dfbd 217c d2bd
00000080: 1963 ecbd 1edc b0bd 3ae8 eabd 816f 27bd
00000090: 104c 90bd 2154 6abd 8d21 08be 750e d7bd
000000a0: e090 ddbd b601 43bd 7467 2dbd 0c02 9ebc
000000b0: d268 cebd 0a4a 48bd c935 fabd 5433 3fbe
000000c0: a5b3 cabc 282a bbbd d065 e8bd dfeb 00be
000000d0: bead e7bd 54ed e9bd 1017 65bd 9d7c 06be
000000e0: b3ac 2cbd ae50 debd 38c2 3fbc 1d3b 00be
000000f0: b55f 11be e9fe a0bd 4ebb 00bd 40d4 9dbd
00000100: dc08 58be a0d2 58bd 33ca 87bd 980f 26ba
00000110: 16f2 fabc aac4 b2bd b13c 82bd 2ddd 35bc
00000120: 5d04 e2bd 627d 3ebd a084 b8bd 1ebb 06be
00000130: c9db 79bd cffd e3bd d734 d2bd 1f0b 93bd
00000140: 3e39 9bbd dc55 25be 5d0d 52be 9ca7 29be
00000150: 426e 96bd 15bf 13bd b30e 86bd 09bb febd
00000160: 37ce dabd eb27 08be 8dd4 cf3d 2dd9 0fbc
00000170: bf42 f83a 810c 17bd ea0b 9e3d 220c edbd
00000180: a8a3 b9bd e956 2cbd c9bd 1dbe 89b6 de3c
00000190: 9526 64be 07c5 45bd 2d8c a9bd 27a6 47bd
000001a0: 5552 42be abee 96bd 6b5b d8bc 84d8 943c
000001b0: d62d 10be 229d 13bd a730 313e bacf 133e
000001c0: 1add 5ebc e9ad 2ebd 26fc 9cbd b45d 323d
000001d0: 20d7 4abd 2d6b e9bd ce75 95bd 7f4c b4bd
000001e0: 70da f0bd 0533 f0bd 9dd0 f8bd e46a 8ebd
000001f0: 42a6 dbbd a52c 9dbd 1fab 1dbd c017 24be
-0.04949639 -0.050775833 -0.075321525 -0.08697218 -0.17141789 -0.12516615 -0.019265546 -0.13055214
-0.021059064 0.07380532 -0.00060605194 -0.10151625 -0.075952716 0.0044484437 -0.059840553 -0.098252326
-0.08531363 -0.048784863 0.008632837 -0.08444276 -0.1900739 -0.07200169 -0.016859582 0.043558866
-0.058277864 -0.057718813 0.03203988 -0.07159788 -0.039245542 -0.118117966 -0.10922576 -0.10277582
-0.11542339 -0.08635734 -0.11470075 -0.040877823 -0.07045758 -0.057209138 -0.13294049 -0.10500804
-0.10818648 -0.047609054 -0.04233499 -0.019288085 -0.10078587 -0.048898734 -0.1221729 -0.18671924
-0.024743864 -0.091389 -0.11347544 -0.12589978 -0.113124356 -0.1142222 -0.055930197 -0.13133474
-0.042156886 -0.10855232 -0.01170402 -0.1252255 -0.14196666 -0.0786112 -0.031428628 -0.07706499
-0.2109713 -0.052935243 -0.06630363 -0.0006334721 -0.030633014 -0.08728917 -0.06359232 -0.011100096
-0.110359885 -0.046506293 -0.09009671 -0.13157317 -0.06100062 -0.111323945 -0.10263985 -0.071798556
-0.075792775 -0.16146034 -0.2051291 -0.16567844 -0.07345249 -0.036070902 -0.065457724 -0.12438018
-0.106838636 -0.13296477 0.10147963 -0.008779806 0.001894079 -0.03687716 0.07717116 -0.1157458
-0.09064418 -0.04207507 -0.15404429 0.027186649 -0.22280343 -0.048283603 -0.082786895 -0.04874244
-0.1897672 -0.07369741 -0.026410779 0.018169649 -0.14079985 -0.036038525 0.17303716 0.1443471
-0.013602519 -0.042646322 -0.07665281 0.043546394 -0.049521565 -0.11397395 -0.0729786 -0.08803653
-0.11760414 -0.11728481 -0.12149165 -0.069539815 -0.107250705 -0.07674531 -0.038493272 -0.16024685

network_body.linear_encoder.seq_layers.2.weight f4 [128, 128]
00000000: 83cd 5a3d be35 1bbe 757d b7bc 92ab f13c
00000010: 535c cabc 2d2d cb3d 2d07 8fbe ffe6 d0bd
00000020: 080c 403e f0fb 37bd 5bfb 84bd 6a65 22be
00000030: cb5a 9f3d 1d87 84be d49c 1ebe a76c 3abe
00000040: 9904 b03d b66b 183e 69c6 3abe d8df d03c
00000050: 6f37 303d 6992 f9bc 74c3 c7bd d2da 0fbe
00000060: fdce d0bd 162b b9bd 3c6e 41bc ddec 4a3d
00000070: e3e8 35bd 381a 0f3e a873 4dbd 87ec 0bbe
00000080: 5b2f 3cbd aa93 40bd f68e 8cbd 0af7 c63d
00000090: 6d6f 72be 9341 a53d d0b7 953d e108 d6bd
000000a0: 9cee 73be 4bfa 9bbc 3aef e83b 69a3 1c3d
000000b0: 236a a0bd 2087 aabd 8b9f d6bc 4d83 0cbe
000000c0: a335 87bd cce3 9c3d 45d0 913c cb54 38be
000000d0: be4a 973b 7cdb 4fbe 3742 90bc 1426 22bd
000000e0: 5ad5 8e3d b267 41bc d9e5 31bd 85e0 36bc
000000f0: 29b5 b6bd 64cc 063d bea3 833d 58cc 6e3d
00000100: e95e 8d3d 9322 373d 91e1 a3bd d149 dcbc
00000110: 3839 9c3e 6347 b6be 8e7c 293e 791d d6be
00000120: 7bdd 0cbe 2555 febb dd8f 0dbd 315a 98bd
00000130: 54cb 193e b0d9 e2bd 570c d73c 0900 52bc
00000140: d31e 17be acba 7cbd be42 d73c 3a5a c43d
00000150: c6e4 51bd 90ad bebd 51d1 b7bc 0cdf 3fbe
00000160: 6c0f 08be 25fe 06be 9f1e 3c3c bd6c 2f3d
00000170: 5761 1f3d 832f c23d 6a23 edbc 718b a7bb
00000180: 06ce cabd d2a7 acbd 78d7 e03d 9042 f03d
00000190: 5ba9 f33c 860f 8abe 55b3 793e 3f57 93bd
000001a0: f849 24bd 6e0e 65bc e9b9 0bbd 2c52 79bd
000001b0: 0df1 91bc 5abe fbbd 7805 853d 7ad2 20be
000001c0: bc1f 9ebc 6e24 30bd c281 39bd 474d 343d
000001d0: 7819 74bc b36e e53d f462 02be 8513 04be
000001e0: 70f0 113d d3f5 bf3d 214b 3bbe f025 22be
000001f0: acba 2f3c 3b00 e6bd c616 583e 389b c0bd
00000200: 29b1 ffbd add1 84bd e5b0 003e 1440 2ebe
00000210: d13f 14bd ab36 ca3d dfb3 59bd eda5 79bd
00000220: f547 28be 4efb fc3a 6dbd 28bd 4b2a 1d3e
00000230: 100b 8bbc 3d7c 42be 316e 423e 5029 64bb
00000240: 401f 94bd 8fe6 dbbd 9ccc b4bd a95e a13c
00000250: 6516 893d d6d7 f7bd b509 8d3c ef47 2ebe
00000260: 81d8 39bc 4585 273c e8b1 a8bc a4b8 f23d
00000270: f592 d8bd 3f9a 433d 66bc c03d b018 b53d
00000280: 5107 e13d 12aa 9e3d 8a2b 863e 9227 42bd
00000290: 2193 16be 080b 22bd 60b7 333d 9221 913e
000002a0: bf8e 193e bf3e 22bd fd34 133d 18b8 f53d
000002b0: c06a 6f3e 3200 22be 91cb c2bc 34df 12be
000002c0: 8f13 1abd 9943 8e3d 0d2e 98bd f6ed a8bd
000002d0: 1747 e4bb 6236 453d 653e 18bd 084f 3ebd
000002e0: 5b3f 37be 91e4 203d 15ce 69bd a3bc cebc
000002f0: 53b8 87bc bf75 c1bd 1f1d a4bc 118e ac3b
00000300: 6c8f 973d 94e4 813c 6fec 273e 6b20 e23d
00000310: e4f1 c0bd 30e2 db3d 5ebb 98bc 01dd ae3d
00000320: f14b a53d e9b2 c5be e818 d1bd 80cd a13b
00000330: 112a 60be 8422 b1bd 22fe 9a3d 22a0 33be
00000340: e698 3a3e b95b 013e 0318 0dbe 4969 41be
00000350: 9a29 9ebd 977b a0bc 28e2 dabb 93f4 d5ba
00000360: 7b1d f1bd 4e17 43be 2f99 e9bd 0f96 5f39
00000370: 8ae2 26be c127 473e f3dd 47be 8aab 07be
00000380: adb5 03be 2c43 bbbc 9bdc 8cbd d35d 26bd
00000390: e4be a2bd 791f 0e3e 02df d53d a422 7a3d
000003a0: 2d09 323d b509 903d 2ac0 d63c 459a 4b3d
000003b0: d83d 40be 917f 1e3d 3a49 dcbd 2a23 023e
000003c0: 77dc 01bd 5284 19be 17a4 77bd 2368 ae3d
000003d0: 0f9f 70bd 5a70 a1bb bfa3 be3d 3b88 1dbe
000003e0: bf63 9c3d c73e a53d 2ab1 1ebd d186 d03b
000003f0: f93d 6e3d 038a 2abd 73b0 2bbc 9dfd d9bd
0.053418647 -0.1515722 -0.02239869 0.029500756 -0.024702227 0.09920726 -0.27935162 -0.10200309
0.1875459 -0.044918 -0.06493255 -0.15858999 0.07780989 -0.25884333 -0.15489513 -0.1820551
0.08594627 0.14884838 -0.1823975 0.025497362 0.043021616 -0.030465322 -0.097540766 -0.14048317
-0.1019573 -0.09041421 -0.011806067 0.049542297 -0.04441155 0.13974845 -0.050159127 -0.13664447
-0.0459436 -0.047015823 -0.06863205 0.09715088 -0.23675318 0.08069148 0.0731045 -0.10450912
-0.23821491 -0.019040247 0.007108596 0.038241778 -0.07832744 -0.08326554 -0.026199123 -0.13721962
-0.06602027 0.07660636 0.017799506 -0.18001096 0.0046170643 -0.2029857 -0.017609699 -0.039587095
0.06974287 -0.011804508 -0.04343209 -0.011161928 -0.08921272 0.032909766 0.06427716 0.058300346
0.06902868 0.044710707 -0.08002008 -0.026890667 0.30512404 -0.3560134 0.1655142 -0.4181936
-0.13756363 -0.007761615 -0.034561027 -0.07439078 0.1501897 -0.11076677 0.026251001 -0.012817391
-0.14757852 -0.06170146 0.026276942 0.09587522 -0.051243566 -0.09310448 -0.022438677 -0.1873743
-0.13287133 -0.13182886 0.01148191 0.04282831 0.03891119 0.094817184 -0.02894755 -0.0051130583
-0.09902577 -0.08430447 0.109785974 0.11731446 0.02974384 -0.26964968 0.24384816 -0.07194375
-0.040109605 -0.013980491 -0.034112845 -0.06086938 -0.017815137 -0.12292166 0.06495184 -0.1570529
-0.019302242 -0.043003492 -0.045289762 0.04401901 -0.01489865 0.11202755 -0.1273306 -0.12898071
0.03562969 0.09373059 -0.18290378 -0.15834785 0.010725658 -0.11230513 0.21102437 -0.094046056
-0.124849625 -0.06485305 0.1256748 -0.17016631 -0.036193673 0.09873708 -0.053150054 -0.060949255
-0.164337 0.0019300969 -0.041196276 0.15348165 -0.016973048 -0.18992706 0.18987347 -0.0034814663
-0.07232523 -0.10737335 -0.08828089 0.019698458 0.066937245 -0.12101714 0.017216543 -0.17019628
-0.011343122 0.010224645 -0.020592645 0.11851624 -0.10574905 0.047754522 0.09410934 0.088425994
0.109877236 0.07747282 0.26205093 -0.04740102 -0.14704563 -0.0395613 0.043876052 0.28345925
0.1499586 -0.03961062 0.035939205 0.11998004 0.23380566 -0.15820387 -0.023778709 -0.14342958
-0.03761631 0.06946487 -0.074306585 -0.082485124 -0.0069664824 0.048147567 -0.03716888 -0.04646209
-0.17895262 0.039280478 -0.0570813 -0.025236433 -0.016567385 -0.094462864 -0.020033417 0.005265959
0.074004024 0.015856065 0.16398786 0.110413395 -0.09421137 0.10736501 -0.018644031 0.08538247
0.08071125 -0.3861306 -0.102098286 0.0049378276 -0.21891047 -0.086491615 0.07568003 -0.17541555
0.18222389 0.12632646 -0.13778691 -0.1888782 -0.077227786 -0.019590182 -0.006679792 -0.0016323499
-0.11773201 -0.19051859 -0.114061706 0.00021322838 -0.16297355 0.19448759 -0.1951826 -0.1324903
-0.12862273 -0.022859178 -0.06878015 -0.04061682 -0.07946566 0.13879193 0.10442926 0.061068192
0.043465782 0.070331015 0.026214678 0.04970767 -0.18773592 0.038695876 -0.10756154 0.12708727
-0.031704392 -0.14991882 -0.060459223 0.08515956 -0.05874544 -0.0049267234 0.09308576 -0.15383999
0.076362126 0.080686145 -0.038743176 0.0063637276 0.05816457 -0.041635524 -0.0104790805 -0.10644076
