Oversteek Simulator/Learning/results/Oversteek-K-02/GoodCar/GoodCar-849956.onnx (onnx, 90288 bytes, 6 tensors)

action_model._discrete_distribution.branches.0.bias f4 [3]
000000 c4 50 2d be 01 38 99 3e 6e ca 2b be
       -0.16925341 0.2992554 -0.1677644

action_model._discrete_distribution.branches.0.weight f4 [3, 128]
000000 46 4e 1c bc 49 9d af bc a9 5d 7c bc be a0 99 3d
       -0.009540146 -0.021437304 -0.01540319 0.07501362
000010 fc 40 0b bc 2e 52 04 3d 85 c6 a8 3d 45 a2 01 bc
       -0.00849938 0.032304935 0.082409896 -0.007912223
000020 48 38 d6 3c 96 66 d7 3d ac ce e0 3d c3 c7 ea 3c
       0.026149884 0.105176136 0.109769195 0.028659707
000030 02 8c 92 bd e7 70 d5 3d 38 f8 94 3c 77 f7 70 3d
       -0.071556106 0.10421925 0.018184766 0.05882975
000040 67 df 55 3d 01 29 50 3d 80 7f 42 3d 91 98 93 3c
       0.052215006 0.050820354 0.047484875 0.018017085
000050 9d a0 10 3c a4 84 ae 3d f3 11 52 3d ce 24 e6 3b
       0.008827356 0.08521393 0.05128665 0.0070234304
000060 e3 33 06 3e e7 5a 20 3d 3f be 19 3d 0c e4 6d 3c
       0.1310573 0.03914919 0.03753495 0.014519703
000070 c5 41 a9 3d 43 17 8d bc 75 76 a5 bd 0b 06 76 3c
       0.08264498 -0.017223006 -0.080792345 0.015016089
000080 90 13 b0 ba 92 8d a0 3c 71 b0 2c 3d a5 62 0d 3d
       -0.0013433564 0.019598756 0.042160455 0.034517903
000090 68 9e a9 3c da 4a 03 3c d7 da 6f 3c d0 34 28 bb
       0.020705417 0.0080134515 0.014639578 -0.0025666244
0000a0 9d 51 d1 3b d4 51 94 bb 85 2b 26 3d ee d5 14 bc
       0.006387903 -0.0045263562 0.040568847 -0.009084208
0000b0 14 cd fc bd 5e d6 95 be 85 f5 71 bc f0 8b 88 bc
       -0.12343803 -0.29265112 -0.014768009 -0.01666829
0000c0 77 1b 17 3e 99 04 2e ba a1 9c 80 bb 2c fe 0b 3d
       0.14756571 -0.00066382583 -0.0039249216 0.034177944
0000d0 2f e8 0b bd 40 dd 08 bc e3 5c 29 3c e0 99 1f 3d
       -0.034156974 -0.008353531 0.010337087 0.038965106
0000e0 5c ad 67 bc d4 2c 8d ba 22 a4 f0 3c 87 61 8e 3c
       -0.014140453 -0.0010770806 0.02937514 0.017380489
0000f0 29 0e 5d 3d 68 fd 0e 3d b2 9c ed 3d 8c 2c 96 3b
       0.053968582 0.034909636 0.11602153 0.004582947
000100 82 82 bf 3c 22 ab 27 3d ef 54 27 3d 41 62 ca bc
       0.02337766 0.04093469 0.040852483 -0.024705054
000110 d1 6a 71 3c c2 58 11 3d ad de 2e 3c 3e 76 35 3d
       0.01473494 0.035485037 0.010673207 0.044302218
000120 01 1d a8 3c eb d5 22 3c a1 99 74 3d e2 b8 2a 3d
       0.020521643 0.009938697 0.059716824 0.041680224
000130 88 de 56 3e 0d b4 81 3d 3b 15 8f bc d2 d6 e4 bc
       0.20983326 0.0633317 -0.017466178 -0.027934466
000140 f3 0f 15 3a b6 e6 86 3c 46 3d cb 3c 9f 24 85 3c
       0.00056862755 0.016467433 0.02480949 0.016252814
000150 8d c4 d2 bd 94 a1 93 3d c9 8e 0c 3c 22 0b d9 3c
       -0.10291395 0.07208553 0.0085789645 0.026494566
000160 5e c3 bd 3c 80 bc e2 3d c7 3b 0f bd 58 5c 6a 3d
       0.023164447 0.1107111 -0.034969117 0.057216972
000170 ca dc d7 bd 07 b8 37 3d e8 e5 1a be ec 7f 5e be
       -0.10540159 0.044853237 -0.15126765 -0.21728486
000180 4b d7 c3 3c eb 90 97 3d f3 e6 6d bd 19 03 1f 3d
       0.02390637 0.07400688 -0.05808158 0.038821314
000190 05 42 25 3c 41 28 a3 bb 09 e8 a1 3b b9 0a 1b 3d
       0.010086541 -0.004979164 0.004940991 0.037852023
0001a0 4d 7f 29 3c 6a d5 7a 3c 67 15 d2 3d c4 1e bc 3d
       0.010345292 0.015309671 0.102579884 0.091855556
0001b0 c7 ae 83 3c 81 7c 12 3d 1b f5 23 bd 1b 67 38 bd
       0.016074551 0.035763267 -0.040028673 -0.045020204
0001c0 40 19 db 3c 9c df 70 3d b3 c9 f3 3c b4 8d 83 3c
       0.026745439 0.058807 0.029759264 0.01605878
0001d0 f0 b3 f1 3b 47 1c ba bb 2e 30 f3 3b 9f 5d 65 bc
       0.0073761865 -0.0056796405 0.007421515 -0.013999372
0001e0 19 c9 9b bd 29 12 2d 3b df 46 2a be b7 1e fd bc
       -0.07606716 0.002640853 -0.16628598 -0.030898435
0001f0 cf 93 58 3d 26 73 85 3d 24 87 8a 3d aa a2 91 bb
       0.052875336 0.065161034 0.06764057 -0.00444444
000200 26 69 1c bd 12 ad aa bc b1 dd b1 bd c2 14 87 bd
       -0.038186215 -0.02083448 -0.086848624 -0.06595756
000210 97 7a 9a bd 26 e4 fd 3c 39 52 db bd bb ff 88 bc
       -0.075429134 0.030992579 -0.10709042 -0.016723504
000220 19 8f ba bd 2f 6d 85 bd b6 2a 9d 3d 1d 2c 86 bc
       -0.09109325 -0.06514966 0.07674162 -0.016378457
000230 a5 c3 a1 bd 59 83 86 bd f4 9e 58 3c 5d 7c c8 bc
       -0.07898644 -0.06568021 0.013221491 -0.024473364
000240 fd 8e 90 bd 19 eb 14 3d e4 1a 6f 3c c4 95 ac 3c
       -0.07058523 0.03635702 0.014593814 0.021067508
000250 6d a5 34 bc 10 3a a5 3b 60 38 bc bd 1e b3 2d bd
       -0.011025769 0.005042322 -0.0919044 -0.042407148
000260 15 ae fe bd 78 77 a4 bd 63 a6 a7 bd f4 26 12 bd
       -0.12435547 -0.08030599 -0.081860326 -0.03568168
000270 a6 21 e3 bd 7a 3c fb bc 61 65 04 be ce d3 d2 3b
       -0.11090402 -0.030668486 -0.12929298 0.0064339405
000280 a9 7b 96 bc 4b 76 8a 3c 8e 66 47 3d f6 1b c0 bd
       -0.018369513 0.01690211 0.04868179 -0.09380333
000290 5f da 42 bd 43 11 70 3c b3 cf ba bd cd 94 a8 3b
       -0.047571536 0.014652553 -0.09121647 0.0051446916
0002a0 cf bc 49 bd 81 52 01 bd d4 2d cc bc ee c9 72 bd
       -0.049252328 -0.031572822 -0.024924196 -0.059274606
0002b0 55 55 14 3c e1 8f 07 3a 4e 0c 34 bb a8 21 63 bc
       0.009053548 0.0005171281 -0.0027473154 -0.013863005
0002c0 73 e2 4a 3d 89 a9 1c bd d7 4f b7 bc 30 d2 99 bd
       0.049532365 -0.03824762 -0.022376938 -0.07510793
0002d0 bd 70 87 bd b4 57 2b bc a5 01 18 bd af 53 d1 bd
       -0.066133 -0.010457922 -0.037110943 -0.102210395
0002e0 6c 6a 8a bd a4 6c bd bc 29 64 d1 bd 74 80 a4 bc
       -0.067585796 -0.023123093 -0.10224182 -0.020080782
0002f0 50 9c 90 bd 3a 3a 7f bd 79 3a 8d bd 55 d3 38 bd
       -0.07061064 -0.06231139 -0.068959184 -0.045123417
000300 eb 67 9f 3c 0d 0c 31 be f1 75 39 bd 6d 92 73 bd
       0.019458732 -0.17289753 -0.045278493 -0.059465814
000310 b5 b3 ff bd a6 ac 13 be a9 a2 86 bd 90 30 99 3c
       -0.12485448 -0.14421329 -0.06573994 0.018699914
000320 12 e2 03 3b b4 81 e2 3b 63 8f a1 bc 74 39 3e 3c
       0.0020123762 0.0069124345 -0.019721692 0.011610378
000330 3e 74 08 3d d3 b7 aa bd 9e 43 10 3c 13 5f 34 bd
       0.033313982 -0.08335843 0.008805184 -0.044035982
000340 1e 75 49 bc 24 78 86 bd 5d fd b5 3c d1 ad 87 3c
       -0.012295989 -0.06565884 0.02221554 0.016562374
000350 5b e8 8b bd 87 2e 61 bd 31 7e 06 3b 6a 99 98 bd
       -0.06831428 -0.054976013 0.0020521993 -0.074511364
000360 72 d9 5f bb 2d 2e 9a bb 6b 23 a6 3d 56 6a 1d be
       -0.0034156707 -0.0047052116 0.08112224 -0.15372595
000370 f1 3b 54 3d 35 bc dc 3c 01 fa 18 bd 6f e0 2f bc
       0.051814977 0.026945213 -0.037347797 -0.0107346615
000380 e0 3b c1 3c 03 ef 22 be 29 e4 c7 bd c4 f6 18 bd
       0.023588121 -0.15911488 -0.09760315 -0.03734471
000390 15 08 27 bc 83 a6 76 bd e8 ee 92 bb 68 ae 88 bd
       -0.010194798 -0.06021739 -0.0044840463 -0.0667389
0003a0 8d ff 68 3c 12 4a d8 3b 6f 7f ad bd 6b 56 04 be
       0.014221084 0.0066006267 -0.08471572 -0.12923591
0003b0 1b e5 af bc 6f 88 17 3c 49 17 a3 3d aa 90 b8 3d
       -0.02147155 0.009248837 0.07963426 0.090119675
0003c0 93 7c 2f 3c e9 f2 af bd f2 a7 fb bc 09 20 bc 3d
       0.010710853 -0.08591253 -0.030719731 0.09185798
0003d0 39 5a 6e bd 21 4a 6c bc 96 4d 56 3b c3 d5 20 bc
       -0.05819151 -0.014421971 0.0032700053 -0.00981659
0003e0 bd 05 71 bc 81 a0 77 bd a5 5d d8 bd 73 a0 b4 bc
       -0.014710841 -0.060455803 -0.10564736 -0.022049164
0003f0 26 05 9e bd e8 48 8e bd 9c 0d 56 bc dd 3f 0a 3b
       -0.07715826 -0.069474995 -0.013064768 0.0021095194

network_body.linear_encoder.seq_layers.0.bias f4 [128]
000000 e9 7a ff bb 28 f4 05 bd f4 d2 67 3d b2 15 05 3e
       -0.0077966345 -0.03270355 0.056597665 0.12996557
000010 8e ed 10 bd b6 73 13 be 3c a6 07 be 34 86 65 be
       -0.0353828 -0.14399609 -0.13247007 -0.22414476
000020 71 0f d9 bd b4 fb 11 be b2 d7 04 be 5a 21 36 be
       -0.10598648 -0.14256173 -0.12972906 -0.1778616
000030 da 21 f7 bd 8d 96 09 bd 19 d8 61 be 25 23 10 bd
       -0.120670035 -0.033590842 -0.22055091 -0.035189766
000040 26 e4 f3 bd 8a ac e9 bd 9c 0b 10 be b4 73 36 3d
       -0.1190875 -0.11409862 -0.14066929 0.044543937
000050 2b 88 ab 3c a5 f6 50 be 7d 2d c2 bd 20 cd 95 bd
       0.020938953 -0.20406587 -0.094813325 -0.07314515
000060 ca 1f 4c be 83 ce 83 bd d2 04 3a bd 74 6f 88 be
       -0.19934002 -0.06435873 -0.045414753 -0.26647532
000070 5d 2d 63 be e5 46 79 be a4 e3 2b be 68 45 4b be
       -0.22185273 -0.2434345 -0.16786057 -0.19850695
000080 c0 6b 39 be f9 86 6d be 9b 62 82 be ca 03 1a be
       -0.1810751 -0.23196019 -0.25465855 -0.15040508
000090 fd 5e a0 3c b1 c7 d2 bd 89 81 9d 3b df 31 ad bd
       0.019576544 -0.10291994 0.0048067016 -0.08456778
0000a0 08 c4 fd bd 0b 9c 86 bd 79 2e 6a be 07 28 a1 bd
       -0.123909056 -0.065727316 -0.2286929 -0.07868963
0000b0 19 e2 a6 bd 06 3a 88 bd ea 55 49 be 25 4d 13 be
       -0.081485935 -0.06651692 -0.1966168 -0.14384897
0000c0 01 05 86 be 43 97 3e be 33 ff 4a bd 16 91 1c be
       -0.26175693 -0.1861239 -0.049559783 -0.15289721
0000d0 c1 30 18 be ff 1c f9 bd 18 17 a7 be e9 41 a8 bd
       -0.14862348 -0.12163734 -0.32634807 -0.08215696
0000e0 08 aa a7 3d 85 4b 8b bd fd 84 13 be db 17 62 bd
       0.08186728 -0.068015136 -0.144062 -0.05519853
0000f0 78 d2 62 be fc 57 84 be 5f 37 89 bd 68 35 b8 bd
       -0.221506 -0.25848377 -0.06700014 -0.089945614
000100 08 12 80 be 66 73 f4 bd 09 5f 24 be 01 aa 81 be
       -0.25013757 -0.11936073 -0.16051878 -0.25325015
000110 42 33 31 be 36 27 4c bd 19 9b 9a 3d a6 4d 1d be
       -0.1730471 -0.049842082 0.07549114 -0.15361652
000120 3d c7 43 be 64 6e 57 3d 30 99 19 be 74 11 3b bd
       -0.19118972 0.05259551 -0.14999843 -0.04567094
000130 d5 41 57 be 22 93 02 3d e8 45 52 be 65 7d 18 be
       -0.21021207 0.031878598 -0.2053448 -0.14891584
000140 19 52 45 be ae 1f a1 bd e1 7c 84 3c c6 7f 07 be
       -0.19269599 -0.078673705 0.016172828 -0.13232335
000150 83 a2 a7 3d 97 88 d1 3c 11 19 28 be 89 29 d6 bd
       0.081852935 0.025577826 -0.16415812 -0.10457141
000160 9b 61 9f be 48 ef 3a 3d 6d c5 80 bd 64 da 40 be
       -0.31129155 0.045638353 -0.06287656 -0.1883331
000170 4d 90 33 be 07 1e 39 be bd b9 51 be f5 ad d5 bd
       -0.17535515 -0.18077861 -0.2048101 -0.1043357
000180 f3 fe 0a be 19 e1 16 be fa 45 05 be 09 5b e4 bd
       -0.13573818 -0.14734305 -0.13014975 -0.11150176
000190 fa c2 82 be f5 79 4f be 8a c9 2e be e2 2f 67 3c
       -0.2553938 -0.20261367 -0.17069069 0.014110537
0001a0 11 d2 02 be a1 a2 22 be ad 13 ab bd 47 f1 64 be
       -0.12775446 -0.1588235 -0.08353362 -0.22357665
0001b0 b7 03 69 be 23 65 fa bc d9 9d 35 be be 86 b1 bd
       -0.22755323 -0.030565804 -0.17735995 -0.08668278
0001c0 5b 90 23 be 6d d8 1c be 98 16 58 be ab 3f 65 be
       -0.15973036 -0.15316935 -0.21102369 -0.22387569
0001d0 45 25 90 bd b0 3b 34 be 23 3b 4e be a1 26 26 bd
       -0.070383586 -0.17600894 -0.20139746 -0.040564183
0001e0 3a f5 4b be 45 22 f7 bc 87 fc f2 bd a6 b1 53 bd
       -0.19917765 -0.030167708 -0.11864572 -0.05168309
0001f0 fa e0 19 be 94 9d 11 be cd ec 33 be 28 15 1e be
       -0.15027228 -0.14220268 -0.17570801 -0.15437758

network_body.linear_encoder.seq_layers.0.weight f4 [128, 39]
000000 fe 94 b5 bc a1 e6 1a bd cb 53 78 3d 2a 30 e6 bd
       -0.022165772 -0.0378176 0.060626786 -0.11239655
000010 b7 88 cd 3e b7 69 c6 bd 25 24 e9 bd 80 f1 f2 bc
       0.40143368 -0.09688132 -0.11383847 -0.029656172
000020 6d 3d 14 3d d1 64 c2 3e 37 59 0c 3e be 82 a0 be
       0.036191393 0.37967542 0.13705908 -0.31349748
000030 bf 2f 02 bd 02 09 b2 be f8 a0 85 bc e3 3b bd bd
       -0.031783815 -0.34772497 -0.016312107 -0.09239938
000040 35 11 17 3e d0 e6 2f 3d a9 a1 fd bd 51 5b 33 3c
       0.14752658 0.04294473 -0.1238435 0.0109470645
000050 61 b9 13 3b 0b 0a ab be 4e e7 b7 bc aa 8d 33 3e
       0.0022540914 -0.334061 -0.022449162 0.1753451
000060 a3 70 8a 3e 8b 52 10 be 8e 8f 83 3e 15 49 a2 bd
       0.2703906 -0.14093988 0.2569546 -0.079240955
000070 6e a8 15 be f1 2c 22 be 0d e5 82 bb 9b bb f5 be
       -0.14615032 -0.15837456 -0.00399459 -0.47994694
000080 32 ed 1b 3d 0f 1e 18 3e e9 16 7c bd ed e9 fb bd
       0.038068004 0.14855216 -0.061545286 -0.12300477
000090 a7 3c 91 bd 2a a3 88 be bf 36 0f 3e 6a f3 27 bb
       -0.07091647 -0.26686984 0.13985728 -0.0025627264
0000a0 cb f7 01 3e ab 41 3a 3e d1 8a 3f 3e fa 15 31 be
       0.12692182 0.18189113 0.18705298 -0.1729354
0000b0 6a 41 ba bb 33 a1 fc bd b1 e5 13 3d ea d1 b5 be
       -0.0056840675 -0.12335434 0.036107723 -0.35511714
0000c0 35 23 25 3d 5b 0d 9d 3e 03 de 45 be 32 47 87 bd
       0.04031678 0.30674252 -0.19322972 -0.06605376
0000d0 b5 6d 2e be 03 f2 a9 3e b1 fc 13 be 7a 21 54 3e
       -0.17034037 0.33192453 -0.14451863 0.20715895
0000e0 c1 8d f1 3d d0 65 ae 3c b1 96 33 3e 9f bf d6 bd
       0.117946155 0.021288782 0.17537953 -0.104857676
0000f0 e4 26 10 bf 46 cf ac 3c 33 8f 44 bc 8d 99 c5 3d
       -0.5630934 0.02109493 -0.011997032 0.09648428
000100 ed ba d3 3d 70 03 4f 3e 7b 0a bb 3c 38 ca 51 3e
       0.10338388 0.20216155 0.022832146 0.20487297
000110 69 25 a2 be 75 26 bb 3d 16 57 13 bf 3f 44 66 3e
       -0.31669167 0.091381945 -0.5755476 0.22486971
000120 a4 ab c2 bd 16 43 4c be 05 9c 51 3c 12 fd be 3e
       -0.09505394 -0.19947466 0.012793546 0.37302452
000130 ac 2b 86 3e 7f d6 e1 3d 1b b7 a5 be 5a bc 79 be
       0.26205194 0.1102724 -0.3236626 -0.24388257
000140 b9 d2 41 3e f5 1a 01 bd ed 6b ad 3e 8e 41 30 be
       0.1892804 -0.03151985 0.33871403 -0.17212507
000150 36 36 bc be 19 99 f0 bc d6 5a ec bd dd 6e ed 3d
       -0.3676011 -0.029369878 -0.11540763 0.11593411
000160 c3 ef 4a be 99 01 c7 be 04 41 97 bd bd 45 49 bd
       -0.19818024 -0.38868406 -0.073854476 -0.049138773
000170 a3 dc 87 3e 09 71 37 bd c2 41 a9 be 16 24 b9 3d
       0.2653552 -0.044785533 -0.33057982 0.09040086
000180 ae 46 68 bd 4c 67 9b 3e ab 83 13 3d 90 6f a5 bd
       -0.05670803 0.30352247 0.03601424 -0.080779195
000190 f7 e9 51 3e 72 bc 02 3d 86 66 91 3e 60 4a 56 3d
       0.20499407 0.031917997 0.28398532 0.052317023
0001a0 0c fa e6 bd 00 65 3f 3e 79 ed 2d 3d c3 d6 e8 3d
       -0.112781614 0.18690872 0.0424628 0.113690875
0001b0 54 a5 46 3e 36 66 48 3d 2b f7 3f be e6 ef 03 3e
       0.19399005 0.0489256 -0.18746631 0.12884483
0001c0 6e a1 4a 3e 0f ca 9e 3c 28 da a6 3e cc 85 9a 3d
       0.19788143 0.019383458 0.32588315 0.07545051
0001d0 6f ea ba bd 0a 89 19 be e4 b4 99 be 6a 59 a1 3e
       -0.09126746 -0.14993683 -0.3002082 0.3151353
0001e0 4d c9 8b 3d e0 ec 5e 3e 5b 04 38 3e 0d 57 77 bc
       0.068255045 0.21770048 0.17970411 -0.015096438
0001f0 31 35 41 bd 9f 1b b0 3e a6 ba 6b 3e a2 ec 83 bd
       -0.047169868 0.34396073 0.2302042 -0.064416185
000200 f7 13 20 be 11 0c 30 3e 8f d4 90 3d e6 6f bf 3e
       -0.15632616 0.17192103 0.07071792 0.3739006
000210 7f ab bb 3c c5 c9 3e 3e dc 6f 01 3c 2a 5d 0b be
       0.022908924 0.18631656 0.0079002045 -0.13609758
000220 43 01 05 3e 3c ee 6c 3e 3f f1 d1 bd a9 36 60 3e
       0.12988763 0.23137754 -0.10251092 0.21895851
000230 94 db 73 3e af 83 89 3d 61 5d 6c be fe a9 32 be
       0.23814231 0.0671457 -0.23082496 -0.1744766
000240 20 5e 5f bc cf c2 50 3d f8 0e b1 3e a8 c0 fe bd
       -0.013633281 0.050967034 0.34581733 -0.1243909
000250 f2 d4 ed be 3d dd 86 bc cd de 16 bc 89 8b 26 3e
       -0.46451527 -0.016462917 -0.009208393 0.16264166
000260 29 b4 c0 bd 42 99 f1 3e a3 b7 c3 3d 5f 54 7b 3e
       -0.09409363 0.4718724 0.0955651 0.24543904
000270 f3 53 64 be c9 eb ef 3d f5 02 ca 3d 36 c6 4b 3d
       -0.22297649 0.11714894 0.09863845 0.049749576
000280 7e 5e 63 3e 1f be 31 be ec f0 c6 3e 48 b0 3b 3e
       0.22204015 -0.17357682 0.38855684 0.18328965
000290 aa 2b 1a bc 2d ac ed 3d 63 d6 a6 3e 7c c6 d4 bd
       -0.009409824 0.116051055 0.3258544 -0.103894204
0002a0 01 ec b8 bd 6e b8 cc be 79 bf 65 bd 60 8d b7 3d
       -0.09029389 -0.3998446 -0.056090806 0.08962512
0002b0 89 7c 02 bc d4 59 1e 3e f6 28 4c 3c 97 ef 66 3d
       -0.007964262 0.15463954 0.012460938 0.056380834
0002c0 78 e6 bc bb af 1e 60 3e a5 a7 12 3d 6e 06 89 bc
       -0.0057647787 0.21886705 0.03580441 -0.016726699
0002d0 7c 68 94 3d 1e 67 e1 bd 6a 41 99 3e 6d fd 23 bd
       0.07246491 -0.11005996 0.2993272 -0.040036608
0002e0 11 3c 4f bc 3d ad 32 3e 60 97 40 bd 7f 22 ec 3c
       -0.012648598 0.17448898 -0.047019362 0.028825043
0002f0 c1 8a 42 be 5e b7 13 3e 90 96 1d bc 1d aa 30 be
       -0.18998243 0.14425418 -0.009618416 -0.17252393
000300 92 5a 4d 3d cb f4 1b be 81 cf 53 3e 7f 9e 38 3e
       0.050135203 -0.152301 0.20684625 0.18029211
000310 a1 e5 b7 3d 16 c2 e8 3c 43 bc 0d 3e 54 a0 52 be
       0.08979345 0.02841286 0.13841347 -0.20568973
000320 de 23 04 3d 93 ef ac 3e 37 2f 5c 3d 88 ab d2 3d
       0.032260768 0.3377653 0.053755965 0.10286623
000330 48 60 56 be 6e df 57 3e 51 c7 9f 3d 03 b5 3f bd
       -0.20935166 0.21081325 0.078016885 -0.046803486
000340 41 cf 49 3e f4 7e 17 be 87 1f 2c be 9d c1 35 3e
       0.19707967 -0.14794523 -0.16808902 0.17749639
000350 a4 57 02 3e 92 e8 9b be 40 0e 4c be 81 81 41 be
       0.12728745 -0.30450875 -0.19927311 -0.18897058
000360 d4 91 74 bd 8d d4 bc 3a 0e b1 49 3e 81 61 a7 be
       -0.059709385 0.0014406607 0.19696447 -0.32691577
000370 e0 d7 d8 3c d1 d7 77 3d 0c f7 13 3e 3c d7 d4 be
       0.026470125 0.060508553 0.1444971 -0.4157046
000380 1d ab da bd 4d c5 b1 3e f6 60 05 3d 69 df 2b be
       -0.106771685 0.3472084 0.032563172 -0.16784443
000390 43 a1 92 3d f4 39 05 be bc 15 8c bd 92 91 81 be
       0.071596645 -0.13010389 -0.06840083 -0.25306374
0003a0 4a 0b a2 3d f3 77 67 bd 11 6d 15 be 6c ef 40 be
       0.079123095 -0.056510877 -0.14592387 -0.18841332
0003b0 25 35 ad be ba e7 16 3c 7a 29 df 3d 80 80 7b 3d
       -0.3382961 0.009210521 0.10896583 0.061401844
0003c0 c7 fb e0 bd 57 d7 33 3d c7 09 27 3e a8 f5 c0 be
       -0.10985523 0.043906536 0.16312324 -0.3768742
0003d0 ac 2a 00 be a6 b6 2e be 77 27 c9 3e a4 2d 17 bc
       -0.12516278 -0.17061862 0.39287922 -0.00922719
0003e0 9d 9b fb bd d5 5d ac 3d 24 2e e5 be 91 30 62 be
       -0.1228554 0.084163345 -0.44761765 -0.22088839
0003f0 fc 6f 0a 3e 7b 72 0f be 0d 21 28 be 43 de 7f 3e
       0.13519281 -0.14008515 -0.16418858 0.2498713

network_body.linear_encoder.seq_layers.2.bias f4 [128]
000000 06 1e 2e bd 7a e3 06 bd de d1 be bd 40 d6 bf bd
       -0.0425091 -0.032931782 -0.09317373 -0.09367037
000010 5c c9 15 be 1c aa b7 bd cc 3e f0 bc 4a 34 df bd
       -0.14627594 -0.08967993 -0.029326819 -0.10898645
000020 fc da eb bc e3 bf 5d 3d e8 05 80 3b ce a4 80 bd
       -0.028790943 0.054138076 0.003906954 -0.06281434
000030 c1 ac 59 bd 68 17 d5 ba 42 c9 d5 bc 72 70 c2 bd
       -0.053143267 -0.0016257586 -0.026096944 -0.094941035
000040 6e ee a4 bd 7b 10 73 bd 9d a5 c1 bb 9c 5b 99 bd
       -0.08053289 -0.05934189 -0.005909635 -0.07488176
000050 0f 7c 31 be 9b 81 79 bd f5 33 93 bc 5c 03 06 b9
       -0.17332481 -0.060914617 -0.017969111 -0.00012780487
000060 0c ec a3 bd 01 7f 08 bd a2 b3 1b 3d 1b 47 12 bd
       -0.08004007 -0.033324245 0.038013108 -0.035712343
000070 ed 8d ab bc 41 94 c4 bd 6c 6f d8 bd 9d 10 81 bd
       -0.020941699 -0.0959859 -0.10568127 -0.06301997
000080 7f 9a b7 bd f1 64 88 bd d5 77 ab bd f7 ca 2d bd
       -0.08965015 -0.06659878 -0.083724655 -0.04242989
000090 a7 fc 89 bd 6d ce ef bc 64 e9 f2 bd 17 7b c2 bd
       -0.06737643 -0.029273236 -0.11860922 -0.09496134
0000a0 a6 71 d0 bd 74 c8 d7 3b 35 47 8e bd 54 98 e1 3c
       -0.10177927 0.006585175 -0.069471754 0.027538456
0000b0 e2 c0 af bd d0 e8 33 bd 12 61 d3 bd 25 37 26 be
       -0.08581711 -0.0439232 -0.10321249 -0.16231973
0000c0 f1 82 f8 3a 1d 0a 5e bd e7 e0 7f bd 00 4f 0c be
       0.0018959922 -0.054208864 -0.062470343 -0.13702011
0000d0 cf bc c6 bd 50 b4 a2 bd 7a a7 54 bd 4d ed c4 bd
       -0.09703981 -0.07944548 -0.05191753 -0.09615574
0000e0 71 b3 94 bc 95 a3 c6 bd 03 cb 66 bb f4 dd ad bd
       -0.01815197 -0.096991695 -0.003521622 -0.084896
0000f0 9d 43 e6 bd 20 5c 8b bd c5 9a a6 bc 07 03 82 bd
       -0.11243365 -0.06804681 -0.020337472 -0.06348234
000100 9b 12 2d be bf b5 b1 bc 75 6a 26 bd 78 69 f0 ba
       -0.16901629 -0.021693109 -0.04062887 -0.0018341979
000110 51 da 0f bd 86 c6 66 bd 94 18 59 bd fc 98 0d bd
       -0.035120312 -0.05634167 -0.053001955 -0.034569725
000120 43 1c 8c bd af e3 26 bd 55 cc 94 bd 81 49 0d be
       -0.06841328 -0.04074448 -0.07265536 -0.13797571
000130 60 86 24 bd d6 ab 88 bd b8 b7 a0 bd 6e 7e ad bd
       -0.040167212 -0.066734 -0.078475416 -0.0847138
000140 c5 dc 12 bd 63 ba 2f be 6c a1 2e be 40 a9 fe bd
       -0.035855073 -0.17160945 -0.17053765 -0.124346256
000150 46 fd aa bd cc d7 db bc 1a 98 14 bd 55 93 de bd
       -0.08349089 -0.026836298 -0.036277868 -0.10867945
000160 4b 3a ad bd 82 b0 00 be 9a 9b bc 3d 0c ab 35 3c
       -0.08458384 -0.12567332 0.09209366 0.011088144
000170 a4 82 eb 3b 51 b8 20 bd 20 3e a7 3d b3 a5 cb bd
       0.0071872044 -0.039238278 0.08166146 -0.09943714
000180 ac 56 89 bd a3 f0 2b bd 88 56 09 be 8f 14 28 3c
       -0.067059845 -0.041977536 -0.13411915 0.010258808
000190 5e ed 44 be a2 ae 2e bd 5c 41 bf bd e7 d0 4c bd
       -0.19231173 -0.04264701 -0.09338638 -0.050003912
0001a0 22 44 1f be 6f d7 89 bd 82 c8 eb 3a c2 4a 1d bb
       -0.15553334 -0.06730544 0.0017988833 -0.0024000858
0001b0 11 71 c6 bd c2 fd 04 bd ac 17 31 3e 6a a3 08 3e
       -0.096895345 -0.032468565 0.17294186 0.13343588
0001c0 27 d3 04 bd fb 0b a0 bb ec 2a 30 bd 96 63 44 3d
       -0.032427933 -0.0048842407 -0.043009683 0.047946535
0001d0 b2 07 4b bc 5d 95 c0 bd 81 20 2f bd ab d0 94 bd
       -0.012391971 -0.09403489 -0.042755608 -0.07266363
0001e0 1e 61 c5 bd 6e 2d d6 bd 6c e1 bc bd b8 26 3f bd
       -0.09637664 -0.10457884 -0.09222683 -0.046667784
0001f0 62 7b d6 bd 38 17 81 bd 93 f8 e3 bc 24 25 ec bd
       -0.10472752 -0.06303257 -0.02782849 -0.115305215

network_body.linear_encoder.seq_layers.2.weight f4 [128, 128]
000000 88 53 b2 3c e6 1f 03 be cb 60 95 bc ae 3a c3 ba
       0.021768346 -0.12805137 -0.018234631 -0.0014894807
000010 08 ec 78 bd 12 34 bd 3d f3 fd 96 be d7 ca ea bd
       -0.060771972 0.09238447 -0.29490623 -0.1146447
000020 92 68 47 3e c5 37 20 bd e8 5b 73 bd 4e 2b 19 be
       0.19473484 -0.039115686 -0.05941382 -0.14957926
000030 a5 50 99 3d 88 9f 83 be 24 b7 06 be 2f dc 1c be
       0.07486085 -0.2570765 -0.131558 -0.15318368
000040 81 b7 bb 3d 74 cd 1e 3e c8 b2 2e be e4 7d fa 3c
       0.0916586 0.15508062 -0.17060387 0.030577607
000050 e2 57 3e 3c 64 9c e4 bc 6f c0 a4 bd 91 16 f9 bd
       0.011617633 -0.027906604 -0.08044516 -0.12162507
000060 20 ac d7 bd b3 be aa bd c3 51 d9 bb e0 51 6a 3d
       -0.10530877 -0.08337154 -0.006632061 0.05720699
000070 10 33 01 bd eb e3 02 3e e6 79 37 bd 22 62 17 be
       -0.031542838 0.12782256 -0.044793986 -0.14783528
000080 6f a1 25 bd 9e 62 06 bd f8 32 c0 bd 99 f1 e0 3d
       -0.04043716 -0.032808892 -0.093847215 0.10983581
000090 79 d2 7a be c1 33 87 3d ab 08 85 3d b4 5e 98 bd
       -0.24494351 0.06601668 0.06495794 -0.07439938
0000a0 4c 79 49 be 16 24 5b 3c 33 6f a3 3c 9d 9f 34 3d
       -0.19675177 0.013375303 0.019950485 0.04409753
0000b0 f9 c9 8d bd a3 c0 9e bd df 65 6a bd 93 3f 09 be
       -0.06923289 -0.07751586 -0.057226058 -0.13403158
0000c0 9e 89 6d bd da 31 91 3d 55 91 cb 3c ad b3 55 be
       -0.05799257 0.070895866 0.024849573 -0.20869322
0000d0 4c 33 0a 3c ee d6 5c be 81 b9 b5 bb 85 62 0b bd
       0.008435082 -0.21566364 -0.0055457954 -0.034029502
0000e0 d0 ba 1e 3d e0 8f 33 bb 5e c4 dc bc 1c c6 b0 bb
       0.038752377 -0.0027398989 -0.026949104 -0.00539471
0000f0 ea a5 c4 bd 47 24 2f 3b 2a 02 8e 3d 36 6b 82 3d
       -0.09601958 0.0026724504 0.069340065 0.06368105
000100 9a 97 8e 3d c0 35 95 3d e1 5f e0 bd 94 be 09 bd
       0.069625095 0.072856426 -0.109557875 -0.033629015
000110 a9 b8 9c 3e 13 36 b0 be d6 ec 18 3e 4a 07 ca be
       0.30609635 -0.34416255 0.14934096 -0.39458686
000120 c4 c1 d7 bd 2d 3a f5 bc 95 36 fd bc 95 71 86 bd
       -0.10535005 -0.029934967 -0.030909816 -0.06564633
000130 ff e6 f8 3d 8e aa dc bd 30 bb e7 3c bf 3c 8e bb
       0.12153434 -0.10774718 0.0282875 -0.0043407376
000140 8d 3c 20 be ad ca 87 bd d3 a4 f3 3c 24 2b d1 3d
       -0.15648098 -0.06630454 0.02974168 0.102133065
000150 3c 04 40 bd 07 18 b5 bd 73 0f 91 bc 01 9f 30 be
       -0.04687904 -0.088424735 -0.017707562 -0.17248155
000160 c1 c3 00 be 6e e2 d4 bd d6 5d 8a 3c e1 df 41 3d
       -0.12574674 -0.103947505 0.016890448 0.04733265
000170 bb ed 58 3d 7e 3d 8e 3d ae 3f 12 bd ce 4a 83 bb
       0.052961092 0.069453225 -0.03570526 -0.00400672
000180 03 78 b9 bd b7 ff af bd e1 90 e9 3d f1 7b c6 3d
       -0.090560935 -0.085936956 0.114045866 0.09691609
000190 47 25 f7 3c 15 84 86 be 44 6f 85 3e bf 97 95 bd
       0.030169142 -0.26272646 0.2606145 -0.07304334
0001a0 15 d9 07 bd 26 b9 14 bc e4 30 1c bc ca 03 48 bd
       -0.03316601 -0.009077346 -0.009533141 -0.04883174
0001b0 16 40 df bc 59 d1 f0 bd 6f 44 d1 3d 4a 89 3d be
       -0.027252238 -0.1175868 0.10218131 -0.18509403
0001c0 c5 5f ce bc ce 9f 1b bd 6d fc 1e bd 5f 50 17 3c
       -0.02519215 -0.0379942 -0.03881495 0.009235471
0001d0 55 51 02 3b 6a a1 0d 3e 82 58 f2 bd aa 04 fd bd
       0.0019884903 0.13831106 -0.11833288 -0.12354405
0001e0 58 cd 33 3d 4b 02 55 3d 6b 03 2f be 9a c5 1b be
       0.043897003 0.05200414 -0.17091148 -0.15212098
0001f0 2d fc 55 3c 26 cd 93 bd 95 29 5d 3e 1e 17 bb bd
       0.013060612 -0.07216863 0.21597894 -0.09135269
000200 b5 c9 c4 bd 52 48 61 bd a3 e3 19 3e 9d 52 1d be
       -0.09608785 -0.05500061 0.15028243 -0.15363546
000210 16 34 1f bc ac df 9c 3d 4a f7 b8 bd 4c 4b ab bd
       -0.009717008 0.076598495 -0.09031542 -0.08363971
000220 1d 5b 0c be 58 b7 7a 3c 9c 0e 90 bd 66 28 11 3e
       -0.13706632 0.015302502 -0.070340365 0.14175567
000230 fc 05 e4 bc 5e 74 3c be f1 39 43 3e 4e 76 56 3b
       -0.027834885 -0.18403766 0.19065072 0.0032724324
000240 8a d9 40 bd 34 71 df bd 36 e5 b1 bd c8 4d 0e 3d
       -0.04708246 -0.10910264 -0.08686297 0.034742147
000250 fd cf a8 3d 81 10 0c be f4 e4 87 3c 49 f2 2a be
       0.082427956 -0.1367817 0.016588666 -0.16693987
000260 db cb b6 bc 66 eb 2a 3c b8 90 bd 3b ff ac e6 3d
       -0.022314003 0.0104321 0.005785074 0.11263465
000270 6b 02 fa bd 49 ff 64 3d 08 50 9d 3d 90 dc bb 3d
       -0.122074924 0.05590752 0.076812804 0.09172928
000280 46 43 d5 3d de d1 96 3d 9a 4d 76 3e 8b a3 d4 bc
       0.10413222 0.07364248 0.2405304 -0.02595689
000290 e4 7c 36 be 76 60 9b bd 80 70 01 bc 69 a0 93 3e
       -0.1782108 -0.07586758 -0.007900357 0.2883332
0002a0 8f 03 1d 3e c8 94 06 bd f0 d4 c8 3c 4b 99 df 3d
       0.15333389 -0.032856733 0.024515599 0.1091791
0002b0 99 38 6c 3e 85 05 0d be e1 89 5a bd b6 14 12 be
       0.23068465 -0.13771637 -0.053354148 -0.14265713
0002c0 65 40 3e bd eb 0a 8d 3d 5e b1 8a bd b8 cb e6 bd
       -0.04644813 0.06886848 -0.06772111 -0.11269325
0002d0 94 49 c0 bc 33 b9 76 3c 7f d6 68 bd 4c c3 a5 bc
       -0.023472585 0.015058803 -0.056845184 -0.020234726
0002e0 95 d1 25 be e8 87 f9 3c 31 28 d0 bd 37 d3 1c bd
       -0.1619323 0.030460313 -0.10163916 -0.038287368
0002f0 b1 5e 19 bd 04 f8 ca bd 01 71 53 bd bb ec 72 3b
       -0.03744382 -0.099105865 -0.05162144 0.0037067372
000300 e4 98 2d 3d 68 ac 49 bb 6d b8 06 3e 1f 11 b9 3d
       0.042382136 -0.0030772928 0.1315629 0.09036469
000310 81 35 c5 bd d4 c5 80 3d 28 c8 f5 bb 0c 6d bb 3d
       -0.09629346 0.06287733 -0.007500667 0.091516584
000320 5c aa ad 3d 2e 88 b2 be 80 96 ce bd 27 cb 8f 3b
       0.08479759 -0.34869522 -0.10087299 0.0043882313
000330 ab 16 38 be f8 3a 91 bd d1 5f 49 3d c8 fd 2e be
       -0.17977397 -0.070913255 0.049163643 -0.17088997
000340 c5 f7 14 3e 28 3b c2 3d 2e b3 eb bd c6 46 4f be
       0.14547642 0.094839394 -0.11508785 -0.20241842
000350 ba a7 5d bd 5c 34 2d ba 5b 8d 07 bc da 83 b8 3b
       -0.054115035 -0.00066072284 -0.008273448 0.0056309523
000360 8a 69 00 be 16 7b 3b be 9f 7a c6 bd 34 e3 17 bd
       -0.1254026 -0.18308672 -0.09691357 -0.037081912
000370 8e 56 18 be 54 c4 23 3e 29 d7 49 be df f1 0e be
       -0.14876768 0.15992862 -0.19710983 -0.13959454
000380 99 e3 06 be 7f c6 1c bd 8b 85 b6 bd ac 21 f9 bc
       -0.13172759 -0.038275238 -0.0891219 -0.030411564
000390 a1 8b 9e bd 9b 0f f8 3d 0e 3c c7 3d 34 b3 20 3d
       -0.07741476 0.121123515 0.097282514 0.0392334
0003a0 4b b8 91 3c 80 da 7b 3d 92 ab 0b 3d 5a 96 30 3d
       0.017788073 0.061487675 0.03409917 0.043112136
0003b0 bd ec 4d be ac e9 43 3d ec 25 de bd 73 13 12 3e
       -0.2010984 0.04783027 -0.10847077 0.14265232
0003c0 f8 40 74 bd db 13 fd bd 80 17 79 bd fe 6c 86 3d
       -0.05963227 -0.12357303 -0.060813427 0.06563757
0003d0 76 1a 41 bd c8 56 1a bb ae cf 67 3d ed 8e 17 be
       -0.047144376 -0.002355026 0.056594543 -0.14800616
0003e0 d2 d2 1a 3d 8e 12 bc 3d 06 00 86 bc c7 fb 5f 3b
       0.03779871 0.091832265 -0.016357433 0.003417717
0003f0 6f df 15 3d ee 56 0f bd cc 98 6c 3c e4 4d db bd
       0.036590036 -0.034995012 0.0144407265 -0.10708216
