Oversteek Simulator/Learning/results/Oversteek-K-02/GoodCar/GoodCar-899994.onnx (onnx, 90288 bytes, 6 tensors)

action_model._discrete_distribution.branches.0.bias f4 [3]
00000000: e63f 3abe c338 9e3e 0742 26be
-0.18188438 0.3090268 -0.16236125

action_model._discrete_distribution.branches.0.weight f4 [3, 128]
00000000: 3ce6 483a 994b 98bc 4161 1a3d f9a7 643d
00000010: 27d7 aaba 883b 393d a4ac ee3d 123d 293c
00000020: 7681 1a3d fe2b 2c3e 11d1 f03d f781 303d
00000030: a9e1 98bd 64c9 0c3e b71f fb3c 577b 5b3d
00000040: 042d 333d aec3 163e 2a0b b33d 6a9d 003d
00000050: 5117 863d 37ea 9b3d 3902 d43d 51ae 0a3e
00000060: f613 373e 6b80 babb 27ca 2e3d bff0 5a3c
00000070: 372d ac3d 7707 0abc 3f33 95bd 8738 9c3c
00000080: 7525 a53c 7322 853d b998 433d d403 0f3d
00000090: 1f7d da3c e0b9 833c f889 e53c 70f1 513d
000000a0: 48e6 b73b 521f e2bb a7d8 aa3c 265e 1cbd
000000b0: 7118 d9bd fcba 95be 47e3 a43c df8f f3bb
000000c0: 247d 093e 27bb 0a3d 1ba2 ac3b f44a 173d
000000d0: 5f38 03bd 3c73 adbb 38e7 cdbb ecda ba3c
000000e0: 5fa9 4aba b4fd b73c c15b ea3c 4998 903c
000000f0: 9f2e 4a3d 8555 473d 518c 1b3e 25e5 1f3c
00000100: 8213 193d a089 513d f436 683d 6355 743e
00000110: 8cc6 843d b22a 6a3d 1e40 84bb 222b 273d
00000120: d3ff 2a3d 4102 903d 6e38 6b3d 9cd6 813d
00000130: 267c 3b3e 63e0 203c 7477 253d 9b77 c5bd
00000140: 7748 513c 3da1 b63c eb60 f33c d65c 153d
00000150: 032e bbbd d5b2 a93d 3380 1a3d 0609 003d
00000160: 9a47 553c ea29 d03d 5436 31bd 8395 833d
00000170: f748 a3bd d92f 693d 55ae 0ebe edd9 19be
00000180: cd8a 2f3d 7d9a b13d 8855 3bbd a7f8 2c3d
00000190: 732a 013d 1188 983b 70ed 963d 8015 5f3d
000001a0: 5e6b 913c e3cd 0c3d d151 c13d 60ff b73d
000001b0: 1453 b53c 9bda e43d cf81 f7bc e13a 3bbd
000001c0: 8283 e13d 11f3 613d 2870 023c 786c 383c
000001d0: cffa b93c 2bf4 593d 7e79 423d 11d7 bb3b
000001e0: 0dad cbbc a85b 953d 0250 24be 90aa 26bd
000001f0: a71c 3c3e bc88 8a3d 9382 983d 025a 0b3c
00000200: 03bf fcbc f196 a3bc 31fc 0fbe 26fa f0bc
00000210: ea28 56bd 016f 4c3d 9bf8 06be 9813 1dbc
00000220: 625a d6bd 5331 f0bd 1599 953d 444e 5dbb
00000230: ea3b 9bbd 6197 1cbd 4e89 c13c 400e 61ba
00000240: d134 6dbd 1fdb 6e3c e1ac 9d3c 8ce7 cc3c
00000250: f20b 213c 3a49 b13c 9804 c0bd 3027 03be
00000260: 1052 08be aa91 7dbd f95b 93bd ab93 0cbc
00000270: 572b c4bd 17ff ecbc 9d0a f5bd 7ab9 8b3c
00000280: 346b 48bc 47c5 2c3c e94b 203d d831 a2bd
00000290: 588d 7ebd 3ad8 b53c f599 a8bd b77d 413c
000002a0: 7bfb 18bd 366f 5cbc 1cb6 bdbc 7608 30bd
000002b0: c3bc 1d3b 1400 efbb 2e51 17bc 19a3 02bc
000002c0: 921a 6f3d 345b c8bc 5140 66bc 941f eebd
000002d0: 17eb cabd ec2d 11bb 5100 12bd 589a acbd
000002e0: 452f 71bd 328a f1bc d690 c1bd a28d 57bc
000002f0: 3da5 73bc 511e 68bd 2afb 87bd b03d 2ebd
00000300: b695 bf3c 7a65 24be 84d4 05bd c03e f0bc
00000310: 7e43 1cbe c71d 08be aa1c 6ebd 935c e83c
00000320: f955 043c 4280 c7bc ad23 00bb 68cf 2f3b
00000330: ac4c 563d 3a35 4cbd 9ccb 0d3c 0540 ecbd
00000340: 54cf 3dbb b493 06be 75ce 5f3c bfaa b13c
00000350: f6ee 92bd 6135 63bd 8b20 fc3b 5f37 9abd
00000360: e387 843c f934 c4bb 8045 a63d 19d2 04be
00000370: 5ed0 2a3d 5dab 4c3c 0a97 4dbd cee5 ac3a
00000380: 8b13 083c 1732 1dbe aeb4 c1bd 8da8 38bd
00000390: 5b2b db3b d623 6fbd 7832 f83b a1fd 13bd
000003a0: 765b fc3b be01 5b3b 358e c6bd e0f6 f1bd
000003b0: ed45 19bc bdc2 0e3b 5bec a53d f478 bc3d
000003c0: b489 2e3d 9b7f 7dbd f9f0 d9bb 9ebc ae3d
000003d0: 984c 41bd 48ca d3bb b5ca eebb ae57 03bc
000003e0: 9d41 dfbc e01f 4abd 8517 c8bd 5acf f9bc
000003f0: c833 75bd 399d 6dbd 9579 94bc e500 6e3c
0.0007663702 -0.018590735 0.037690405 0.055824254 -0.0013034091 0.04522279 0.11654022 0.010329502
0.03772112 0.16813657 0.11758626 0.043092694 -0.07464916 0.137487 0.030654771 0.053584423
0.043744102 0.14723083 0.08742364 0.03140012 0.06547416 0.07613032 0.103519864 0.13543059
0.17878708 -0.005691578 0.042673256 0.013363062 0.084070615 -0.008424631 -0.07285165 0.019069923
0.020159462 0.06500711 0.04775307 0.03491576 0.02667099 0.016079843 0.02801989 0.051255643
0.0056121685 -0.0069007063 0.020855261 -0.038175724 -0.10600365 -0.2924422 0.020127906 -0.0074329223
0.13426644 0.03386989 0.005268348 0.036936715 -0.03203618 -0.005293278 -0.006283667 0.022809468
-0.0007730927 0.022459842 0.028608205 0.01765074 0.049360868 0.048665542 0.15190245 0.009759222
0.03737212 0.05115664 0.056693032 0.23860697 0.06483182 0.057169624 -0.0040359637 0.04081262
0.04174788 0.0703168 0.057426862 0.063397616 0.18309078 0.009819123 0.040397123 -0.096419536
0.012773625 0.022293681 0.0297093 0.03646549 -0.091396354 0.08286063 0.037719917 0.031258605
0.013017559 0.101642445 -0.043264702 0.064250015 -0.07972901 0.056930397 -0.1393369 -0.15024538
0.04285698 0.086720444 -0.045735866 0.04222932 0.031534623 0.0046548923 0.07369506 0.054463863
0.017751392 0.034376036 0.09439433 0.08984256 0.022134341 0.11174508 -0.030213265 -0.04571045
0.11011411 0.055163447 0.00796131 0.01125633 0.022702603 0.053211372 0.047479145 0.005732425
-0.02486279 0.07292873 -0.16046146 -0.040690005 0.18370305 0.06764361 0.0744678 0.008505346
-0.0308528 -0.019969435 -0.14061047 -0.029416155 -0.052285112 0.04991055 -0.13180773 -0.009587191
-0.10466458 -0.11728158 0.07304589 -0.0033768574 -0.07579787 -0.038230304 0.023625042 -0.0008585192
-0.057911698 0.01457861 0.019247474 0.025012754 0.009829508 0.021641362 -0.09375876 -0.12807918
-0.13312554 -0.061906494 -0.07195277 -0.008580129 -0.09578579 -0.02893023 -0.11964915 0.017056216
-0.0122325905 0.010545081 0.039134894 -0.07919663 -0.062146515 0.022197831 -0.0823249 0.011809758
-0.037349205 -0.013454249 -0.023158126 -0.04297682 0.002406881 -0.0072937105 -0.009235663 -0.007973456
0.05837495 -0.024457552 -0.01405342 -0.11627117 -0.09908121 -0.0022152616 -0.035644833 -0.08427876
-0.05888297 -0.029484842 -0.094514534 -0.0131563265 -0.014870939 -0.056669537 -0.066397026 -0.0425393
0.023386817 -0.16054335 -0.032673374 -0.029326797 -0.15260121 -0.13292609 -0.058132805 0.028364455
0.008077138 -0.02435315 -0.0019552514 0.0026826505 0.052319214 -0.04985545 0.008654501 -0.11535648
-0.0028962689 -0.13142282 0.013660063 0.021687863 -0.071744844 -0.055470828 0.007694309 -0.075300924
0.016178077 -0.00598776 0.08118725 -0.12970771 0.04170262 0.012492028 -0.05019287 0.0013191046
0.008305441 -0.15351139 -0.0945829 -0.045082618 0.006688518 -0.058383785 0.0075743757 -0.03613055
0.0077013327 0.0033417786 -0.096950926 -0.11814666 -0.0093550505 0.0021783554 0.08101722 0.092027575
0.042611793 -0.061889272 -0.0066510406 0.085320696 -0.047192186 -0.006463323 -0.007287348 -0.00801651
-0.027252967 -0.049346805 -0.09770111 -0.03049438 -0.059863836 -0.058011267 -0.018124381 0.01452658

network_body.linear_encoder.seq_layers.0.bias f4 [128]
00000000: 2a26 99bc e169 3fbd c5b6 683d 023b f53d
00000010: 5b59 26bd f9e6 22be 1a14 18be fd4d 70be
00000020: 9605 dfbd c5d2 12be ac1c 0ebe af94 54be
00000030: ab52 05be 43e6 4ebd 275b 72be 3441 04bd
00000040: 07f2 eebd 006e f1bd 4793 1fbe 844d 7f3d
00000050: c08e 843c 4948 48be f319 f4bd 2783 a8bd
00000060: 70b8 62be e8c4 73bd 87bb 7cbd 2506 97be
00000070: 9bd0 78be b0ab 87be ad17 31be 4e3d 6cbe
00000080: a0f1 44be b0ba 80be e275 84be 687b 15be
00000090: ccf9 2a3c 3308 dcbd e0b2 9bbc bd12 b1bd
000000a0: 2d6f 02be 979e 86bd 056c 76be 969e 84bd
000000b0: 1926 cfbd 02a1 87bd cb60 61be 3a33 23be
000000c0: 3a29 95be 9165 4ebe f2d8 a4bd b142 26be
000000d0: cade 25be 749a f7bd 660c b3be d1b1 8fbd
000000e0: 704b 973d be21 76bd 6f1f 3fbe 453b 83bd
000000f0: 4297 76be 0f9a 8ebe 01df b2bd 0ecc d9bd
00000100: 6ae4 8abe 849b 0ebe 5643 36be ed90 88be
00000110: c595 5cbe 07ba 66bd c0fb 793d c8fb 3abe
00000120: 5c79 4cbe 5481 4f3d c55a 28be 23aa 38bd
00000130: 84e3 4ebe 2372 d83c ce3f 50be 5964 30be
00000140: c10d 55be 7ceb b5bd 1dbb 893c 0a96 f0bd
00000150: 8820 b73d 4265 053d 8afe 3bbe 31b8 dbbd
00000160: 408f adbe d7e3 3a3d 8fe2 8abd 5bd4 4cbe
00000170: e90f 3fbe 2cdb 50be f126 4fbe 73df f7bd
00000180: dd56 2cbe 3558 1cbe 245d 09be 79c2 febd
00000190: 4526 80be be1d 49be 71dc 48be 2a25 4e3c
000001a0: f94d 03be 85dc 31be d578 9dbd feca 81be
000001b0: 35a9 70be 9b6f a7bc 0b56 46be 1e89 c1bd
000001c0: 80ac 2cbe 0320 21be 8da6 56be 95e6 6abe
000001d0: 5c00 b1bd 28d8 42be 4fc8 57be f64e aebc
000001e0: b7b4 46be fdb5 0bbd 22da f6bd 7e3d 85bd
000001f0: 64fe 37be b1aa 1dbe 39ae 3bbe 0738 36be
-0.018694956 -0.046731833 0.056814928 0.119741455 -0.04061256 -0.15908422 -0.14851418 -0.2346725
-0.10889737 -0.14338215 -0.13878125 -0.20759843 -0.13019817 -0.050512563 -0.23667584 -0.032288745
-0.11667257 -0.11788559 -0.15583526 0.062329784 0.01618135 -0.19558825 -0.11919012 -0.0822814
-0.2214067 -0.059513956 -0.061702278 -0.29496875 -0.24298327 -0.26498175 -0.17294188 -0.23070261
-0.19232798 -0.2514243 -0.25871187 -0.14597857 0.010435533 -0.107437514 -0.019006193 -0.08646152
-0.12737723 -0.06573217 -0.24064644 -0.0647556 -0.101146884 -0.06622507 -0.2200958 -0.1593751
-0.29133016 -0.20155932 -0.080491915 -0.16236378 -0.16198269 -0.120900065 -0.34970397 -0.07016338
0.073874354 -0.060090773 -0.18664335 -0.06407789 -0.24081138 -0.27851912 -0.08733941 -0.106346235
-0.2712739 -0.13926512 -0.17799124 -0.2667307 -0.21541508 -0.056329753 0.061031103 -0.1826011
-0.1996817 0.050660446 -0.16440876 -0.04508413 -0.20203978 0.026421612 -0.2033684 -0.1722578
-0.20806028 -0.08882806 0.016812855 -0.11747368 0.08941752 0.03256727 -0.18358818 -0.10728491
-0.33898354 0.04562744 -0.06781494 -0.20002882 -0.18658413 -0.20396107 -0.20229699 -0.121031664
-0.1683001 -0.15268023 -0.13414437 -0.124394365 -0.25029197 -0.19640252 -0.19615342 0.012582103
-0.12822713 -0.17369278 -0.076890625 -0.25350183 -0.23502047 -0.02043896 -0.1936876 -0.09449981
-0.16862679 -0.15734868 -0.20961972 -0.22939523 -0.08642647 -0.1902777 -0.21072505 -0.021277886
-0.19404875 -0.034109104 -0.12053324 -0.06505869 -0.17968136 -0.15397145 -0.1832818 -0.1779481

network_body.linear_encoder.seq_layers.0.weight f4 [128, 39]
00000000: fe94 b5bc a1e6 1abd cb53 783d 2a30 e6bd
00000010: 3fda ce3e b769 c6bd 2524 e9bd 80f1 f2bc
00000020: 6d3d 143d 0b45 c33e 3759 0c3e be82 a0be
00000030: bf2f 02bd 0209 b2be 42c0 6ebc e33b bdbd
00000040: 3511 173e d0e6 2f3d a9a1 fdbd 2326 8a3b
00000050: 61b9 133b 53c9 abbe 4ee7 b7bc aa8d 333e
00000060: 6068 873e 8b52 10be 8e8f 833e 1549 a2bd
00000070: 6ea8 15be bda8 2bbe 0de5 82bb 3601 09bf
00000080: 32ed 1b3d 0f1e 183e 686e 8cbd cc0d f5bd
00000090: 4b6e a8bd 5a6d 85be e8fb 073e 6af3 27bb
000000a0: cbf7 013e ab41 3a3e d18a 3f3e 5d12 38be
000000b0: 6a41 babb 33a1 fcbd b1e5 133d ead1 b5be
000000c0: 9d66 0b3d 5b0d 9d3e 03de 45be 3247 87bd
000000d0: b56d 2ebe 93d0 a63e b1fc 13be 7a21 543e
000000e0: c18d f13d d065 ae3c d060 303e 9fbf d6bd
000000f0: f6d0 26bf 46cf ac3c 338f 44bc f82f b73d
00000100: edba d33d 7003 4f3e 7b0a bb3c 38ca 513e
00000110: c41f a6be 7526 bb3d 17df 2abf 3f44 663e
00000120: a4ab c2bd 46ef 52be 1537 06bb 37dc 9d3e
00000130: be03 823e b3ce d23d 1bb7 a5be 5abc 79be
00000140: b9d2 413e f51a 01bd b4e6 ae3e 8e41 30be
00000150: 3636 bcbe 1999 f0bc d65a ecbd 7d52 f33d
00000160: c3ef 4abe 9901 c7be 0441 97bd bd45 49bd
00000170: e757 893e 0971 37bd c241 a9be 1624 b93d
00000180: ae46 68bd b8c6 9a3e ab83 133d d5ae 8fbd
00000190: f7e9 513e 72bc 023d 93ee 923e 604a 563d
000001a0: 0cfa e6bd 0065 3f3e 79ed 2d3d 1f8b ea3d
000001b0: 54a5 463e 2f04 dc3d 2bf7 3fbe e6ef 033e
000001c0: 14bb 4d3e b36e 8f3c a30f b83e 0977 973d
000001d0: 688a a3bd 0a89 19be e4b4 99be 6a59 a13e
000001e0: 4dc9 8b3d b78b 5f3e 5b04 383e 0d57 77bc
000001f0: 3135 41bd 9f1b b03e a9f0 6b3e a2ec 83bd
00000200: f713 20be 110c 303e 8fd4 903d fb83 bf3e
00000210: 7fab bb3c c5c9 3e3e dc6f 013c 2a5d 0bbe
00000220: b5d2 fe3d 3cee 6c3e f62f f6bd a936 603e
00000230: 94db 733e 09bb 7e3d 615d 6cbe fea9 32be
00000240: 205e 5fbc cfc2 503d 1be5 ab3e a8c0 febd
00000250: 545d 07bf 3ddd 86bc cdde 16bc 2f76 203e
00000260: 2a70 bbbd 01dd e93e 2c08 c83d b619 743e
00000270: f353 64be c9eb ef3d f502 ca3d 36c6 4b3d
00000280: d41c 813e 1fbe 31be ecf0 c63e 48b0 3b3e
00000290: aa2b 1abc c197 153e 63d6 a63e 7cc6 d4bd
000002a0: 01ec b8bd 6eb8 ccbe 5965 d6bc 608d b73d
000002b0: 897c 02bc d459 1e3e f628 4c3c 9dfc 933d
000002c0: 78e6 bcbb 605e 433e a5a7 123d 6e06 89bc
000002d0: 0066 b13d 1e67 e1bd 6a41 993e 6dfd 23bd
000002e0: 113c 4fbc 9806 383e 6097 40bd be27 0abd
000002f0: c18a 42be 5eb7 133e 142e 3e3b 1241 38be
00000300: f840 3f3d 905e 23be edf7 563e 7f9e 383e
00000310: a1e5 b73d 16c2 e83c 43bc 0d3e 711a 60be
00000320: de23 043d 93ef ac3e 372f 5c3d 88ab d23d
00000330: f5c5 63be 6edf 573e 51c7 9f3d 03b5 3fbd
00000340: 41cf 493e fafa 24be 871f 2cbe 9dc1 353e
00000350: a457 023e 92e8 9bbe 3d06 4fbe 8181 41be
00000360: 0a67 88bd 8dd4 bc3a 0eb1 493e e58f adbe
00000370: e0d7 d83c d1d7 773d 0cf7 133e 3cd7 d4be
00000380: 7aa8 dabd 4dc5 b13e 0307 b13c 69df 2bbe
00000390: 43a1 923d ac76 12be 8761 78bd 1eb3 87be
000003a0: a3a5 883d 8081 40bd 116d 15be 6cef 40be
000003b0: 2535 adbe bae7 163c ea8a cf3d 8080 7b3d
000003c0: c7fb e0bd 57d7 333d c709 273e f8e6 c4be
000003d0: ac2a 00be a6b6 2ebe 7727 c93e a42d 17bc
000003e0: ad47 05be d55d ac3d 242e e5be 9130 62be
000003f0: fc6f 0a3e d53f 0dbe 0d21 28be 7dcf 873e
-0.022165772 -0.0378176 0.060626786 -0.11239655 0.40400884 -0.09688132 -0.11383847 -0.029656172
0.036191393 0.38138613 0.13705908 -0.31349748 -0.031783815 -0.34772497 -0.014572205 -0.09239938
0.14752658 0.04294473 -0.1238435 0.004215972 0.0022540914 -0.33552036 -0.022449162 0.1753451
0.2644682 -0.14093988 0.2569546 -0.079240955 -0.14615032 -0.16763587 -0.00399459 -0.5351747
0.038068004 0.14855216 -0.06856996 -0.11965522 -0.08224162 -0.2605999 0.13279688 -0.0025627264
0.12692182 0.18189113 0.18705298 -0.17975755 -0.0056840675 -0.12335434 0.036107723 -0.35511714
0.034033407 0.30674252 -0.19322972 -0.06605376 -0.17034037 0.32581005 -0.14451863 0.20715895
0.117946155 0.021288782 0.17224431 -0.104857676 -0.651626 0.02109493 -0.011997032 0.08944696
0.10338388 0.20216155 0.022832146 0.20487297 -0.3244611 0.091381945 -0.6674666 0.22486971
-0.09505394 -0.20599088 -0.0020479609 0.30832073 0.2539348 0.10293331 -0.3236626 -0.24388257
0.1892804 -0.03151985 0.34160388 -0.17212507 -0.3676011 -0.029369878 -0.11540763 0.11880968
-0.19818024 -0.38868406 -0.073854476 -0.049138773 0.26824877 -0.044785533 -0.33057982 0.09040086
-0.05670803 0.30229735 0.03601424 -0.070157684 0.20499407 0.031917997 0.28697643 0.052317023
-0.112781614 0.18690872 0.0424628 0.114523165 0.19399005 0.107429855 -0.18746631 0.12884483
0.20090896 0.01750884 0.3594943 0.07395751 -0.07985383 -0.14993683 -0.3002082 0.3151353
0.068255045 0.2183064 0.17970411 -0.015096438 -0.047169868 0.34396073 0.23041023 -0.064416185
-0.15632616 0.17192103 0.07071792 0.3740538 0.022908924 0.18631656 0.0079002045 -0.13609758
0.12442533 0.23137754 -0.120208666 0.21895851 0.23814231 0.06219009 -0.23082496 -0.1744766
-0.013633281 0.050967034 0.3357323 -0.1243909 -0.5287678 -0.016462917 -0.009208393 0.15670083
-0.09152253 0.45676425 0.09767184 0.23837933 -0.22297649 0.11714894 0.09863845 0.049749576
0.25217307 -0.17357682 0.38855684 0.18328965 -0.009409824 0.14608671 0.3258544 -0.103894204
-0.09029389 -0.3998446 -0.026171373 0.08962512 -0.007964262 0.15463954 0.012460938 0.072259165
-0.0057647787 0.1907897 0.03580441 -0.016726699 0.08662033 -0.11005996 0.2993272 -0.040036608
-0.012648598 0.17971265 -0.047019362 -0.033729307 -0.18998243 0.14425418 0.0029019164 -0.17993572
0.04669282 -0.15954041 0.20993014 0.18029211 0.08979345 0.02841286 0.13841347 -0.21885087
0.032260768 0.3377653 0.053755965 0.10286623 -0.22243483 0.21081325 0.078016885 -0.046803486
0.19707967 -0.16111365 -0.16808902 0.17749639 0.12728745 -0.30450875 -0.20217223 -0.18897058
-0.06660278 0.0014406607 0.19696447 -0.33898845 0.026470125 0.060508553 0.1444971 -0.4157046
-0.106766656 0.3472084 0.021609789 -0.16784443 0.071596645 -0.14303082 -0.060639884 -0.26503843
0.06672218 -0.0469985 -0.14592387 -0.18841332 -0.3382961 0.009210521 0.10133918 0.061401844
-0.10985523 0.043906536 0.16312324 -0.38457465 -0.12516278 -0.17061862 0.39287922 -0.00922719
-0.13015623 0.084163345 -0.44761765 -0.22088839 0.13519281 -0.13793881 -0.16418858 0.26525488

network_body.linear_encoder.seq_layers.2.bias f4 [128]
00000000: 5a0c 0fbd bc57 2ebd 01bf a0bd b315 a0bd
00000010: 9449 23be 3a0a e5bd f0da aabc 0145 fbbd
00000020: 1ba2 23bd 39b2 b23d 8753 3abc 72f3 b7bd
00000030: 8cd7 89bd 9896 e33c 3720 22bd 14a8 ccbd
00000040: 6468 aebd cf05 0ebd 1d85 7bbc 60a3 aabd
00000050: f30a 32be 5a54 65bd b129 1abc 0715 3f3d
00000060: b89e 87bd 326c 44bd d0ab 243d 2114 83bd
00000070: 8e18 1ebd 94be d8bd 4fa6 f0bd dcea c0bd
00000080: 0ce2 c7bd 75b8 81bd b5ff c4bd 3bd7 7ebd
00000090: a0e1 84bd e4dd 28bd c5a6 f5bd b5c4 b1bd
000000a0: b5e6 f7bd d335 0abd 5a48 9abd da51 d43b
000000b0: 1b5b bebd 36d0 15bd 8ca3 f0bd b182 33be
000000c0: 9d0c 61bc 62d5 94bd 4b04 b7bd ce87 07be
000000d0: d50a dabd 9fae d1bd de06 80bd 5784 edbd
000000e0: aa3f 0cbd 8942 d9bd 93a4 aeba 8c48 d3bd
000000f0: fb52 0abe f297 98bd 48d7 acba 859e 91bd
00000100: b143 42be 4608 10bd b7dc 68bd 7096 1abb
00000110: d2bd f3bc 4a28 8ebd cc09 7abd cbc3 52bd
00000120: 02b5 a6bd 44b6 bdbc d439 99bd fd52 03be
00000130: bf14 70bd 1da2 cabd 992e babd 024b 9ebd
00000140: a9d3 84bd 7bed 23be 891c 39be bbc9 16be
00000150: 393f b1bd aed9 d4bc 25c8 2dbd f214 e7bd
00000160: 0e61 c8bd 24d1 fdbd b336 df3d c52f ae3b
00000170: 300a 853a 1c1c 28bd b570 b33d a76c eebd
00000180: 8772 8dbd 52af 51bd 2ea4 11be af24 c23c
00000190: afdf 4bbe 2d78 32bd d32b 92bd 7b02 19bd
000001a0: 88a5 2bbe 514b 8bbd 7bb5 a1bc 0837 1c3c
000001b0: a7f1 eebd 6c9c 09bc e181 363e 39fa 143e
000001c0: c5fa ddb9 942d c9bc 34a3 82bd 09d5 4b3d
000001d0: 3fea f9bc e944 b5bd 051e 33bd d610 95bd
000001e0: a13e d1bd f6d4 e1bd 75d6 e3bd 9600 84bd
000001f0: 7271 e7bd b351 a1bd 0e43 ccbc 1e74 09be
-0.03492389 -0.04256414 -0.07848931 -0.07816639 -0.15946037 -0.11183591 -0.02085635 -0.12269021
-0.039949518 0.087253995 -0.0113724535 -0.089819804 -0.067305654 0.02778177 -0.039581504 -0.09992996
-0.08516005 -0.03467351 -0.015351561 -0.083319426 -0.1738699 -0.055988647 -0.009409354 0.046650913
-0.0662207 -0.047954746 0.040202916 -0.06400324 -0.038597636 -0.10583225 -0.11750471 -0.09419796
-0.09759912 -0.063340105 -0.09619085 -0.06221698 -0.06488347 -0.041227236 -0.119946994 -0.08680097
-0.12104551 -0.033742737 -0.07533331 0.006479484 -0.09294721 -0.03657552 -0.11749944 -0.17530324
-0.013735917 -0.07267262 -0.08936366 -0.13235399 -0.10646597 -0.102383845 -0.0625131 -0.115975074
-0.034240402 -0.10608394 -0.0013324193 -0.103165716 -0.13508217 -0.07450856 -0.0013186717 -0.07110313
-0.18971135 -0.03516414 -0.056851115 -0.0023588203 -0.0297536 -0.06941278 -0.0610445 -0.051456254
-0.08139993 -0.0231582 -0.07481733 -0.12824626 -0.058613535 -0.09894202 -0.09090919 -0.0772915
-0.064856835 -0.1600856 -0.18077292 -0.14725392 -0.08654637 -0.025982704 -0.0424272 -0.11283292
-0.09784137 -0.12393406 0.10899105 0.005315753 0.0010150131 -0.041042432 0.087617315 -0.116418175
-0.0690661 -0.05119259 -0.14222786 0.023699133 -0.19909547 -0.04357164 -0.07137265 -0.03735588
-0.16762364 -0.06801475 -0.019739857 0.009534605 -0.11667185 -0.00839911 0.17822982 0.14548577
-0.00042339243 -0.024557866 -0.06378785 0.049763713 -0.030507205 -0.08851034 -0.0437298 -0.07278602
-0.10217024 -0.11026947 -0.11124889 -0.06445424 -0.11300935 -0.07876911 -0.024934318 -0.13423201

network_body.linear_encoder.seq_layers.2.weight f4 [128, 128]
00000000: add2 443d 230f 24be 0548 00bc 8682 be3c
00000010: 4782 f7bc 0b28 ef3d 7afd 87be 9fd0 a1bd
00000020: 9d33 503e edcc efbc a502 28bd b144 0ebe
00000030: 3329 873d bf62 80be 50df 1cbe 92eb 3dbe
00000040: cd3f d13d b3f1 283e 5f09 2cbe b2ae 253d
00000050: ae5a 153d b19b 8abc 8f0a aabd 6f05 1dbe
00000060: b1a8 eebd 277f 9abd c065 873b ea11 813d
00000070: 9a71 99bc 85f6 013e 49de 4cbd 6f3a 18be
00000080: 028f f0bc f518 05bd e748 9fbd 6e2f f43d
00000090: c565 72be f8a4 ba3d 57b5 663d cf3f b3bd
000000a0: 124d 5abe 3968 39bc 287f e43b d9ee 523d
000000b0: 55ec 82bd d1d2 89bd f434 17bd 7124 01be
000000c0: 6f22 57bd d7fb 893d 7735 a53b 961e 34be
000000d0: 0b7e 7b3c f12e 3dbe 9ee9 473c b74f c4bc
000000e0: 9774 823d 116b c83b 8412 05bd 90ed 1b3c
000000f0: 58dd c8bd 87e1 cf3c cd45 a63d 9336 973d
00000100: 5870 9a3d 8041 443d 14eb 95bd effb 2fbd
00000110: 7b10 9a3e 0f1b b8be 36bd 213e 2bc6 d9be
00000120: 75e9 f8bd da59 59bc 5ced 0bbd a09d 9cbd
00000130: 4601 153e 5f1e f2bd 771f ac3c df72 9ebc
00000140: 3e23 0fbe 8d73 44bd 9524 2a3d dd77 e03d
00000150: a1d2 12bd a8f7 9ebd 3d46 d0bb 6c5e 50be
00000160: 7fa2 d6bd 0ab5 00be 51b6 ed3c 111d 903d
00000170: d9c1 ed3c fb65 da3d 47cb 0bbc f914 2b3c
00000180: 9e42 a6bd a201 70bd 3523 0a3e f2d9 e03d
00000190: ec05 883c 0eff 89be c0bc 813e 9d35 4cbd
000001a0: b758 43bd f2fc bfbc 0a1d 33bd 2644 1cbd
000001b0: e2e9 0fbd afd5 dcbd b5be ac3d 6d15 27be
000001c0: bb39 75bc 754b dcbc 4a9f f6bc be9a 4b3d
000001d0: 5e66 aebc 41f4 033e 9a64 d3bd 423f e9bd
000001e0: fba8 813d dec5 b13d 1f0f 42be d50e 11be
000001f0: 4a1d d43c d1e2 f5bd 2379 683e e53e d2bd
00000200: 35ab e8bd 2335 71bd 56cd 0d3e 32b0 27be
00000210: 882e ccbc d428 dc3d bde8 3dbd 952d 55bd
00000220: e15f 16be f65f 833c 4689 f5bc 55f2 293e
00000230: 62b7 9bbc 4458 3abe 24f2 453e 4b25 a63a
00000240: 0d94 70bd ac2c d6bd 75c8 aabd 24b7 fa3c
00000250: b36b 943d 7d70 e3bd 33a4 a73c ac73 2cbe
00000260: d65b 83bc 2dc5 803c 072e 58bb 5633 f53d
00000270: 7b48 c0bd d215 4f3d a869 d63d d2ae a53d
00000280: ce46 e33d d602 a23d dc66 8a3e fb91 10bd
00000290: 3198 0fbe bce3 febc b99b 3c3d 7669 933e
000002a0: 424c 1d3e dcd3 0ebd 8c49 163d a5b9 f63d
000002b0: 52ca 713e fdfb 13be 2dda 20bd 0c00 10be
000002c0: 52e5 17bd 65cb 823d f472 98bd 2814 97bd
000002d0: f34d 36bc a41f 6f3d b793 c2bc 2775 03bd
000002e0: 7ba9 30be 0060 493d 03ee 86bd dcf2 5dbc
000002f0: ed35 d1bc f303 c1bd 3d73 0abc dbbf 903c
00000300: d4e4 993d 5563 5d3c 0aee 303e 30ec df3d
00000310: b9bc afbd cd10 e93d 378e 65bc 108e b43d
00000320: 3520 ad3d 377a c0be 1760 c9bd 32a5 fd3a
00000330: ff79 52be 0b40 a3bd 4f3d ab3d dc3d 28be
00000340: cf7b 433e eb61 0c3e e02f febd 7ead 41be
00000350: bf7d 82bd 01f2 dcbb afbb cf3b 29e4 533b
00000360: 239c d6bd 285d 3dbe ffe2 cfbd 1966 3a3c
00000370: a60a 21be 4989 503e dfc3 39be 71e3 fabd
00000380: 7706 f1bd 17ff 49bc 0182 77bd 03bd 14bd
00000390: 4b98 adbd 722d 123e 5b11 d93d fd14 963d
000003a0: 7454 243d cae1 823d 2e89 fc3c 4623 7d3d
000003b0: c5d9 44be 1e8d 473d 5a0f d5bd 0e47 073e
000003c0: c6d1 b0bc 8b75 0bbe 072c 67bd 7965 bf3d
000003d0: d87b 5fbd 7cf3 a1ba d0d8 d53d b60a 16be
000003e0: 7763 b53d 00c4 ae3d ae56 0dbd 7eb0 9e3c
000003f0: b195 8f3d 0dee 19bd e2ce 433b 237b d2bd
0.04805248 -0.16021399 -0.007829671 0.023255598 -0.030213488 0.116775595 -0.26560575 -0.079011194
0.20332189 -0.02927252 -0.041018147 -0.13893391 0.06599655 -0.25075337 -0.15319562 -0.18546894
0.10217247 0.16498451 -0.1680045 0.040449806 0.036463432 -0.016919943 -0.08302795 -0.15334104
-0.11653269 -0.07543784 0.0041320026 0.06302245 -0.018730927 0.12691696 -0.050016675 -0.1486604
-0.029365066 -0.032494504 -0.07777577 0.11923109 -0.23671634 0.091134965 0.056325283 -0.08752405
-0.21318462 -0.0113163525 0.006973166 0.051497314 -0.06392733 -0.06729663 -0.036915734 -0.12611558
-0.052523073 0.06737488 0.005041774 -0.17589793 0.015349875 -0.18474938 0.012201695 -0.023963792
0.06369894 0.006116279 -0.03248836 0.0095170885 -0.09807843 0.025376095 0.08118782 0.07383456
0.07540959 0.04791403 -0.07320228 -0.042964872 0.300907 -0.35958144 0.15794834 -0.42534003
-0.121539034 -0.013266051 -0.03416191 -0.07647252 0.14551267 -0.11822199 0.021011097 -0.019341884
-0.13978288 -0.04796176 0.041538794 0.10960362 -0.035845403 -0.077620804 -0.0063560293 -0.20348519
-0.104802124 -0.12569061 0.0290176 0.07036794 0.029023098 0.106639825 -0.008532352 0.010442012
-0.08118175 -0.058595307 0.13489993 0.1097907 0.016604386 -0.26952404 0.25339317 -0.049855817
-0.047692027 -0.023436043 -0.043728866 -0.03815093 -0.035135157 -0.107829444 0.08434812 -0.16316767
-0.014967377 -0.02689145 -0.030105252 0.04970812 -0.021289047 0.12886144 -0.103219226 -0.113890186
0.063310586 0.08680318 -0.1895108 -0.14165814 0.025892872 -0.120061524 0.2270246 -0.102659024
-0.1136078 -0.058888566 0.1384786 -0.16375807 -0.024924532 0.10749975 -0.046364535 -0.052045424
-0.14685012 0.016036969 -0.029972684 0.16596349 -0.019008342 -0.18197733 0.1933065 0.0012675909
-0.058734942 -0.10457739 -0.083390154 0.030604906 0.072471045 -0.1110544 0.020464038 -0.16841
-0.016035002 0.01571902 -0.0032986419 0.11972682 -0.093888246 0.05055792 0.10469371 0.08089985
0.11097489 0.07910697 0.270316 -0.035295468 -0.140229 -0.031114452 0.046046946 0.28791398
0.15361121 -0.034870014 0.036691234 0.12047128 0.23612335 -0.14451595 -0.03927057 -0.14062518
-0.03708393 0.06386451 -0.074438006 -0.073768914 -0.011126983 0.058379784 -0.023752077 -0.032094147
-0.17252152 0.04916382 -0.06588366 -0.013546672 -0.02553841 -0.094245814 -0.0084503265 0.017669609
0.075143486 0.013512452 0.17278305 0.10933721 -0.08580918 0.113801576 -0.014010957 0.08816159
0.08453409 -0.37593243 -0.09832781 0.00193516 -0.2055435 -0.079711996 0.08361303 -0.16429847
0.19090198 0.13709228 -0.12411475 -0.18913838 -0.063716404 -0.0067427163 0.0063395123 0.003233204
-0.104789995 -0.18492568 -0.10150718 0.011376881 -0.15726718 0.2036487 -0.18141125 -0.12250412
-0.11768811 -0.012328885 -0.060426716 -0.036313068 -0.08476313 0.14275149 0.105990134 0.07328222
0.040119603 0.06390722 0.030827131 0.061801217 -0.19223697 0.048718564 -0.10403319 0.13210699
-0.021584403 -0.13619058 -0.056438472 0.09345526 -0.054561466 -0.0012355889 0.10441744 -0.14652523
0.08856862 0.08533478 -0.034506492 0.019371267 0.07010973 -0.03758054 0.002987795 -0.10277393
