Oversteek Simulator/Learning/results/Oversteek-K-02/GoodCar/GoodCar-999984.onnx (onnx, 90288 bytes, 6 tensors)

action_model._discrete_distribution.branches.0.bias f4 [3]
000000 34 29 40 be 9b bd a2 3e 17 71 26 be
       -0.18765718 0.31785282 -0.16254078

action_model._discrete_distribution.branches.0.weight f4 [3, 128]
000000 09 08 c1 bc e7 ce 49 bb c7 e1 4a 3d f7 5c 36 3d
       -0.023563402 -0.003079349 0.049531724 0.044522252
000010 19 a5 9d bc 23 0b 55 3d da 5e f9 3d a1 98 b1 bc
       -0.019243764 0.052012574 0.121762946 -0.021679224
000020 90 64 97 3d 90 71 0e 3e 46 96 e2 3d 6e 6a 18 3d
       0.07392228 0.13910508 0.11063819 0.037210874
000030 05 e6 96 bd 0c 4b ee 3d d6 f3 52 3c 11 e1 8b 3d
       -0.073680915 0.11635408 0.012875518 0.068300374
000040 72 e6 fa 3c a6 26 fa 3d ee d1 e0 3d a5 9e eb 3b
       0.030627463 0.12214403 0.10977541 0.0071905428
000050 b7 30 37 3d f9 93 8b 3d f6 ea 7f 3d 24 98 08 3e
       0.044724192 0.06815333 0.062479936 0.13339287
000060 30 0a 38 3e e6 8c 5d bd e8 a1 19 3d e5 07 9a 39
       0.17972636 -0.05408945 0.03750792 0.0002937905
000070 30 26 ae 3d b8 96 a7 bc 3f 5c 74 bd 5b 6b 95 bc
       0.085033774 -0.02045761 -0.059658285 -0.018239668
000080 31 92 01 3c 6a cf 22 3d f0 35 30 3d 7f f1 36 3d
       0.00790839 0.039748587 0.04302019 0.044663902
000090 a4 0f 82 bc 6a 08 b0 3c e7 f4 c3 3c 37 7e 85 3c
       -0.015876599 0.021488387 0.02392049 0.016295535
0000a0 ef 4e 47 bd 27 a9 8f bc 18 d1 86 3d 4a a5 26 bd
       -0.04865926 -0.017536713 0.0658285 -0.040684976
0000b0 8c 50 a3 bd 1a be 88 be 7b d0 12 bd a4 11 ad bc
       -0.079743475 -0.26707536 -0.035843354 -0.021126576
0000c0 51 5b f2 3d ec 13 24 3c af 0c 2d bd a6 08 24 3d
       0.118338235 0.010014515 -0.042248424 0.04004731
0000d0 94 8e 65 bd 76 b7 34 bd 5e f0 98 bc c9 55 19 3c
       -0.056044176 -0.044120274 -0.018669304 0.009358832
0000e0 1e 49 70 bc b4 f8 a3 3c ba e2 ea 3c 70 8d 9e bc
       -0.01466587 0.020016052 0.028672565 -0.019354552
0000f0 06 a3 05 3d a2 c3 59 3d 15 92 f8 3d db ab ef 3b
       0.032626174 0.053165086 0.12137238 0.007314188
000100 af fc 88 bc 17 03 1a 3d 0d 60 4a 3d 90 5d 44 3e
       -0.016722051 0.037600603 0.049408007 0.19176316
000110 35 a5 a4 3d 7f 95 12 3d 7a 74 2f bd 37 f7 25 3d
       0.08039323 0.0357871 -0.04283569 0.040518966
000120 69 d4 86 bc 91 e9 29 3d e7 d6 30 3d 0e 4e a7 3c
       -0.016458707 0.041482512 0.043173697 0.020422962
000130 71 75 2a 3e f0 6d 33 bc 0e f5 90 3b 53 40 9c bd
       0.16646363 -0.010951504 0.004423744 -0.07629456
000140 cd 04 9b bc 98 6b 5f 3d 1c 25 f6 3c ca a4 1c bb
       -0.018923188 0.05454597 0.030046992 -0.0023901933
000150 c5 c0 52 bd 37 8e 2b 3d 79 a9 96 3b ad a5 02 3d
       -0.05145337 0.041883674 0.0045978394 0.031896282
000160 e1 99 29 3c 06 74 a5 3d d6 76 a3 bc 28 b1 21 3d
       0.010351629 0.0807877 -0.019954126 0.03947559
000170 10 f3 8e bd 11 71 72 3d ae c2 d4 bd b3 46 0c be
       -0.06979954 0.05918986 -0.10388695 -0.13698845
000180 50 8d e6 3c c2 91 cd 3d 42 1d 3d bd 6e 9a 7f 3d
       0.028143555 0.10037567 -0.04617048 0.062403135
000190 ff f3 14 bd af 7d 9a 3b 31 b9 6e 3d 8a 94 05 3d
       -0.036365505 0.0047146897 0.05828208 0.03261236
0001a0 95 1e 00 3d da 6a de 3b ff c1 5c 3d 14 40 04 3e
       0.031279165 0.00678764 0.053895947 0.12915069
0001b0 e5 64 18 bd ad ca af 3d 55 b0 10 bc c8 cb d4 bc
       -0.037205596 0.08583579 -0.008831103 -0.025976077
0001c0 6c 54 b8 3d 74 3a 15 3d 4f 4e 49 bb a9 82 98 3c
       0.09000477 0.0364327 -0.0030716842 0.018616991
0001d0 ee 12 0e 3c 45 d0 87 3c 01 cc 9c 3c 47 8d c4 3a
       0.008671505 0.016578803 0.019140245 0.0014995717
0001e0 68 f1 7a bc f7 20 80 3d 0c 2a 22 be c5 e1 78 bd
       -0.015316345 0.062562875 -0.15836352 -0.060762186
0001f0 c1 21 2b 3e 55 05 8c 3d c4 16 80 3d f3 fb a0 bb
       0.16712095 0.068369545 0.06254342 -0.004912847
000200 3d ad 99 bc 72 75 67 bc 36 1b fc bd c2 4b 2d 3c
       -0.018759364 -0.014127122 -0.123098776 0.010577144
000210 9d 71 63 bd 59 df ca 3c 78 e7 eb bd 95 0c 8b 3c
       -0.055528272 0.024764704 -0.115187585 0.016973773
000220 6d 41 12 be 4a 86 9e bd d5 1d 9f 3d ae fd 85 3c
       -0.1428277 -0.07740457 0.07769362 0.016356315
000230 56 91 9e bd 36 c1 3e bd 2d 4e 05 3d e3 77 55 3c
       -0.077425644 -0.04657098 0.032545257 0.0130290715
000240 aa 7a 59 bd 02 bc 1a 3d 99 c6 d6 bb 48 4a 1e 3d
       -0.053095497 0.037776954 -0.0065544364 0.03864506
000250 79 da 06 3d 35 05 55 3d 62 af 50 bd 67 e8 c9 bd
       0.032923196 0.05200692 -0.050948508 -0.0985878
000260 a6 48 fa bd a4 6d 6c bc f3 04 89 bd 54 b4 ba bc
       -0.12220888 -0.014430437 -0.06690397 -0.022791065
000270 62 19 d9 bd 49 87 fa bc 18 35 22 be e9 bf 2b 3d
       -0.106005445 -0.030582087 -0.15840566 0.041931067
000280 b6 85 08 bb 9e 5a 0b 3d 0a 1b 2e 3d ef 99 f6 bd
       -0.002083165 0.034021966 0.042506255 -0.12041079
000290 c9 e4 d9 bc 4a 4b 4c 3c cb ae ab bd 9c 20 32 3d
       -0.026598351 0.012469122 -0.083829485 0.04348813
0002a0 f2 69 0f 3c 79 c6 29 bc a6 1c 52 bd 74 ff 3e bd
       0.008753287 -0.010362261 -0.051296853 -0.046630338
0002b0 84 f3 48 bd 2e 64 7c bc 0a 26 0c 3d 4b c5 2a bc
       -0.04906036 -0.015404744 0.034215964 -0.010423015
0002c0 1a f1 a3 3d 0d 73 26 bb d7 5f 70 3c ef ae 11 be
       0.08004971 -0.0025398165 0.0146712875 -0.14226888
0002d0 d0 49 d1 bd 73 b8 ef 3c d7 02 a5 bc 67 f9 a9 bd
       -0.10219157 0.029262757 -0.020142956 -0.08299523
0002e0 20 37 8a bd 68 c9 b3 bb ca fd 81 bd f6 9f c5 3b
       -0.067487955 -0.005486656 -0.063472345 0.0060310317
0002f0 7e 0f 81 bc fa bd 98 bd eb 50 4e bd 0a 80 31 bd
       -0.015754458 -0.0745811 -0.05037014 -0.043335
000300 0a 77 49 3d de 5f 21 be ab 38 97 bc b5 aa 93 3c
       0.04918579 -0.15759227 -0.018459639 0.018025735
000310 2e e7 37 be 08 a5 ea bd 88 03 bd bc ed 8a 0a 3d
       -0.17959282 -0.114572585 -0.023072973 0.033823896
000320 48 f2 18 3d 62 ce 8f 3b e9 2c 17 3d 8b ad ec 3c
       0.037340432 0.0043886164 0.036908064 0.028891345
000330 a3 e2 69 3d 0d a3 1d bd 01 b9 f6 3c bd e8 22 be
       0.057100903 -0.038485575 0.030117514 -0.15909095
000340 c7 8b 31 3c 47 eb 0e be a7 50 45 3c 07 2e 19 3d
       0.010836548 -0.13956939 0.012043155 0.03739741
000350 1b 51 12 be 09 06 0c bd 1c 01 d1 3c cf aa 58 bd
       -0.14288752 -0.034185443 0.025513224 -0.05289727
000360 2f ac d7 3c 00 91 53 3c b5 81 94 3d fc ca 88 bd
       0.02632722 0.012912989 0.07251302 -0.06679341
000370 c6 70 a8 3c 8c 30 e3 3b 76 4e ec bd fe 0c 73 3c
       0.020561587 0.0069332775 -0.11538403 0.014834641
000380 bd f6 a7 3c 0c e4 3d be 3d 2b e5 bd 1b 3d e9 bc
       0.020503396 -0.18544024 -0.11189888 -0.02847152
000390 16 45 3c 3d 05 e5 bd bc 78 f3 c0 3c c4 bf f3 bb
       0.045964323 -0.023180494 0.023553595 -0.0074386317
0003a0 6d a3 19 bc 31 15 93 3c 6a 10 99 bd 7b 85 e8 bd
       -0.009377343 0.01795444 -0.07473834 -0.113535844
0003b0 55 a3 e2 3c 7e 52 b0 3c e6 0c 87 3d 63 9f a8 3d
       0.027665773 0.02152371 0.06594257 0.082335256
0003c0 a5 3f 84 3d 88 4b 56 bd d4 cc 95 3b ba 6e c4 3d
       0.06457452 -0.052318126 0.0045715366 0.09591432
0003d0 b6 f2 23 bd f9 eb 05 bb df a9 21 3c 00 a9 9d bb
       -0.04002639 -0.002043484 0.009867161 -0.004811406
0003e0 17 98 a4 bc 02 3c 01 bd 74 41 e3 bd b7 6c 96 bc
       -0.020092053 -0.03155137 -0.110964686 -0.018362386
0003f0 e0 40 f8 bc d0 6d b6 bd b9 c3 a5 bc c0 34 a1 3c
       -0.030304372 -0.08907664 -0.02023493 0.019678473

network_body.linear_encoder.seq_layers.0.bias f4 [128]
000000 b6 ff 42 bd af 26 85 bd f0 ad ec 3c 3b 8a c2 3d
       -0.047607146 -0.06501519 0.028891534 0.094990216
000010 d6 86 88 bd 87 d8 25 be 29 85 39 be cc 5a 72 be
       -0.06666343 -0.1619588 -0.18117203 -0.23667449
000020 b0 59 05 be 6a 94 2c be 66 9f fa bd c7 f6 62 be
       -0.13022494 -0.1685349 -0.12237434 -0.2216445
000030 2d 8b 34 be f1 e9 d8 bd 9e 10 6b be 76 47 f2 bc
       -0.17631216 -0.10591496 -0.22955558 -0.02957509
000040 95 35 0c be 90 c9 f7 bd eb ec 37 be 75 4d 6c 3d
       -0.13692315 -0.12098992 -0.17961471 0.057691056
000050 ab 60 15 3b 83 d6 4e be 02 99 fe bd 1b 5f c3 bd
       0.0022793214 -0.20199017 -0.12431528 -0.09539624
000060 9a 8c 75 be 8e 7c 8b bd e0 75 c0 bd 0f dc a2 be
       -0.23979416 -0.06810866 -0.09397483 -0.31808516
000070 ba 3c 87 be 15 a1 a8 be 32 2c 24 be be ff 85 be
       -0.26413518 -0.32935396 -0.16032484 -0.26171678
000080 a6 80 5b be 76 54 79 be 5c 1f 82 be 5a 85 21 be
       -0.21435794 -0.24348626 -0.2541455 -0.15773526
000090 fe fd 80 3b a0 d0 d1 bd 26 96 fe bc 8e 54 a2 bd
       0.003936528 -0.1024487 -0.031077456 -0.07926284
0000a0 59 ea d5 bd b0 e8 a4 bd c5 1b 6d be c8 c8 b7 bd
       -0.10445089 -0.08052194 -0.23155124 -0.08973843
0000b0 79 54 ca bd 6d a6 c0 bd c4 d1 76 be 09 f7 3e be
       -0.09879393 -0.09406743 -0.24103457 -0.18648924
0000c0 b3 60 97 be 82 3c 68 be 8f 3a dc bd b4 2b 1a be
       -0.29565963 -0.22679332 -0.10753357 -0.15055734
0000d0 94 d2 4b be 06 d0 f1 bd e2 2a af be 52 c9 a2 bd
       -0.19904548 -0.118072554 -0.34212404 -0.07948555
0000e0 2a 70 64 3d 79 54 c4 bd 84 cf 5c be 27 01 8c bd
       0.05577103 -0.095864244 -0.21563536 -0.06836157
0000f0 f4 04 86 be 0f f5 9d be 71 13 cf bd 66 3f 09 be
       -0.26175654 -0.30851027 -0.1011113 -0.13403091
000100 f2 bf 9a be c6 ec 28 be 6b c2 3c be f8 d7 8d be
       -0.30224568 -0.16496572 -0.1843354 -0.27703834
000110 85 81 7d be a1 89 2e bd 03 fb dc 3c cb 0c 58 be
       -0.24756439 -0.042611722 0.02697516 -0.2109863
000120 1b 93 47 be a4 4e 19 3d 1e 65 3f be 2e df 28 bd
       -0.1948971 0.037428513 -0.18690917 -0.041228466
000130 f3 8b 49 be cf 44 b4 3c 22 e1 51 be e0 11 4c be
       -0.19682293 0.022005467 -0.20496038 -0.19928694
000140 2b 50 55 be 7b 82 af bd 46 8c 2a 3b 59 6d eb bd
       -0.20831363 -0.08569809 0.002602355 -0.11495466
000150 68 b7 96 3d 34 67 02 3d 85 63 47 be 14 63 04 be
       0.07359201 0.031836703 -0.19471557 -0.1292842
000160 0b b6 af be 0c b3 5f 3d c6 2a bc bd 37 4b 53 be
       -0.34318575 0.05461411 -0.09187846 -0.20634161
000170 5b 0c 6c be ff 30 64 be 52 8f 72 be a9 59 08 be
       -0.23051588 -0.22284316 -0.23687485 -0.13315453
000180 a2 0a 56 be 93 c2 3a be 63 61 19 be cd f9 43 be
       -0.20902494 -0.18238287 -0.14978556 -0.1913826
000190 da 17 86 be 3e 1d 35 be b3 a6 4b be 0c 32 07 bc
       -0.26190072 -0.17686936 -0.1988781 -0.008251678
0001a0 7a ac 0d be 82 49 47 be 38 52 bd bd 99 e1 92 be
       -0.13835326 -0.19461635 -0.092441976 -0.28687742
0001b0 de 48 72 be a1 31 18 bd d5 68 22 be 14 71 d2 bd
       -0.23660609 -0.037156705 -0.15860303 -0.10275474
0001c0 3c 07 11 be c3 c3 36 be a8 92 60 be e1 1c 69 be
       -0.14162916 -0.17848115 -0.21930945 -0.22764923
0001d0 14 a7 cb bd c6 5a 29 be c9 a7 6d be 40 69 f1 bc
       -0.09943977 -0.16538534 -0.23208536 -0.029469132
0001e0 3b 66 84 be ac 90 84 bd 91 ba ef bd 4f 84 bd bd
       -0.25859246 -0.064729065 -0.117055066 -0.092537515
0001f0 b2 5b 41 be 47 c0 29 be a5 1c 4f be e9 a6 64 be
       -0.18882635 -0.16577254 -0.20225771 -0.22329296

network_body.linear_encoder.seq_layers.0.weight f4 [128, 39]
000000 fe 94 b5 bc 62 e5 1a bd cb 53 78 3d 2a 30 e6 bd
       -0.022165772 -0.037816413 0.060626786 -0.11239655
000010 a7 b7 cc 3e b7 69 c6 bd 1e 23 e9 bd 80 f1 f2 bc
       0.39983866 -0.09688132 -0.11383651 -0.029656172
000020 6d 3d 14 3d ef cc c0 3e 37 59 0c 3e 83 82 a0 be
       0.036191393 0.37656352 0.13705908 -0.31349573
000030 bf 2f 02 bd 02 09 b2 be 6f 15 97 bc e3 3b bd bd
       -0.031783815 -0.34772497 -0.018442838 -0.09239938
000040 d6 11 17 3e d0 e6 2f 3d a9 a1 fd bd d2 c2 99 3b
       0.14752898 0.04294473 -0.1238435 0.004692414
000050 61 b9 13 3b 41 13 a3 be 4e e7 b7 bc aa 8d 33 3e
       0.0022540914 -0.31850627 -0.022449162 0.1753451
000060 dc ce 82 3e 8b 52 10 be f5 8f 83 3e 15 49 a2 bd
       0.25548446 -0.14093988 0.25695768 -0.079240955
000070 6e a8 15 be 36 66 34 be 0d e5 82 bb bd 8a 10 bf
       -0.14615032 -0.17617115 -0.00399459 -0.564617
000080 32 ed 1b 3d 0f 1e 18 3e a1 a7 9f bd 84 8d de bd
       0.038068004 0.14855216 -0.077956446 -0.10866836
000090 21 23 d9 bd 02 30 6f be da 4f d5 3d 6a f3 27 bb
       -0.106024034 -0.23358157 0.10415621 -0.0025627264
0000a0 9e 74 02 3e ab 41 3a 3e d1 8a 3f 3e 89 5e 45 be
       0.12739798 0.18189113 0.18705298 -0.19274344
0000b0 6a 41 ba bb 01 a7 fb bd b1 e5 13 3d ea d1 b5 be
       -0.0056840675 -0.12287713 0.036107723 -0.35511714
0000c0 34 f9 be 3c 5b 0d 9d 3e f0 60 45 be 32 47 87 bd
       0.023312189 0.30674252 -0.1927526 -0.06605376
0000d0 b5 6d 2e be c6 45 a1 3e b1 fc 13 be 90 9e 54 3e
       -0.17034037 0.31498545 -0.14451863 0.20763612
0000e0 c1 8d f1 3d d0 65 ae 3c f8 73 2f 3e 9f bf d6 bd
       0.117946155 0.021288782 0.17134082 -0.104857676
0000f0 ba 61 25 bf 46 cf ac 3c 33 8f 44 bc d6 0c 97 3d
       -0.64602244 0.02109493 -0.011997032 0.07375495
000100 ed ba d3 3d 86 80 4f 3e 7b 0a bb 3c 38 ca 51 3e
       0.10338388 0.20263872 0.022832146 0.20487297
000110 1e 13 a9 be 75 26 bb 3d cf 41 2b bf 3f 44 66 3e
       -0.33022398 0.091381945 -0.6689729 0.22486971
000120 a4 ab c2 bd 70 7e 62 be 1c 0d 77 bb b8 62 90 3e
       -0.09505394 -0.22118545 -0.0037697023 0.28200316
000130 57 1b 82 3e 2a 2e c6 3d 1b b7 a5 be 4e c6 84 be
       0.25411484 0.09676774 -0.3236626 -0.25932544
000140 b9 d2 41 3e f5 1a 01 bd 78 8a a3 3e 8e 41 30 be
       0.1892804 -0.03151985 0.3194158 -0.17212507
000150 0c 94 c4 be 19 99 f0 bc d6 5a ec bd ba b0 c1 3d
       -0.383942 -0.029369878 -0.11540763 0.09457536
000160 c3 ef 4a be 6e 5f cf be 04 41 97 bd bd 45 49 bd
       -0.19818024 -0.40502495 -0.073854476 -0.049138773
000170 c6 ba 77 3e 09 71 37 bd eb 9f b1 be 16 24 b9 3d
       0.24192342 -0.044785533 -0.3469232 0.09040086
000180 ae 46 68 bd 2b 2d 8c 3e ab 83 13 3d ab 0e a8 bd
       -0.05670803 0.2737821 0.03601424 -0.08205923
000190 f7 e9 51 3e 72 bc 02 3d 54 dd 87 3e 60 4a 56 3d
       0.20499407 0.031917997 0.26536047 0.052317023
0001a0 64 39 04 be 00 65 3f 3e 79 ed 2d 3d 94 7f a5 3d
       -0.12912518 0.18690872 0.0424628 0.08080974
0001b0 54 a5 46 3e e3 fd b0 3d 2b f7 3f be e6 ef 03 3e
       0.19399005 0.08642175 -0.18746631 0.12884483
0001c0 a7 e1 37 3e b7 9c 8d 3c 7c 01 ad 3e 61 96 55 3d
       0.17957173 0.017286642 0.33790195 0.052145366
0001d0 d9 7d 51 bd 0a 89 19 be 15 af 99 be 6a 59 a1 3e
       -0.05114541 -0.14993683 -0.3001639 0.3151353
0001e0 4d c9 8b 3d 8b 85 53 3e 5b 04 38 3e 76 20 76 bc
       0.068255045 0.20656411 0.17970411 -0.015022388
0001f0 31 35 41 bd 9f 1b b0 3e 53 6d 5d 3e a2 ec 83 bd
       -0.047169868 0.34396073 0.21623735 -0.064416185
000200 95 00 20 be 11 0c 30 3e 8f d4 90 3d 74 ab b9 3e
       -0.15625222 0.17192103 0.07071792 0.3626362
000210 7f ab bb 3c 9c e2 3e 3e dc 6f 01 3c 2a 5d 0b be
       0.022908924 0.18641132 0.0079002045 -0.13609758
000220 5a fa df 3d 3c ee 6c 3e 12 b1 ba bd a9 36 60 3e
       0.10936423 0.23137754 -0.09115805 0.21895851
000230 94 db 73 3e 9f b4 48 3d 61 5d 6c be 37 8b 32 be
       0.23814231 0.04900038 -0.23082496 -0.17435919
000240 20 5e 5f bc cf c2 50 3d 6b d3 a1 3e a8 c0 fe bd
       -0.013633281 0.050967034 0.31606612 -0.1243909
000250 23 02 0c bf 3d dd 86 bc cd de 16 bc d4 1a 11 3e
       -0.5469076 -0.016462917 -0.009208393 0.1417039
000260 2d 3d a9 bd 69 c3 e0 3e be 6d f2 3d 85 91 50 3e
       -0.082636215 0.43899086 0.11837338 0.20368011
000270 f3 53 64 be c9 eb ef 3d f5 02 ca 3d 36 c6 4b 3d
       -0.22297649 0.11714894 0.09863845 0.049749576
000280 0e 3f 84 3e 1f be 31 be ec f0 c6 3e 48 b0 3b 3e
       0.25829357 -0.17357682 0.38855684 0.18328965
000290 aa 2b 1a bc 03 22 1d 3e 63 d6 a6 3e 7c c6 d4 bd
       -0.009409824 0.15345006 0.3258544 -0.103894204
0002a0 01 ec b8 bd 6e b8 cc be 14 81 bd bc 60 8d b7 3d
       -0.09029389 -0.3998446 -0.023132838 0.08962512
0002b0 63 7c 02 bc d4 59 1e 3e f6 28 4c 3c 51 db 9f 3d
       -0.007964226 0.15463954 0.012460938 0.07805503
0002c0 78 e6 bc bb f4 37 49 3e a5 a7 12 3d 6e 06 89 bc
       -0.0057647787 0.1965025 0.03580441 -0.016726699
0002d0 d7 86 b1 3d 1e 67 e1 bd 6a 41 99 3e 6d fd 23 bd
       0.08668297 -0.11005996 0.2993272 -0.040036608
0002e0 11 3c 4f bc b6 c0 2f 3e 60 97 40 bd 51 0e 8b bd
       -0.012648598 0.17163357 -0.047019362 -0.0678984
0002f0 c1 8a 42 be 5e b7 13 3e cf ba 22 3b 3a c5 27 be
       -0.18998243 0.14425418 0.0024830585 -0.1638383
000300 20 03 b1 3c 48 7c f4 bd af 0b 43 3e 7f 9e 38 3e
       0.021607935 -0.11937767 0.19047426 0.18029211
000310 de 2e b6 3d 16 c2 e8 3c 43 bc 0d 3e a2 db 66 be
       0.08895658 0.02841286 0.13841347 -0.22544721
000320 de 23 04 3d 47 7e ac 3e 37 2f 5c 3d 88 ab d2 3d
       0.032260768 0.33690092 0.053755965 0.10286623
000330 8d f2 6a be 6e df 57 3e f3 01 9e 3d 03 b5 3f bd
       -0.22944088 0.21081325 0.077152155 -0.046803486
000340 41 cf 49 3e c0 47 2e be 87 1f 2c be 30 de 34 3e
       0.19707967 -0.17019558 -0.16808902 0.17662883
000350 a4 57 02 3e 92 e8 9b be 69 8d 59 be 81 81 41 be
       0.12728745 -0.30450875 -0.2124535 -0.18897058
000360 18 50 07 be 8d d4 bc 3a 0e b1 49 3e 81 9c b0 be
       -0.13214147 0.0014406607 0.19696447 -0.34494403
000370 e0 d7 d8 3c 88 45 74 3d 0c f7 13 3e 3c d7 d4 be
       0.026470125 0.059636623 0.1444971 -0.4157046
000380 28 08 f4 bd 4d c5 b1 3e 46 cd 7d ba 69 df 2b be
       -0.11915618 0.3472084 -0.0009681772 -0.16784443
000390 43 a1 92 3d d9 44 1c be e6 72 89 bd 49 39 8a be
       0.071596645 -0.15260638 -0.06711368 -0.2699683
0003a0 5c 87 1e 3d 9f e8 ca bc 11 6d 15 be ce 0e 41 be
       0.038703308 -0.024769126 -0.14592387 -0.18853304
0003b0 25 35 ad be ba e7 16 3c d4 0e 82 3d 80 80 7b 3d
       -0.3382961 0.009210521 0.063504845 0.061401844
0003c0 db 53 e1 bd 57 d7 33 3d c7 09 27 3e 8d 94 d8 be
       -0.11002322 0.043906536 0.16312324 -0.42300835
0003d0 ac 2a 00 be ae e2 2e be 77 27 c9 3e a4 2d 17 bc
       -0.12516278 -0.17078659 0.39287922 -0.00922719
0003e0 2c 08 2c be d5 5d ac 3d be 44 e5 be 91 30 62 be
       -0.16799992 0.084163345 -0.4477901 -0.22088839
0003f0 fc 6f 0a 3e af d1 33 be 0d 21 28 be 7d 16 83 3e
       0.13519281 -0.17560457 -0.16418858 0.25603095

network_body.linear_encoder.seq_layers.2.bias f4 [128]
000000 ba 8c 42 bd b6 2b 88 bd b6 4f a2 bd 21 b9 bc bd
       -0.04749749 -0.06648962 -0.0792536 -0.09214998
000010 e9 52 28 be 69 9a f3 bd 61 8c d1 bc b6 a6 09 be
       -0.16437878 -0.11894686 -0.025579633 -0.13442501
000020 e9 78 ee bb a9 58 99 3d 57 3c ca bc 9d 24 ef bd
       -0.007277597 0.07487614 -0.024686975 -0.11676905
000030 3c 8c b3 bd f4 cb 78 3b 90 25 9f bd 21 25 c8 bd
       -0.08766982 0.0037963362 -0.07770836 -0.09772707
000040 23 5e be bd 64 e5 77 bd 59 c3 52 3b f6 45 cc bd
       -0.09295299 -0.0605215 0.0032159893 -0.099742815
000050 23 91 4a be 7e 26 97 bd 4b 5a 26 bd d5 0c 40 3d
       -0.19781928 -0.07380389 -0.040613454 0.046887238
000060 bc 7e 64 bd 75 1f 97 bd 21 14 1b 3d 5b cd 7a bd
       -0.055784926 -0.07379047 0.037860993 -0.061231
000070 ca 4f 89 bc bb b5 ea bd 38 40 c6 bd 0b 26 b9 bd
       -0.01676168 -0.114604436 -0.096802175 -0.09040459
000080 c0 5a f3 bd 8a 30 c1 bd 21 1a 05 be f3 5f 1a bd
       -0.118825436 -0.09433086 -0.12998249 -0.03768916
000090 69 80 b9 bd 3e 7d 88 bd dc a5 ff bd 30 96 e4 bd
       -0.090576954 -0.06664513 -0.12482807 -0.111614585
0000a0 3d 04 df bd fd 7a 64 bd 4f 51 3f bd 9f 66 90 bc
       -0.1088948 -0.055781353 -0.0467084 -0.017627059
0000b0 5a f1 d7 bd 1a 29 53 bd 03 41 e2 bd 0e 1c 42 be
       -0.10544081 -0.05155287 -0.11047556 -0.18956015
0000c0 17 e3 eb bc b3 cf c6 bd c4 6d e3 bd 58 01 d0 bd
       -0.028794808 -0.09707584 -0.111049205 -0.10156506
0000d0 c4 3d f2 bd 35 50 c9 bd 86 3c 9d bd c4 32 f5 bd
       -0.11828187 -0.098297514 -0.076775596 -0.119725734
0000e0 7b 42 f7 bc 05 75 f1 bd dd f9 7c bc 3d 41 0f be
       -0.030183068 -0.11789898 -0.015440431 -0.1398973
0000f0 18 dc 13 be 16 7b 7b bd e0 28 fd bc f5 95 9e bd
       -0.14439428 -0.06139668 -0.03090328 -0.07743446
000100 4a d5 56 be 87 5a 24 bd 43 38 99 bd 15 75 43 bc
       -0.20979801 -0.040125396 -0.07481434 -0.01192977
000110 fa e9 a0 bc d9 06 b6 bd c4 da 9b bd 82 ad 3c bc
       -0.019642819 -0.08888025 -0.076100856 -0.011515977
000120 6a 9b ec bd 98 1a 65 bd 1f 24 ba bd 3c 78 05 be
       -0.115530804 -0.055933565 -0.09088921 -0.13034147
000130 9d d9 88 bd 44 44 e5 bd d7 62 ae bd 99 d3 67 bd
       -0.066821314 -0.11194661 -0.08514946 -0.05659828
000140 50 67 ac bd 99 fd 17 be eb e9 51 be 94 56 36 be
       -0.08418143 -0.14842834 -0.20499389 -0.17806464
000150 e0 e8 83 bd 55 85 65 bd c4 c8 ab bd 9f 1a 04 be
       -0.06440902 -0.05603536 -0.083879024 -0.1290078
000160 9f bc fa bd 14 89 1e be f1 67 e3 3d 00 e6 9c bc
       -0.12243008 -0.15481979 0.111038096 -0.019152641
000170 d1 23 c6 bb e8 36 2d bd bf d6 a0 3d 79 93 ff bd
       -0.00604675 -0.04228869 0.078534596 -0.124793
000180 22 b1 cb bd 92 55 12 bd cd 03 0e be 40 80 9d 3c
       -0.09945895 -0.035726137 -0.13868637 0.019226193
000190 ae 49 5f be 62 53 53 bd 93 ce bc bd b9 84 84 bd
       -0.2180545 -0.051593192 -0.092190884 -0.06470627
0001a0 7b ca 16 be ef d1 bb bd 29 2a 3f bd ce 20 5c 3c
       -0.14725678 -0.09170901 -0.046671066 0.013435556
0001b0 8b 30 0c be 2d 56 27 bd 8d df 2d 3e bd b1 17 3e
       -0.13690393 -0.040853668 0.16979809 0.14813896
0001c0 4c 13 b5 bc 2e 62 17 bd fb cc b9 bd 23 2f 4f 3d
       -0.022103928 -0.036958866 -0.090723 0.050582062
0001d0 5b 17 38 bd 75 0b 08 be 71 b7 9b bd 5e 44 ba bd
       -0.04494415 -0.1328562 -0.07603348 -0.09095071
0001e0 2f aa 03 be e7 ed f3 bd 0b 73 f1 bd a2 a2 8b bd
       -0.12857889 -0.11910611 -0.11789521 -0.06818129
0001f0 a7 13 eb bd c6 cd 62 bd 3a 05 0c bd a8 9e 32 be
       -0.11478358 -0.055372022 -0.034184672 -0.17443335

network_body.linear_encoder.seq_layers.2.weight f4 [128, 128]
000000 bd ea 22 3d 29 f4 2c be 69 af c7 bc 9a 2b 71 3c
       0.039774645 -0.16890015 -0.024375634 0.014719868
000010 ad 08 1e bd 7b 19 ed 3d 9d 9f 87 be 00 70 af bd
       -0.038582493 0.11577126 -0.26488963 -0.08566284
000020 91 c6 39 3e 16 02 4b bd 74 e5 94 bd b6 6f 26 be
       0.18142153 -0.049562536 -0.07270327 -0.16253552
000030 c8 d8 a6 3d 3d ed 87 be 37 1a 1f be 43 eb 4b be
       0.081468165 -0.26548186 -0.15537344 -0.19913964
000040 3a 51 a7 3d ae 9e 14 3e 64 78 3a be 17 3c c5 3c
       0.081697896 0.14513656 -0.18209988 0.024076505
000050 6a db e1 3c f3 2d 11 bd 57 22 ca bd 26 bb 1f be
       0.027570445 -0.03544421 -0.09869831 -0.15598735
000060 e3 c3 d6 bd d2 16 c3 bd 4d 8e 44 bc 91 b5 41 3d
       -0.10486581 -0.09525837 -0.011996818 0.047292296
000070 44 2d 28 bd bc 8c 07 3e 8d cb 18 bd ef 39 0a be
       -0.041058794 0.1323728 -0.037303496 -0.13498662
000080 7f 52 66 bd 24 fb 48 bd 22 92 83 bd 36 72 bb 3d
       -0.05623102 -0.04906763 -0.06424357 0.091526434
000090 d2 b2 68 be 16 56 c9 3d 61 0c 96 3d 51 3d f9 bd
       -0.22724465 0.09830873 0.0732658 -0.12169898
0000a0 ff 20 83 be 96 e3 0e bd 3b f6 9d 3b 66 08 11 3d
       -0.25611112 -0.03488501 0.0048206127 0.0354084
0000b0 f1 2e a6 bd 2f a7 b9 bd 26 0d ed bc b8 96 fb bd
       -0.08114422 -0.09065091 -0.028936934 -0.12284607
0000c0 be 17 8c bd 2f 6b 9f 3d 07 4d 11 3d a2 95 22 be
       -0.06840466 0.077841155 0.03547385 -0.15877393
0000d0 52 d6 46 3c af 2a 3d be 22 a7 e3 bc 4c 4f 2d bd
       0.012136059 -0.18473314 -0.027789656 -0.04231195
0000e0 2c 56 5f 3d 53 61 64 bc b7 9c 42 bd 3c 6f 93 bc
       0.05452554 -0.0139392195 -0.047512736 -0.017997377
0000f0 f1 eb bc bd db bf 20 3d 23 44 77 3d 8c 15 61 3d
       -0.0922469 0.039245468 0.060367715 0.05495219
000100 be 2f 8f 3d ca 64 d8 3c ad b4 6a bd 13 4a e9 bc
       0.06991528 0.026415247 -0.057301212 -0.028477704
000110 d2 88 9a 3e 33 c5 b1 be 97 5f 19 3e 63 48 d7 be
       0.3018251 -0.34720764 0.14977871 -0.42047414
000120 e2 5e 1d be a5 9f b4 bc 08 5d 10 bd fe 49 98 bd
       -0.15368226 -0.02204878 -0.03524497 -0.07435988
000130 30 ca 0b 3e c1 9e 01 be 3b b5 87 3c aa c1 90 bc
       0.13651347 -0.12658216 0.01656591 -0.017670471
000140 2e cd 01 be b3 4f 32 bd 10 8e c4 3c 7b 2e be 3d
       -0.12675926 -0.04353304 0.023993522 0.09286209
000150 20 c6 59 bd d0 63 c1 bd 40 56 d6 bc 8e d0 43 be
       -0.053167462 -0.09442866 -0.026164174 -0.19122526
000160 92 dd 0c be 20 a9 15 be 64 47 1a 3b c7 f8 39 3d
       -0.13756397 -0.14615297 0.0023541087 0.04540327
000170 63 47 1b 3d a8 40 f0 3d 8b 9a 9d bc 51 f7 fd bb
       0.037909877 0.11731082 -0.01923873 -0.0077504297
000180 b3 e2 b9 bd 89 f5 ac bd 39 01 f9 3d 27 f3 d4 3d
       -0.090764426 -0.084452696 0.12158436 0.1039794
000190 83 55 db 3c 7e fd 81 be 2f b2 7a 3e ab fc 84 bd
       0.026774174 -0.25388712 0.24482034 -0.06493505
0001a0 88 d1 49 bd 33 57 8a bc 48 77 55 bd 22 ca 90 bd
       -0.04927209 -0.016887283 -0.05211571 -0.07069804
0001b0 cd 6d 9e bc 47 89 00 be e5 98 71 3d fa 5b 30 be
       -0.019339466 -0.12552367 0.058983702 -0.17222586
0001c0 32 15 d3 3b 69 1d 40 bd 9c 0f 46 bd 13 d6 83 3d
       0.0064417357 -0.046903048 -0.04835473 0.06437316
0001d0 49 64 ca bc 23 b6 ca 3d 37 ad 0b be 8c fb 05 be
       -0.024706023 0.09898021 -0.13640295 -0.13084239
0001e0 51 f2 0c 3d 72 ce 9f 3d ee 63 42 be 59 cf 26 be
       0.03441078 0.07803048 -0.18983433 -0.16290034
0001f0 31 d9 ff 3b 92 51 05 be 41 f8 54 3e fa 15 c6 bd
       0.0078078737 -0.13019398 0.20797826 -0.096721604
000200 4e 55 0d be c3 55 8b bd ee b9 dc 3d b7 bd 30 be
       -0.13802072 -0.06803467 0.10777651 -0.1725987
000210 af e6 32 bd 54 e5 c8 3d 63 ab 5f bd e5 6d 7f bd
       -0.04367703 0.09809366 -0.054606806 -0.062360663
000220 6f e0 38 be 88 c3 64 bc e5 0d 2a bd d1 88 1b 3e
       -0.18054365 -0.013962634 -0.041517157 0.1518891
000230 4c f0 04 bc 10 a6 4d be 42 9a 38 3e f1 fe 17 bc
       -0.008113932 -0.20082879 0.18027595 -0.009277091
000240 c9 b5 a0 bd 00 f4 fe bd d2 ef cd bd a0 87 11 3b
       -0.07847173 -0.12448883 -0.10055508 0.0022206083
000250 88 20 86 3d 0f ec f0 bd 3e 1b bd 3b 8c 96 2d be
       0.065491736 -0.117637746 0.00577107 -0.1695196
000260 9e 99 0f 3c dd d6 d8 bb 14 3d ff bc 12 63 d8 3d
       0.008764653 -0.0066174106 -0.031157054 0.10565771
000270 01 90 d9 bd 3f 57 38 3d 03 93 ba 3d 0e 54 d8 3d
       -0.1062317 0.04500508 0.091100715 0.10562907
000280 7d 42 be 3d 36 25 86 3d 76 2b 84 3e ce 27 29 bd
       0.092900254 0.06550066 0.25814408 -0.041297726
000290 91 e9 18 be 88 97 27 bd 30 e1 2f 3d 05 6c 8c 3e
       -0.14932849 -0.040915996 0.042939365 0.27426162
0002a0 30 d8 0e 3e 77 cc 45 bd d4 6f e0 3c f5 f7 d8 3d
       0.13949656 -0.048290696 0.027397074 0.10594169
0002b0 b6 f1 60 3e 7b 8c 1f be e5 06 19 bc c1 f5 04 be
       0.21967205 -0.15580933 -0.009340023 -0.12984373
0002c0 d3 0a 4f bd b4 2b ae 3d c4 40 b3 bd 10 51 ad bd
       -0.050547432 0.085044295 -0.087525874 -0.08462727
0002d0 96 32 c3 3b 10 f1 3d 3d a8 39 13 bd e6 f3 7d bd
       0.005956958 0.046372473 -0.035943657 -0.062000178
0002e0 9b 49 3a be da f1 3f 3d 62 ec 84 bd 5e 22 c6 bc
       -0.18192141 0.046861507 -0.06490399 -0.02418631
0002f0 1c 43 3d 3b 8f ba b1 bd 93 30 9e bc 9d 2a df 3b
       0.0028879112 -0.08678161 -0.019310271 0.0068105
000300 b1 3d b0 3d c6 2a 02 3c a0 17 26 3e e1 e2 00 3e
       0.08605517 0.007944768 0.1621995 0.12586547
000310 c7 6f 9c bd 8d f3 d6 3d 5a b0 97 bc 2c 7f 9d 3d
       -0.07638507 0.104956724 -0.018516708 0.07690272
000320 2c 66 94 3d 8d 79 d0 be 88 c4 d9 bd 43 d4 8b bb
       0.0724605 -0.40717736 -0.106331885 -0.004267247
000330 ae af 7e be f1 78 b4 bd 09 f7 93 3d 89 b6 3a be
       -0.24871704 -0.0881213 0.072248526 -0.18233694
000340 8c 11 38 3e 07 9f ff 3d bb 77 16 be a2 2e 50 be
       0.17975444 0.12481504 -0.14694111 -0.20330289
000350 d4 4a b7 bd c1 00 1c bd 12 fd 8f bb 1a 4a 28 bc
       -0.08949819 -0.038086656 -0.004394182 -0.010271573
000360 dd d5 ec bd 9f 85 4c be f3 4f e8 bd c6 e1 d5 b9
       -0.11564229 -0.19972847 -0.11343374 -0.0004079474
000370 10 0e 27 be 24 dc 45 3e 70 d5 48 be 49 72 07 be
       -0.16313958 0.19322258 -0.1961267 -0.1322719
000380 9d 95 09 be 97 16 b2 bc c6 39 8e bd 43 c6 2b bd
       -0.13435979 -0.021739287 -0.06944613 -0.041937124
000390 37 c8 63 bd 60 74 0b 3e 53 fa bc 3d e3 4f 76 3d
       -0.05561086 0.13618612 0.09227433 0.06013478
0003a0 1c a0 1b 3d df 42 ae 3d a1 89 c3 3c 67 2e 54 3d
       0.03799449 0.085088484 0.023869338 0.051802065
0003b0 39 b8 2a be 04 5d b2 3c de ec f4 bd b8 2c 00 3e
       -0.16671838 0.021772869 -0.11959241 0.12517059
0003c0 43 2d 0e bd 82 2e 19 be 3b 04 9e bd 40 e5 a8 3d
       -0.034711134 -0.14959148 -0.07715651 0.08246851
0003d0 0f 76 74 bd a0 1d 62 bc 7d 72 bf 3d 05 b4 2e be
       -0.059682902 -0.013801008 0.09348009 -0.1706086
0003e0 b7 6c 9c 3d b5 a6 a5 3d ae 8d 40 bd 65 31 f8 3b
       0.07637923 0.080884375 -0.047010116 0.0075742477
0003f0 7f cc 74 3d f3 57 2b bd 42 81 2b bc 2d 28 ea bd
       0.059765335 -0.04183192 -0.010467829 -0.11433444
